Assets/ML-Agents/CarAgent.onnx (onnx, 811239 bytes, 12 tensors)

103 f4 [207]
000000 3b 40 b5 3e 44 40 b5 3e f0 5c b9 39 13 42 39 3b
       0.35400566 0.35400593 0.00035355194 0.0028268143
000010 20 4c c1 3e 2b 4c c1 3e f0 5c b9 39 80 cd 7f 3b
       0.3775339 0.37753424 0.00035355194 0.00390324
000020 09 8d b8 3e 0b 8d b8 3e f0 5c b9 39 ef 47 7a 3b
       0.360451 0.36045107 0.00035355194 0.0038189848
000030 64 d0 fd 3e f7 4b f1 3e 7f dc 99 3e 9c 51 19 3d
       0.49573052 0.4712827 0.30051038 0.037431344
000040 a7 99 c4 3a bd 37 19 3d b9 8e fd 3e dd 48 f0 3e
       0.0014999405 0.03740667 0.4952295 0.4693059
000050 ee 1d 9b 3e eb 78 15 3d db 3c cf 3a 28 77 1d 3d
       0.30296272 0.03649227 0.0015810983 0.038443714
000060 bf 36 ff 3e 6b 49 fe 3e 9b 84 96 3e 5e f6 16 3d
       0.49846455 0.49665388 0.29398045 0.036856048
000070 59 5a d4 3a 30 a8 1a 3d 8c ed b9 3e 8b ed b9 3e
       0.0016201242 0.037758052 0.36314046 0.36314043
000080 f0 5c b9 39 45 b3 38 3b 4a 07 b6 3e 46 07 b6 3e
       0.00035355194 0.0028183025 0.35552436 0.35552424
000090 f0 5c b9 39 36 0c 7f 3b b6 ec c2 3e ad ec c2 3e
       0.00035355194 0.003891719 0.3807122 0.38071194
0000a0 f0 5c b9 39 ee b2 79 3b d9 dd 2f 3c 1a b9 c9 3e
       0.00035355194 0.0038101035 0.010734045 0.39399034
0000b0 f8 ac c9 3e f0 5c b9 39 29 4d 52 3b 85 fb 2c 3c
       0.39389777 0.00035355194 0.0032089448 0.010558014
0000c0 a7 1e ca 3e 0e 13 ca 3e f0 5c b9 39 41 20 82 3b
       0.3947651 0.39467663 0.00035355194 0.00397113
0000d0 68 65 59 3c 32 3d cb 3e c0 2b cb 3e f0 5c b9 39
       0.013268806 0.39695126 0.39681816 0.00035355194
0000e0 6b 62 88 3b 94 a1 36 3e 2f f1 35 3c 53 f6 36 3e
       0.004162123 0.17835075 0.011104866 0.17867403
0000f0 86 00 ef 3d 3b 6c 79 3e 1b 69 37 3c 22 a9 79 3e
       0.11670022 0.24357693 0.011194493 0.24380925
000100 e6 f6 1c 3e 58 6a 12 3e e5 22 30 3c 8b d2 12 3e
       0.1532856 0.1429838 0.010750507 0.14338128
000110 03 37 c4 3d 36 32 92 3e 1b 36 3b 3c 23 4e 92 3e
       0.09580805 0.28553933 0.011426474 0.2857524
000120 fe 50 3a 3e 73 b8 f6 3d e5 21 1f 3c c1 7d f7 3d
       0.18194959 0.120469 0.009712671 0.120845325
000130 d1 73 a9 3d e9 3e 87 3e 24 38 44 3c 5b 5c 87 3e
       0.08274043 0.26415184 0.011976276 0.2643765
000140 04 8b 3a 3e 85 9b d2 3d 34 77 15 3c 7a 6c d3 3d
       0.18217093 0.10283569 0.0091226585 0.10323425
000150 77 4a 94 3d 55 06 6a 3e e2 8f 52 3c 91 5b 6a 3e
       0.072407655 0.22853978 0.012851687 0.22886492
000160 95 38 2e 3e d0 a0 b8 3d ba 3d 15 3c 6d 90 b9 3d
       0.17013772 0.090150476 0.009108955 0.0906075
000170 74 4b 84 3d 08 ab 4a 3e 59 62 54 3c 92 11 4b 3e
       0.06459704 0.19791806 0.012962901 0.19830921
000180 ef cd 1f 3e 71 de a8 3d f8 1e 15 3c 3b e5 a9 3d
       0.15605901 0.08245552 0.009101622 0.08295675
000190 de 9f 75 3d df e0 34 3e b6 fd 58 3c d0 5a 35 3e
       0.059966914 0.17663907 0.013244083 0.17710423
0001a0 13 ce 15 3e f9 d4 9e 3d 43 a0 12 3c 21 dd 9f 3d
       0.14629392 0.07755465 0.008949342 0.07805849
0001b0 ff 29 6b 3d 4d 07 26 3e b2 97 5c 3c 08 93 26 3e
       0.057413097 0.16213723 0.013463901 0.16267025
0001c0 a7 82 0d 3e 35 97 96 3d 43 f0 11 3c 03 b3 97 3d
       0.13819371 0.07353059 0.0089073805 0.07407191
0001d0 52 9d 65 3d 8b ac 1b 3e 06 54 61 3c 1e 48 1c 3e
       0.056058235 0.15202539 0.013752943 0.15261886
0001e0 e4 6a 06 3e c0 d8 95 3d b3 f8 0f 3c 32 ea 96 3d
       0.13126713 0.073167324 0.008787322 0.07368888
0001f0 77 63 65 3d 5f 23 15 3e 88 24 68 3c 84 cf 15 3e
       0.05600306 0.14564274 0.014168866 0.14629942
000200 45 25 01 3e ff a6 96 3d 6d f6 0b 3c 63 a8 97 3d
       0.12611873 0.07356071 0.008542639 0.07405164
000210 35 10 67 3d af dd 0e 3e 5d a0 73 3c 5b a4 0f 3e
       0.05641194 0.13951753 0.014869777 0.1402754
000220 cb 10 f9 3d 6b 02 99 3d 5c 65 0a 3c 88 f8 99 3d
       0.12161406 0.07471164 0.0084470175 0.07518107
000230 a0 81 6b 3d 36 7d 09 3e ac 64 84 3c 39 74 0a 3e
       0.057496667 0.1342667 0.016161285 0.13520898
000240 9f 2e f2 3d a1 af 98 3d 72 0e 09 3c 50 a1 99 3d
       0.118252985 0.074553736 0.00836526 0.07501471
000250 a5 39 71 3d b7 d6 05 3e 86 1e 8b 3c e3 ec 06 3e
       0.058892865 0.13070188 0.016982328 0.13176303
000260 3f ba ec 3d ce 3c a0 3d ee 75 05 3c 91 16 a1 3d
       0.11558961 0.078240976 0.008145792 0.07865632
000270 c0 f8 7e 3d 5a d4 02 3e 1f 59 8c 3c 18 f5 03 3e
       0.062248945 0.12776318 0.01713234 0.12886465
000280 4b 68 e8 3d 0f b8 b0 3d 0a 69 02 3c 70 72 b1 3d
       0.11348017 0.086288564 0.007959614 0.08664405
000290 3f 75 8d 3d f2 79 02 3e 58 68 8c 3c e4 9b 03 3e
       0.069071285 0.12741831 0.017139599 0.12852436
0002a0 c1 92 e7 3d 0d 20 cb 3d ef 5c ff 3b 1f bb cb 3d
       0.11307288 0.099182226 0.007793061 0.099478
0002b0 35 d8 a5 3d 66 52 05 3e 7a 6b 8b 3c 62 6b 06 3e
       0.08097879 0.13019714 0.017019022 0.13126901
0002c0 f0 d5 eb 3d 06 91 03 3e 14 87 f3 3b a5 c6 03 3e
       0.11515415 0.12848291 0.007431874 0.12868746
0002d0 34 ae cd 3d 69 bd 96 3c 70 06 ae 3e 7f d7 ad 3e
       0.10042992 0.018400865 0.33989286 0.33953473
0002e0 f0 5c b9 39 4a e6 78 3b 4a b6 a6 3c c2 70 b1 3e
       0.00035355194 0.003797906 0.020350594 0.3465634
0002f0 5d 39 b1 3e f0 5c b9 39 9f b4 9d 3b 83 d6 a6 3c
       0.34614077 0.00035355194 0.0048127915 0.020365959
000300 ab 52 ae 3e 44 18 ae 3e f0 5c b9 39 56 22 9f 3b
       0.34047446 0.34002888 0.00035355194 0.004856388
000310 36 78 55 3f fa c0 91 3d 11 a6 1c 41 f1 f4 00 42
       0.8338655 0.071168855 9.790544 32.2392
000320 b6 28 a5 3e 2c db fe 39 a9 69 b9 3e 4f 7b 5b 3f
       0.32257622 0.0004860995 0.36213425 0.8573503
000330 9f 83 96 3c 9a 51 06 3f 16 a5 44 3d
       0.018373309 0.52468264 0.048009

121 f4 [1, 256, 256]
000000 41 7f 20 be 52 fb 15 bd 61 99 20 bc 47 29 fd bc
       -0.15673544 -0.03661663 -0.009802193 -0.030903472
000010 d0 85 0b bd ca b2 82 3d d9 48 eb bd 7c 2d ad 3b
       -0.03406316 0.063817576 -0.11488504 0.005284963
000020 cf ad 4a bd 54 c5 4d 3d 70 48 07 bd 99 d8 16 be
       -0.049482163 0.050237015 -0.033028066 -0.14731063
000030 ce 97 47 bd 5a 48 9e bd 22 23 94 3d e8 5a 13 bd
       -0.048728757 -0.07728644 0.072332636 -0.035975367
000040 14 d9 73 bd 22 3b 33 be 0e 07 9e bd 5d 85 3e bc
       -0.059533194 -0.17503026 -0.07716189 -0.011628476
000050 e3 6b 8f bd 30 d8 81 3d aa 0e 1b 3e a9 ac 88 3d
       -0.07003 0.063400626 0.15142313 0.06673557
000060 a5 34 f8 bd 3c cf 8d 3a 03 80 c3 3d 3c e3 a2 3d
       -0.12119416 0.0010819207 0.09545901 0.07953498
000070 8a 8f 18 bd 02 7a d2 3c 8e 1a dc 3d 48 05 fa bd
       -0.037246265 0.025692943 0.107472524 -0.122080386
000080 24 8e d3 bd 20 20 04 bd 2d 05 b9 3c 15 e1 49 3e
       -0.103298455 -0.0322572 0.022585476 0.19714768
000090 10 dd 21 be 82 34 71 bd 76 d2 eb bd 38 33 a4 bd
       -0.15806985 -0.058887966 -0.115147516 -0.08017582
0000a0 41 d0 3d 3d a0 eb 3b bd 16 03 9e bd 67 36 38 bc
       0.046341185 -0.045879006 -0.07715432 -0.011243439
0000b0 ab 45 3a 3e cd 94 eb bd c3 38 14 bd 89 70 f6 3d
       0.18190639 -0.11502991 -0.036186945 0.12033183
0000c0 af e9 28 3d 95 12 6c 3c da e8 f4 bb 01 5d f2 bc
       0.041238483 0.014408727 -0.007474047 -0.029585363
0000d0 0e 41 84 bd ac d3 8e 3d d7 fc ee 3d 00 ba 0c bd
       -0.06457721 0.06973967 0.11669319 -0.03435707
0000e0 79 20 00 3d 64 e5 07 be e6 e6 23 3c 45 0a 17 be
       0.03128097 -0.132711 0.010003781 -0.14750011
0000f0 4a 66 bd bd 17 aa 1d be 8b 2c cb bb 85 df dd bd
       -0.09248026 -0.15396915 -0.0062003783 -0.108336486
000100 e2 87 08 bc 15 f4 8a 3c 5a 77 ad bd ce b7 d4 3a
       -0.008333178 0.01696209 -0.0847003 0.0016229094
000110 73 44 c1 3d 9e 15 f1 bc 4b 65 bb bd 0b b5 8e bc
       0.09436884 -0.029429253 -0.091501795 -0.017420312
000120 eb 9b 7b bd ee 4f eb 3d 24 60 0c 3d 6b fe 41 be
       -0.06142799 0.11489855 0.034271374 -0.18944709
000130 8e 90 92 3d 4b 0b 14 be b3 cc 22 3b 62 31 2a be
       0.07156478 -0.14457433 0.0024841249 -0.166204
000140 61 fe 5c 3c 00 9e 3c 3d 2f ac 20 3e 94 e0 12 be
       0.013488383 0.046049118 0.15690683 -0.14343482
000150 42 66 93 39 86 df 37 be 52 2b 31 be 6b 0d de bd
       0.00028114213 -0.17956361 -0.17301682 -0.10842403
000160 80 20 f2 bd 00 b0 ca 3c eb 65 67 bd e5 bf 29 be
       -0.11822605 0.024742126 -0.05649368 -0.16577108
000170 f9 5f 5d bd f0 1b fa bd f5 c3 bd bd 58 5a a4 3c
       -0.054046605 -0.1221236 -0.092658915 0.02006261
000180 52 02 57 3e 4b 1c 06 3d a8 44 40 3e 92 38 c2 3d
       0.20996979 0.032741826 0.1877619 0.09483446
000190 cc e2 8d 3d 36 20 10 bd 05 19 71 3c 0d e4 17 3d
       0.06928024 -0.03518697 0.014715438 0.03708272
0001a0 06 a6 0a 3e 92 38 d8 bd ff 07 e1 bd 4a 40 ba 3d
       0.13539895 -0.10557665 -0.10987853 0.090942934
0001b0 bc 72 ce bd 0d 1b 76 bd 88 25 ed 3d e9 0e 1c 3c
       -0.100804776 -0.06008439 0.11579424 0.009525039
0001c0 57 20 09 3e 0d 39 db bd 15 65 c2 ba 50 74 42 3d
       0.13391243 -0.10704241 -0.001483115 0.047474205
0001d0 15 8e cb 3d 5a dc e1 3c d6 e7 6d 3d 46 49 97 bb
       0.09939209 0.027570892 0.058082424 -0.004616889
0001e0 98 a5 39 3c 73 6f 04 bd 85 3f 54 3d 2f 70 96 bd
       0.0113309845 -0.03233285 0.05181839 -0.07345616
0001f0 1f 4a 05 bc 47 88 27 be 7a 02 9f bc 32 21 77 bc
       -0.008135348 -0.1636058 -0.01941036 -0.015083598
000200 ca ad d3 bd f5 38 4e 3c 7e ac c3 bb aa 11 27 3d
       -0.10335882 0.012586822 -0.0059714904 0.04078833
000210 93 11 eb bd 09 b1 42 bc 63 40 54 3e 06 db e3 bd
       -0.114779614 -0.011883029 0.20727687 -0.1112576
000220 6a fc 85 bd 97 35 a6 3c e1 74 28 bd 14 65 3c 3e
       -0.06542285 0.020289226 -0.04112709 0.18397933
000230 c9 f2 06 bd 51 da 28 39 24 f5 98 3d 34 ca 3b bd
       -0.03294638 0.00016103058 0.07468632 -0.045847133
000240 d9 b3 1d be 9b 96 39 3d ea f9 d5 bd e5 a3 97 3d
       -0.15400638 0.045309644 -0.10448058 0.07404307
000250 5f 7f 9a 3d 20 15 1d be 08 cd a8 3b 94 6c 68 be
       0.07543825 -0.1534009 0.0051513948 -0.2269767
000260 fa 6b b7 bd 71 f0 04 bd 4a 3c 91 bc 98 d5 21 be
       -0.08956142 -0.032455865 -0.017728943 -0.15804136
000270 be cf 40 bd 25 0e eb bd b9 b0 74 bd 3e f8 19 3e
       -0.04707312 -0.11477307 -0.05973885 0.15036103
000280 a9 26 9f bd be e4 b4 3d 05 6a 5c be b3 48 15 3e
       -0.07771046 0.088326916 -0.21524818 0.14578514
000290 fe f2 07 be 06 97 e6 bd a7 0d 01 3d 8b 70 2f 3c
       -0.13276288 -0.11259274 0.03150716 0.010707985
0002a0 b4 ae 9b bd 4f 15 fa 3d d6 42 3a bd f0 31 99 bd
       -0.07601681 0.122110955 -0.045473896 -0.07480228
0002b0 76 2d f4 bc ff a6 06 bd 64 11 d1 bd 02 95 0c 3d
       -0.029806834 -0.032874104 -0.10208395 0.034321792
0002c0 4f d2 1a be 44 5b 6b bd 11 92 14 3d f9 20 09 be
       -0.15119289 -0.057460085 0.036272112 -0.13391484
0002d0 44 0a ec 3d b9 2f 24 3e 87 54 02 3e 8c 65 2f bd
       0.115253955 0.1603383 0.12727557 -0.042821452
0002e0 1e 6a dc 3d 69 a5 06 3c d1 b1 94 3d a9 e6 d1 3d
       0.10762428 0.008218148 0.07260478 0.10249073
0002f0 3e e8 83 bd 7d 31 81 3d 1d de f4 bd e2 c5 4e 3d
       -0.06440781 0.06308267 -0.11956427 0.050481685
000300 f3 c3 84 bd b9 57 51 bc e4 41 e1 3d 16 5c b8 3d
       -0.06482687 -0.012777262 0.10998896 0.09001939
000310 69 5e 61 3d 7a d0 88 bd 59 93 34 3c c0 88 28 bc
       0.055021677 -0.06680389 0.011021459 -0.01028651
000320 f8 c0 52 be 2e fa 59 bd fa 9b 04 be e6 15 1e be
       -0.20581424 -0.053217106 -0.12950125 -0.15438041
000330 c9 ea 68 bc 22 14 1e 3d a4 a3 55 be 2c ea a4 bd
       -0.014216133 0.03859342 -0.20863205 -0.08052477
000340 ef 95 bf 3d b7 1a 07 bd 0c a5 04 be 19 77 08 bd
       0.093547694 -0.03298446 -0.12953585 -0.033316705
000350 a0 ce b6 bd f9 f6 4c 3a 43 75 93 3d 9a 06 af 3d
       -0.08926129 0.0007818784 0.072001 0.08546181
000360 69 a9 72 bd 16 37 31 bd 83 b9 85 bc 57 21 16 bd
       -0.059243593 -0.043265425 -0.01632381 -0.03665289
000370 8d 51 07 be 9c 04 43 be 68 83 df 3c e6 eb 15 be
       -0.13214703 -0.19044727 0.02728434 -0.1464077
000380 8f 1a bd bd 8f fb e9 3d 71 97 97 3d 47 8a 36 3e
       -0.09233581 0.11424934 0.07401932 0.17826186
000390 3c 56 8f bb 12 99 a6 3b 37 fc 56 3c 7a 3b f2 3c
       -0.0043742936 0.0050841654 0.013121656 0.029569376
0003a0 ca 82 37 bd 10 19 4f 3c 01 da 7b 3d 20 0f 15 be
       -0.044802465 0.012640253 0.0614872 -0.14556551
0003b0 cb 68 f3 bc 78 c1 39 be 27 6e 89 3a 87 75 9b 3d
       -0.029713055 -0.18140209 0.0010485098 0.07590776
0003c0 74 f8 84 bc 07 23 d9 bd a5 56 a9 bc 44 45 94 bd
       -0.016231753 -0.10602384 -0.020671198 -0.07239774
0003d0 05 16 0e be a3 de 1b 3e 87 eb 48 3d 96 9a 42 be
       -0.13875587 0.15221648 0.04905274 -0.19004282
0003e0 2a e8 b1 bd 6d 3f 03 bc db 0d a9 3d 35 c3 8d 3d
       -0.0868686 -0.008010727 0.08254596 0.069219984
0003f0 f2 46 08 3e 64 65 05 bd 2c 21 e8 bd 7b e9 d8 3d
       0.13308313 -0.032567397 -0.11334452 0.10591408

122 f4 [1, 256, 64]
000000 3f 57 ee 3d 8f be a3 3c 13 8c 77 3d 24 7b 1e 3d
       0.116377346 0.019988326 0.06043632 0.038691655
000010 ea 92 bb bd b5 ad 66 3e 85 9f 8f 3d f4 f9 07 3e
       -0.09158881 0.22527201 0.07012848 0.13278943
000020 fc 65 42 3e a0 20 21 be 1f 17 02 3e 59 ca 3a be
       0.18984216 -0.15735102 0.12704132 -0.18241252
000030 f5 e3 25 3e 40 7f 05 be 3c 62 04 3e fd 0c 77 3d
       0.1620024 -0.13036823 0.12928098 0.06031512
000040 11 5b 8a 3d 73 36 80 3e 14 2d 01 bd 0b 48 4a 3d
       0.06755651 0.2504154 -0.03153713 0.04938511
000050 05 1c d1 3d 28 3d 21 bd 6b b7 1c bd bf d6 07 3e
       0.102104224 -0.039364964 -0.03826086 0.13265513
000060 d7 98 4c 3e e9 7f 83 3d 34 86 f8 3d 84 47 af 3d
       0.19980179 0.06420881 0.12134972 0.085585624
000070 19 f8 2c be 82 19 e6 3d c8 02 7f 3c 84 1c e2 bd
       -0.16891517 0.11235334 0.015564628 -0.11040595
000080 24 e4 2b 3d 62 2f 1d 3e 5f b0 45 be 0c c0 df 3d
       0.04196562 0.15350106 -0.19305561 0.10925302
000090 06 1a 17 3e 81 83 e0 bd e1 f6 99 3d 66 60 9d bc
       0.14756021 -0.109625824 0.075177915 -0.019211005
0000a0 f4 4d 7b 3e d5 3d 7b 3e ca 67 b0 ba 00 d0 da bd
       0.24541456 0.24535306 -0.0013458666 -0.10684204
0000b0 3c 67 22 be 6d f6 7d be 9c a9 5f bd 14 84 af 3c
       -0.15859693 -0.24801035 -0.05460511 0.021425284
0000c0 9c fc c8 3d 75 17 4b be 76 eb 49 be d6 ec cb 3d
       0.098138064 -0.19833167 -0.19718727 0.09957282
0000d0 9e 24 8c bd fd 03 87 3c 56 5a 9b bc 95 79 b7 bd
       -0.06842922 0.016481394 -0.018963974 -0.08958737
0000e0 d4 71 be bc bd 02 c3 3d 17 e0 51 3d c8 b2 a7 ba
       -0.023247637 0.09522007 0.0512391 -0.001279437
0000f0 21 97 49 be 2a 79 d9 bd 87 45 2f 3e 34 10 2e 3d
       -0.19686557 -0.10618813 0.17116366 0.04249592
000100 9f c0 51 bc a9 12 27 be f0 50 96 be e3 8f f3 3d
       -0.012802272 -0.16315712 -0.29358625 0.118926786
000110 3a e8 19 bd 65 5c 1f 3e d7 3c 5b bd de ca 15 bd
       -0.037574984 0.1556259 -0.05352482 -0.036570422
000120 bb 99 5e bd 43 03 68 be ef e7 ff bd a8 25 83 3e
       -0.054345828 -0.22657494 -0.1249541 0.25614667
000130 00 65 c4 bd 3e 52 33 bc d1 ff 6f bd 95 00 64 bc
       -0.09589577 -0.010944901 -0.058593575 -0.013916154
000140 9f 1b df 3c 1f 91 63 bd 91 57 da bd 97 72 1d bc
       0.02723485 -0.05555832 -0.10661233 -0.00960984
000150 12 95 9a bc 5a 44 19 be 32 8f 43 be 13 3c 81 3e
       -0.01886991 -0.1496748 -0.19097593 0.25241145
000160 49 e2 46 be 95 d2 57 3e 41 43 8a be 5e 5a e9 bd
       -0.19422258 0.21076424 -0.27004436 -0.11394189
000170 ee a1 41 bd ea c8 a0 be 80 e5 46 3e 79 9c 46 bd
       -0.04727357 -0.31403285 0.19423485 -0.048489068
000180 8d 50 55 3e 25 c6 a2 ba d2 a0 1d be de e2 7f be
       0.20831509 -0.0012418671 -0.1539338 -0.24988887
000190 51 cc c1 3d 05 1d 51 3d cf 57 57 be 25 5b 97 be
       0.094627984 0.051053066 -0.2102959 -0.29561725
0001a0 05 9b 13 3e 4b 5a 58 be 91 6a 91 3e 02 1d b4 3d
       0.14414604 -0.21128194 0.28401616 0.08794595
0001b0 aa eb 02 be 13 9d 2d 3e 72 b5 39 be 9f 72 63 be
       -0.12785211 0.1695445 -0.18135622 -0.22211693
0001c0 67 46 d6 bd de b1 62 be ca 74 0f be d4 11 9e be
       -0.10462647 -0.22138163 -0.14009395 -0.30872977
0001d0 86 c5 1c 3d 41 12 07 ba 88 7f 64 3e bd 9e 4f bd
       0.03827431 -0.00051525614 0.22314274 -0.050688494
0001e0 57 28 dc bd e1 70 83 bd c8 44 d8 bd b6 76 17 be
       -0.10749882 -0.06418014 -0.10559994 -0.14791378
0001f0 54 0f 09 3d 2d 8b 2c be fb fb de 3c 9c fb 39 3d
       0.033461884 -0.16849966 0.027219763 0.04540597
000200 90 c1 d4 3d 45 8a 05 3e 25 f1 c3 3d e4 1b 2c be
       0.103884816 0.13041027 0.09567479 -0.16807514
000210 ac d5 1b bd ff 21 de 3d f8 d9 ca bc 3a 6d 27 3e
       -0.03804557 0.10846328 -0.024762139 0.1635026
000220 4a 98 0b bd 43 d6 f4 3d 31 f7 6c be 90 49 05 bd
       -0.03408078 0.1195493 -0.23141171 -0.032540858
000230 b2 06 0d 3e 24 b6 dd 3d df 6b 6a be 50 cc 95 3c
       0.13772085 0.10825756 -0.22892712 0.0182859
000240 fc e9 38 be 24 93 2f be 8c a1 d0 bc 75 58 3f 3e
       -0.18058008 -0.17145973 -0.025467657 0.18686087
000250 57 3c 8d 3d 86 7a 30 3e 04 3a 38 3e 4c 6b 81 3b
       0.068962745 0.17234239 0.17990881 0.0039495584
000260 9d a1 01 3d ac 35 4d 3d 21 15 97 be 5a 71 38 3e
       0.031648267 0.050100014 -0.29508308 0.1801199
000270 36 f0 e7 3d 11 48 cc 3d 89 b2 83 bc fb 57 0b be
       0.113251135 0.09974683 -0.016076343 -0.1360778
000280 4c a5 eb 3d 65 8c fc ba b5 42 67 3d 79 78 04 3e
       0.11506137 -0.0019267915 0.0564601 0.12936582
000290 9a a3 a6 bd f9 82 cb 3c f2 92 98 3d c9 b5 a3 3c
       -0.08136673 0.024842726 0.074499026 0.019984143
0002a0 d7 a4 c0 bd f0 32 75 3b 2b 0e e6 bd 24 93 94 3d
       -0.09406441 0.0037414394 -0.11233171 0.07254627
0002b0 c5 3b 95 bd aa 92 d2 3c a1 0d 7f 3e ef 75 28 be
       -0.07286791 0.0257047 0.24907543 -0.16451238
0002c0 06 a9 d8 bd 6e a4 00 3e 84 8f 9d 3c 56 31 29 bd
       -0.10579114 0.12562725 0.019233473 -0.041306816
0002d0 0e ce 88 3e db 8d 57 3e 37 99 09 be 1a 76 ec 3d
       0.26719707 0.21050207 -0.13437353 0.115459636
0002e0 df fe 15 3e 9e 2b d1 bd 8b 18 3a 3d dc 06 8b 3d
       0.14648007 -0.102133974 0.045433562 0.06788418
0002f0 c0 79 22 3e 6f a7 00 be 0a 28 4b bd a1 ac 57 be
       0.15866756 -0.12563871 -0.04959873 -0.21061946
000300 c6 76 06 3e 45 cb c2 3d b8 8c 0b be 0c a4 31 3e
       0.13131246 0.09511427 -0.13627899 0.17347735
000310 28 e9 26 3e 78 df 28 be 20 25 a6 bd 1e 75 07 3e
       0.1629988 -0.16491497 -0.0811255 0.1322827
000320 55 16 c6 3d 70 11 1e be 3b a1 65 3e 2a 06 73 3d
       0.09672228 -0.1543634 0.22424786 0.05933205
000330 2f dd f7 bd 5c e6 a6 bd 2e e1 e9 3d 8d 0c e4 3d
       -0.12102734 -0.08149406 0.11419903 0.11135206
000340 f7 4e dd 3d 96 12 c8 3d 44 1a a2 bd 9f 41 89 bd
       0.10806077 0.0976917 -0.07915166 -0.06701969
000350 16 b1 f1 3c 09 4e c8 3d 85 00 82 bc 31 4e 31 3d
       0.029503386 0.09780509 -0.015869388 0.04328746
000360 3b 7e 44 be 17 22 39 3e c1 d4 33 3e 1c 14 34 be
       -0.19188778 0.1807941 0.17561628 -0.17585796
000370 ab 2b f8 3d ab bd 36 3e ab 7a c4 bd b0 66 99 3b
       0.12117704 0.1784579 -0.095937096 0.0046814308
000380 86 48 86 3d 9f 58 49 3e 04 43 aa 3c ca ab 22 bc
       0.065568015 0.19662713 0.020783909 -0.009928653
000390 3d eb 13 bd e0 69 e6 3d 9a e6 aa 3d 2f 80 20 3e
       -0.036113013 0.11250663 0.08344765 0.15673898
0003a0 b7 d1 50 3d 5f 64 03 bc b0 5c 90 3d 81 5a fd bc
       0.05098125 -0.008019536 0.07048929 -0.030926945
0003b0 27 ce 64 3e 42 82 7d bd 90 56 25 be 7f bb c6 bd
       0.22344266 -0.0618918 -0.16146302 -0.09703731
0003c0 5c 97 8d bd c8 bd 0c 3e 51 e0 46 be bb c3 1f be
       -0.06913635 0.13744271 -0.19421507 -0.15602009
0003d0 1f d3 c5 3d ce 37 24 3e 6d 4b 1b 3d eb 92 18 bd
       0.09659409 0.16036913 0.03791373 -0.037249487
0003e0 03 bc 62 be ce 06 18 bd 8b a0 32 be 37 90 b1 3d
       -0.22142033 -0.037115864 -0.17444055 0.08670085
0003f0 ba 29 a1 3e db 7d 23 3d db f3 d8 bd 76 79 fa 3c
       0.31477147 0.039914947 -0.10593387 0.030575495

123 f4 [1, 512]
000000 24 a7 ef 3a da 0b 7d 3d 41 bf 82 3d 7d 7b 5d 3d
       0.0018284065 0.06177888 0.06384135 0.054072846
000010 c9 eb 7e 3d e6 88 a8 3c 3e 95 00 3c fb 0e 7f bc
       0.06223658 0.02057309 0.007848082 -0.0155675365
000020 10 e9 ad 3d ea cb bf 3d 2d 91 9a 3c 19 d5 08 3d
       0.08491719 0.093650654 0.018868053 0.03340635
000030 8a 40 1f 3d 27 94 f3 3c 47 97 fb 3c be 92 25 3c
       0.03887991 0.02973373 0.030711783 0.010105787
000040 de d2 c4 3c 35 41 47 3c cc c9 be 3d 4c 81 70 bd
       0.02402633 0.012161543 0.093158334 -0.058717057
000050 32 c1 0e 3d 82 b3 ab 3c be a6 a8 3d 57 65 e4 3b
       0.034852214 0.02095962 0.082349285 0.0069700885
000060 f9 4a 3b bd f3 f3 9b 3c fb e6 1b 3d 27 75 62 3c
       -0.045725796 0.019037222 0.038062077 0.013821877
000070 b6 a1 4d 3c c6 41 34 3d dd ea a7 3c c7 ac 1f 3d
       0.012550762 0.04400804 0.020497734 0.038983133
000080 bd d5 7c 3d 54 7b d7 3b f6 1c fa 3c 2f df 35 3d
       0.061727274 0.006575981 0.030531388 0.044402298
000090 d1 85 ca 3d 02 00 1e bc e5 07 62 bb 27 22 e0 bc
       0.09888805 -0.009643557 -0.0034489569 -0.027360035
0000a0 19 a6 08 3d ec 5d 87 3c e3 d2 3c 3d 2b 2d 80 bb
       0.033361528 0.016524278 0.046099555 -0.0039116344
0000b0 0f 47 84 3c ef 53 da 3c b2 39 ae 3c e9 1a 0b 3d
       0.016147165 0.02665135 0.021267746 0.03396121
0000c0 71 6f ad 3d e7 d1 3d 3d fe 5c 83 3b 43 a7 8f 3b
       0.084685214 0.046342757 0.0040088883 0.004383953
0000d0 9b bd 6b 3d e2 02 78 bc 32 a3 59 3d e5 bf 8a 3d
       0.05755387 -0.015137406 0.05313415 0.06774882
0000e0 30 5c 21 3d 43 c5 a3 3d 5d 2b 4f 3c c4 61 f9 3c
       0.039394557 0.07996609 0.012644616 0.030442126
0000f0 09 72 21 3c 96 08 40 bc 96 69 b0 3d f6 4d 98 bc
       0.009853848 -0.011720797 0.08613889 -0.018591862
000100 10 d5 f1 bc c7 34 13 3d 09 22 09 3d d5 54 68 3d
       -0.029520541 0.035939004 0.033479724 0.056721527
000110 cb 62 9b 3c 49 81 11 3d 81 7c 1f 3d ca 4f 6e bb
       0.018968007 0.035523687 0.038937096 -0.0036363476
000120 11 94 88 3c 8d c1 25 3d 7c d5 92 3c 3a f9 89 3d
       0.016672166 0.040467788 0.017924063 0.06736989
000130 3b b9 47 3c b5 15 84 3d d7 b8 35 3d 71 c3 10 3d
       0.0121901585 0.06449453 0.04436573 0.035342637
000140 fc e1 90 3c 98 5a 80 3c 46 1f 44 3d 9e 1b 71 3c
       0.017685883 0.015668198 0.047881387 0.014716057
000150 78 56 a0 3d 00 a8 3e bb e4 59 c0 3d cd 16 e2 3c
       0.078289926 -0.0029091835 0.09392145 0.027598763
000160 cf 68 0f 3c 55 4d 63 bb 75 84 33 bc ab d0 3d 3d
       0.008753016 -0.0034683545 -0.010956873 0.04634158
000170 b8 b4 43 3c c3 09 82 3c 1f 64 91 3c d2 3d 93 3c
       0.011944942 0.015873795 0.017747937 0.017973814
000180 de 60 9c 3d 4b 56 b8 bb cb 86 b6 3c c6 b2 a8 3d
       0.076356634 -0.0056255213 0.022281071 0.08237223
000190 06 84 2b 3d 53 b3 0e 3c fb 77 80 bb c7 30 99 3b
       0.041873954 0.008709746 -0.003920553 0.004675004
0001a0 bb db c7 bc 3b 00 dc bc 37 af ad 3d d4 fc 1f 3d
       -0.024396768 -0.026855579 0.08480685 0.039059475
0001b0 bf b4 99 bb ae 0e 1d bd 78 48 d1 3a bd fa 31 3d
       -0.004690736 -0.038344078 0.0015967032 0.043452013
0001c0 fd d1 00 3d de 4a 85 bb 34 66 2d 3d f2 36 ec bb
       0.03145026 -0.0040677628 0.042333797 -0.0072086984
0001d0 21 b2 a1 3d df 07 17 ba ee db 9d 3d 08 0d 90 3d
       0.078953035 -0.0005761366 0.07707964 0.070337355
0001e0 d5 aa 8f 3d 72 7a b0 3d a4 07 48 3c d8 20 1d 3d
       0.070150055 0.086171046 0.012208853 0.0383614
0001f0 07 63 81 3a 59 10 7b 3c f3 76 19 3d a6 b4 f4 3c
       0.0009871431 0.015323722 0.037466954 0.029871296
000200 a5 95 81 3f ac 6c 7c 3f 35 e1 81 3f 3a b4 80 3f
       1.0123793 0.9860332 1.0146853 1.0055001
000210 90 25 76 3f e6 98 82 3f 9c 96 7a 3f 89 30 79 3f
       0.96151066 1.0202911 0.9788606 0.97339684
000220 49 1f 7d 3f 83 53 82 3f ab 99 87 3f 00 51 80 3f
       0.9887586 1.0181736 1.0593771 1.0024719
000230 82 85 77 3f 51 29 7b 3f 94 67 81 3f e0 95 71 3f
       0.9668809 0.9810992 1.0109735 0.94369316
000240 28 71 7f 3f 42 fe 75 3f 27 8a 7b 3f f0 b3 7f 3f
       0.9978204 0.9609109 0.9825768 0.9988394
000250 d9 c2 64 3f 2e c1 80 3f 6d 1b 7b 3f e2 f6 80 3f
       0.89359814 1.0058954 0.98088723 1.0075343
000260 c2 0c 80 3f 65 4d 84 3f 29 7f 79 3f 4c 38 83 3f
       1.0003893 1.0336119 0.97459656 1.0251555
000270 69 62 7b 3f ad dc 73 3f d4 09 83 3f 39 da 80 3f
       0.98197037 0.952586 1.0237374 1.0066596
000280 63 3e 80 3f 45 0c 7b 3f d6 e7 82 3f cb 06 6a 3f
       1.0019039 0.98065597 1.0227001 0.91416615
000290 4c 27 7b 3f 43 5e 80 3f 23 c2 7f 3f d7 10 7d 3f
       0.9810684 1.0028766 0.99905604 0.9885382
0002a0 70 4e 80 3f 77 cd 83 3f fd 78 72 3f dd ea 88 3f
       1.0023937 1.0297078 0.94715863 1.0696675
0002b0 3e 97 7c 3f d7 f4 82 3f 17 c1 78 3f 7a 75 6f 3f
       0.9866828 1.0230969 0.9716963 0.9353863
0002c0 91 60 81 3f 09 2c 78 3f 23 26 78 3f f7 e6 7d 3f
       1.0107595 0.9694219 0.9693319 0.9918055
0002d0 32 3a 77 3f 10 cf 82 3f 6d f9 79 3f ae 98 79 3f
       0.96573174 1.021944 0.9764622 0.97498596
0002e0 0f f5 70 3f c8 7e 82 3f 66 99 7f 3f 25 7a 80 3f
       0.9412393 1.019494 0.9984344 1.0037276
0002f0 7c 69 7b 3f da d2 81 3f af de 7a 3f 2b 24 77 3f
       0.9820783 1.0142472 0.9799604 0.9653956
000300 7d e2 6d bc 3f b4 0e bb cd 9a 0f bc 8c 67 b9 3c
       -0.014519331 -0.0021774916 -0.008764935 0.022632383
000310 d4 3d 02 bd 42 4e 82 bc d3 0a 64 3b 7a 84 21 3d
       -0.031797245 -0.015906457 0.003479649 0.03943298
000320 7e fc 3c bc 73 92 7e 39 d8 13 ae bc 12 f5 98 bb
       -0.011534808 0.00024277884 -0.021249697 -0.0046678865
000330 20 78 71 3c 38 40 ad 3b 67 34 aa bc ea cb c3 3c
       0.014738113 0.0052871965 -0.02077694 0.023900945
000340 a3 15 b7 3b 68 91 22 3d 31 b3 ae bc 1b ac f0 bb
       0.005587296 0.03968945 -0.02132568 -0.0073447353
000350 ff 6d 2d bd cc 49 9a bc 9f 19 d2 bc db cd 28 3c
       -0.04234123 -0.018834017 -0.025646983 0.010302986
000360 d3 a6 92 3c 94 59 6e 3c b8 f3 06 3b b4 a8 2e 3d
       0.017901814 0.014547724 0.0020592045 0.042641357
000370 e7 53 9b 3c 23 7c be bb b9 97 b7 bb f5 05 be 3c
       0.018960906 -0.005813138 -0.0056028035 0.0231962
000380 dd a9 f6 3c e2 82 f3 3c c9 70 e5 bb 20 22 82 bc
       0.030110294 0.029725496 -0.0070019704 -0.015885413
000390 21 fc 94 3b 5e 4e d7 bc 5d fd 7c 3b fe f5 b0 bb
       0.0045466577 -0.026282486 0.0038603165 -0.0054004183
0003a0 79 b9 61 3b ac c7 dd ba fe 0f 9f bc 76 48 af 3c
       0.0034442826 -0.0016920469 -0.019416805 0.021396857
0003b0 cb 31 07 bd cd 96 2b 3d a0 81 ad 3b 4a a5 e5 bb
       -0.03300647 0.04189186 0.0052949935 -0.0070082294
0003c0 37 31 25 bb a9 b0 a0 bc 6b 79 98 bc 5b 6c 9c bc
       -0.0025206336 -0.019615488 -0.018612584 -0.019094637
0003d0 1f ec 14 bd 3b b5 af bb ff 40 80 3b ea fa f0 3a
       -0.036357995 -0.0053621805 0.003913998 0.0018385325
0003e0 48 14 b0 bb 4e cc 9c ba e0 00 0c 3c bb 73 fd bc
       -0.0053735115 -0.0011962743 0.0085451305 -0.030938974
0003f0 e3 68 68 3c 00 be a7 bc 25 64 0e 3d ce 20 90 3c
       0.014185163 -0.020476341 0.034763474 0.017593767

action_model._continuous_distribution.log_sigma f4 [1, 2]
000000 ef 61 25 bf d2 72 bd be
       -0.6460256 -0.37001663

action_model._continuous_distribution.mu.bias f4 [2]
000000 5e 1c cb 3c 70 89 b5 3c
       0.0247938 0.022160262

action_model._continuous_distribution.mu.weight f4 [2, 64]
000000 71 bc 19 bd 3c e5 41 be a0 13 03 3e f3 c3 94 3d
       -0.037533227 -0.18935102 0.12800455 0.07263937
000010 9e 29 77 be e6 05 5c be 5c 47 70 be b8 47 65 3d
       -0.2413697 -0.21486625 -0.23464721 0.0559766
000020 d1 3f 1e be 36 06 32 bd 6c 48 f5 3c f9 70 fe 39
       -0.15454032 -0.043462954 0.02994176 0.00048530826
000030 fd f7 8f 3e a2 5d b3 3d 9d 0c e6 bd a1 8a 42 3e
       0.28118888 0.087580934 -0.112328745 0.18998195
000040 90 99 63 3e ee b7 5b 3e d5 8a ea bd 7b 18 be bd
       0.22226548 0.21456882 -0.11452261 -0.09282013
000050 85 a1 3b be d2 75 b9 bd 52 1b fa bd 9d 2c 39 3d
       -0.18323334 -0.090556756 -0.12212242 0.045208562
000060 99 4a 68 bd 41 d7 65 bd d1 7e 43 bd bc cb 13 3e
       -0.056711767 -0.056113485 -0.047728363 0.14433187
000070 39 fa a2 3d df ea 60 3e 07 7c 46 3e 24 28 01 be
       0.079578824 0.21964596 0.1938325 -0.12612969
000080 95 9c f5 3c 2f bb ec 3d 5b 53 96 bc 01 fd ba bd
       0.02998189 0.1155914 -0.018350294 -0.09130288
000090 c2 4a 1c 3e e7 77 d3 bd aa a4 44 3d f1 bb 50 3d
       0.15262893 -0.10325604 0.0480086 0.050960485
0000a0 cf 63 3a 3b d9 72 84 bd 82 a4 2d 3c 76 70 2a 3e
       0.0028440838 -0.06467218 0.010598304 0.16644463
0000b0 74 53 95 bd 95 d0 73 bd 90 17 ec 3d 51 e2 a0 bc
       -0.07291308 -0.05952509 0.11527932 -0.019639166
0000c0 6e 4a c8 3d 2a 3c 83 3d 7a 8f 1e be 21 fa 88 3d
       0.09779821 0.0640796 -0.1548442 0.06688333
0000d0 0f 0a 5f 3d 50 38 1a bc da 70 81 bd 7a 56 25 3e
       0.054452952 -0.00941284 -0.06320353 0.1614627
0000e0 ec 47 cb 3d 80 35 62 bc 1a 69 90 3e d1 fb 2e bd
       0.099258274 -0.013806701 0.28205186 -0.04272062
0000f0 50 2b aa bd 80 af 8e 3b 48 88 09 be 6d f7 8b 3d
       -0.083090425 0.0043544173 -0.13430893 0.06834302
000100 62 a6 b4 3d 19 0a 8d bd 9b 86 3b 3c b9 1b 22 3e
       0.088207975 -0.068866916 0.011445667 0.15830888
000110 c5 36 a8 3d 36 76 20 bd b0 74 e9 3a 02 3a 1c 3e
       0.082135715 -0.039175235 0.0017811265 0.15256503
000120 86 af 59 bd 87 2b 92 3d 4d 73 e7 bd cb d4 56 3e
       -0.053145908 0.071372084 -0.11301289 0.20979612
000130 bb 21 19 3c e4 d1 fb bd fd ff 3d 3d 88 3a 41 be
       0.009346421 -0.12295893 0.046386708 -0.18869984
000140 ad e0 25 be 0d d0 ba bd 17 ac af bd 57 25 66 3e
       -0.16198988 -0.09121714 -0.085777454 0.22475182
000150 99 35 02 3e 00 63 a0 3d 20 41 71 be 92 f9 e3 3d
       0.12715758 0.07831383 -0.2356 0.11131586
000160 76 9d ee 3b e6 16 89 3d 69 a5 3b be ab f7 ce 3d
       0.0072819544 0.06693821 -0.18324818 0.10105833
000170 c0 63 7a 3d 3e 76 e5 3b 2c 09 dd 3d e0 5f ef 3c
       0.061130285 0.007002621 0.10792765 0.029220521
000180 9d b1 84 be 9f 85 dc 3d 49 49 95 3c d1 0a 5a be
       -0.25916758 0.10767674 0.018223422 -0.21293189
000190 80 b5 9a 3d 3a 53 48 3c 19 08 f5 3d 29 05 97 3b
       0.0755415 0.012226874 0.11964435 0.0046087694
0001a0 e0 4c df bd ed 5b 31 3d fe 12 86 3e b4 14 50 bb
       -0.109033346 0.043300558 0.26186365 -0.0031750621
0001b0 37 96 9c 3c bf 77 ad 3d 66 0a b5 3c 51 aa 2a 3e
       0.019114597 0.084701054 0.022099685 0.16666533
0001c0 f2 c5 3d 3e 1e 36 b9 bd 6d 67 13 3e 84 fa f4 bd
       0.18532541 -0.09043525 0.14394923 -0.119618446
0001d0 86 ab 42 3e 6b ed ac 3d 61 39 2d be 32 6e 5c 3e
       0.19010743 0.084437214 -0.1691642 0.21526411
0001e0 2c 06 46 be cf 8c ff 3d a4 e8 33 bd 1a e1 bd 3d
       -0.19338292 0.12478029 -0.043923035 0.0927145
0001f0 ba 6d 5b bd 61 0d 54 be 49 ec 74 3e 44 8c 67 3d
       -0.05357144 -0.20708229 0.2391826 0.056530252

network_body.linear_encoder.seq_layers.0.bias f4 [256]
000000 72 eb 84 3c e6 c7 11 bc b4 ed 77 3b 08 58 cd bc
       0.01622555 -0.008897757 0.003783089 -0.02506639
000010 75 31 ed bc 2a 34 d2 3c 7e 1d f8 3c 45 6b 3e 3c
       -0.028954247 0.02565964 0.0302875 0.011622255
000020 22 4c 0e bd e1 5f 05 3d 65 e7 74 3c b8 82 38 3b
       -0.034740575 0.03256214 0.014947747 0.0028154086
000030 76 7c 8e bc c3 55 5d bc 7d ae 35 bb 38 c2 29 bc
       -0.017393332 -0.013509217 -0.0027722411 -0.010361247
000040 a3 ce 83 3c e9 b8 30 3c 0a d7 09 3d 38 e9 7a 3b
       0.016089743 0.0107862735 0.033652343 0.0038285982
000050 3e 1c 5d bd 2e 74 30 3c d3 e5 e1 3c d5 67 59 3d
       -0.053982012 0.010769887 0.027575409 0.053077538
000060 f2 74 32 3d aa 9a 77 3c 31 cd 5b 3a c4 eb 10 3d
       0.04356856 0.015112558 0.0008384763 0.035381094
000070 60 2e d9 3c 0c f8 08 3d a8 84 95 bc 82 a3 b6 ba
       0.026511371 0.03343968 -0.018251732 -0.0013934227
000080 c8 ce 93 bb ad df 28 3d 66 d6 23 3c ee 20 10 bd
       -0.004510734 0.04122894 0.009999847 -0.035187654
000090 00 a2 4b 3d e1 74 5d bc a0 05 3b bb c7 57 3a 3d
       0.049715042 -0.013516636 -0.0028537288 0.045493867
0000a0 39 d3 5f 3d bf f6 33 ba 86 7f 3c bc 22 ad d6 ba
       0.054644797 -0.0006865076 -0.011505013 -0.0016378502
0000b0 ca 24 ba bb 9e 2b 0e 3b 76 7d 18 bd 7c 88 f1 3b
       -0.005680655 0.0021693478 -0.037229024 0.0073710065
0000c0 84 4f ed bc 48 d7 b9 3c b9 6e 64 3b 62 a3 0b bd
       -0.02896858 0.022685662 0.0034856035 -0.03409136
0000d0 02 01 37 3b bb c7 16 bd f7 cf 50 bd 97 b7 70 3c
       0.0027924185 -0.03681157 -0.05097958 0.014692209
0000e0 a8 d1 64 bc b0 38 8c bc 80 ae 8f 3c c1 2b f7 bb
       -0.013966002 -0.017116874 0.017539263 -0.0075430577
0000f0 b0 de 00 3d 3a 9c a2 bb 72 39 00 b9 2a e5 0b bb
       0.03146237 -0.0049624713 -0.00012228431 -0.002134631
000100 f0 28 ca bc b1 1e 1b bd 04 da 81 3c a8 8c c7 ba
       -0.024677724 -0.037871066 0.015851028 -0.0015224414
000110 a7 56 e7 3c 6d c0 64 3c 18 77 e8 3b c1 b7 9e bb
       0.028239561 0.0139618935 0.007094275 -0.0048436825
000120 d7 00 13 3b 6e 56 f9 38 d6 fd c7 ba 7b 83 03 bd
       0.002243092 0.00011889344 -0.0015258144 -0.03210781
000130 73 e2 29 3b aa 96 be 39 ff 79 87 bc 6f 95 5b 3c
       0.0025922328 0.00036351877 -0.016537664 0.013402327
000140 ce c6 ea 3c 9d 09 47 bd 91 ed 88 bb fe 20 cb 3c
       0.02865925 -0.048593152 -0.0041787107 0.024796005
000150 fb 09 c0 bc 18 7f cc bc 4c d8 ca 3c 42 4d be 3c
       -0.023442259 -0.024962947 0.024761342 0.023230199
000160 ac 81 a8 3b c6 91 d7 3c 35 38 09 bd 67 45 38 3a
       0.005142411 0.026314627 -0.03350087 0.0007029385
000170 97 83 06 3c d3 e0 2e 3c ef ca cd 3c cd f1 0c 3d
       0.008210084 0.010673719 0.02512118 0.034410287
000180 a1 dc 17 bc 54 f2 56 3c 5a f4 9b 3b af ae 90 3c
       -0.009268911 0.013119299 0.0047593536 0.01766142
000190 8c 86 5f bc 8f 5d a4 3c e2 57 f3 3c a7 82 cd 3c
       -0.013642918 0.020064143 0.029704992 0.025086714
0001a0 db 6c 6e bc 7d 44 f9 3b 84 3b a6 3b cc 18 3b 3c
       -0.01455232 0.0076070414 0.005073013 0.011419486
0001b0 c3 9e 34 bc 5e b6 88 3c 68 d6 9c 3b 73 a2 53 bc
       -0.01102418 0.016688522 0.0047863014 -0.012917149
0001c0 74 7a 1d 3c f2 d1 83 ba 3e 55 93 bc 05 82 58 bc
       0.009611715 -0.0010057075 -0.017984983 -0.013214593
0001d0 c5 e7 d7 bc 4f d5 0f 3d 28 5d d6 3b 1e 9e 4f bd
       -0.026355634 0.035115536 0.006541867 -0.0506879
0001e0 a7 0f fc bb 67 4d f5 bc dc b8 ed bb 63 5b 68 bc
       -0.0076922956 -0.029944135 -0.007254703 -0.014181945
0001f0 d4 00 7c bb b2 41 b4 3b 35 f7 a1 bc 0d a8 ee 3b
       -0.0038452642 0.0055009956 -0.019771198 0.007283217
000200 ec f5 89 bc 0b 67 b4 3c 41 e0 9d 3b 1a 24 dd 3b
       -0.016840898 0.022021791 0.004817993 0.0067486884
000210 f4 02 59 bc 22 e0 44 3c 47 30 01 3d ca c3 58 3c
       -0.013245333 0.012016328 0.03154018 0.0132302735
000220 6b 41 42 b9 4a fb 2e 3d ae 33 f9 bc 60 9a 61 3c
       -0.00018525652 0.042720117 -0.03042015 0.013769716
000230 32 89 ab 3c a9 7c 0d 3c dd e8 96 bc da c2 d4 3c
       0.020939443 0.008635678 -0.018421585 0.025971819
000240 f2 e3 e4 3a a5 ae a8 3c e1 7c 42 3b 91 4a cb bb
       0.0017462953 0.02059109 0.0029676484 -0.0062039574
000250 3b 8b 91 3c ab be 80 3c 8e 66 98 3c ff 67 c3 3c
       0.017766586 0.015715918 0.01860359 0.0238533
000260 b9 56 47 3c 3c 52 ce bc 4a c2 1c bc 8c 78 14 3b
       0.012166672 -0.025185697 -0.0095678065 0.002265486
000270 d5 79 0c bd 35 38 8c 3b 69 65 6d bb 6c 3e fc 3c
       -0.034295876 0.0042791613 -0.0036223775 0.030791484
000280 13 70 f1 ba 0a e9 d2 3c 22 ed cd 3c cf 87 ad 3c
       -0.0018420242 0.025745887 0.025137488 0.021182923
000290 07 af 3d bc 12 30 41 bc bc 68 34 bc 77 c1 05 3d
       -0.011577374 -0.011791246 -0.011011299 0.032655206
0002a0 12 0c a3 3c 78 2d 2d bc 40 f6 be 3c e1 12 a1 bc
       0.019903217 -0.010569923 0.02331078 -0.019662322
0002b0 67 8f 8e 3b 07 ce a8 3c 04 78 92 bc c2 5d c4 bb
       0.004350591 0.020606054 -0.017879494 -0.005992622
0002c0 8f b8 85 bc 9b 39 8c ba b7 41 60 bc 4f 3a d4 bc
       -0.016323356 -0.001069832 -0.013687543 -0.02590671
0002d0 7e dc b8 bc 36 b0 18 3d d1 1a 95 3c 2e 5c 5c bb
       -0.022566076 0.037277423 0.018201264 -0.003362428
0002e0 29 cb 23 3c e1 48 0e 3c 9d 8e f5 3c 32 7b cb 3c
       0.009997168 0.008684368 0.02997523 0.024839018
0002f0 74 7c 16 3d e9 f1 5f bb df 6a e2 bb c5 7f c0 bb
       0.03673978 -0.003417129 -0.0069097127 -0.0058746063
000300 c0 07 1d 3d 31 86 17 3c 43 4a 9b 3c 9e f5 c2 3c
       0.03833747 0.009248302 0.01895631 0.02379876
000310 1d f0 c6 3c 7e c6 5c 3c 6a f2 68 3b e5 a5 1e bd
       0.024284417 0.013475059 0.003554488 -0.038732428
000320 2a e9 b6 bb 17 bd b9 bc 73 eb b0 bd f8 a8 19 3c
       -0.0055819945 -0.022673173 -0.086386584 0.009378664
000330 bf 56 9e 3c a6 b1 4f 3c 25 7e 08 3c 7d 0d 12 3d
       0.019328473 0.012676632 0.008330856 0.035657395
000340 82 d6 05 3c f9 8e c1 3b b0 ae 91 bb 63 74 20 3d
       0.008168818 0.0059069362 -0.004445873 0.039173495
000350 54 81 c4 3b 89 5b 2e bd 5b 19 57 3d fe 48 bc 3c
       0.0059968624 -0.042567763 0.052514415 0.022984024
000360 49 01 9f 3c 4d 1d 51 bd bc f6 ac bb 68 cc 85 3a
       0.019409792 -0.051053334 -0.0052784365 0.0010208013
000370 d9 3e b3 bc 69 c5 1d 3b 12 c4 70 3b a2 fa 15 bd
       -0.021880554 0.0024073964 0.003673796 -0.036615975
000380 e4 4e f2 39 2a a8 55 3c 4b 10 77 bc 2c 79 10 bc
       0.00046216615 0.013040582 -0.015079568 -0.008817952
000390 22 12 11 bd bf cd 1f 3d 87 46 7c 3b 18 dd 7c bd
       -0.035417683 0.039014574 0.0038494186 -0.06173429
0003a0 0b 8d 9a bd 45 c8 a0 3c df af 38 3d 8a da c7 bc
       -0.07546433 0.019626746 0.0450896 -0.0243962
0003b0 d9 e5 dd 3c 55 11 2c bc 9d 29 a6 bb 9b d8 51 3b
       0.027087139 -0.010502179 -0.0050708787 0.0032019976
0003c0 7d a5 86 3c 52 d0 2f bc 2c b6 16 bc 78 f9 08 3d
       0.016436333 -0.01073082 -0.009198707 0.033441037
0003d0 51 9d 02 3d ed 72 11 3d 46 b5 a8 3c a0 24 64 bd
       0.03188831 0.035509992 0.02059425 -0.05569899
0003e0 3c 40 ef bb a5 50 5a 3a 72 33 95 bc c8 a9 54 bc
       -0.0073013585 0.0008328057 -0.018213008 -0.012979932
0003f0 97 8f 44 bc 8c f3 e4 3c 2a 6c 09 3d 0d 04 2d bd
       -0.011997125 0.027948163 0.03355042 -0.04224019

network_body.linear_encoder.seq_layers.0.weight f4 [256, 207]
000000 27 67 8e 3d ed 02 df 3d c7 ff 89 bc 4c 73 33 be
       0.069532685 0.1088923 -0.016845597 -0.17524451
000010 47 93 af 3c 3b 01 15 be 1d 70 38 bd 75 bd 0f be
       0.021432532 -0.1455125 -0.045028795 -0.14037116
000020 55 74 cd 3d dd 1b 8a 3d fa 66 8a bd 92 d3 aa 3c
       0.10031954 0.06743596 -0.067579225 0.020852838
000030 82 f8 0f 3d 9c 6c bb ba e3 f3 2d 3c 29 5a a2 bc
       0.035149105 -0.0014299336 0.010617229 -0.019818382
000040 e2 4e 66 3b d5 e9 a2 3d 46 e7 10 3e d0 8d e0 bc
       0.0035142233 0.07954756 0.14150724 -0.027411371
000050 0e e5 08 3d ce 45 48 3e 9d 8e 9e bc c3 5f b0 bd
       0.03342157 0.19557878 -0.019355113 -0.08612015
000060 58 eb f6 bd e3 81 26 3e a7 b3 a1 3c 12 7f 68 be
       -0.12056607 0.16260485 0.019738985 -0.22704723
000070 b6 85 8e 3c 52 9b de 3d b8 67 c2 3c 3d 6f c8 bd
       0.017397743 0.10869469 0.023731098 -0.09786842
000080 fa cc 2a 3a 1c af b3 3d 9c c6 1d 3d 49 a7 25 3d
       0.0006515529 0.08773634 0.038519487 0.04044274
000090 8a dd 65 bd bb 34 dd 3d 13 dc d1 bc df 30 18 3d
       -0.05611948 0.10801073 -0.025617635 0.037155982
0000a0 ff 40 26 3d 24 2a a7 3d 69 32 a8 3d c3 0d 89 3b
       0.04058933 0.081623346 0.0821274 0.0041825487
0000b0 95 19 83 bd 25 fc 4e 3d c5 fb 76 3d d0 d0 68 3d
       -0.06401364 0.050533433 0.0602987 0.056839764
0000c0 9e 6a e6 b9 62 5d 01 3d 53 cd 10 bc 66 8b db bd
       -0.00043948455 0.031583197 -0.008838016 -0.107199475
0000d0 ac 44 91 bc d7 44 a2 3d ea 28 3e 3c 53 45 75 bc
       -0.01773294 0.079232864 0.011606434 -0.014970141
0000e0 2c 2f 83 bd 7a 17 ce bd 18 74 85 bd 84 63 bc 3c
       -0.06405482 -0.100630715 -0.06516284 0.022996671
0000f0 d5 fc 0b 3e 17 f6 68 bd ee ad 6c 3d d9 79 c3 3c
       0.13670667 -0.056875315 0.05778306 0.023861812
000100 62 b3 97 3d ca bf a3 3d d0 bd 1b 3d 5c 21 6a 3d
       0.074072614 0.07995565 0.038022816 0.05716072
000110 41 49 0a bd be 78 52 bd bd 43 81 bc 4b 96 79 3b
       -0.033761267 -0.05138468 -0.01577937 0.0038083966
000120 16 de c0 3d 72 0d d9 bd b9 a1 ee 3d 19 b4 11 be
       0.094173595 -0.105982676 0.1165194 -0.14228858
000130 5d fe bc 3d 3b 5c 76 3c 5b d9 3f bd 3b 24 1b 3a
       0.092282034 0.015036638 -0.046838146 0.00059181795
000140 15 b6 1f 3e 31 d1 1d bd 39 ce 8e bc 1a b9 ca bc
       0.15596803 -0.03852958 -0.017432319 -0.024746466
000150 46 70 47 bd f8 ac 98 bd 09 a8 aa 3b a6 f9 99 bc
       -0.048691057 -0.07454866 0.0052080196 -0.0187958
000160 1d 4e 64 3d b7 69 4e 3d c2 fd 34 3b 42 0f 40 3d
       0.055738557 0.050393786 0.0027617072 0.04688955
000170 dc 01 bc bd 2c ac 4f 3a f3 93 5b bd fe d9 ec bc
       -0.09180042 0.0007922079 -0.053607892 -0.02891254
000180 c9 5b eb 3d c8 b2 cf bc 4f 50 0c bc d4 ef 3c 3d
       0.11492116 -0.025353804 -0.008564069 0.046127155
000190 f0 0e 3f 3d 86 4b 00 bd e4 13 ef bd 7b 0a 3d 3d
       0.046645105 -0.031322025 -0.11673716 0.046152573
0001a0 d4 cd b0 3d 5b db 0d 3d 8a d4 40 3c 9e 8d 82 3d
       0.086330086 0.03463302 0.011769423 0.063746676
0001b0 55 53 b2 bd 36 0e 06 bd 14 9f 07 be cd ed a4 bd
       -0.087073006 -0.032728396 -0.13244277 -0.080531694
0001c0 70 cc c5 bd db ac 62 bd 75 e2 c1 bd 41 60 30 3e
       -0.09658134 -0.05534063 -0.094670214 0.17224218
0001d0 f5 99 99 3c 18 e8 e6 3d 16 df 29 3d e9 d2 5b 3c
       0.01875017 0.11274737 0.041472517 0.013416984
0001e0 e4 f4 05 3d ec 47 d2 bd 20 91 f2 3c 1c 4d 97 bc
       0.03270425 -0.10267624 0.029610217 -0.018469386
0001f0 e8 5e 66 3d a9 6e 12 3e 12 9e 7c 3d c8 34 18 bd
       0.056242853 0.14300026 0.061674185 -0.03715971
000200 cc 45 f7 bc d1 09 dd 3d 62 83 42 bd 3e 25 b2 bd
       -0.030184649 0.10792888 -0.047488578 -0.0869851
000210 d0 af 10 3c bc cd 59 3c ee 6f cb bc e0 87 af bd
       0.0088309795 0.01329368 -0.024833646 -0.08570838
000220 aa ec 6b bd 59 b8 20 bd 39 48 bb bd 0f 8b 34 3b
       -0.057598747 -0.039238308 -0.09144635 0.0027548706
000230 30 1c 09 3d 0c cf b4 3c a3 82 a6 3d 15 02 b5 bc
       0.033474147 0.022071384 0.08130386 -0.02209572
000240 ab 41 b9 bc c1 a6 11 3e 6d 56 0c be a6 a1 ad 3d
       -0.02261432 0.14223768 -0.13704844 0.084780976
000250 d1 b0 ac bc b0 18 18 bd fa 0a eb bd 08 df f7 bc
       -0.021080406 -0.03713292 -0.11476703 -0.030257717
000260 94 90 85 bd 24 33 88 bd 0d f1 bd bd c6 6f be bd
       -0.06521717 -0.06650379 -0.092744924 -0.09298663
000270 58 54 0c 3e 8e 70 db bc 2b 44 38 bd bd 63 ab bd
       0.1370405 -0.026787069 -0.044986885 -0.08368633
000280 1e 44 88 bd 9a 8f b1 bc a1 2b ca bc de e5 d2 3c
       -0.06653617 -0.02167492 -0.024679007 0.025744375
000290 1b d7 db bb 63 0f e8 ba 4b a5 98 3c 8b 29 cc 3d
       -0.006708992 -0.0017704781 0.018633505 0.09968861
0002a0 ab 57 8a 3d 48 c6 3a bb 8f c3 6f bd 3e bc e6 bd
       0.067550026 -0.0028499532 -0.05853611 -0.11266373
0002b0 af 5b a0 bd 1f 5a a3 bd d5 71 e4 bd 78 f0 2b 3c
       -0.07829987 -0.079761736 -0.11154524 0.010494344
0002c0 b8 96 14 3e e4 ac 41 3e 49 97 d3 bd 21 4a ab 3d
       0.1451062 0.18913609 -0.1033159 0.08363748
0002d0 37 f8 89 3d 25 55 0d be 85 2d 1f 3d a1 5c de 3b
       0.06736796 -0.13802011 0.03886177 0.0067859446
0002e0 b4 23 0a 3d 0d ed bf 3d d1 20 87 3d 13 0a 83 b9
       0.033725455 0.09371386 0.06598056 -0.00024993773
0002f0 8f 09 2d bd 7b 5b 24 3d c4 71 97 bd ab b3 bd bd
       -0.042245444 0.040126305 -0.07394746 -0.092627846
000300 58 e3 bf ba cc 70 c1 bc b2 23 e3 3c 75 15 f1 3c
       -0.0014639897 -0.023613356 0.027726982 0.029429177
000310 0a 7c 63 3e 7c 3c a1 3d 67 62 95 bd b5 36 bc 3d
       0.22215286 0.078728646 -0.072941594 0.09190122
000320 ac e0 7e bd ac f8 ee bd bb 2a 2a 3e 9b 10 9e bc
       -0.062225983 -0.11668524 0.16617863 -0.019295027
000330 ed 27 ab bd f2 ac 6f bd 2f 76 b1 bc bb 8a 8d 3a
       -0.083572246 -0.058514543 -0.0216628 0.0010798791
000340 0f 56 e5 3d b9 b8 c3 bc 11 bb 72 3c 11 3d b0 bd
       0.11198055 -0.023891794 0.014815108 -0.086053975
000350 10 c9 da 3c b7 40 88 bb 86 c8 1a 3d b7 a3 34 3c
       0.026707202 -0.0041581052 0.03778889 0.011025361
000360 95 13 98 3d 23 1b b4 3c ea 30 60 bb db ea 4f 3c
       0.0742561 0.021985596 -0.0034208843 0.012690271
000370 98 98 1e bd ff 68 c5 bc 7d 03 ac bd 3c 57 2b 3d
       -0.038719743 -0.024097918 -0.08399103 0.04183124
000380 fd ac 1f be 28 48 bc bd 9b 76 55 3e 04 22 9b bd
       -0.15593334 -0.0919345 0.20846026 -0.07574847
000390 fd 8a 50 bd 02 54 1a be 1e e8 05 3e e6 f9 32 3e
       -0.0509138 -0.15071109 0.13076827 0.17478141
0003a0 9e c2 57 3d 99 00 5f bd 64 b0 89 bd ea 30 34 3c
       0.052675836 -0.05444393 -0.06723097 0.01099799
0003b0 7a ef 14 bc c7 8e 91 bc e2 98 36 bc c7 b9 eb bd
       -0.009090299 -0.017768277 -0.011144849 -0.115100436
0003c0 d3 09 42 3c 83 23 7b ba 75 b8 4b bd 7e 9b 85 3d
       0.011843163 -0.0009580182 -0.04973646 0.065237984
0003d0 2e f3 6d 3d 53 9a 93 bd 9f 2a 13 3d 72 21 10 3c
       0.058093242 -0.072071694 0.03592932 0.0087970365
0003e0 c7 ed 04 be 5d 7c b1 bd 61 da a8 3c e7 99 3d be
       -0.1298133 -0.086662985 0.020611944 -0.1851574
0003f0 dd 29 91 3c a3 92 b7 bd 51 35 63 3c 69 22 4d 3d
       0.017720157 -0.089635156 0.013867692 0.050081644
