Assets/ML-Agents/CarAgentWithoutMemory.onnx (onnx, 793119 bytes, 9 tensors)

action_model._continuous_distribution.log_sigma f4 [1, 2]
0	0xbf62cd31	-0.8859435
1	0xbf3eedee	-0.745818

action_model._continuous_distribution.mu.bias f4 [2]
0	0xba2d09b1	-0.00066008704
1	0x3c7e381a	0.015516305

action_model._continuous_distribution.mu.weight f4 [2, 256]
0	0xbd6dd47b	-0.058063965
1	0xbd102ce0	-0.035199046
2	0xbc293e40	-0.010329783
3	0xbd2648a6	-0.040596627
4	0x3d25b9c2	0.040460356
5	0xbc35290f	-0.011057152
6	0x3c120df8	0.008914463
7	0x3b9c882d	0.0047769756
8	0xba13d929	-0.00056399644
9	0x3d1dbd27	0.038510468
10	0xbcd24268	-0.02566643
11	0xbb523ff5	-0.0032081578
12	0xbc6de38e	-0.014519585
13	0xbd27fca7	-0.041012432
14	0xbd740610	-0.059576094
15	0xbc442f18	-0.011974119
16	0x3a9e21cf	0.0012064519
17	0x3d2d0e14	0.042249754
18	0x38fcf65e	0.00012062186
19	0x3c633208	0.013866909
20	0xbc3359f5	-0.01094674
21	0xbc01e35d	-0.007927743
22	0xbc66e967	-0.014093733
23	0xbbdcb804	-0.0067358036
24	0x3b0efcf7	0.002181826
25	0x3b1abe4f	0.0023611968
26	0x3d235950	0.039880097
27	0xbc45a4db	-0.01206323
28	0xb97e71da	-0.0002426574
29	0xba53602c	-0.0008063342
30	0x3d90f4f4	0.07077971
31	0xbc036aa7	-0.008021033
32	0x3d5a2d9b	0.05326615
33	0x3cc398b2	0.023876522
34	0x3c351018	0.0110512
35	0xbac8de4f	-0.0015325042
36	0xbbe0f467	-0.0068650725
37	0xbc19a496	-0.009377619
38	0xbc7fc047	-0.015609807
39	0xbaa8b30f	-0.0012870746
40	0x3b3cdc33	0.0028817772
41	0xbc8d1547	-0.01722206
42	0x3a40c784	0.0007353949
43	0xbd0fbcbc	-0.0350921
44	0x3d310a8c	0.04322295
45	0x3d2743a9	0.04083601
46	0xbae14166	-0.0017185628
47	0x3c97eb39	0.01854478
48	0x3cb7e344	0.022447236
49	0x3cd1a0db	0.025589397
50	0x3cb7ee91	0.022452625
51	0x3d6b2708	0.05741027
52	0x3be5e3ce	0.007015682
53	0x3c5a1638	0.013310961
54	0x3d1167ac	0.03549926
55	0x3c6552ae	0.013996763
56	0xbc0c29c5	-0.0085548805
57	0x3b1c35dc	0.0023835814
58	0x3cdac4b5	0.026705125
59	0x3d30bd4c	0.043149278
60	0x3cb665f8	0.02226542
61	0xbc8b5891	-0.017010005
62	0xbbcdb921	-0.0062781726
63	0x3cd68aa9	0.026189165
64	0x3cf2671a	0.029590178
65	0xbb2a964e	-0.002602953
66	0x3cb6c856	0.022312324
67	0x3c9f3db0	0.019438595
68	0xbd8c4786	-0.068495795
69	0xbcf5eada	-0.030019213
70	0xbccdab95	-0.02510623
71	0x3d0585e7	0.032598402
72	0x3d5039db	0.050836425
73	0xbd1c821b	-0.038210016
74	0x3d542dca	0.05180148
75	0xbcf1b07c	-0.0295031
76	0xbc25a194	-0.010109324
77	0x3d1445c3	0.036199342
78	0xbd2619b6	-0.040551864
79	0x3bcb2e78	0.006200608
80	0x3ac1ccd6	0.0014785777
81	0x3d66668f	0.05625015
82	0x3ca46e64	0.02007217
83	0xbcfc22f4	-0.030778386
84	0x3d91d9a5	0.071215905
85	0xbd39f30c	-0.045397803
86	0x3cc2f87f	0.023800133
87	0xbc5b74cb	-0.013394545
88	0xbc037839	-0.008024269
89	0x3b8c4b27	0.00428142
90	0x3c4569b2	0.0120491255
91	0x3ae8b88e	0.0017755197
92	0x3d130d47	0.035901334
93	0x3d0018e3	0.031273734
94	0xbc3d6dee	-0.011561854
95	0x3c73c24a	0.014877865
96	0x3b8d1889	0.0043059033
97	0x3af2c894	0.0018522912
98	0x3d3c1561	0.045918826
99	0xbc8f9af3	-0.01752994
100	0xbc934e62	-0.017981712
101	0xbc23bbd4	-0.009993512
102	0x3d0d4170	0.034486234
103	0xbd229400	-0.039691925
104	0xbccfa759	-0.025348352
105	0x3b174f8a	0.002308818
106	0x3d80fd1b	0.06298276
107	0x3d79f5a1	0.061025266
108	0x3bd04039	0.006355312
109	0x3c9b44c3	0.018953687
110	0xbd012d73	-0.031537484
111	0x3d684077	0.056702103
112	0xbd7011f1	-0.05861086
113	0xbd6124cc	-0.054966733
114	0x3d18471e	0.037177198
115	0xbbf378b2	-0.0074301595
116	0xbc1e9daa	-0.009681145
117	0x3c64d936	0.013967803
118	0xbd361e82	-0.04446269
119	0x3c025ef2	0.007957207
120	0xbc603d95	-0.013686557
121	0x3a6494f9	0.00087197084
122	0xbd16fe37	-0.036863532
123	0xbd9bfe29	-0.076168366
124	0xbcd11889	-0.025524395
125	0xbc1e9eca	-0.009681413
126	0xbd134252	-0.03595192
127	0x3c688015	0.014190693
128	0xbab8703f	-0.0014071538
129	0x3d3025b0	0.04300469
130	0x3c5599f7	0.013037196
131	0xbc735240	-0.014851153
132	0xbc5329e5	-0.012888406
133	0x3d1e3be7	0.038631346
134	0xbc708a84	-0.014681462
135	0x3c3819ba	0.011236602
136	0x3d003f19	0.031310175
137	0xbca311df	-0.019905983
138	0x3d898373	0.06714525
139	0xba42b8d9	-0.0007428057
140	0xba0451ef	-0.00050476094
141	0xbd14bc29	-0.036312256
142	0xbd14a5da	-0.03629098
143	0xbcdfe2cc	-0.027329825
144	0x3bc6d595	0.0060679414
145	0x3cda98dc	0.026684217
146	0x3b10cc4b	0.0022094424
147	0x3d3dba8f	0.046320494
148	0x3bcde9d7	0.0062839794
149	0xbcde4e18	-0.027136847
150	0x3d0b592e	0.034020595
151	0x3d662a58	0.056192726
152	0x3d191ae5	0.037379164
153	0x3b90a27e	0.004413902
154	0x3abad375	0.0014253693
155	0xbd1503fb	-0.03638075
156	0x3d08fb83	0.033442985
157	0xbd126a73	-0.03574605
158	0x3d51ed00	0.05125141
159	0xbd0ecdaf	-0.034864124
160	0xbd296843	-0.041359197
161	0x3b63ceff	0.003476083
162	0xbcc39864	-0.023876376
163	0xbce8da9e	-0.028424557
164	0x3d14b1d7	0.036302414
165	0xbcdb29b7	-0.02675329
166	0x3cbf3e13	0.023345029
167	0xbb00b9b1	-0.001964193
168	0x3d0f8a87	0.03504422
169	0x3ab38be7	0.001369831
170	0x3d5627ff	0.052284237
171	0x3d5d573c	0.05403827
172	0x3d81b09e	0.06332515
173	0xbbc7c920	-0.006096974
174	0x3b472ddb	0.0030392322
175	0xbb520230	-0.003204476
176	0x3d7f6271	0.06234974
177	0x3d4f958d	0.050679732
178	0x3c013163	0.00788531
179	0x3d250e74	0.040296987
180	0x3d18f96b	0.03734724
181	0x3c37bf45	0.011215036
182	0x3d926307	0.07147794
183	0xbd22ee9d	-0.03977834
184	0xbcf3c405	-0.029756555
185	0x3d13a183	0.0360427
186	0xbd5091fe	-0.05092048
187	0x3c22a51d	0.009927061
188	0x3d6d21f0	0.057893693
189	0x3bafd955	0.005366484
190	0xbd7a1ff4	-0.06106563
191	0x3d0f9f76	0.035064183
192	0xbd020945	-0.03174712
193	0x3bfa2dee	0.00763487
194	0xbb342a46	-0.0027491017
195	0xbb8a3006	-0.0042171506
196	0x3c00010d	0.0078127505
197	0x3bf85215	0.0075781443
198	0xbcc511d4	-0.024056353
199	0xbc4849b8	-0.012224607
200	0xbc0e8aa8	-0.00870005
201	0xbc157000	-0.009120941
202	0xbc90ed82	-0.017691378
203	0x3cef7d90	0.029234678
204	0x3be7b06c	0.0070705917
205	0xbce2b38d	-0.027673507
206	0x3d3ccdff	0.04609489
207	0xba234999	-0.00062289234
208	0xbcf064c2	-0.02934492
209	0x3d910ca9	0.07082493
210	0x3d16d716	0.036826216
211	0xbcdd5f30	-0.027022928
212	0xbc8116ba	-0.015757907
213	0x3bef7e13	0.0073087304
214	0xbd08ef67	-0.033431437
215	0x3a942291	0.0011301805
216	0x3d45da61	0.048303965
217	0x3c0bc176	0.008530011
218	0x3d142d73	0.036176156
219	0xbd7d8f5b	-0.061904293
220	0x3d449700	0.047995567
221	0xbcc70138	-0.024292573
222	0xbc3597eb	-0.011083583
223	0x3d4ee11a	0.050507642
224	0xbcd91a45	-0.026501784
225	0xba9e5905	-0.0012080973
226	0x3c974fea	0.018470723
227	0xbd52d7b8	-0.051475257
228	0x3cbdc69a	0.02316599
229	0x3c63b1dd	0.013897386
230	0xbbdadd86	-0.0066792397
231	0xbd846f01	-0.06466485
232	0xbc348451	-0.011017875
233	0xbd87c76d	-0.06629834
234	0x3b5d214d	0.0033741773
235	0x3a9379c8	0.0011251504
236	0x3c0b3c52	0.008498268
237	0x3d421ec9	0.04739264
238	0x3d4c29bf	0.0498445
239	0xba94848f	-0.001133101
240	0xbb90322e	-0.004400513
241	0xbd403dcf	-0.046933945
242	0xbd05d6da	-0.0326756
243	0x3ce7ce99	0.028296756
244	0x3d3cc6f2	0.046088167
245	0x3d1a5095	0.037674505
246	0xbb4548e3	-0.0030103258
247	0x3d1f4c41	0.03889108
248	0x3d380316	0.044924818
249	0x3d1c47d2	0.03815443
250	0x3d6983e2	0.05701054
251	0x3c80a298	0.01570253
252	0x3d49dc1b	0.049282175
253	0x3cfa59c2	0.030560378
254	0xbc4efd2f	-0.012633606
255	0x3c3bde14	0.011466522

network_body.linear_encoder.seq_layers.0.bias f4 [256]
0	0xbb6e21cc	-0.0036336062
1	0xba9e9dcb	-0.0012101469
2	0xbbea40c2	-0.007148833
3	0x39ae22fc	0.00033213932
4	0xbc509029	-0.012729683
5	0x3c861df5	0.016371707
6	0xbbc91530	-0.006136559
7	0x3be8a9c8	0.0071003176
8	0x3c704fc7	0.014667458
9	0x3c253c8c	0.010085236
10	0x3c9d3abc	0.019193046
11	0xba597d54	-0.00082965684
12	0x3c406b12	0.011744278
13	0x3ad85697	0.0016505298
14	0xba16cb78	-0.0005752365
15	0xbaf733ea	-0.0018860076
16	0x3b8bc1cf	0.004265047
17	0xbc51e4a8	-0.012810864
18	0xbafb0da0	-0.0019153841
19	0x3bd01b09	0.006350879
20	0xba953556	-0.0011383693
21	0xbc3240b6	-0.010879686
22	0x3b1d063d	0.0023960017
23	0x3a9d7b4a	0.0012014892
24	0x3bdb67cb	0.0066957227
25	0xbbe62b4f	-0.0070242058
26	0x3bfcffd8	0.0077209286
27	0x3bb21214	0.005434284
28	0x3b5978ea	0.0033183643
29	0xbc806f7a	-0.015678156
30	0x3adefd5e	0.0017012765
31	0x3be7ee30	0.0070779547
32	0xbb7f1354	-0.0038921433
33	0x3b6e48ac	0.0036359234
34	0x3b8ea03d	0.004352598
35	0x3c02dc01	0.007987023
36	0x3c21888e	0.009859217
37	0x3b64e312	0.0034925384
38	0xba042bcb	-0.0005041926
39	0x3b5caa0b	0.003367069
40	0xbb2742ab	-0.0025521915
41	0x3ba7d2a8	0.0051215477
42	0x3bddc1ec	0.006767502
43	0x3a854371	0.0010167194
44	0xbb74c62f	-0.0037349572
45	0xbc04e104	-0.0081102885
46	0x3b8e9c9e	0.0043521663
47	0x3af6a6ac	0.0018817983
48	0x3bb3e803	0.0054903044
49	0xb9c7a192	-0.00038076617
50	0xbb2c9b22	-0.0026337584
51	0xbbc71f07	-0.006076697
52	0x3a51377e	0.0007980986
53	0x3b6ce942	0.0036149775
54	0x3c2e9e40	0.010657847
55	0x39f25c98	0.00046226825
56	0x3c581781	0.0131891975
57	0xbba63204	-0.0050718803
58	0x3ae43724	0.0017411453
59	0x3bdce707	0.006741408
60	0x3c0586b5	0.008149792
61	0xbd38e7dd	-0.045142997
62	0xbc1dab4b	-0.009623359
63	0xbaeed71f	-0.001822207
64	0x3c17d0b0	0.009266064
65	0x3c05bf2e	0.008163257
66	0xb921fda4	-0.00015448645
67	0x3a6e6465	0.00090939394
68	0xbbfc34e2	-0.007696734
69	0x3af3803b	0.0018577644
70	0xbc762476	-0.015023341
71	0x3c24f763	0.010068747
72	0xbaeb55de	-0.0017954668
73	0xbb8427bd	-0.0040330575
74	0xbc1aef1b	-0.009456421
75	0xba6421af	-0.0008702529
76	0xbb93a4ae	-0.0045057153
77	0xbb84c444	-0.004051717
78	0xbd445fba	-0.047942854
79	0xbb2e005a	-0.0026550503
80	0xbd26abc8	-0.040691167
81	0xbafdefb0	-0.0019373801
82	0xbbb42267	-0.005497265
83	0xbc115c0b	-0.008872042
84	0xbbdad40a	-0.006678109
85	0x3bb53124	0.0055295397
86	0xbb6ae5c9	-0.003584253
87	0xbb17346c	-0.0023072017
88	0xbb53992b	-0.003228734
89	0xbc5ddbc3	-0.013541165
90	0x3894ba4e	7.091892e-05
91	0x397a97f5	0.00023898466
92	0xba5733c0	-0.00082093105
93	0x3b1de060	0.0024090037
94	0xbb744442	-0.003727213
95	0xbb1a0fb0	-0.0023507886
96	0xb78f15aa	-1.7057017e-05
97	0xbc0d49a7	-0.008623517
98	0x3a874242	0.0010319429
99	0x3b4afef4	0.0030974718
100	0x3b26dc3b	0.0025460857
101	0x3bedb36a	0.007254054
102	0x3bb7ce7c	0.0056093317
103	0x3b4224f6	0.0029624081
104	0xba741735	-0.00093113194
105	0x3bd79a7b	0.006579695
106	0xbc6f715f	-0.014614432
107	0x3a84f07f	0.0010142474
108	0xbc326d20	-0.010890275
109	0xbb9238cf	-0.0044623385
110	0xbbb522e3	-0.0055278405
111	0xbc4b84a3	-0.01242176
112	0x3c8cc8db	0.01718562
113	0xbc0a4f19	-0.00844171
114	0xb9e0adac	-0.00042854005
115	0xbb3a85ff	-0.0028461216
116	0xbc10455b	-0.008805598
117	0xbb9e8014	-0.0048370454
118	0x3c31afec	0.010845166
119	0x3955ccd8	0.00020389573
120	0xbd42ead9	-0.04758725
121	0x3c8a98ed	0.016918624
122	0x3b7ec5f9	0.0038875325
123	0x3b233c80	0.0024907887
124	0x39de7b88	0.00042435178
125	0x3ba610fa	0.0050679417
126	0xbb833510	-0.0040041283
127	0xbba1719a	-0.0049268724
128	0xbadc5018	-0.0016808538
129	0x3b0bf617	0.0021356398
130	0x3bc96f5c	0.0061473083
131	0xb9fd378f	-0.00048297315
132	0xbc579788	-0.013158686
133	0x3c45b122	0.012066158
134	0xba99dc3a	-0.0011738606
135	0xbbe10b7e	-0.006867825
136	0x3b9e10ad	0.0048237653
137	0xbaae45a3	-0.00132959
138	0xbc0120d6	-0.007881364
139	0x3b4251d2	0.002965082
140	0xbd0e6cb9	-0.034771655
141	0x3b894a52	0.004189768
142	0xbb22f04d	-0.0024862469
143	0xbb79b4ac	-0.0038102074
144	0xbca40f3f	-0.020026801
145	0xbc6842a6	-0.0141760465
146	0xbb5ac7e0	-0.0033383295
147	0x3a4b1e67	0.0007748366
148	0x3b91dc8b	0.0044513396
149	0xbb1fdbd3	-0.00243925
150	0x3c2b6313	0.010460633
151	0xbd27ae2b	-0.040937584
152	0x3be28a4f	0.0069134603
153	0x3b7100bd	0.0036774122
154	0xbb8746bd	-0.0041283057
155	0xbb7ba4b1	-0.0038397724
156	0x3ab6ba21	0.0013940969
157	0x3b9b8fb0	0.0047473535
158	0x3c8e243b	0.01735126
159	0xbcf8aef1	-0.030356856
160	0x3c57fdf4	0.013183106
161	0x3b969266	0.004595089
162	0x3bc5da0c	0.006037956
163	0xbc3fb915	-0.011701842
164	0x3ba78499	0.0051122424
165	0x3c8c11f5	0.017098406
166	0x3b347741	0.0027536901
167	0x3b9aebc7	0.004727814
168	0x3c992305	0.018693456
169	0x39ffb748	0.00048773945
170	0xbb95f0aa	-0.0045758085
171	0x3b987059	0.0046520648
172	0xbc44e680	-0.012017846
173	0x3a3a0736	0.00070964114
174	0xbb33082c	-0.0027318103
175	0xba18084f	-0.0005799578
176	0x3b8844d7	0.004158597
177	0xbb586966	-0.0033021807
178	0x3ae79fd0	0.0017671529
179	0x3bc3771f	0.005965128
180	0xbc0acf65	-0.008472298
181	0x3b813892	0.0039435113
182	0x3c016484	0.0078975
183	0x3b4a58a4	0.0030875588
184	0xbc375a85	-0.011191015
185	0xba9a1997	-0.0011756894
186	0x3c74f885	0.01495183
187	0xbd0de522	-0.034642346
188	0x3bd53926	0.0065070568
189	0xbb265df8	-0.00253856
190	0x3a589921	0.0008262564
191	0x3b9c2dc8	0.0047661997
192	0x3b3b88c8	0.0028615464
193	0xbb4d34df	-0.0031312031
194	0xb984bf30	-0.00025319448
195	0x3ae3d947	0.0017383479
196	0xbbdf20c4	-0.006809326
197	0xbbd0c56c	-0.006371191
198	0x3b49dc4b	0.003080147
199	0x3bf9c089	0.007621829
200	0x3c168256	0.009186348
201	0x3bbe0c6f	0.005799822
202	0x3ccc5920	0.024944842
203	0x3c67c3d1	0.014145807
204	0xbd758e86	-0.059950374
205	0xbb9c9b7d	-0.004779278
206	0x3c063c24	0.00819305
207	0xbb0d7e87	-0.0021590309
208	0x3b257891	0.0025248865
209	0xba2eb7b2	-0.0006664946
210	0x3b5a23d4	0.0033285515
211	0xbbd7a00a	-0.0065803574
212	0x3b51ec8a	0.0032031857
213	0xbbd33f5e	-0.006446763
214	0x3cde5308	0.027139202
215	0x3a8782cd	0.0010338664
216	0x3c0ed2e1	0.00871727
217	0xbc2066cf	-0.0097901365
218	0x3be700aa	0.0070496397
219	0x3892664e	6.980878e-05
220	0x3b072c0b	0.0020625617
221	0x3bc1a105	0.0059090876
222	0xbc15e786	-0.009149438
223	0xbcc2e49e	-0.023790654
224	0x3c447245	0.011990135
225	0xbbe73057	-0.007055323
226	0xbb985b62	-0.0046495656
227	0x3c0b0327	0.008484638
228	0x3b407fd3	0.0029373064
229	0xbd31bff5	-0.043395955
230	0xbb455cb7	-0.0030115077
231	0x3ae4edb1	0.0017465857
232	0x3c48d5df	0.012258022
233	0x3bba886e	0.005692533
234	0x3b96a1cd	0.004596925
235	0xbb3f31a2	-0.002917387
236	0x39701cc2	0.00022898897
237	0x3bf13097	0.0073605287
238	0x3c0a1771	0.00842844
239	0x3ba07ca6	0.0048976718
240	0xbc4ddded	-0.012565118
241	0x3bc97584	0.006148042
242	0xbc31ba90	-0.010847703
243	0x3a5fd2b5	0.00085381727
244	0xbaf60751	-0.0018770491
245	0xbb06fac3	-0.0020596243
246	0xbd54536e	-0.051837377
247	0x3c3191d5	0.010837992
248	0x3bbb999b	0.0057250983
249	0x3c2b456e	0.010453565
250	0xbbb61e20	-0.0055577904
251	0x3c11a49b	0.008889343
252	0xbaad27af	-0.0013210679
253	0xbcaf5865	-0.021404454
254	0x3ad36f8b	0.0016131265
255	0x3b82b63e	0.00398901

network_body.linear_encoder.seq_layers.0.weight f4 [256, 255]
0	0xbe4cc7f2	-0.19998148
1	0x3d18f87e	0.037346356
2	0xbd522985	-0.051309127
3	0x3c8dbbf5	0.017301539
4	0xbe3ea395	-0.18617089
5	0x3c6e8358	0.014557682
6	0xbda3a4b7	-0.07990401
7	0xbdbee583	-0.0932112
8	0xbea1cc3b	-0.31601128
9	0x3ddae2a7	0.10687762
10	0x3d38b72b	0.045096558
11	0x3c9ade48	0.01890482
12	0x3d4d7808	0.0501633
13	0x3d81dbf3	0.0634078
14	0xbd6affec	-0.057372972
15	0xbd214e0c	-0.039381072
16	0x3cf39062	0.029731933
17	0xbdf1abab	-0.11800321
18	0xbdd52ea0	-0.10409284
19	0xbd5a64b5	-0.053318698
20	0xbc344301	-0.011002303
21	0x3c99fa44	0.018796094
22	0x3dea5517	0.11442011
23	0xbb9429a7	-0.004521567
24	0x3d3df05e	0.04637181
25	0xbe01e2dc	-0.12684196
26	0xbd5a1f42	-0.053252466
27	0x3d4c4788	0.049872905
28	0x3db0d723	0.08634784
29	0x3d83d3e4	0.06436899
30	0xbe124384	-0.14283568
31	0xbe70c653	-0.23513155
32	0xbd7a57b4	-0.061118796
33	0x3d1eec30	0.038799465
34	0xbd71fa66	-0.05907669
35	0xbdb6a201	-0.089176185
36	0x3cf35083	0.029701477
37	0x3d35da37	0.04439756
38	0x3e1d09f5	0.1533583
39	0xbe03c571	-0.12868287
40	0x3c91fbf3	0.017820334
41	0xbb8bbad9	-0.0042642173
42	0x3d7cf407	0.06175616
43	0xbe20e0eb	-0.157108
44	0x3d176169	0.036958132
45	0x3d8f4106	0.06994824
46	0x3d632493	0.0554548
47	0x3cbef1b0	0.023308605
48	0x3e223cce	0.15843508
49	0xbd3312d6	-0.043719135
50	0x3cbe3045	0.023216376
51	0xbbeb8ae7	-0.0071881893
52	0x3c042562	0.008065553
53	0xbc226193	-0.009910959
54	0xbdad8f68	-0.08474618
55	0xbcd155e4	-0.025553651
56	0x3d9b3300	0.07578087
57	0x3d844754	0.06458917
58	0xbd2cde8f	-0.042204436
59	0x3a232d3a	0.0006224696
60	0xbcaab4d6	-0.020838182
61	0x3c8dbde7	0.017302467
62	0x3b3ed515	0.0029118706
63	0x3c802c22	0.015646044
64	0x3d3cae55	0.046064693
65	0xbe00b48a	-0.1256887
66	0x3c7d41e1	0.015457601
67	0x3bb037d1	0.0053777476
68	0xbe6ef620	-0.23336077
69	0x3d131549	0.03590897
70	0xbdc8571d	-0.097822405
71	0x3d4689dd	0.04847132
72	0xbd8974ac	-0.067117065
73	0xbdd5436d	-0.10413251
74	0xb72fac38	-1.0470911e-05
75	0xbd369448	-0.044575006
76	0x3c62858a	0.0138257835
77	0x3d410fce	0.047134213
78	0xbd3dc456	-0.04632982
79	0xbc629fc8	-0.01383204
80	0x3c92b691	0.01790932
81	0x39225233	0.00015480146
82	0x3d9140d8	0.07092446
83	0xba765525	-0.0009396843
84	0xbd3b311d	-0.045701135
85	0x3e1f6b3a	0.15568247
86	0x3b884352	0.004158416
87	0xbdb741dc	-0.089481086
88	0x3c4fd27d	0.012684462
89	0x3d280147	0.041016843
90	0xbcc6dcb4	-0.024275161
91	0x3d125df1	0.03573412
92	0xbdb7cabe	-0.08974217
93	0x3ce563b4	0.028001644
94	0x3d70f48e	0.058826976
95	0xbded9583	-0.11600783
96	0xbdbc7ff1	-0.092040904
97	0x3dd64fd8	0.10464448
98	0xbc3c84b3	-0.011506247
99	0x3d958fcd	0.073028184
100	0x3cb4e0a0	0.022079766
101	0xbc01c250	-0.007919863
102	0x3d155111	0.036454264
103	0x3d7c9dfe	0.06167411
104	0xbe27c80d	-0.16384907
105	0xbd7feb24	-0.062480107
106	0xbc1ad636	-0.009450486
107	0x3c94d5b0	0.0181683
108	0x3d9023aa	0.070380524
109	0xbca91178	-0.020638213
110	0x3cd7e17d	0.026352638
111	0x3c12dbcf	0.008963539
112	0x3cea8cc0	0.028631568
113	0x3dd13e98	0.10217017
114	0x3cf47e4c	0.02984538
115	0x3d5829a8	0.0527741
116	0x3d89eb59	0.06734342
117	0xbb96864d	-0.0045936466
118	0xbca869b3	-0.020558214
119	0x3db51969	0.08842737
120	0xbb59b53a	-0.0033219592
121	0x3dec6351	0.115423806
122	0xbc50d77f	-0.012746691
123	0xbb1ff28f	-0.002440605
124	0xbe2391de	-0.15973613
125	0x3c4221eb	0.011848907
126	0x3d937657	0.07200306
127	0x3d522670	0.051306188
128	0x3d994191	0.07483209
129	0xbc11a24e	-0.008888794
130	0xbdac3263	-0.08408048
131	0x3dcc28c1	0.09968711
132	0xbda41f89	-0.08013827
133	0x3d919de8	0.07110196
134	0x3d9b6179	0.07586951
135	0x3d82b73d	0.06382606
136	0x3e4a8e7b	0.19780914
137	0xbd01935c	-0.031634673
138	0xbd93b790	-0.07212746
139	0x3c99d07d	0.018776173
140	0xbd6012ff	-0.054705616
141	0xbdd2b680	-0.10288715
142	0xbd307678	-0.04308173
143	0x3cc5f45c	0.024164371
144	0xbc52a9a0	-0.012857825
145	0xbd5c720c	-0.0538197
146	0x3cae99c0	0.021313548
147	0xbc2a95cd	-0.010411692
148	0x39606d43	0.00021403008
149	0xbd59c24b	-0.053163808
150	0xbd0414e7	-0.032246497
151	0x3d7bc7a3	0.061469685
152	0xbbfce18c	-0.007717317
153	0xbd15315b	-0.036424022
154	0xbd516d26	-0.051129483
155	0x3e08ca5b	0.13358442
156	0xbdd79255	-0.105259575
157	0xbddbde6e	-0.107357845
158	0xbc59e287	-0.013298637
159	0x3e39cf7c	0.18145555
160	0x3dd3b12c	0.10336527
161	0xbd6f44b2	-0.058415122
162	0xbd2d1f66	-0.042266272
163	0xbd5721e1	-0.052522544
164	0xbcb91ed9	-0.022597717
165	0x3d04a525	0.032384057
166	0xbd2ff368	-0.04295674
167	0x3e12d832	0.14340284
168	0x3c750e94	0.014957089
169	0xbd620972	-0.05518479
170	0x3b8523b9	0.0040630964
171	0x3d2f9e1a	0.042875387
172	0xbd86817d	-0.06567667
173	0xbd6caeac	-0.057783768
174	0xbd91b871	-0.071152575
175	0x3e5db5eb	0.21651427
176	0x3d1ea667	0.038732912
177	0xbc79f5b8	-0.015256338
178	0xbd324c42	-0.043529756
179	0x3d35655f	0.044286128
180	0xbe099e71	-0.13439347
181	0x3d868dc5	0.06570009
182	0x3d1995b6	0.03749629
183	0x3d256d9d	0.04038774
184	0xbc489c18	-0.012244247
185	0x3ddd3318	0.10800761
186	0x3d874932	0.06605758
187	0xbd3a369d	-0.04546224
188	0xbcc18025	-0.023620674
189	0xbd13c1a9	-0.03607336
190	0xbcc107f3	-0.02356336
191	0x3dda437d	0.106574036
192	0x3b22ab30	0.0024821274
193	0x3db6dc79	0.089287706
194	0x3ce5dda8	0.028059795
195	0x3cc8104b	0.024421832
196	0xbd8c42f1	-0.068487056
197	0x3d23c86d	0.039986063
198	0x3db044af	0.0860685
199	0x3e0d8d97	0.13823543
200	0xbd0b899e	-0.03406679
201	0xbdc344e9	-0.09534628
202	0xbd952ca9	-0.07283909
203	0x3d9b7f62	0.07592656
204	0x3d5ca2fd	0.053866375
205	0xbca4598b	-0.020062229
206	0x3d854b90	0.06508553
207	0x3d6aab88	0.05729249
208	0xbda85760	-0.082197905
209	0x3d22954d	0.039693166
210	0xbba35fbf	-0.004985779
211	0xbcd03e50	-0.025420338
212	0x3d0128fc	0.031533226
213	0x3d98a3ae	0.074530944
214	0xbd9226fe	-0.071363434
215	0x3d2092a5	0.03920235
216	0x3e0db56f	0.13838743
217	0x3d30662b	0.043066185
218	0xbd331309	-0.043719325
219	0x3d818b18	0.06325358
220	0xbe1b07da	-0.15139714
221	0xbce0cb44	-0.027440675
222	0x3da784f7	0.08179658
223	0x3da20de0	0.07912803
224	0x3dbae780	0.09126186
225	0x3ce6f569	0.028193193
226	0x3d28076c	0.041022703
227	0xbd0cf426	-0.034412526
228	0xbd5f4679	-0.054510567
229	0xbd19fc6a	-0.037594236
230	0x3d855bc9	0.06511647
231	0x3d11efc4	0.03562905
232	0xbd881140	-0.06643915
233	0x3da6862f	0.08131062
234	0xbd5c70b7	-0.05381843
235	0xbcb0fc24	-0.021604605
236	0x3dc673f3	0.09690084
237	0x3c5519cc	0.013006639
238	0xbe21a3b5	-0.15785106
239	0xbd353c56	-0.044246994
240	0x3cb75cb1	0.022383066
241	0xbcc0f55a	-0.023554493
242	0x3e26ea84	0.16300398
243	0x3d9a9894	0.07548633
244	0xbd95c676	-0.07313244
245	0xbc6512ac	-0.0139815025
246	0xbd8f455d	-0.06995652
247	0xbdc4cc8c	-0.09609327
248	0xbda72e60	-0.08163142
249	0xbd2816a7	-0.041037228
250	0xbd4e13f0	-0.050311983
251	0xbe71c971	-0.23612
252	0x3a9c6268	0.0011931183
253	0xbde19fd6	-0.110168144
254	0xbc0f087e	-0.008730052
255	0x3e1ab335	0.15107425

network_body.linear_encoder.seq_layers.2.bias f4 [256]
0	0x3c8d96d8	0.017283842
1	0xb9a9212c	-0.00032258907
2	0xbce34d3a	-0.027746785
3	0xbce2a6e3	-0.027667468
4	0xbbf0437a	-0.0073322626
5	0xbcab57ab	-0.020915827
6	0xbaacf46b	-0.0013195401
7	0xbbc90a2a	-0.006135245
8	0xbbbb1687	-0.0057094726
9	0xbcc3f1c5	-0.023918996
10	0xbc419a1b	-0.011816527
11	0xbc62a755	-0.01383384
12	0xbd1723de	-0.03689944
13	0xbc90d01e	-0.017677363
14	0x3c3adbb4	0.01140492
15	0xbba624d0	-0.0050703064
16	0xbb391495	-0.0028241028
17	0xbc91a84d	-0.017780447
18	0x39343bff	0.00017188488
19	0xbc770cfb	-0.015078778
20	0xbcc8d4c5	-0.024515519
21	0xbcfcc3d1	-0.030855091
22	0xbca9195b	-0.020641973
23	0xbaa14ce5	-0.0012306242
24	0xbae4f633	-0.0017468393
25	0xbb91e829	-0.0044527245
26	0x3b7e72cb	0.0038825746
27	0xbb9ba9cc	-0.004750466
28	0x3bb2a8cb	0.0054522506
29	0xbcd45b02	-0.025922302
30	0xbc67801d	-0.014129666
31	0xbc0f561a	-0.008748556
32	0xbc03cf8c	-0.0080450885
33	0xbc1bb149	-0.009502717
34	0xbb746e4d	-0.003729719
35	0xbc382d59	-0.0112412805
36	0xbcad88b0	-0.021183342
37	0xbbe7247e	-0.0070539108
38	0xbb6b5c0f	-0.0035913025
39	0x3c2f4c0a	0.0106992815
40	0xbc060df6	-0.0081820395
41	0xba9cda0b	-0.0011966837
42	0x3af39e8c	0.0018586679
43	0xbb73342c	-0.0037109954
44	0xbc61ef23	-0.013789925
45	0xbb3c6ab1	-0.0028750116
46	0xbccd4568	-0.02505751
47	0xbc5b0696	-0.013368269
48	0xbb26e0c9	-0.0025463572
49	0x3baa257a	0.005192456
50	0xbd067787	-0.032828834
51	0x3c7f7b60	0.01559338
52	0xbb93bcfc	-0.0045086127
53	0xbca2eb57	-0.01988761
54	0xbc2e6630	-0.010644481
55	0x3bb6ef1e	0.005582704
56	0xbc8daa72	-0.017293189
57	0xbbd5b11a	-0.0065213563
58	0xbca36779	-0.0199468
59	0xbb8df621	-0.0043323194
60	0xbbb797e1	-0.005602822
61	0x3b3111c1	0.0027018639
62	0x3b5f69c6	0.0034090145
63	0xbc3773c4	-0.011197034
64	0xbc9c7b95	-0.019101897
65	0xb7e49264	-2.7247886e-05
66	0xbd1c5d83	-0.038175117
67	0xbc7c7ed0	-0.015411094
68	0xbcd850e4	-0.02640576
69	0xbbbb30f3	-0.0057126223
70	0xbc5be0a0	-0.013420254
71	0xbbadf9ce	-0.00530932
72	0xbc33e345	-0.010979478
73	0xbb0de554	-0.0021651583
74	0xbc95dec1	-0.018294694
75	0xbc56cc98	-0.013110302
76	0xbcf1e52d	-0.029528225
77	0xbc2838e7	-0.010267473
78	0xbcb2d94f	-0.021832136
79	0xbc3d1ec7	-0.011542982
80	0x3ad64d07	0.001634986
81	0xbc144e28	-0.009051837
82	0xbc90bf9d	-0.017669493
83	0x3b6c0180	0.0036011636
84	0x3ac993d6	0.0015379142
85	0xbcb1846a	-0.021669585
86	0xbc848170	-0.016175002
87	0xbc6504d2	-0.0139782
88	0xbbea14df	-0.0071436013
89	0xbc9781b5	-0.018494466
90	0xbc1ee9dc	-0.009699311
91	0x3b1e263f	0.0024131683
92	0xbc0976fd	-0.008390185
93	0xbc60c451	-0.0137186805
94	0xbb49d17d	-0.003079503
95	0xbb9e8182	-0.004837216
96	0xbbd29df1	-0.0064275195
97	0xbb8dfa91	-0.0043328484
98	0xbc194928	-0.009355821
99	0xbc2e637c	-0.010643836
100	0xbbdaa1b4	-0.0066721085
101	0xbba33c8f	-0.0049815844
102	0x3bc146ca	0.0058983313
103	0xbcee8bda	-0.02911942
104	0xbbce7d41	-0.0063015525
105	0x3b73c573	0.0037196546
106	0xbc0c5af6	-0.008566609
107	0xbaae9bec	-0.0013321615
108	0x3bec5d48	0.0072132684
109	0xbc6af582	-0.01434076
110	0x3a4c121b	0.00077846803
111	0xbcff8c40	-0.031194806
112	0x3af07927	0.0018346653
113	0xbccba9d7	-0.02486126
114	0xbca975f3	-0.020686125
115	0xbc3d58a0	-0.011556774
116	0x3c511469	0.012761214
117	0xbac5152a	-0.0015036215
118	0x3bb5ff21	0.0055540954
119	0xbcb27ad9	-0.021787094
120	0x3c49ea09	0.012323865
121	0xbc42d2f3	-0.0118911145
122	0xbc1a364b	-0.0094123585
123	0xbba7e18b	-0.0051233224
124	0xbc8b95b0	-0.01703915
125	0xbcc007f7	-0.023441298
126	0xbc042c80	-0.00806725
127	0x3b1e89dd	0.002419106
128	0xbb8b62e1	-0.0042537306
129	0xb99fba81	-0.000304658
130	0x3ba8117c	0.0051290374
131	0x3c81172e	0.015758123
132	0xbc076a8a	-0.008265147
133	0x3cb05d4c	0.021528862
134	0x3ae40c7d	0.0017398741
135	0xbc1e57c4	-0.00966448
136	0xbc1aec21	-0.009455712
137	0xbc53f568	-0.012936927
138	0xbb5b3d30	-0.0033453219
139	0xbb749fe9	-0.003732676
140	0x3c043941	0.008070291
141	0xbc02842e	-0.007966084
142	0xbcee7e57	-0.029112978
143	0xbc4a934e	-0.012364222
144	0xbcb76ad0	-0.0223898
145	0x3bf487d0	0.007462479
146	0x3c09607d	0.008384821
147	0x3c07bd7b	0.008284922
148	0xbc991a7d	-0.018689388
149	0xbc657d97	-0.014006994
150	0x3b6d5da1	0.0036219137
151	0xbba1fb9e	-0.004943325
152	0xbc508410	-0.012726799
153	0xbcae1f73	-0.02125523
154	0x3a47b938	0.00076188473
155	0xbc176680	-0.0092407465
156	0xbc2147f0	-0.009843811
157	0x393011c8	0.00016791292
158	0xbd10c7a1	-0.03534663
159	0x3c0fec0f	0.008784308
160	0xbc8c6d8e	-0.017142083
161	0xbc276089	-0.010215887
162	0x3bae82eb	0.005325665
163	0xbc64d7db	-0.01396748
164	0x3b5dbcea	0.0033834525
165	0xbcfaf7d6	-0.030635756
166	0x392b44ad	0.00016333415
167	0xbcf67475	-0.030084828
168	0xbced4956	-0.028965633
169	0xbc6362ab	-0.013878505
170	0xbbacb557	-0.005270641
171	0x39edf677	0.00045387793
172	0x3992adfe	0.00027976924
173	0xbc29426c	-0.010330778
174	0x3c250638	0.010072283
175	0xbc15eb9a	-0.00915041
176	0xbc8870c5	-0.016655335
177	0xbb59a782	-0.0033211415
178	0xbaab2140	-0.0013056174
179	0xbcd3b895	-0.025844852
180	0xbca916ab	-0.020640692
181	0xbc9399ef	-0.018017737
182	0xbd04837a	-0.03235195
183	0xbc0588bf	-0.008150279
184	0xbb015b43	-0.0019738234
185	0x3c02ac7c	0.007975694
186	0xbc44bedb	-0.012008394
187	0x3ab7919d	0.0014005188
188	0xbcda4f2e	-0.026649084
189	0xbce0b05e	-0.027427848
190	0xbcf5873d	-0.029971713
191	0x3c1b38b1	0.0094739655
192	0x3c46a54a	0.012124369
193	0xbb92d507	-0.0044809612
194	0xbc194e7c	-0.009357091
195	0xbc979be8	-0.01850696
196	0xbc802881	-0.015644314
197	0xbb563186	-0.0032683327
198	0xbb977c86	-0.0046229986
199	0xbcccc43f	-0.024995921
200	0xbc4f4b99	-0.012652301
201	0xba856516	-0.0010177221
202	0xbbbef7ed	-0.005827895
203	0xbcda8b99	-0.026677893
204	0xbcb94d64	-0.02261991
205	0xbc5c476e	-0.013444765
206	0xbd0023be	-0.031284086
207	0xbb0f6973	-0.002188292
208	0x3b5fd711	0.003415529
209	0xbd3439ba	-0.044000365
210	0xbb704043	-0.0036659397
211	0x3bee7050	0.0072765723
212	0xbc87ac20	-0.016561568
213	0xbb793c5f	-0.0038030369
214	0xbc6c64f6	-0.014428368
215	0xbb65fc75	-0.0035093103
216	0xbc8b200b	-0.016983053
217	0xbc911d7c	-0.017714255
218	0xbc83d2d0	-0.016091734
219	0xbb4db253	-0.0031386807
220	0x3b4daa96	0.0031382195
221	0xbcacfb9d	-0.021116072
222	0xbc673bea	-0.014113406
223	0xbc4f0b04	-0.012636904
224	0xbcd3d68d	-0.025859142
225	0xbb26ed1b	-0.0025470916
226	0xbbca4da4	-0.0061738063
227	0xbc071993	-0.008245843
228	0xbbf79ed4	-0.0075567756
229	0x3a9ac08c	0.0011806651
230	0x3be57e7d	0.007003604
231	0xbc493db3	-0.012282777
232	0x3c508e97	0.012729309
233	0x3b5711af	0.0032816937
234	0x3b59ade6	0.0033215224
235	0x3bf17a5f	0.007369324
236	0xbb523f1d	-0.0032081075
237	0xba7bf6b3	-0.0009611651
238	0x3b830df8	0.003999468
239	0xbc36f92f	-0.011167808
240	0xbb4478bb	-0.0029979188
241	0xbc225534	-0.009908009
242	0xbc9c13d6	-0.019052427
243	0xbbde52e8	-0.0067847855
244	0xbc76ef0a	-0.01507164
245	0xbc3f6eb0	-0.011684105
246	0xbbac9dc5	-0.005267831
247	0xbc265c96	-0.01015391
248	0x3c4b2f18	0.012401365
249	0xb9c97fa6	-0.00038432813
250	0x3b718ea3	0.00368587
251	0xbcbaf06e	-0.022819724
252	0xbc9842c0	-0.018586516
253	0xbc0dda9d	-0.0086580785
254	0x3cb559e1	0.022137584
255	0xbc43a045	-0.011940067

network_body.linear_encoder.seq_layers.2.weight f4 [256, 256]
0	0xbdf35bda	-0.11882754
1	0x3d8ccb70	0.0687474
2	0xbdea5f25	-0.11443929
3	0xbc1ca162	-0.009559961
4	0xbdc395fa	-0.0955009
5	0xbd44dc60	-0.04806173
6	0x3c61bdf1	0.013778196
7	0xbd65a8a4	-0.05606903
8	0x3e15b55a	0.14619961
9	0x3d3f3e43	0.046690237
10	0xbc832173	-0.01600716
11	0xbd7acc3e	-0.061229937
12	0x3c28135b	0.010258521
13	0xbd4f85d6	-0.050664745
14	0xbe19d664	-0.1502319
15	0xbd586276	-0.052828275
16	0xbaa7869a	-0.0012781203
17	0xbd41cd81	-0.047315124
18	0x3d859f65	0.06524543
19	0xbac3d987	-0.0014942148
20	0x3db181fb	0.0866737
21	0x3d57e219	0.052705858
22	0x3a915aac	0.0011089644
23	0xbda0611f	-0.078310244
24	0xbe04a745	-0.12954433
25	0xbd850411	-0.06494916
26	0xbc6f61ba	-0.014610702
27	0x3d680809	0.056648288
28	0x3dd9a0a3	0.10626342
29	0xbd842c64	-0.06453779
30	0x3dca6aa1	0.09883619
31	0x3d31b396	0.043384157
32	0x3cb08019	0.021545457
33	0x3e292f3b	0.16521923
34	0xbd3ad435	-0.045612533
35	0x3c84c0fc	0.016205303
36	0xbd282e59	-0.041059826
37	0x3cd1f0a0	0.025627434
38	0xbbe80040	-0.007080108
39	0x3d95fa21	0.07323099
40	0x3d0200f1	0.03173918
41	0xbc68e128	-0.014213838
42	0xbd736023	-0.059417855
43	0xbe2023cb	-0.15638654
44	0x3da1d24d	0.0790144
45	0xbda2611d	-0.07928679
46	0x3cb59307	0.022164835
47	0xbca7b537	-0.020472152
48	0xbde92bf1	-0.11385334
49	0x3d730916	0.059334837
50	0xbd6bdc84	-0.057583347
51	0xbcf7767c	-0.030207865
52	0xbd5cfe1d	-0.05395328
53	0xbe228191	-0.15869738
54	0xbd893c7f	-0.06700992
55	0x3d324fca	0.043533124
56	0xbd246ddb	-0.04014383
57	0x3deba6a3	0.11506393
58	0x3d10655b	0.03525291
59	0x3dafaabc	0.08577487
60	0xbcee7744	-0.029109605
61	0x3ced8e7c	0.028998606
62	0x3cd3fe39	0.025878059
63	0x3dc58b56	0.09645717
64	0x3ca41a8f	0.020032195
65	0x3cbfdaa5	0.023419688
66	0xbd6e8efc	-0.05824183
67	0x3dd1af30	0.102384925
68	0x3c08fa8c	0.008360516
69	0x3c7f2bc4	0.015574399
70	0xbcd8125a	-0.026375938
71	0xbc7551d7	-0.014973125
72	0x3dbbc817	0.091690235
73	0xbe0dd8e0	-0.13852262
74	0x3d8d216a	0.06891139
75	0xbd2b8a4d	-0.04187994
76	0x3cd613e4	0.026132531
77	0x3d208d36	0.03919717
78	0xbcf9ef63	-0.030509656
79	0x3d5b8bb4	0.05360003
80	0xbe39e84d	-0.18155022
81	0xbd94a3d0	-0.07257807
82	0x3e1edefe	0.15514752
83	0xbbb1d152	-0.0054265643
84	0x3d7f257e	0.062291615
85	0xbe023e86	-0.12719163
86	0xbc14f0c6	-0.009090608
87	0xbd19b45e	-0.037525527
88	0xbd28f4b4	-0.041248992
89	0x3cd5f435	0.026117424
90	0xbdb3effa	-0.08786006
91	0xbd546765	-0.051856417
92	0x3c567d74	0.013091434
93	0x3d7bd632	0.06148357
94	0x3ddf580e	0.10905467
95	0xbcba29ea	-0.022725064
96	0xbcef62db	-0.029221943
97	0xbd6fcfcb	-0.058547776
98	0xbda277ec	-0.079330295
99	0x3a4525d0	0.0007520588
100	0x3beac085	0.0071640634
101	0xbd5c373d	-0.053763617
102	0x3be709d6	0.007050733
103	0xbd56a1c8	-0.05240038
104	0x3c796c63	0.015223595
105	0x3dce55a3	0.10074928
106	0x3c14579b	0.00905409
107	0x3d361e40	0.044462442
108	0x3dad5319	0.08463115
109	0xbdd39206	-0.10330586
110	0x3dac8f74	0.08425799
111	0x3cd7b167	0.02632971
112	0x3d30c5a0	0.04315722
113	0x3d9b2ef4	0.07577315
114	0x3d1b4c29	0.03791443
115	0x3dc7983a	0.09745832
116	0xbd8cdaed	-0.06877694
117	0x3d10e1aa	0.03537146
118	0xbca356c9	-0.019938843
119	0x3d3cfff2	0.046142526
120	0xbc278bed	-0.010226232
121	0xbd5c8445	-0.05383708
122	0x3c161a47	0.009161538
123	0x3de4a929	0.11165077
124	0xbcacb258	-0.021081135
125	0x3ce427a2	0.02785093
126	0x3cdaf477	0.026727898
127	0x3ddf8434	0.109138876
128	0xbd3a3e31	-0.045469467
129	0xbd20bed1	-0.039244477
130	0x39c14eee	0.00036870636
131	0x3c20e28a	0.009819636
132	0x3c2302e2	0.009949418
133	0x3d247195	0.040147383
134	0xbdcc7001	-0.099823005
135	0xbc79e211	-0.015251652
136	0xbd4d62ba	-0.05014298
137	0xbca3db0c	-0.02000191
138	0xbc5ac086	-0.013351565
139	0xbca5b218	-0.020226523
140	0xbe08f66d	-0.13375254
141	0xbd3416f2	-0.043967195
142	0xbc8a66c4	-0.016894706
143	0x3d194358	0.03741774
144	0x3cfe4367	0.031038
145	0x3d1daaa2	0.038492806
146	0xbc0ecd36	-0.008715918
147	0xbcc965e6	-0.024584722
148	0x3d2b108f	0.04176384
149	0xbd45cc0f	-0.04829031
150	0x3d43db5e	0.047816627
151	0x3ca11a9b	0.019666007
152	0x3d27d80c	0.040977523
153	0xbd30e893	-0.04319055
154	0xbcb71dcf	-0.022353081
155	0xbcf82ab7	-0.030293806
156	0xbc8c771d	-0.017146641
157	0xbe243fd5	-0.16039975
158	0x3dbf77cd	0.09349022
159	0xbdc56eeb	-0.096402965
160	0xbd3f9295	-0.04677065
161	0x3dd9d37a	0.10636039
162	0x3cf2a702	0.029620651
163	0x3d43a8a0	0.047768235
164	0x3d9a6273	0.07538309
165	0x3d47dd46	0.048795007
166	0xbd280fda	-0.041030742
167	0xbd605932	-0.054772563
168	0xbca05e0f	-0.0195761
169	0xbcb9b4b1	-0.022669168
170	0x3bc72027	0.006076831
171	0x3dbfc9f0	0.093646884
172	0x3da6f09b	0.081513606
173	0xbe03f3b2	-0.12885931
174	0x3cf8197d	0.030285591
175	0x3c888072	0.01666281
176	0xbc64adf9	-0.013957494
177	0x3ddbd6da	0.10734339
178	0x3deb5caf	0.11492287
179	0x3dac65c3	0.08417847
180	0xbd218b50	-0.0394395
181	0x3a735f9a	0.000928396
182	0xbc90fc93	-0.017698562
183	0xbd84147a	-0.06449218
184	0x3c35e352	0.011101561
185	0x3d56fb8b	0.052485984
186	0x3cf3682e	0.029712763
187	0xbd3782cf	-0.044802483
188	0x3df1df2a	0.11810143
189	0xbc65e039	-0.01403051
190	0x3da5fa21	0.08104349
191	0x3cab52e3	0.020913547
192	0x3d802cab	0.0625852
193	0xbd47942e	-0.0487253
194	0x38bc0dff	8.9671455e-05
195	0xbcd5d122	-0.026100699
196	0x3d714b3d	0.058909643
197	0xbdc0d078	-0.09414762
198	0xbc785283	-0.015156391
199	0xbc932daa	-0.01796611
200	0x3cf6cf37	0.030128105
201	0xbdca6415	-0.098823704
202	0x3d84f44d	0.06491909
203	0xbd4dc357	-0.05023512
204	0xbd0fa72e	-0.035071544
205	0xba47fc1d	-0.00076288154
206	0x3d06d3e7	0.03291693
207	0xbd7d057e	-0.061772816
208	0x3b2a8ab0	0.0026022606
209	0xbd26aea5	-0.040693898
210	0xbcdf03a9	-0.027223425
211	0xbdfed266	-0.12442474
212	0x3d0a9202	0.03383065
213	0xbd0cb03f	-0.03434777
214	0xbd1bdbee	-0.03805154
215	0xbd42b06a	-0.047531523
216	0xbd0f6c04	-0.03501512
217	0x3d124ba4	0.035716668
218	0xbd47302a	-0.048629917
219	0xbd84e272	-0.064885035
220	0x3c41fee9	0.0118405605
221	0x3d0e5f8c	0.03475909
222	0x3db8fea6	0.09032945
223	0xbcef1acf	-0.029187588
224	0xbd8e3723	-0.0694411
225	0x3d05ea77	0.032694306
226	0xbd39a9d3	-0.045327973
227	0x3d3135d6	0.043264233
228	0x3c87d79e	0.016582306
229	0x3d1fc0d3	0.03900225
230	0xbb0de5e5	-0.002165192
231	0xbcd014e8	-0.025400594
232	0xbd739371	-0.059466783
233	0xbdf08675	-0.11744396
234	0x3d35fd53	0.044431042
235	0x3d8b951e	0.06815551
236	0x3dca07ee	0.09864794
237	0xbe11f8ec	-0.14255112
238	0xbe218943	-0.15775017
239	0x3caf5d7d	0.021406883
240	0x3d2c5983	0.042077553
241	0xbd7f73bf	-0.062366243
242	0xbd5067d8	-0.050880283
243	0xbdd7678e	-0.10517798
244	0xbc99fef1	-0.018798323
245	0x3d050d86	0.0324836
246	0xbe06105a	-0.13092175
247	0xbd5558e8	-0.05208674
248	0xbd9f5db1	-0.07781542
249	0x3d3a8bdd	0.04554354
250	0x3c6574be	0.014004884
251	0x3d5d59e3	0.0540408
252	0x3db0fd27	0.08642035
253	0xbdbb84f5	-0.09156219
254	0x3dba0fbd	0.09085033
255	0xbc41754d	-0.011807752

network_body.linear_encoder.seq_layers.4.bias f4 [256]
0	0x3ccc4699	0.024936007
1	0x3c716383	0.014733198
2	0xbcb6724c	-0.022271298
3	0x3cbf6e39	0.023367988
4	0x3c0e3e59	0.008681857
5	0x3ad35314	0.0016122782
6	0x3bff7c35	0.007796789
7	0xbc208e7e	-0.009799598
8	0xbb9853d7	-0.0046486664
9	0x3c15afc5	0.009136145
10	0x3c181bc6	0.009283965
11	0x3b316b83	0.0027072139
12	0x3b3bd06b	0.0028658162
13	0x3cae2092	0.021255765
14	0x3cb2f548	0.021845475
15	0x3c6fde08	0.014640339
16	0x3b772ab1	0.0037714655
17	0x3b20ca0e	0.0024534496
18	0xbb6335ef	-0.0034669598
19	0xbbba8068	-0.0056915767
20	0xbc55fdbd	-0.013060984
21	0x3c4cf32e	0.01250915
22	0xbc273b74	-0.010207046
23	0xbc06e86f	-0.008234127
24	0xbc814b3b	-0.015782943
25	0xbc9b37c3	-0.018947488
26	0x3cd19360	0.02558297
27	0xbc5449ae	-0.01295702
28	0x3b47527f	0.0030414162
29	0xbc34d31e	-0.011036662
30	0x3c9a9313	0.018868959
31	0x3b28bb76	0.00257465
32	0x3cad78ea	0.02117582
33	0xbc5cffb1	-0.013488696
34	0xbc91bfcd	-0.017791653
35	0xbc7c06d3	-0.015382486
36	0xbc11a0c3	-0.008888426
37	0x3b2dccbc	0.0026519736
38	0x3aee58a2	0.0018184374
39	0xbbdf0a2b	-0.006806632
40	0xbc297174	-0.010341991
41	0xbc48b41a	-0.012249971
42	0xbc0e559d	-0.008687404
43	0xb99ced81	-0.00029931593
44	0x3b957913	0.0045615523
45	0xbb8c617b	-0.0042840815
46	0xbc880d5f	-0.016607938
47	0xbc00c9b6	-0.007860592
48	0xb9dec3da	-0.0004248906
49	0xbbc54dd9	-0.006021243
50	0x3a8adccf	0.001059437
51	0x3cf4be07	0.029875768
52	0xbc08fe10	-0.0083613545
53	0xba978226	-0.0011559173
54	0x3cc805d9	0.02441685
55	0xbc32a2ea	-0.0109031
56	0xbca0b7bb	-0.01961886
57	0xbcd8fbe8	-0.026487306
58	0x3c6884d0	0.014191821
59	0x3b2ab9cf	0.0026050692
60	0xbc6a033d	-0.014282999
61	0xbc7f2fde	-0.015575377
62	0xbc825ef7	-0.015914423
63	0xbb80b719	-0.003928077
64	0x3bb118ae	0.0054045534
65	0x3b7077d2	0.0036692512
66	0xbbd5ed99	-0.006528568
67	0xbc5734c0	-0.013135135
68	0x3c967ec5	0.018370995
69	0x3c3addcb	0.011405419
70	0xbbc26202	-0.0059320936
71	0x3c34fbd5	0.01104637
72	0x3c2686b6	0.0101639535
73	0x3b4a6589	0.0030883274
74	0x3ca2ab75	0.019857148
75	0x3cadbaa8	0.021207169
76	0xbbfdacab	-0.007741531
77	0xbba4f64e	-0.0050342446
78	0x3cbaf0a2	0.02281982
79	0x3b829965	0.003985571
80	0xbbcc83db	-0.0062413043
81	0x3c6fc600	0.014634609
82	0xbc4d47aa	-0.012529293
83	0xbb547ae1	-0.0032421874
84	0x3c738967	0.014864302
85	0x3bc58ca0	0.0060287267
86	0x38df6dea	0.00010653942
87	0xbc97d208	-0.018532768
88	0xbc3642a3	-0.011124286
89	0xbc569d79	-0.013099068
90	0xbca70589	-0.020388382
91	0xbcd9f973	-0.026608204
92	0x3a9edbd4	0.0012119957
93	0xbb80f09c	-0.003934933
94	0xbc866f9e	-0.016410645
95	0xbc9dc435	-0.019258598
96	0xbc6ecefa	-0.014575714
97	0xbc9a0495	-0.018801013
98	0x3b1c7b11	0.0023877064
99	0xbc52634c	-0.012841057
100	0x3c823c02	0.015897755
101	0xbc522961	-0.012827248
102	0xbc2c46cc	-0.010514926
103	0x3c1f9007	0.009738929
104	0x3c75694f	0.014978721
105	0xbd039f8f	-0.03213459
106	0x3c7965df	0.015222042
107	0x3c84ff4a	0.016235013
108	0xbbece0c2	-0.0072289417
109	0xbbb1a161	-0.005420849
110	0x3c3842bf	0.011246382
111	0x3cd1b68c	0.02559974
112	0x3c0ad194	0.008472819
113	0x3c78190e	0.015142692
114	0x3bd1184e	0.006381071
115	0xbc8807ac	-0.01660522
116	0xbd37079b	-0.044684988
117	0xbc67b4ea	-0.014142254
118	0x3c9bc54f	0.019014983
119	0xbc4c6823	-0.012476
120	0x3c6b4e8f	0.014361992
121	0xbc936b42	-0.01799548
122	0x3a3111dc	0.00067546754
123	0x3cc972df	0.024590908
124	0x3affda71	0.0019520057
125	0xbc4b2daa	-0.012401024
126	0x3b64743b	0.0034859318
127	0xbc53f556	-0.012936911
128	0xbc901ac8	-0.017590895
129	0x3b893356	0.004187028
130	0xbc90cb8c	-0.017675184
131	0x3c83289f	0.01601058
132	0xbcccdbbd	-0.025007123
133	0x3b9f0863	0.0048532947
134	0x3ca293e7	0.019845916
135	0xbc6ce84d	-0.014459682
136	0xbc0d21ad	-0.008613986
137	0xbc09604c	-0.008384775
138	0x3c84e2ef	0.016221492
139	0xbc621a7a	-0.013800258
140	0xbc610ef0	-0.0137364715
141	0x3c274dc5	0.010211413
142	0x3c09b13a	0.0084040705
143	0x3c4d72b0	0.012539551
144	0xbc0afad6	-0.0084826555
145	0x3cb00b5c	0.021489792
146	0xbb9ed43d	-0.004847078
147	0x3c1b0d59	0.009463632
148	0xbb7481f9	-0.0037308915
149	0xbb0baa32	-0.002131116
150	0x3c806817	0.015674634
151	0x3bd97b9e	0.006637051
152	0xbbe6b049	-0.007040058
153	0xbd085903	-0.033288013
154	0xbbe7db9e	-0.007075741
155	0x3c31a0d9	0.010841572
156	0x3a12aa3e	0.0005594826
157	0x3ca9eabc	0.020741813
158	0x3b8576aa	0.0040729837
159	0x3c400de7	0.011722065
160	0x3caac84d	0.020847464
161	0x3c39bcb7	0.011336497
162	0xbb88fa83	-0.004180254
163	0xbb79efc5	-0.0038137299
164	0x3bd3fea0	0.0064695626
165	0x3b8e1ddb	0.004337055
166	0xbc048d21	-0.008090288
167	0xbc0032df	-0.007824629
168	0x3c25f72b	0.01012973
169	0xbaaf603f	-0.0013380124
170	0x3bfb944e	0.0076775914
171	0x3c02dece	0.007987691
172	0x3cc744a2	0.024324719
173	0xbcdd576a	-0.027019221
174	0xbcc31228	-0.023812369
175	0x3bcc8797	0.0062417495
176	0x3c989e6e	0.018630233
177	0x3ccf61de	0.025315221
178	0xbc19fd7e	-0.009398816
179	0x3cabe19a	0.020981599
180	0xbaa19bd1	-0.0012329762
181	0xbba35997	-0.004985045
182	0x3c7c0462	0.015381904
183	0x3ce5874d	0.028018618
184	0x3c0bdc9c	0.008536484
185	0xbb32438b	-0.0027200903
186	0x3c73c42f	0.014878317
187	0x3b529ffc	0.0032138815
188	0x3c7d7fce	0.015472366
189	0xbcaa9efc	-0.020827763
190	0x3cc1d6c5	0.02366198
191	0x3b2543d0	0.0025217421
192	0x3aa96df0	0.0012926441
193	0xbcc7ef17	-0.024406
194	0xbccdff16	-0.025146049
195	0xbc182d54	-0.009288151
196	0xbc37e406	-0.011223799
197	0x3c3612b9	0.011112862
198	0xbbb01754	-0.0053738747
199	0x3c240bb8	0.01001256
200	0xbc247f48	-0.010040112
201	0xbc6acc86	-0.014330989
202	0xbc109244	-0.008823935
203	0xbc809284	-0.015694864
204	0xbc50594b	-0.012716602
205	0xbbb60203	-0.005554439
206	0x3c8d118b	0.01722028
207	0x3c1f459f	0.009721189
208	0x3b8105e9	0.003937472
209	0x3cbba92e	0.02290782
210	0x3befddb7	0.0073201316
211	0x3ad1e4f2	0.0016013666
212	0xbc6bf609	-0.014401921
213	0x3c1320b0	0.008979961
214	0x3be2bbc7	0.0069193575
215	0xbc3071b5	-0.010769297
216	0x3b78205b	0.0037861082
217	0xbb816ab5	-0.003949488
218	0x3c3d1abb	0.011542018
219	0x3c5d0df2	0.013492094
220	0x3c9ee4c7	0.019396199
221	0xbc1530b7	-0.009105853
222	0xbc2d5ce5	-0.01058123
223	0x3cbab144	0.022789605
224	0xbb295a5f	-0.002584122
225	0xbd0c4b91	-0.034251753
226	0xbbf0f82f	-0.0073538045
227	0x3c7138b2	0.01472299
228	0xbc01f8a6	-0.007932818
229	0xbc76808c	-0.015045296
230	0xbc770c8f	-0.015078678
231	0x3cbd8cbc	0.023138396
232	0xbc396a1c	-0.011316802
233	0x3cebc9af	0.028782694
234	0xbbfd7d03	-0.00773585
235	0xbbf00968	-0.00732534
236	0x3a038b9c	0.0005018057
237	0x3b9463b8	0.004528489
238	0x3bd07f41	0.006362826
239	0xbc92de7f	-0.01792836
240	0xbc765d22	-0.015036853
241	0x3bf63f9c	0.007514907
242	0x3c902c14	0.017599143
243	0xbad8514a	-0.0016503718
244	0x3c6e63d7	0.014550171
245	0x3c8369e4	0.016041704
246	0xbc012da0	-0.007884413
247	0x3ce86c8d	0.028372074
248	0x3c33a331	0.010964201
249	0x3b702b59	0.003664693
250	0x3c98ad71	0.01863739
251	0xbc7b8cfb	-0.015353437
252	0x3cb05874	0.021526553
253	0x3c38bbbe	0.01127523
254	0xbc2b55c6	-0.010457462
255	0xbc63af34	-0.013896752

network_body.linear_encoder.seq_layers.4.weight f4 [256, 256]
0	0x3d9bf447	0.076149516
1	0x3d143bce	0.036189847
2	0xbc970a1c	-0.018437438
3	0xbdb4494f	-0.08803045
4	0xbd9f6717	-0.07783335
5	0xbda26646	-0.07929663
6	0xbbdff122	-0.006834165
7	0x3da7a0e8	0.08184987
8	0x3d894f9c	0.067046374
9	0x3d260485	0.040531654
10	0xbc70d166	-0.014698362
11	0xbd684b7f	-0.056712624
12	0x3d0b88c4	0.034065977
13	0xbbbceef9	-0.0057657924
14	0xbd04d0aa	-0.03242556
15	0xbdfc12ba	-0.12308259
16	0xbda728b5	-0.08162061
17	0xbd8500da	-0.06494303
18	0x3d1fed1b	0.03904448
19	0x3dc876c8	0.09788281
20	0xbe0d60fc	-0.13806528
21	0xbd460e2e	-0.048353367
22	0xbdd1f2b2	-0.102513686
23	0x3e2624d8	0.16224992
24	0xbda829a4	-0.08211067
25	0xb9d8878d	-0.00041299724
26	0xbdb28074	-0.08715907
27	0x3d0f39d2	0.03496725
28	0x3ccec6a6	0.025241207
29	0xbde6ee5b	-0.112759314
30	0xbdd26118	-0.102724254
31	0x3d12bcc9	0.03582457
32	0x3de5c786	0.11219697
33	0xbd3c1994	-0.04592283
34	0x3d445689	0.04793409
35	0xbdaa9bb1	-0.08330477
36	0x3c6c711f	0.014431267
37	0xbc5c1b7f	-0.01343429
38	0xbdb76d29	-0.089563675
39	0x3c39e32d	0.011345667
40	0x3c28fc57	0.010314069
41	0xbdb659dd	-0.08903859
42	0xbd0069e3	-0.03135098
43	0xbcddb3c4	-0.027063258
44	0xbcaefa65	-0.021359632
45	0xbc3bb682	-0.0114570875
46	0xbc6e52cc	-0.0145461075
47	0xbd010058	-0.03149447
48	0x3d02420a	0.03180126
49	0x3d6a6378	0.057223767
50	0xbde58a58	-0.112080276
51	0x3d1c12cd	0.038103867
52	0x3d8c1efa	0.06841846
53	0x3d5b6522	0.053563245
54	0xbc6120e2	-0.01374075
55	0xbdcf6dd6	-0.101283714
56	0xbd0860f8	-0.0332956
57	0xbdc3f33e	-0.09567879
58	0xbda2ac3f	-0.079430096
59	0x3d2fefdf	0.04295337
60	0xbca7d139	-0.020485507
61	0xbcca553a	-0.024698842
62	0xbdea71b4	-0.114474684
63	0xbe035e14	-0.12828857
64	0x3d887358	0.06662625
65	0xbe1ffda6	-0.15624103
66	0xbdeda8ee	-0.116044864
67	0xbcf2ab75	-0.029622773
68	0xbdca6f36	-0.09884493
69	0xbd515e82	-0.05111552
70	0x3d6ac75d	0.057319034
71	0x3cf75dc4	0.030196078
72	0x3c0bbb51	0.008528546
73	0xbe2aa5d4	-0.16664821
74	0x3c49aec5	0.012309735
75	0x3ca62a60	0.020283878
76	0x3d2affe7	0.041747954
77	0x3d3bc9f9	0.045846913
78	0xbda67144	-0.081270725
79	0x3d904107	0.07043653
80	0x3da7760c	0.081768125
81	0xbe0aa5c9	-0.13539805
82	0x3d09ebca	0.03367213
83	0x3c601af9	0.013678306
84	0xbd25ba57	-0.04046091
85	0xbdc9d133	-0.09854355
86	0x3d1a6561	0.03769434
87	0xbbf6c530	-0.007530831
88	0xbdc2b8f9	-0.09507937
89	0xbd59aa05	-0.05314066
90	0x3dd3ed30	0.10347974
91	0xbc27f5be	-0.010251461
92	0x3d89cce8	0.06728536
93	0xbdb82d31	-0.089929946
94	0xbc515869	-0.012777426
95	0x3cb0ce9b	0.021582892
96	0x3d0801c6	0.033204816
97	0xbccf4e98	-0.025306031
98	0xbe0efd35	-0.13963778
99	0xbd996613	-0.07490172
100	0x3c4b714a	0.012417147
101	0x3d06d5c2	0.0329187
102	0xbcf77dd1	-0.030211361
103	0xbe2270b4	-0.15863305
104	0xbbba3411	-0.0056824763
105	0x3cbedd67	0.023298932
106	0xbd9d4d8c	-0.076808065
107	0xbd298128	-0.04138294
108	0x3cd29749	0.025706904
109	0x3cecb7a9	0.02889617
110	0x3e016426	0.1263586
111	0xbe2754db	-0.16340964
112	0x3d0a5bc9	0.03377894
113	0xbca27c6c	-0.01983472
114	0x3d9209aa	0.071307495
115	0xbe0f9ecc	-0.1402542
116	0xbcc45351	-0.02396551
117	0xbd7a9c3f	-0.061184164
118	0xbcd5f1ba	-0.02611624
119	0xbd8a97bb	-0.067672215
120	0xbdde1c0f	-0.108451955
121	0x3dfe7068	0.124237835
122	0xbcb8d360	-0.022561729
123	0xbd7fdd81	-0.062467102
124	0xbdaef550	-0.085428834
125	0xbd9b0035	-0.07568399
126	0x3dac4105	0.08410839
127	0x3aa1eb38	0.0012353426
128	0xbdc3e079	-0.09564299
129	0x3d179f66	0.03701725
130	0xbcac7b25	-0.021054814
131	0xbe05732c	-0.13032216
132	0x3d30b454	0.043140724
133	0x388a01b7	6.580672e-05
134	0xbcc71960	-0.024304092
135	0xbe30686d	-0.17227335
136	0xbd74ed8f	-0.059796866
137	0x3d989324	0.0744994
138	0xbd3b27e1	-0.04569233
139	0xbdba5842	-0.09098865
140	0x3d038aba	0.03211472
141	0xbb7c3266	-0.0038482188
142	0x3c097100	0.008388758
143	0xbd090793	-0.03345449
144	0xbbf7f9e6	-0.007567632
145	0x3d13cb67	0.03608265
146	0x3dcd0ba4	0.10011986
147	0x3ddf101b	0.10891744
148	0x3d298895	0.04139002
149	0xbca19da9	-0.019728499
150	0xbd6fe7c4	-0.05857064
151	0x3d94bb7f	0.072623245
152	0xbded68a7	-0.115922265
153	0xbbe39dc5	-0.006946298
154	0xbe08441e	-0.13307235
155	0xbc53ee05	-0.012935166
156	0x3c8bc11b	0.017059853
157	0x3e2c5046	0.16827497
158	0xbd817c57	-0.06322544
159	0xbd9571ed	-0.0729712
160	0xbc35440d	-0.011063588
161	0xbdf10be8	-0.11769849
162	0xbd4baab0	-0.049723327
163	0x3dd0a07b	0.10186859
164	0xbca23a47	-0.01980318
165	0xbe00e0af	-0.1258571
166	0x3d2f34cd	0.042774964
167	0x3bce0508	0.006287221
168	0xbda847a2	-0.08216788
169	0xbd32cd48	-0.043652803
170	0xbd33d17c	-0.04390095
171	0xbd45e6ab	-0.048315685
172	0xbe07ed67	-0.13274156
173	0x3d668bfc	0.056285843
174	0xbc3780a3	-0.011200103
175	0xbd2f5fe5	-0.04281606
176	0xbd98df99	-0.07464523
177	0xbdd4b24f	-0.10385572
178	0xbdc9b9ed	-0.09849916
179	0xbde3c836	-0.111221716
180	0xbcc42cc1	-0.023947122
181	0xbccf06df	-0.025271831
182	0xbc712d5f	-0.01472029
183	0xbddb634f	-0.10712301
184	0xbd4773ce	-0.048694424
185	0xbd41f62f	-0.04735392
186	0xbe142a9b	-0.14469378
187	0x3c79cb90	0.015246287
188	0x3b2c167d	0.0026258521
189	0xbd7f71e3	-0.06236447
190	0xbdce6821	-0.10078455
191	0x3cb56fd7	0.022148056
192	0x3dab066c	0.08350834
193	0x3d29a849	0.041420255
194	0x3c087057	0.008327565
195	0xbdb54b7b	-0.088522874
196	0x3bc8b8c9	0.0061255437
197	0x3d95c58d	0.073130704
198	0xbdf81c41	-0.12114764
199	0xbd8189dd	-0.063251235
200	0xbd8fcf1b	-0.07021924
201	0x3cc49f31	0.02400169
202	0xbdebe926	-0.11519079
203	0xbc56c070	-0.013107404
204	0xbd2084ce	-0.039189152
205	0x3c863872	0.016384337
206	0xbddeffcc	-0.10888633
207	0xbd0dbb53	-0.034602474
208	0x3d5af6dd	0.053458083
209	0xbcfc2486	-0.030779134
210	0x3d7dfac4	0.062006727
211	0xbd5a069e	-0.053228967
212	0xbd901e4c	-0.07037029
213	0x3da747df	0.08168005
214	0xbcf420fe	-0.029800888
215	0xbdea8b78	-0.11452383
216	0x3dc45b86	0.09587769
217	0x3c7e663b	0.015527303
218	0xbd6f0d93	-0.058362555
219	0xbe10fcb9	-0.14158906
220	0x3e1d7a60	0.15378714
221	0x3d09067a	0.033453442
222	0x3d7e43fe	0.06207656
223	0xbc144863	-0.009050461
224	0xbd8663c9	-0.06562001
225	0x3d6d6184	0.057954326
226	0xbe0e28d5	-0.13882764
227	0xbcae7a61	-0.02129859
228	0xbd19cd2f	-0.037549194
229	0x3de7da34	0.11320916
230	0xbd6635e1	-0.056203727
231	0xbdb31204	-0.087436706
232	0x3c3f9828	0.011693992
233	0xbd061269	-0.0327324
234	0xbdf70de5	-0.12063197
235	0xbe418f34	-0.18902284
236	0xbde89ee7	-0.11358433
237	0xbd08737f	-0.03331327
238	0x3e11d852	0.14242676
239	0x3e22cc8b	0.1589834
240	0xbd0f5b09	-0.034998927
241	0xb8132a58	-3.5086967e-05
242	0xbd835719	-0.06413097
243	0x3d3757ea	0.044761576
244	0xbdde05c5	-0.10840944
245	0xbdada2eb	-0.0847834
246	0x3ced74b1	0.028986307
247	0x3d5bcc50	0.053661644
248	0xbd9f91b1	-0.0779146
249	0x3d45af60	0.048262954
250	0x3d95cf73	0.073149584
251	0xbc85755b	-0.016291311
252	0x3db33c98	0.08751792
253	0xbdef3380	-0.11679745
254	0xbd3484f0	-0.04407209
255	0xbc326382	-0.010887982
