Assets/ML-Agents/CarAgent-47499925.onnx (onnx, 793119 bytes, 9 tensors)

action_model._continuous_distribution.log_sigma f4 [1, 2]
00000000: 2d40 dfbf 9c27 a4bf
-1.744146 -1.2824588

action_model._continuous_distribution.mu.bias f4 [2]
00000000: efc5 c93a 9f0e 273c
0.0015394072 0.010196357

action_model._continuous_distribution.mu.weight f4 [2, 256]
00000000: c5fc 1abd b7bb b2bc 3ac7 91bc 76e9 2bbd
00000010: 2215 4e3d 9bc2 dbb9 1e70 9ebc 7d5b 863c
00000020: 89fe 44bb 815e 453c 8eed e83b b145 b23b
00000030: 1cf8 c13c 4bb8 9abc 6cc0 a3bd e4c5 6ebb
00000040: 45e1 6f3c fcad b0bb d2cb 7f3b c1a4 7539
00000050: 8ddd 1b3d db19 0dbc f5fe 303c 2579 473c
00000060: 30e2 a8b9 6e05 14bb be63 483d 3070 c73a
00000070: 9092 f63b 1e8b a23a 783f 9e3d aa89 b9bb
00000080: 38de 8b3d 7786 123d 37e4 073b ff63 f2bb
00000090: 0535 213c 8c30 4bba 4df8 6ebc 36c4 053c
000000a0: 94da b13b a786 cabc 61f8 173b 6edb 3539
000000b0: b5ed 423d c7eb be3a 3027 d03b f8f9 a53c
000000c0: 3298 32bc 40c7 a83b 41a2 123c 6a94 6a3d
000000d0: 264e d73c 770d 2fbc eba0 ff3c e229 b33a
000000e0: 20ab 1cbb b965 6c3b d4c6 333c 0a7c fe3c
000000f0: 3f92 c43c 48a6 00bd e7f2 973b 35dd 763c
00000100: 238a c43c bdb6 8e3b ea09 3a3b 6d8c cd3c
00000110: bca4 93bd 363f 2c3b 0f4c 5fbb 1d5b bb3b
00000120: 4ed8 3f3d 96e3 08bb 2329 783d 57e0 cfbc
00000130: b58a 713b a67c 6237 ec80 04bd ce7e d73b
00000140: f661 223b 4eb8 723d 4373 8d3c 8d47 bcbc
00000150: 5d8e 9e3d 6ebd d63c 4385 b13c b47a 3a3c
00000160: 8c0e 6dbb 864a dc3b ace1 cdbb e993 8dbb
00000170: c485 0f3d 9ed7 183c 744c 9f39 e794 0d3c
00000180: 5a93 563c 9ee8 d7bb b9b3 533c cd3f a93c
00000190: e350 b3bc 56b5 e5bb 0e48 ab39 43d2 d3bc
000001a0: dec3 67bc 1a2c 853b 8ab2 a63d cde5 913d
000001b0: 85b9 3f3c 68d7 ed3c a804 babc 3d2d 893d
000001c0: bfac 853c 4cbe 09bd 0912 e93c 04a3 23ba
000001d0: 8e0e 493c f31d 4dbb 6c84 5cbd b936 2cbc
000001e0: b1eb e6bb b629 b8ba 9ca4 3abc 715a 96bd
000001f0: 7609 fabc 66d3 043c c9db 7f3c 125a 1abc
00000200: e7d1 183c 9ad3 273d 57e3 4f3b a9e7 56bc
00000210: 4d2b 1cbb 9d92 203c 4465 103c 9ccd d53b
00000220: a462 8d3c d350 1f3d d930 963d 23c9 6bbc
00000230: a7d0 8a3b bd20 e2bc e642 2c3b 96b9 4dbd
00000240: 4057 a33b 25a0 623c 13d8 d13b 516d 2c3d
00000250: 6f3e 523a f90d 7839 bbc9 c13c 241c 2f3d
00000260: d15d 0c3d 1926 ebba 4a2e 0c3c d20d 80bc
00000270: 521b ba3b e216 01bc c091 513d 9b1e b0bc
00000280: 50d1 ccbc aeaa 42bb 4fc8 6abc e2d8 fe3b
00000290: 43f8 8f3c a62d 9f3b 4036 a83b 8fa9 0c3c
000002a0: f8c4 fa3c ca85 3b3b bece 763d 4a41 5b3d
000002b0: 3e52 923d d8ee 863b 6117 e3ba 7c3e 34bc
000002c0: 5fb2 943d 9249 433d 93ea ac3c 535b d03c
000002d0: 862b c93c 2bd9 243b 6eef be3d a441 3dbd
000002e0: a210 ddbc 9942 b7bb 3ad6 9a3c 2739 7f3a
000002f0: c680 823d d734 0cbb 9435 dbbc f32c f13c
00000300: 5921 7abc 5add 4b3c 44d5 1ebc 4acf 16bc
00000310: 9eb6 283a a8ca d73b 3a36 4c3c cbc4 8ebc
00000320: 1fd6 fb3c 5ed7 26bc 94ae f7ba 436f c23c
00000330: c8c6 7e3b ed03 a2bb cb59 f73c 2d2f 193c
00000340: 2d77 eb3c fa8d b83d 344e 1f3c 093e 57bc
00000350: 06b0 5fbc fd7a 97bb c7a4 d8bc a98d 8e3b
00000360: bdab fd3c 77a2 0b3c 1f52 e33c b615 6abd
00000370: 6fa1 433d 3a81 1ebc 1bbb 82ba b581 0d3d
00000380: 26b3 0d3c c71c 70bc 3340 11bc a6a4 84bc
00000390: d379 1e3c 403f 7fbb 929a 803b effc 2fbd
000003a0: cac0 36bc 82e2 9fbd 547d 983b 703e 06bb
000003b0: 80ed 0ebd be4c 3f3b 81e5 643d 0984 d13b
000003c0: 38c7 043c 3b0a ad3c 374c e8bc 0cfa 323c
000003d0: 3a56 f13c b844 9e3c b8f9 be39 d1eb a83c
000003e0: 0092 dd3c 6e60 daba 907b 9a3d 728f 51bc
000003f0: b551 0a3d f258 0a3b d7c0 803c 9105 d3bc
-0.037838716 -0.021818025 -0.017795194 -0.041970693 0.050313123 -0.00041915927 -0.019340571 0.016401047
-0.0030058941 0.012046457 0.007108397 0.005440437 0.023677878 -0.018886706 -0.07995686 -0.003643387
0.014641111 -0.0053918343 0.0039031398 0.00023426396 0.038053084 -0.008612121 0.010802974 0.012174879
-0.0003221198 -0.0022586244 0.048923247 0.001521593 0.007524796 0.0012401079 0.077269495 -0.005662163
0.06829494 0.035772767 0.0020735392 -0.0073971744 0.009839301 -0.00077510695 -0.014585567 0.008164456
0.005427668 -0.02472241 0.0023188817 0.00017343249 0.047589976 0.0014566117 0.0063523278 0.020260796
-0.010900544 0.0051507056 0.008949817 0.057270445 0.026282381 -0.010684363 0.031204661 0.0013669098
-0.002390571 0.0036071374 0.010972697 0.031065006 0.023995517 -0.03140858 0.0046371105 0.015067388
0.02399165 0.00435528 0.0028387257 0.025091374 -0.07209155 0.0026282794 -0.0034072434 0.0057176487
0.046837144 -0.0020887605 0.060586106 -0.025375528 0.0036856357 1.3499672e-05 -0.032349512 0.0065763956
0.0024777628 0.059257798 0.017266875 -0.022983337 0.077419974 0.026213374 0.02166999 0.011381794
-0.0036172 0.006722751 -0.0062830057 -0.004320611 0.03503968 0.009328751 0.00030383805 0.008641458
0.013096655 -0.0065890094 0.012921267 0.020660305 -0.021889156 -0.0070101423 0.00032669347 -0.025857097
-0.0141458195 0.004064095 0.081395224 0.07123909 0.011701946 0.029033378 -0.022707298 0.06698082
0.016317723 -0.033628747 0.028450983 -0.0006242248 0.0122715365 -0.0031298369 -0.053837225 -0.010511094
-0.0070471396 -0.0014050517 -0.011391785 -0.07341469 -0.03052209 0.008107042 0.015616366 -0.0094208885
0.009327388 0.040973283 0.0031721198 -0.0131167555 -0.002382952 0.00980058 0.008813206 0.0065247547
0.01725895 0.03889544 0.07333536 -0.014391216 0.004236299 -0.027603501 0.0026284992 -0.050225817
0.0049847662 0.013832127 0.006403932 0.04209644 0.00080201676 0.00023656328 0.023655763 0.042751446
0.034269158 -0.0017940431 0.008555958 -0.01563159 0.0056795264 -0.007878991 0.05116439 -0.021498969
-0.025002152 -0.0029703784 -0.014329984 0.0077773193 0.017574435 0.0048577366 0.00513342 0.008585348
0.0306115 0.002861368 0.06025576 0.05352906 0.07144593 0.004117828 -0.0017325693 -0.011001226
0.07260584 0.047677584 0.021107947 0.025434172 0.024556886 0.0025153856 0.09323011 -0.046205178
-0.02698547 -0.005592656 0.01890098 0.00097359944 0.06372218 -0.00213938 -0.026758946 0.029440379
-0.01526674 0.012442911 -0.009694401 -0.009204695 0.00064359035 0.006585438 0.0124641005 -0.017427823
0.03074175 -0.0101831835 -0.0018896633 0.023734694 0.0038875807 -0.0049443156 0.030194184 0.0093496265
0.02874335 0.09011455 0.009723235 -0.013137349 -0.013652807 -0.0046228156 -0.02644576 0.0043503833
0.03096568 0.008522621 0.02774912 -0.05714961 0.047761377 -0.009674365 -0.0009973975 0.034547526
0.008648669 -0.014655299 -0.008865404 -0.016191792 0.0096726 -0.0038947612 0.003924676 -0.042965826
-0.011154363 -0.07806875 0.004653612 -0.0020483993 -0.034894466 0.002919003 0.055882934 0.0063939136
0.008104138 0.021123042 -0.028356655 0.010923874 0.029460061 0.019319877 0.0003642568 0.020620259
0.027047157 -0.0016660818 0.07543099 -0.012790548 0.03376933 0.0021110144 0.015716953 -0.02575949

network_body.linear_encoder.seq_layers.0.bias f4 [256]
00000000: 96a9 213b 9899 66bb e213 00bc 17e1 33bc
00000010: 8690 1dbd 53ab 1c3c 1201 c3bb e374 ce3b
00000020: b488 9a3c e3c2 2b3c 7d7d 9d3c 8c07 683b
00000030: aa1f 133c 02c1 34b9 1b8a 5dbc d8e7 a1bb
00000040: 0f93 2fbb 9dfa f5ba 2e5b c0ba 072d 36bc
00000050: 5643 0a3c 6389 38bc b87b 443c 2d18 ebba
00000060: 93a6 053b aa58 86bb d92e b33b 887e 4e3c
00000070: f209 91ba 494b 41bc 597b a13b e9d7 68bb
00000080: 7dc2 68bc a4e7 2a3c 51cd b4b8 f087 983b
00000090: 76ed 563c 5b50 373b ed02 30bb b98c 1d3c
000000a0: a183 0cbc 2321 433c 251d 4d3c 38f5 a3bb
000000b0: d88d 6a3b 087e ddbb 9285 ddbb e7d0 1d3b
000000c0: 551a ba3b 2078 163c d2b8 1fbb 5015 d6bb
000000d0: d2ea 9cb9 24d4 44bc 35e3 d93b 12c3 f63b
000000e0: 84ec a53b 6f04 04bc 2bc9 563c 74c8 aa39
000000f0: 8926 0b3c 9ebe 99bd 490f 8abc 114d 6fbb
00000100: 6dd6 1cbc 5d8e 273c 7a85 1f3b 2a05 b0bb
00000110: ba9b aabb 655b 20bb f907 02bc a646 223c
00000120: 0748 3ab9 3b6c 1f3c a5b7 90bb 5a69 253c
00000130: ee3a 9939 3238 eb3a df57 94bd 5c0f ccbb
00000140: 8eb5 42bd d2c1 b8bb de33 2dba d344 36bc
00000150: eb38 a1ba 353f ef3b e66c e0ba 7dc9 7abb
00000160: 1a1a e2bb c2df 43bc aa5f 63bb 4b3f cf3b
00000170: f3e9 d53b 25c4 c837 6846 de3b 5903 363c
00000180: eb01 bcba e412 9cbc a7f1 deba 5a5d e7bb
00000190: 7c31 6dbb ca4f 4a3c 9015 923c cf4f 08bc
000001a0: cf26 6cba ee0b 98bd 7423 8fbb dab1 ea3a
000001b0: 8d3f 8fbd f656 1fbc 19f3 71ba 49b7 cdbc
000001c0: caf5 633c 8849 9dbb cdd0 4c39 e144 043b
000001d0: 5ad0 17bb 153e 02bb d5a8 6c3b 9ad2 55bc
000001e0: d80c 45bd f2d9 b13c 0be7 1fbd fa07 873c
000001f0: 387b 983b 4cd2 da3b 6d2f efbb 80a4 9ebb
00000200: 6365 e8bb b3b9 3ebb 4333 a1bb 3f02 043b
00000210: 7261 b6bc 6a1e 9e3c bbee 54bc 7366 c3ba
00000220: 22c4 6839 07c0 893b 537d 88bd 1b37 65bb
00000230: a225 6e3b 5405 183c a2d5 1dbc fc6f 05bd
00000240: 261c 69bc 4115 51bd adb7 24bb c436 a9ba
00000250: f270 95bc 88c3 82bb 754b c63b d95a 61bd
00000260: 4670 7cba efc4 f5bc edf2 3a3b eba1 9bbb
00000270: efa7 143b fe14 dc3b 1c89 1a3c bfcf c7bc
00000280: c1f4 6a3c e78d bbbc 2fb7 03bc e9dc 79bc
00000290: 6711 ddbb 4ef3 a33c 7aa5 f53b f1fb a4bb
000002a0: e4c4 203d 24e0 803b 60d2 99bd fed9 a63a
000002b0: 52db 35bc 2c3f 63bd aedf 58bc 65ce 073b
000002c0: 4721 903b dec4 f23a e894 b53b 0e24 9abb
000002d0: fbdd eabc 0f0b 193c f5a0 8d3c 9d61 5e3b
000002e0: 7460 c2bc 31f7 14bd ba8b 12bb cb00 f9bc
000002f0: db71 673c d807 beba 6c8f 643b 7e45 5bba
00000300: 22cc e7b8 a245 c1bb 5f86 02bb 80b9 a13b
00000310: bc2f dcbb 4c74 073b 1b11 11bb c9a8 023c
00000320: 7b80 013c 504d 523a 9d7b c13c 7019 733c
00000330: 997f 63bc ea2d 0fbc ad1d fe3b e211 c7bb
00000340: 24e2 1abb 29b2 0fbc 72b9 5bba 8426 2639
00000350: ca5c 273c d379 4bbb 304b e33c dc06 e63a
00000360: db6c 723c eeb4 f4bc b7f8 5e3c 26d0 dbb9
00000370: 4e5b fb3b ca18 183c 03e9 e8bb afeb 3dbb
00000380: 550c 913c 7194 18bc 50c7 7a3b ff45 413a
00000390: c1ba dcba e9ad 64bd 6669 b7bb d4f0 76bb
000003a0: ee3f 0a3c 0555 3aba 8537 f43b e05c 063c
000003b0: 025c 293a 4012 423c c971 343c a6fc e13b
000003c0: 5b9d 2dbc 4de0 843a bd4c 12bc 8640 1e3b
000003d0: 3106 833a 7937 b43a 9dc9 2dbd 31da 473c
000003e0: 9993 aebb cac0 6f3c e957 09bc d84a d33a
000003f0: ccde 2abb f2f3 1dbd ea7a c4b9 9575 91bb
0.0024667731 -0.0035186764 -0.00781724 -0.010978959 -0.038467906 0.009562331 -0.0059510553 0.006300555
0.018864013 0.010483476 0.019224877 0.003540489 0.008979717 -0.00017238039 -0.013521696 -0.004940968
-0.0026790535 -0.0018766705 -0.0014675611 -0.011119134 0.008438906 -0.011263224 0.0119923875 -0.0017936282
0.0020393475 -0.004099925 0.005468231 0.01260341 -0.0011065586 -0.011797735 0.0049280343 -0.0035529083
-0.014206526 0.010431204 -8.621312e-05 0.004654877 0.013118139 0.002797148 -0.0026857213 0.00961607
-0.008576305 0.011909756 0.012519156 -0.0050035976 0.0035790112 -0.006759409 -0.0067603076 0.0024080814
0.0056794086 0.0091839135 -0.0024371636 -0.0065333024 -0.00029929593 -0.012013469 0.0066493996 0.0075305784
0.0050635953 -0.008057698 0.013109486 0.00032574276 0.008493074 -0.075070605 -0.016852992 -0.003651444
-0.009572607 0.010226813 0.0024341033 -0.0053717094 -0.0052065523 -0.0024468538 -0.007936471 0.009904539
-0.00017765175 0.009730394 -0.0044164234 0.010095919 0.0002922634 0.0017945825 -0.072433226 -0.006227417
-0.047536425 -0.0056383396 -0.0006607155 -0.011124807 -0.0012300288 0.007301236 -0.0017122298 -0.003826707
-0.006900084 -0.0119552035 -0.0034694471 0.006324684 0.006528133 2.3933195e-05 0.0067832954 0.011109197
-0.0014343833 -0.019051977 -0.0017009274 -0.007060689 -0.0036192825 0.012348125 0.017832547 -0.008319809
-0.00090084685 -0.074241504 -0.00436824 0.0017905787 -0.06994543 -0.009725323 -0.0009229645 -0.025111811
0.013913581 -0.0048000254 0.0001953274 0.0020182657 -0.0023164959 -0.001987343 0.0036111374 -0.0130507
-0.048107952 0.02171037 -0.0390387 0.016483296 0.0046533607 0.0066779014 -0.0072993548 -0.0048413873
-0.0070921644 -0.0029102385 -0.004919441 0.002014294 -0.022263262 0.019301612 -0.012996371 -0.0014907852
0.0002219831 0.0042037996 -0.06664529 -0.0034975472 0.003633835 0.009278614 -0.009633454 -0.0325775
-0.0142279025 -0.05104566 -0.0025133893 -0.0012909998 -0.018242333 -0.0039905943 0.0060514756 -0.05501828
-0.0009629767 -0.030001132 0.0028526143 -0.0047495267 0.0022683104 0.0067163697 0.0094321035 -0.024391053
0.01434058 -0.022894813 -0.00803928 -0.015250423 -0.0067464593 0.020013478 0.007496533 -0.0050349166
0.03925027 0.0039329696 -0.07510829 0.0012729762 -0.011099653 -0.055480167 -0.013236923 0.0020722386
0.004398498 0.0018521806 0.0055414326 -0.004704005 -0.028670302 0.0093410155 0.017288664 0.0033932694
-0.023727633 -0.036368553 -0.0022361116 -0.030395886 0.014126266 -0.0014498187 0.0034875525 -0.0008364542
-0.00011052961 -0.0058981935 -0.0019916517 0.0049354434 -0.0067195576 0.0020668684 -0.002213544 0.007974812
0.007904167 0.0008022385 0.023618514 0.014837608 -0.013885402 -0.008738974 0.0077550025 -0.00607513
-0.0023633325 -0.008770504 -0.00083818205 0.00015845342 0.010214994 -0.0031047955 0.027745813 0.0017549652
0.014796461 -0.02987143 0.013609103 -0.00041926018 0.0076707965 0.009283254 -0.0071078553 -0.002897959
0.017706076 -0.009312735 0.0038265772 0.0007372796 -0.0016840325 -0.055829916 -0.0055972813 -0.0037680166
0.008438094 -0.0007108006 0.0074529075 0.008200854 0.00064605486 0.011845171 0.011013457 0.006896573
-0.0105965985 0.0010137648 -0.008929429 0.0024147346 0.0009996352 0.0013749442 -0.0424286 0.012198017
-0.0053276536 0.014633367 -0.008382776 0.0016120328 -0.0026072739 -0.038562723 -0.0003747561 -0.0044390657

network_body.linear_encoder.seq_layers.0.weight f4 [256, 255]
00000000: 8dfd 48be f6c0 253d 8529 52bd 090c b23c
00000010: 4f87 55be 8014 bc3c 978d 87bd 7d64 b5bd
00000020: 6fae 67be 9f84 d43d 19a9 ef3c 86db be3c
00000030: a1bc 493d b7c1 303d c74c 053e 27a6 acbc
00000040: 93ee 293d 234d 1bbe a692 893d f6f4 08bd
00000050: 2a03 4d3c 2779 aebb e632 953e eda6 0e3c
00000060: 8e52 983d b32e 34be feed 8f3d 794b 923d
00000070: eb39 e53d f8d7 383d 588f 5d3d 3497 63be
00000080: 3fc5 79bd b8b8 903d 88fa 93bd d349 7dbd
00000090: d136 d0bc 545a 873d 0d85 9a3e f4dd e2bd
000000a0: c683 f43b b935 003d b2cb 2f3d 2e04 02be
000000b0: 12e0 92bd 74a9 cd3d b42d 6b3e e8ea 2d3d
000000c0: 896a 3e3e 6fa3 8ebd 50f3 1e3e 488b c83c
000000d0: 0ff0 99bb 9c30 87bc d7cf 26bb 8236 52bc
000000e0: ceaf 523d 5279 873d 49f7 893d 5f50 063d
000000f0: 7aed 31bd ff5e 3f3c 407e af3d 3432 043d
00000100: 4752 c3bc 63f3 e7bd d114 023e b590 073d
00000110: 2289 2bbe fb6c 1e3d 9e4c 06be 8b63 803d
00000120: aeec b2bd b27f 01be 77c1 ff3d 2cc9 d2bc
00000130: 015e 0a3e 0b6b 2c3d fd94 00bd 6e14 af3b
00000140: 6a91 ae3c abdf 87bd d840 913d 3663 9c3b
00000150: 5cb1 c7bd 3df7 bc3e 2854 d83b 884c a5bd
00000160: a960 bc3c 767d 2f3d 7dbb c4bc 3abd 2a3d
00000170: 8db0 a7bd 3da1 223d 7f74 de3c 8395 edbd
00000180: a994 adbd 8791 07bd 8d05 8c3c db81 593b
00000190: effc 0ebd d936 e0b9 ed5e 97bc a597 913d
000001a0: fe78 02be 7ca3 04be 45e1 133b 7bff 37bd
000001b0: a152 b83d 612b 3dba 6409 2c3d eaf6 ebbd
000001c0: 5d8d 8d3b c335 123e c8f2 863d db27 be3d
000001d0: 7aa1 963d 9966 2bbc 636f cabc 6f13 f7bd
000001e0: f9cc b23c 9a07 433e 5b77 343d 2997 d93d
000001f0: 0130 f9bd 941a 0dbc 050a 683d 1e69 823b
00000200: 0846 c63d f5f8 873c 481e b2bd b779 5a3e
00000210: a82e d2bd 5006 413d 218f 703d 10e9 d23d
00000220: f035 133e cb98 41bd e355 f9bd 860a e03d
00000230: 3250 c6bd 7daf ecbd af4e 4dbd c326 883d
00000240: f928 313a a8ec 7fbd fbb2 39bc ee2c 293d
00000250: d103 e93c 2bfc 4bbd 79ff d0bc af56 2a3d
00000260: 0703 503d 142d 84bc 59fb 91bd 4c5a a73d
00000270: 3fc5 f6bd 183f aabd 3c0c bc3b d2bf 6f3e
00000280: dc17 2c3e 59e0 b5bd 5286 b7bd 6ca9 5abd
00000290: c253 14bd e55c 213d 7443 15bd 8080 3a3e
000002a0: dd61 4a3b bd15 a9bd 50ec 29bd 5318 87bc
000002b0: 7ed4 17be 31e2 22bd 3947 71bd f1b4 8b3e
000002c0: 0239 5f3c e87f 2ebd a171 93bd 8731 bf3d
000002d0: e4a9 32be 06e5 853d c752 1b3d 65f1 193e
000002e0: 7b54 753b 253b 203d 46bd 81b9 abfb 0c3b
000002f0: 237a f3bc 9f32 15bd b9d7 e9bc 10fc 9b3e
00000300: bfaf 0dbd e8f5 77bc 4e62 83bd 867f de3d
00000310: 68d4 c8bd bb4c f43c ddf4 973d 2201 5c3e
00000320: b3df 8ebd 568b f9bd 0edd dfbd c522 9d3d
00000330: 5510 503d e517 4cbc c6a7 913d f616 fc3d
00000340: df02 07be 6da6 443c 3e99 dcbc 67db 5abd
00000350: 1500 8a3d 1eda b03d 50d6 7cbd 9e7e dc3d
00000360: 8c21 ae3d 7660 6a3c 47a0 99bd 4266 a63d
00000370: 4224 f3bd 5b24 bdbc 92e5 ae3d 4237 273e
00000380: a1a3 1a3d ef46 f63a c7c6 863c 91dd 053d
00000390: 73ff 36bc 148c 19bd 0ab3 863d be13 11be
000003a0: 345e dfbd c716 7a3e b770 5cbd 947c 30bc
000003b0: 5e24 183e 8bdb 9a3b c9e7 bdbd df35 3ebd
000003c0: 7248 e03c 0b9d 603d abb4 c73d f02f 7e3e
000003d0: 50ec 89bd 3b13 32bc 0a3a 653d 697b 25bd
000003e0: 6921 e2bd 998c bf3b f7dc 0c3e a7ec 81be
000003f0: e82a 79bd 7b4c d8bd 99e2 da3d 6817 a53d
-0.19627972 0.040467225 -0.051309127 0.021734254 -0.20852397 0.022958994 -0.06618803 -0.08857057
-0.22625135 0.10376858 0.029255437 0.023298036 0.049252156 0.04315349 0.1301757 -0.021075321
0.041487288 -0.15166144 0.06717424 -0.033436738 0.012512961 -0.005324501 0.29140395 0.00870679
0.07437621 -0.1759594 0.07027815 0.071433015 0.111926876 0.04512784 0.05409178 -0.22225648
-0.060979124 0.07066482 -0.072255194 -0.061837982 -0.025416763 0.066090256 0.30179635 -0.110774904
0.0074619977 0.031301234 0.04291887 -0.12696907 -0.07171644 0.10042086 0.22966653 0.042460352
0.18595327 -0.06964766 0.15522504 0.024480477 -0.0046978067 -0.016502671 -0.0025453472 -0.0128303785
0.05143719 0.06614937 0.06736619 0.03279149 -0.043439366 0.011680364 0.08569002 0.03227444
-0.023842944 -0.11325719 0.12703253 0.033096988 -0.16751531 0.03867815 -0.13115165 0.06268986
-0.08736549 -0.12646368 0.12488072 -0.025730692 0.13512422 0.04209427 -0.031392086 0.0053430116
0.021309573 -0.06634458 0.07092446 0.004772569 -0.097506255 0.36907378 0.006601829 -0.08071238
0.02299531 0.04284426 -0.024015183 0.041684367 -0.08187971 0.03970455 0.027155159 -0.11600783
-0.0847562 -0.03309777 0.01709249 0.0033188972 -0.034909185 -0.00042765474 -0.018477881 0.07109002
-0.12741467 -0.1295299 0.002256469 -0.04492138 0.09000135 -0.0007216242 0.042001143 -0.115217045
0.0043198303 0.14278321 0.065892756 0.092849456 0.07355018 -0.010461473 -0.024711316 -0.120642535
0.021826254 0.19045869 0.04405914 0.10624535 -0.12167359 -0.008612294 0.05665018 0.003979816
0.09681326 0.016598204 -0.08697182 0.21335493 -0.10262805 0.04712516 0.05873025 0.102983594
0.14376044 -0.047264855 -0.12174585 0.10939507 -0.09683265 -0.11556909 -0.050123867 0.06648018
0.00067581196 -0.062481552 -0.011334176 0.041302614 0.028444203 -0.049801033 -0.025512444 0.041586574
0.050784137 -0.016134776 -0.07128019 0.0817152 -0.120493405 -0.083128154 0.005738763 0.23413017
0.16805977 -0.088806815 -0.089611664 -0.05338423 -0.03621269 0.03939523 -0.03644128 0.18213081
0.0030881085 -0.082560994 -0.04148513 -0.01649109 -0.14827153 -0.039766494 -0.058905814 0.27286485
0.013624432 -0.04260245 -0.07199407 0.093356185 -0.1744762 0.065378234 0.03792074 0.15033491
0.0037434387 0.039118905 -0.00024745817 0.002151231 -0.029721325 -0.03642523 -0.028545247 0.30465746
-0.034591433 -0.015134312 -0.064152345 0.10864167 -0.09806138 0.029821744 0.07419751 0.21484807
-0.06976261 -0.12184779 -0.10930835 0.076726474 0.050796825 -0.012456869 0.07112078 0.12309067
-0.13184689 0.01200257 -0.02692854 -0.053431895 0.06738297 0.086353526 -0.06172782 0.10766338
0.08502492 0.014305225 -0.075012736 0.08124973 -0.1187215 -0.023088625 0.08539881 0.16329673
0.037753705 0.001878945 0.016452206 0.032682005 -0.011169302 -0.037487105 0.06577118 -0.14167687
-0.1090664 0.24422751 -0.05381843 -0.010771889 0.14857623 0.0047258786 -0.09272725 -0.046438094
0.027378295 0.054837268 0.097512566 0.24822974 -0.06734526 -0.010868843 0.055963553 -0.040400896
-0.11041529 0.005845618 0.13756166 -0.25375864 -0.060831934 -0.105614625 0.10687751 0.08061105

network_body.linear_encoder.seq_layers.2.bias f4 [256]
00000000: c8a3 a6bc 1ffe 00bd f41d a8bd a1bb d3bc
00000010: 69ce cfbc 2bdb 16bd a778 45bd 080c f8bc
00000020: 0456 0abb d45e 21bd 8973 07bc aec1 74bd
00000030: ed6d c0bd 11b2 34bd c055 b6bc 45ae bdbc
00000040: f677 51bc 4334 adbc 26d7 78bb bb46 0fbd
00000050: 1d99 12bd 45d5 04bd c689 11bd 99ed 35bd
00000060: e02c d5bc d0d0 8abc 5049 2cbc 4485 cbbc
00000070: 8b72 04bc 3600 b4bc 9161 3bbd 36f1 d6bc
00000080: 138c 81bd 094f a3bc 9c1a 0cbd a5ff 1bbd
00000090: d694 32bd 095b cc39 3d4b 75bc d155 38bc
000000a0: d3fe a8bc d994 09bd 264c 8ebc c612 c93a
000000b0: 14db a3bc 6665 533c beb9 0abd 4598 04bd
000000c0: 05fc f7bb f8f3 17bc ef15 afbd c4a2 efba
000000d0: 528f 0ebb 3b1c 06bd 6714 01bd 747d 9abb
000000e0: 8157 2dbd a8f6 50bc 456c 25bd 5d8f 39bc
000000f0: 7b80 3dbd 8348 3dbc 63df 9abb f74f febc
00000100: b67c 5dbd 1906 9ebc c487 26bd f985 b7bc
00000110: 2bf9 45bd ffe1 f4bc 76f1 13bd 93f5 20bd
00000120: 5576 483a f5bc b1bc c7e5 45bd 9ded 9c3b
00000130: 7450 56bd e9b6 6bbd a2fd c3bd ac41 cebc
00000140: d457 dbbc b9cd bebc c64a 1cbd 0e60 a63c
00000150: 2f70 00bd 42fb 51bd 1f25 17bd 5e69 87bd
00000160: 757e c1bc 8a52 2bbd 918f 04bd 4e2a 93bc
00000170: 32cf 13bc 8be4 5ebd 1370 9abc 992f ecbc
00000180: 2e4b 95bc b93d 2dbd 9733 72bc cdf2 9ebc
00000190: 1c54 c0bc ad21 c8bc 0d30 0fba dbe2 39bd
000001a0: 1d9f f5bc 16ac cd3b 3de5 7cbc 6c1b 17bd
000001b0: 208a e6bc 9d56 16bd 145e c5bc 6258 60bd
000001c0: 2a39 95bb dbe2 5dbc d6e3 08bd ee37 95bd
000001d0: 3f5f 2d3d cad2 e3bc 94ac bdbb abba 11bd
000001e0: f557 9f3c 957b 0abd 35b2 0abd d0f4 d2bc
000001f0: 9c60 20bd 610b a1bd 159a 0dbd 909e 42bd
00000200: dbe6 82bc 4890 bebc 9b62 d6bc 59f6 ce3c
00000210: b320 dcbc fccd ca3b 6d1c d9bc 7b5b 45bd
00000220: 6dbe 08bd 9fd5 91bd 2167 50bc 1242 91bc
00000230: 109b 903c 0923 cabc 8f6a 8bbd 1559 25bd
00000240: 4612 3bbd 67b1 bbbc 7cbe 0b3c 7fe7 12bc
00000250: 2219 a3bc e7ad bfbc aaa6 4cbd 6019 eebb
00000260: 9ce1 03bd d073 48bc a703 6dbc 51f4 c0bc
00000270: 0b76 adbb f467 b7bc 999a 88bd f628 33bc
00000280: 0435 38bd 37e6 8abc 15d4 95bc fa07 1abd
00000290: d361 2abc 4ab7 95bd f672 1abc 1f4a 7cbd
000002a0: 5d20 84bd b4c1 3abd edc4 e4bc 8179 dabc
000002b0: 6ae8 343c 4e38 0dbd 0632 963c af8d f5bc
000002c0: cb2f 59bd 0b67 f0bc d517 f1bc aba2 f8bc
000002d0: 3e14 edbb 92cc 35bd eaa0 93bd 7c5b b3bc
000002e0: abaa cfbc 98d0 05bc 17f1 e5bc 7dad 213c
000002f0: e91c 9cbd cda9 5bbd 5fab 48bd 8252 fcba
00000300: ff9f aa3a c9f0 c7bc 8588 3dbd 6027 8dbd
00000310: 7f68 52bd 6cf9 80bc 08a7 e9bc 1b0f debc
00000320: 57db 88bd 2838 babc 2caf 6cbc e310 89bd
00000330: 871b bd3b fc67 98bd 3414 57bd 9744 97bc
00000340: e13b 13bc c09c acbd c23c b4bc d5a6 bebb
00000350: 2862 f3bc 1158 c6bb b53b 29bd 0749 5abc
00000360: f9ba 0dbd 8610 52bd 5628 0bbd 8ea3 ba38
00000370: 01b6 6fbc 8e43 57bc a536 d3bc 4f1e 9abc
00000380: b57b 9cbd 1fef 04bd 3aa8 e4bc 3d1c babc
00000390: 2604 4abd 035a 8cbc b830 c63b dbff 23bd
000003a0: bede 283c 1e51 5cbb 929f 483b ed78 04bc
000003b0: b69b 98bc f7a0 9ebc ea35 13ba f02a 93bc
000003c0: 574b d5bc 9d7f 06bd 8991 64bd 923e 9bbc
000003d0: a620 36bd b3d3 8dbd f4eb ddbc f502 5bbd
000003e0: 0964 1d3c 9550 04bd 4162 5abc 7f8d cfbc
000003f0: 4662 53bd ca28 f6ba 5cd7 1a3c 529a dbbc
-0.020341769 -0.03149235 -0.08208838 -0.025846304 -0.025366979 -0.03683011 -0.048210766 -0.030279174
-0.0021108398 -0.039397076 -0.008267292 -0.05975502 -0.09395967 -0.04411513 -0.022257686 -0.023154387
-0.012784949 -0.021143084 -0.0037970035 -0.034979563 -0.03579055 -0.032429952 -0.03553178 -0.044416044
-0.026022375 -0.016945273 -0.010515526 -0.02484382 -0.00808395 -0.021972757 -0.045747343 -0.026238065
-0.06325545 -0.019935148 -0.034205064 -0.0380856 -0.043598972 0.0003897774 -0.0149715515 -0.011250929
-0.020629322 -0.033589218 -0.017370295 0.0015340678 -0.020001926 0.012902593 -0.033868544 -0.032371778
-0.007567885 -0.009274475 -0.085491054 -0.0018282761 -0.0021752906 -0.032741766 -0.031513598 -0.004714662
-0.04231978 -0.01275412 -0.040386457 -0.011325684 -0.046265107 -0.011552933 -0.004726337 -0.03104399
-0.05407401 -0.019290017 -0.04065682 -0.02240275 -0.04833333 -0.02989292 -0.036118947 -0.039296698
0.00076470274 -0.021696547 -0.048314836 0.004789068 -0.05232282 -0.057547484 -0.09569861 -0.0251778
-0.026775278 -0.023291456 -0.038157247 0.020309474 -0.031356987 -0.05126501 -0.036900636 -0.06611894
-0.02361987 -0.041826762 -0.032363478 -0.017964508 -0.009021567 -0.054417174 -0.01885227 -0.02883129
-0.018224325 -0.04229519 -0.014782808 -0.019402886 -0.023477606 -0.02443012 -0.0005462177 -0.04538236
-0.029983098 0.0062766178 -0.015435514 -0.036891386 -0.028142035 -0.036703695 -0.024092712 -0.05477179
-0.0045539336 -0.013542856 -0.033420406 -0.07286058 0.042327162 -0.027810473 -0.005788395 -0.03557841
0.01945112 -0.033809263 -0.033861358 -0.025751501 -0.039154634 -0.078634985 -0.034570772 -0.0475145
-0.015979221 -0.023262158 -0.026170066 0.025263952 -0.026871061 0.006189106 -0.026502812 -0.048182946
-0.03338473 -0.07120823 -0.0127199 -0.0177317 0.017652065 -0.02467491 -0.06807434 -0.04036816
-0.045671724 -0.02291174 0.008529302 -0.008966326 -0.019909445 -0.023398353 -0.04996363 -0.0072662085
-0.03219758 -0.012234643 -0.014466203 -0.023554 -0.005293613 -0.022388436 -0.06670112 -0.010935059
-0.044972435 -0.016955478 -0.018289605 -0.037605263 -0.0103993 -0.0731035 -0.009426823 -0.061594125
-0.06451485 -0.045594886 -0.027925933 -0.026669266 0.01104174 -0.034477524 0.0183344 -0.029974787
-0.053024095 -0.02934601 -0.02943031 -0.030351004 -0.007235079 -0.044384547 -0.07208426 -0.02189421
-0.025349936 -0.008167408 -0.028069062 0.009868023 -0.07622702 -0.05362873 -0.048991557 -0.0019250663
0.0013017653 -0.024406807 -0.046272773 -0.06892276 -0.051369186 -0.015743934 -0.02852203 -0.027106812
-0.06682461 -0.022731856 -0.014446061 -0.06692674 0.005771104 -0.074417084 -0.0525095 -0.018465323
-0.008986444 -0.08428335 -0.022001628 -0.005818228 -0.02970989 -0.006052979 -0.041316707 -0.013323075
-0.03460214 -0.05128529 -0.033974014 8.8996356e-05 -0.014630795 -0.013138665 -0.025782892 -0.01881328
-0.07640783 -0.032454606 -0.027912248 -0.022718543 -0.049320363 -0.017132765 0.006048288 -0.040038925
0.010307012 -0.0033617686 0.003061269 -0.008085472 -0.018628936 -0.019363863 -0.0005615639 -0.01796481
-0.026036901 -0.032836545 -0.055802856 -0.018950734 -0.04446473 -0.06925144 -0.02709005 -0.053469617
0.00960637 -0.03230341 -0.01332909 -0.025336025 -0.051607393 -0.0018780467 0.00945076 -0.026806984

network_body.linear_encoder.seq_layers.2.weight f4 [256, 256]
00000000: 9890 2bbe 6ee0 ba3d a224 01be 93b7 dbbc
00000010: 4ec2 31bd 752e 0bbe 18af 053d 220d 6dbd
00000020: 3386 f93d 2b86 be3c f3e2 093b 8134 e5bd
00000030: c54e 783c 9d7b 6aba d919 d2bd a9ba 2fbd
00000040: bb3e e13b f3e2 3abd 3164 b23d 8c29 103d
00000050: 7b17 d63d fbed 043e 26b7 99bc 0764 6abd
00000060: f6f5 edbd 1da2 11be 522e 333c 81f7 f43c
00000070: 8f11 883d bb5e 3fbd 2554 2a3e b558 b93d
00000080: 0482 93bc c437 4f3e 9001 3abd 6449 75bc
00000090: ee94 d9bd a85a 483a 58b1 2dbc f713 0b3e
000000a0: 5062 8e3d 29b6 e43b d803 b1bd 054e 12be
000000b0: 9fb3 c83a ca0a 4dbd cc54 883d 6aa1 193d
000000c0: 3812 2dbe da84 d13d bf12 0bbe 293e 2bbd
000000d0: a273 44bd a5ef f0bd 88e8 19be 036c b23c
000000e0: 6a64 06bd 28fe 193e efe0 023d 96cb 8b3d
000000f0: 82e5 b6bd ada4 623d 8b96 073e 5f05 163e
00000100: 9c5d fb3c eb93 81bb 7bb0 d1bd f13e e73d
00000110: 1076 0dbd e8ea 223d 99c8 3fbd e121 21bd
00000120: a5ca ec3d 3960 e2bd 496e ed3c 2672 42bd
00000130: 64ea 5b3c b525 63bb 4b25 66bb c4cc 543d
00000140: a645 0abe 0f46 7fbc 2a9b 143e 8028 823d
00000150: b60a 893d 0326 e4bd d4ea 56bd 2039 24bd
00000160: b963 1bbe 0d81 f6bb b29d d8bd 7c71 c6bd
00000170: 19a8 6c3d 4f5f c83d 526d 163e 68f6 5d3c
00000180: 2ba2 0cbe 1c13 34bd e6c9 1cbc 8df4 223d
00000190: aa5b 3e3d 8278 3fbd 0843 bdbd d252 fcbc
000001a0: 079c bb3d 6e35 053e fa26 193d 9c08 cc3d
000001b0: d6ed f43d 6523 8fbd fdda f43d 8cf9 ed3b
000001c0: d444 6f3d 00e3 bc3d a74a 963c 8f35 d73d
000001d0: f63d 80bd c911 8a3d 3fda 90bc 4bac 953d
000001e0: 391e 1fbb ffb6 bcbd 33a7 3a3d 1648 2f3e
000001f0: 7725 aa3c 7f90 babc aa74 033d d5c9 263e
00000200: 38f1 3ebd 18da e0bd ce72 393d 00fb 533c
00000210: 52fe d4bd 4e37 f4bc b5d9 a6bd 4b99 56bb
00000220: df17 00bd 3600 6fbd e68e 4e3c 7b71 af3c
00000230: e8e1 ffbd 49aa ebbd dc52 a4bc b184 2d3d
00000240: 3ed1 433d c114 803d a3a5 9abd 67c8 32bc
00000250: 5d80 fa3d cdc0 87bd e74d 403d 1efb df3c
00000260: e9b6 ba3a 7fb9 213c a9f6 833c 7cbb 1dbd
00000270: f30b 1e3d 4436 07be baa9 383d 44a3 7abd
00000280: 98f2 30bd 3540 2a3e 53eb fb3d 0aa6 7c3d
00000290: 83f3 a43d 8c5a 6b3d b31e b6bd 0ac2 e4bd
000002a0: 99c9 433d a5dd cdbc 8e53 ab3c 38db 223e
000002b0: 3cba 873d 46ee d9bd 3202 fa3d bafb bebc
000002c0: 7215 2f3b e0d9 dc3d 3358 233e fa0b 373e
000002d0: 0f21 38bc 1221 053d 37a6 f0bd 9479 53bd
000002e0: 00c7 b83c be62 b53d 1842 8b3d b1e6 bcbc
000002f0: f256 223e 86c4 91bd 977c 013e 4dcc f33a
00000300: 1284 853d cf7d 61bc 3a15 493b b2a3 013b
00000310: 89bb f03d ffdf 58be e8eb af3c 82cd 8dbd
00000320: 77f4 cd3d fb7b 70bd 7c51 123d bb10 bbbd
00000330: ad2e 273d a5ac 7c3d 9968 6c3d 4987 02bd
00000340: 106a 793d 8c58 58bd 2258 413d fbad f5bc
00000350: c8c8 7b3c 74e5 65bd 2dc1 a4bd 0e7b a5bd
00000360: 339c b2bd 4051 f03c c9fd b3bd 223e b8bd
00000370: 31dc 2a3c 6804 8a3d aa2d f53d 1251 c1bc
00000380: a6d7 adbc 08a7 b23d 3918 8bbd 5364 253d
00000390: 7b35 973d 2415 983d 5662 e3bc 779a 4bbc
000003a0: d97e abbd 255c bbbd d7c0 2d3d 36ae b73d
000003b0: 0227 213e 9a47 25be cef4 5bbe 8ad7 9a3c
000003c0: 3169 703d 64ae 8abd d39b 92bd 6411 ebbd
000003d0: 6090 58bd 26ae f33d 8198 14be a75e 34bd
000003e0: cae9 efbd 0790 b23d 0a9a 8c3d a39d b43d
000003f0: 5b77 a13d c00a 83bd 4c78 913d c97b 26bd
-0.16754377 0.09124838 -0.1261163 -0.026820933 -0.043398194 -0.1359194 0.032637686 -0.057873853
0.121837996 0.023257336 0.0021039813 -0.11191655 0.015155499 -0.00089448114 -0.10258836 -0.042902622
0.006873933 -0.045626592 0.08710516 0.035195872 0.10453697 0.12981407 -0.01876409 -0.0572243
-0.11619179 -0.14221998 0.010936337 0.029903175 0.06643974 -0.0467212 0.16633661 0.09050123
-0.018006332 0.20236117 -0.045411646 -0.014971111 -0.10624109 0.00076429034 -0.010601364 0.13581835
0.06952345 0.006979723 -0.08643311 -0.14287575 0.001531232 -0.050059117 0.06656799 0.037507452
-0.16901481 0.102304175 -0.1358137 -0.041807327 -0.04796184 -0.117644586 -0.1503011 0.02178002
-0.032810606 0.15038359 0.031952795 0.0682594 -0.08930494 0.05533283 0.13241021 0.14650486
0.030684285 -0.003954401 -0.10238739 0.11291302 -0.03453642 0.039774805 -0.046822164 -0.03933895
0.11562089 -0.11053509 0.028983252 -0.04747214 0.013422582 -0.0034659926 -0.0035117443 0.051953092
-0.13503131 -0.015580668 0.14512315 0.06355381 0.06691496 -0.11140063 -0.052470043 -0.04009354
-0.1517476 -0.0075227083 -0.10576953 -0.09689614 0.057777498 0.09783804 0.1469014 0.013547517
-0.13733737 -0.043963537 -0.009569621 0.039784003 0.046474136 -0.046745785 -0.09241301 -0.03080121
0.09160619 0.13008663 0.037390687 0.099625796 0.11959426 -0.06989173 0.11955831 0.0072624143
0.05841525 0.09222984 0.018346144 0.10508262 -0.06261818 0.067416735 -0.017682193 0.07308253
-0.0024279489 -0.09214591 0.04556961 0.17117342 0.020769818 -0.02277398 0.03209368 0.1628793
-0.046616763 -0.10979098 0.045275502 0.012938261 -0.1040007 -0.029811528 -0.08146993 -0.0032745178
-0.031272765 -0.05834981 0.012607312 0.021416416 -0.1249426 -0.11507089 -0.020059042 0.042362873
0.04780697 0.062539585 -0.07551124 -0.010912037 0.122315146 -0.06628571 0.046949293 0.027341422
0.0014245185 0.009870886 0.016108828 -0.038508877 0.038585614 -0.13204294 0.04508374 -0.06119086
-0.043200105 0.16626056 0.12300744 0.061681785 0.08054259 0.0574594 -0.08892574 -0.111698225
0.04779968 -0.025130102 0.020913865 0.15903938 0.06627318 -0.1064115 0.1220745 -0.023313392
0.0026715663 0.10783744 0.15951614 0.17875662 -0.0112383505 0.03250224 -0.11750453 -0.051629618
0.022555828 0.08856724 0.06799716 -0.023059221 0.1585348 -0.07117562 0.12645184 0.0018600315
0.06519331 -0.013762905 0.0030682818 0.0019781408 0.117545195 -0.21179198 0.021474794 -0.06923963
0.100563936 -0.058711987 0.03572224 -0.091340505 0.040815998 0.061688084 0.05771694 -0.0318673
0.060892165 -0.05281882 0.04720319 -0.029990187 0.015367694 -0.056127027 -0.08044658 -0.080801114
-0.08721199 0.029335618 -0.0878864 -0.08996226 0.010428474 0.06739122 0.119716 -0.023598228
-0.021220993 0.08723265 -0.067917295 0.04037888 0.073832475 0.07425907 -0.027756851 -0.012426964
-0.08373804 -0.091484345 0.042420235 0.08968775 0.15737537 -0.16140595 -0.21480104 0.018901605
0.05869407 -0.067715436 -0.07158627 -0.114779264 -0.05287206 0.118984506 -0.145113 -0.04403558
-0.117145136 0.08718877 0.06865318 0.08819129 0.078840934 -0.06398535 0.07103023 -0.040645394

network_body.linear_encoder.seq_layers.4.bias f4 [256]
00000000: 2111 453c 255d 773c 806f 9dbb e94b c43c
00000010: da97 7e3c 1789 08bd 4fae cfbc 0fa0 953c
00000020: 7654 7cbc 28f1 91bc a7bc eabc 1621 473c
00000030: 5913 e6bc 0a80 0e3c caf4 0e3d 4518 cd3a
00000040: 27c1 87bc d597 b9bc 14db 25bc 6480 c8bc
00000050: eb5d 8cbc a555 d33b a4eb 97bc 7dc8 983a
00000060: 8df1 64bd 108a 133a be9b 083d e5e9 debc
00000070: 3f4f 0d3c b5fa 5c3b 1722 cd3c ccbb bdbc
00000080: 44fc ee3c f62d 29bd db2b e3bc 16cc 01bd
00000090: 5b96 7a3c d420 31bd 676f 29bd 71be cdbb
000000a0: 8225 1e3c afaa 5b3c b760 26bd e169 23bd
000000b0: f307 3d3c f913 cfbb 56f2 37bd e4f4 d63c
000000c0: ad8c 0cbd 5eeb 56bd 0915 0dbd 0079 2e3d
000000d0: 4b7c 523c 6e72 0bbd cab8 d83c 0ddf 2cbd
000000e0: 3022 2bbd fd50 333c b100 fbba 4cd7 7dbb
000000f0: b4fb 38bb 2768 52bb da0c 30bb f881 e53a
00000100: 9148 0ebd 862e 2bbb ea91 05bd 8070 29bd
00000110: 2d72 1f3d 034b e0bc 9b67 08bd 6600 1dbd
00000120: f870 623c ca7c c9bc 3f99 433c 1c45 fc3c
00000130: a87e a93c 95d2 85bc 7521 5e3c a28c afbc
00000140: bae0 07bc 29a0 283c 5cfc 4abd 3fc6 b7bc
00000150: f4e1 9f3c f512 5c3c 1e27 fc3c 79a7 77bd
00000160: e301 0abc 5d17 c9bc 1459 f0bc d4e8 6fbd
00000170: 97b9 4a3c aa50 2b3c ed50 d5bc 6b7c 95bd
00000180: dac5 2cbc 7d87 25b9 5561 16ba 0ad6 d6bc
00000190: 2e5f 473c 2cc7 853b a17a 06bd f272 d6bb
000001a0: 08e7 103c 66f5 75bd d269 843c 296d bc3c
000001b0: a4c9 03bc 788c 81bc 9d11 9a3b f808 ec3c
000001c0: 19ff d43c f23b 4c3c 82e8 2b3b b615 2ebd
000001d0: e634 a0bd d526 52bd 6494 893c e6a5 bfbb
000001e0: 33fd 1e3a 74d5 eabc 82fc ecbc ad8b 1a3d
000001f0: 551a bb3c 3642 0b3c 31b6 ed3c 9b06 00bd
00000200: d408 e5bb 6262 843b de02 30bd 3873 3f3c
00000210: 2925 82bd 3f8e 84bc 1cad 573b 2801 07bd
00000220: dedb cdbb 99fc a83c 6938 ba3c caa3 d43b
00000230: 8935 0cbd 23d4 45bc ff55 99bc 0eac 85bc
00000240: e691 cbbc 034a 4a3c 15a5 3abc c07a e23c
00000250: f81c 91bd fe07 57bd fa96 383c 8a22 ae3b
00000260: 06d8 9abb 7eea b1bd 2ee3 30bc 047f 56bc
00000270: a1f4 cfbc b31f c83b 0154 7dbb 5fdb 323c
00000280: 1fb5 583c 73f4 0d3c 2d05 31bc 77bb 06bc
00000290: 828e 94bc 387d 2bbd 747d 283c da6a 723c
000002a0: 1c31 bbbc 17ca 9bba b58d be3c 28e1 493b
000002b0: 852b 073d b94d 34bd b596 19bd 5f57 cebc
000002c0: 16d9 5a3c bba1 0e3d da2c a23b 5a9d 4a3c
000002d0: 6f7e 15bc a1e2 92bc 3fe4 573c 3563 533d
000002e0: 721d b9bb a31e 6138 0d20 483d b50a 273d
000002f0: 1cad 9a3c 49e1 b7bc 7256 073d 178e a13c
00000300: d27f 81bc 78f2 61bd 2eb2 3dbd 3b31 babb
00000310: 6b04 253c c002 253d 8e67 9ebc 28b7 05bc
00000320: e7e6 cf3c b718 15bd 779b f1bc cbb1 c8bc
00000330: 33ec e13b 7205 5abd 88e4 8d3b 9f81 503c
00000340: ee66 9db9 e0c9 c03c a127 ecbc 377f 0b3b
00000350: 8e45 72bd fac6 7fbc ac5c 83bb 043c ebbc
00000360: caa5 7f3c 24f3 9bbc 8ae4 78bc 31de fd3c
00000370: 1432 b33c 4b56 88bd 93a2 13bd 4616 453c
00000380: b36c 2bbc 8535 d1bc 251a 5dbd 4a46 9339
00000390: 113c 02bc 7cff 0dbd 37f6 19bd cd9b 0d3d
000003a0: 1f02 33bd cf00 543d 4640 c6bc 4dd0 b7bc
000003b0: 16ea b8bc 6561 eabb c99d 0f3d bb38 33bc
000003c0: b8a7 2dbc a423 e73c 4def e8ba fc21 e73b
000003d0: 5e42 fe3b cd31 84bb 047a 63bc d713 893c
000003e0: e4db 253c 1049 efbc 6e45 db3c 66f3 24bd
000003f0: fcda f83b 7258 b9bc 093f c3bc 74ec 7abc
0.01202801 0.015097891 -0.0048045516 0.023961978 0.015539134 -0.033333864 -0.025351672 0.018264798
-0.015400996 -0.017815188 -0.02865441 0.012153884 -0.028085398 0.008697519 0.034901418 0.0015647492
-0.016571594 -0.022655407 -0.010123033 -0.024475284 -0.017134627 0.0064494186 -0.01854498 0.001165643
-0.055894423 0.0005628178 0.033351652 -0.027211139 0.008624851 0.003371877 0.02504067 -0.023160838
0.029173024 -0.041303597 -0.027730873 -0.031688772 0.015294637 -0.043244198 -0.041366007 -0.006278806
0.009652497 0.013407393 -0.04061958 -0.039895896 0.01153754 -0.0063195196 -0.044908844 0.02623982
-0.034313846 -0.052470557 -0.03444389 0.042595863 0.012847017 -0.034044676 0.026455302 -0.042204905
-0.04178065 0.010944602 -0.0019149986 -0.0038733063 -0.0028226199 -0.0032105537 -0.002686313 0.0017510047
-0.034737173 -0.002612026 -0.032609858 -0.041367054 0.038927246 -0.027379518 -0.03330193 -0.038330458
0.013820879 -0.024595637 0.011938392 0.030794673 0.020690277 -0.016335765 0.013557781 -0.021429364
-0.008293325 0.010292091 -0.049557075 -0.022433398 0.019516923 0.013432254 0.030780371 -0.06046245
-0.008423301 -0.024547273 -0.02933935 -0.05857165 0.01237335 0.0104562435 -0.026039565 -0.072991215
-0.010545218 -0.000157861 -0.00057365495 -0.026225109 0.012168689 0.004082581 -0.03283179 -0.0065444643
0.008844145 -0.060048483 0.01616374 0.02300127 -0.00804368 -0.015814051 0.0047018067 0.02881287
0.026000546 0.012465464 0.0026231115 -0.042501174 -0.078225896 -0.051306564 0.016794391 -0.005848634
0.00060649513 -0.028666236 -0.028928999 0.03773086 0.022839705 0.008499673 0.02901754 -0.0312563
-0.006989578 0.0040400485 -0.042971484 0.011685185 -0.06354744 -0.01618111 0.0032909578 -0.032960087
-0.0062823137 0.02062826 0.022731977 0.0064892517 -0.034230743 -0.012074503 -0.018717764 -0.016317394
-0.024849843 0.012346747 -0.011391898 0.027646422 -0.070856035 -0.052497856 0.011266464 0.005314176
-0.004725459 -0.08687304 -0.010796351 -0.013091806 -0.025385203 0.0061072945 -0.0038654807 0.01091656
0.013226776 0.008664238 -0.010804457 -0.008223406 -0.01813436 -0.041867465 0.010283817 0.014795983
-0.022850566 -0.0011885789 0.02326093 0.003080437 0.033000488 -0.044019435 -0.03749724 -0.025188146
0.013357421 0.034822207 0.0049491944 0.012366617 -0.009124382 -0.01793033 0.013176977 0.051608283
-0.005649262 5.3672713e-05 0.04885869 0.040781695 0.018881373 -0.022446292 0.033041425 0.019721074
-0.01580802 -0.055162877 -0.046312504 -0.0056821383 0.010071854 0.040285826 -0.019336488 -0.008161344
0.025378658 -0.036400523 -0.029493077 -0.02449884 0.006894612 -0.05322785 0.0043302216 0.012726217
-0.00030022062 0.023533762 -0.02882749 0.0021285543 -0.059148364 -0.015611405 -0.00400885 -0.028715141
0.015603492 -0.019036837 -0.015191207 0.030989738 0.021874465 -0.06657084 -0.036043715 0.012029236
-0.010462928 -0.025538215 -0.05398001 0.00028090394 -0.007948891 -0.034667477 -0.037588324 0.03457241
-0.043703195 0.051758584 -0.02420057 -0.022438193 -0.022572558 -0.0071527236 0.035062585 -0.010938819
-0.010599069 0.028215237 -0.0017771513 0.007053612 0.0077593764 -0.004034257 -0.013884071 0.016733093
0.010123227 -0.029209644 0.026766505 -0.040271185 0.0075944643 -0.022625182 -0.023833768 -0.015315164

network_body.linear_encoder.seq_layers.4.weight f4 [256, 256]
00000000: e436 333d b636 b1ba 129c 49bc 66ae 99bd
00000010: 033b a5bd 5106 d7bd 9d85 8abc 55a6 853c
00000020: f45d 013e db01 8a3d 78b4 d3bc 611d 2dbd
00000030: 0106 d83d 2228 6d3a 1c65 6dbd 2e95 dcbd
00000040: f803 21be e703 68bc 3b46 303d 88dc b73d
00000050: f2e8 d8bd 5585 d9bb fffd 13bd a1d9 2f3e
00000060: 55c3 e7bd 1ad4 68bc 4e56 efbc af78 9c3c
00000070: 078b 1dbc 29b6 a8bd 09f0 03be e910 d63c
00000080: 11e2 6e3d aa95 35bd 9f90 c03c 5e76 eebd
00000090: f671 08bb 33f1 083d 55cf 15bc 6a60 40bd
000000a0: b633 583d 40ca 8abd 025b 86bc d222 643c
000000b0: e50d b6bc 2843 00bd 550a e9bc a0cb bf3c
000000c0: 8fa6 323d 233c f93c 5d11 bfbd 94f0 ad3c
000000d0: ada1 833d 9a88 213d 5ab7 ed3b cbc8 0bbe
000000e0: 0050 a1ba e48b 1fbd 6cc9 7fbd 21a5 503c
000000f0: d6c6 52bd c349 07bd 31ac febd f718 ebbd
00000100: c026 b43d 327e 20be 223c 88bd c35f e9bc
00000110: 6513 1dbd c94a 1ebe bb96 d23d 800c dd3c
00000120: 3fb9 bcbb 66f5 1abe d632 3d3d 008e 203b
00000130: 06b7 003d 3cd4 0f3d bc30 83bd c361 433d
00000140: ca57 6c3d f317 18be 90ce 2fbd fb2f 473b
00000150: 7b0f 423b 078f 3cbe 1654 583d 5810 2cbd
00000160: bb73 d7bd f433 53bd 2665 963d 853e 6fbd
00000170: 7140 e23b e589 d6bd 4bff 39bd b125 ae3d
00000180: 9655 6a3d 6b5b 29bd c93d 01be eceb 65bc
00000190: bf25 773d 4c0d 8a3d 6572 77bc a522 cdbd
000001a0: f0ad 033d 1e0b 61bc fa5c 14bd a5d4 6abd
000001b0: 31e3 453b 9dfc 6a3d 1a43 dc3d ee52 28be
000001c0: ca7f 1d3d 39c7 8f3c 4d81 fc3d 2439 1dbe
000001d0: 6dec 42bd 12e8 f6bd 8b95 2dba 1282 0cbe
000001e0: dadf 37be aa2c c33d 9f29 0fbd e033 b7bd
000001f0: b307 85bd 2f10 9ebd 01be 983d 635f d2bc
00000200: af4e dbbd f986 833c c14a 3bbd fee2 35be
00000210: 23b5 d73c 1ace bdbc 61ff e6bc 62a6 34be
00000220: 7276 e4bc adc6 cc3c 90dc a7bc da98 a5bd
00000230: 2406 0f3c ebce 2cbd 3671 20bd b6b2 54bd
00000240: 399a 7bbb 2bd9 01ba 34db 563d 4e74 993d
00000250: fb73 7a3d 9818 a6bb 3140 30bd 22f8 353d
00000260: 6d55 e3bd 3a47 bcbd b40c 06be 9a58 b9bd
00000270: ece7 673a 47ef 063e 1c79 37be 987b 05bc
00000280: c913 8fba 1fb4 30be 150e 0dbe 8124 de3d
00000290: ae08 54bc b953 c6bd 0395 643d bb57 ed3c
000002a0: 5d68 7ebd 11a9 8bbd ab9f 81bc 6556 8bbd
000002b0: eef4 c4bd bb4d 893d d6f5 e9bd 17f1 04be
000002c0: 80ec 68bd 32d9 b5bd b9f5 f0bd 4fa4 2bbe
000002d0: 7a46 cbbc 2788 a2bd 5183 aebc 22d5 07be
000002e0: 74e7 87bd 8e9c babd 51ce f2bd e628 f9bb
000002f0: 8ce9 bf3c a5ac 88bd f738 b5bd ff87 a83a
00000300: ff71 cf3d c410 033c ad68 c9bc aad9 d9bd
00000310: b0e9 843d 15ab 363c 6ac3 f7bd a330 5abd
00000320: 949b 9bbd 997c d73b cf62 27be 4799 b6bc
00000330: 1e62 a03b 564d 3b3c c95c 1ebe d6d5 2dbd
00000340: 1421 8e3b 0243 183c f448 ba3d c46d a0bc
00000350: b462 f3bc 37b3 be3d 8f1a 5dbd 836f 91bc
00000360: 387b 9f3d 8d41 6fbc 6632 7cbd c2e6 a7bd
00000370: ba91 383e c18a 463c 56c4 003d 7107 a13c
00000380: 02c4 e7bd 86fd 8dbd 0eb9 15be 6714 34bd
00000390: 24e5 e4bc d5f7 c53d 6f22 9ebd aeac 9ebd
000003a0: 4a3e a03d df53 65bd 5a1c 1ebe cd9f 40be
000003b0: a3c7 3fbe 9eaa 05bd 8b09 ca3d 490d 413e
000003c0: e774 2cbd 456a bfbc 7ec4 3bbd 848a 943d
000003d0: a7d2 95bd c301 95bd 5627 37bd e171 413d
000003e0: 1140 b6bd a875 f13c e965 9a3d 6f13 63bc
000003f0: 5298 903d d8e1 17be 33da e9bc bef8 22bc
0.04375352 -0.0013520333 -0.0123052765 -0.07503967 -0.08067896 -0.10499252 -0.016909415 0.016314665
0.12633497 0.06738635 -0.02584289 -0.042264346 0.1054802 0.0009046813 -0.057957754 -0.10770641
-0.1572417 -0.014161087 0.043035727 0.0897761 -0.10591306 -0.006638209 -0.0361309 0.17172863
-0.113165535 -0.014210725 -0.029215958 0.019100515 -0.009615666 -0.08237869 -0.12884535 0.02613111
0.058321062 -0.044332184 0.02350646 -0.116436705 -0.002081988 0.03343315 -0.00914367 -0.046966948
0.05278369 -0.067768574 -0.016400818 0.013924317 -0.022223422 -0.031314045 -0.02844731 0.023412526
0.043615874 0.030424183 -0.09329484 0.02123288 0.064273216 0.039436914 0.007254523 -0.13650815
-0.0012307167 -0.03895177 -0.06244795 0.012734682 -0.051459156 -0.03302933 -0.12435187 -0.11479371
0.087964535 -0.1567314 -0.066520944 -0.028488046 -0.038348574 -0.15458216 0.10282656 0.0269835
-0.0057593877 -0.15132675 0.04619106 0.00244987 0.031424545 0.03511451 -0.0640578 0.047700655
0.05770091 -0.14852886 -0.042921603 0.0030393589 0.0029611278 -0.18413936 0.052814566 -0.042007774
-0.10520121 -0.05156322 0.07343511 -0.058409233 0.0069046547 -0.1047552 -0.045409482 0.08503283
0.057210527 -0.04134695 -0.12621225 -0.014033299 0.06033873 0.067408174 -0.015102957 -0.100163735
0.0321483 -0.013735561 -0.03622148 -0.0573317 0.003019523 0.057369817 0.10754986 -0.16437885
0.038451947 0.017551051 0.1232935 -0.15353829 -0.047588754 -0.12055983 -0.000662171 -0.13721493
-0.17956486 0.09530003 -0.034951802 -0.08945441 -0.06495609 -0.077179305 0.07458115 -0.02568025
-0.10708367 0.01605557 -0.045725588 -0.17762372 0.02633149 -0.023169566 -0.028197946 -0.17641595
-0.02788851 0.02499708 -0.020490915 -0.08085795 0.008729491 -0.04218952 -0.039170466 -0.051928245
-0.0038391484 -0.000495332 0.052455142 0.074928865 0.061145764 -0.00506885 -0.043029968 0.04442609
-0.11100278 -0.09193273 -0.13090783 -0.090501025 0.000884651 0.13177215 -0.17917293 -0.008147143
-0.0010915931 -0.1725621 -0.13774903 0.10846806 -0.0129415225 -0.096839376 0.05580617 0.028972497
-0.062111247 -0.06819356 -0.015823206 -0.06803588 -0.09617029 0.06704279 -0.114238426 -0.12982593
-0.05686617 -0.08879317 -0.11765618 -0.16761898 -0.02481388 -0.07936125 -0.02130285 -0.13264897
-0.06635943 -0.09111892 -0.11855758 -0.0076037524 0.023426794 -0.06673554 -0.08848756 0.0012857913
0.10129165 0.007999603 -0.024586046 -0.10637219 0.06489885 0.011149188 -0.12097819 -0.05326904
-0.075980335 0.0065761325 -0.16346286 -0.022289885 0.004894509 0.011432013 -0.15465082 -0.042440258
0.0043374393 0.00929332 0.09095946 -0.01958359 -0.029710151 0.09311526 -0.053980406 -0.017753368
0.07787174 -0.014603031 -0.0615715 -0.081983104 0.1802434 0.012118042 0.03143724 0.019656869
-0.113166824 -0.069331214 -0.14621374 -0.04396477 -0.027941294 0.09666411 -0.077214114 -0.0774778
0.07824381 -0.05598819 -0.15440503 -0.18810959 -0.18728499 -0.032633416 0.098651014 0.18852724
-0.042103674 -0.023366103 -0.045841686 0.07252982 -0.07315569 -0.07275727 -0.044715248 0.047227744
-0.088989384 0.029475048 0.07538969 -0.013859614 0.07060303 -0.14832246 -0.028546428 -0.009947
