Assets/ML-Agents/CarAgent.onnx (onnx, 793119 bytes, 9 tensors)

action_model._continuous_distribution.log_sigma f4 [1, 2]
00000000: 9310 d1bf aa31 9ebf
-1.6333183 -1.2358906

action_model._continuous_distribution.mu.bias f4 [2]
00000000: fb69 d03b 573c 973c
0.00636029 0.01846139

action_model._continuous_distribution.mu.weight f4 [2, 256]
00000000: a0ac 4abd 5bd2 95bc 9522 dcbc 046e 4fbd
00000010: 3516 5f3d f2d9 413c f62a cbbc 05ce 6d3c
00000020: 8bd0 4dbc 7143 c23b 4e81 8cbb 8445 24bc
00000030: cd2d 143d 4ee7 92bc d26b 96bd dbf4 38bc
00000040: d2fe e93b bbb6 c3ba db09 513c e3f9 73bb
00000050: 4de4 1a3d 1e87 39bc a549 1c3c 5e19 d2bb
00000060: 9733 5fbb 3096 89bb e73c 673d 9171 f43b
00000070: 8c23 91bb 9f2b d4bb 4354 ae3d bc6b 38bc
00000080: baff 9a3d 1c5f 243d c8f2 c03b 6332 6dbc
00000090: 7ecf 3abc 76ee 48bb e0e3 0fbd 91a1 483c
000000a0: 73f5 ac3c 9219 1dbc 380e 2cbc 07f7 97bc
000000b0: 39e5 5c3d f341 0fbc cda5 b33a 5b01 183c
000000c0: 6cd0 34ba e9aa 093c eff5 a6bb 7eee 803d
000000d0: c8c4 7f3c af89 fabb b186 143d 86bf 14bc
000000e0: de54 24bc f87a 663c 4b0e 073c 280e 023d
000000f0: 9eef ed3c 7fa8 c0bc 3bf2 55bc aa47 5f3c
00000100: abe1 c73c 24ab d03b ec2b 62bb 48c6 8b3c
00000110: 881f 9cbd 07e8 393b 5cea 82bb f6bf 49bb
00000120: 66cb 523d a063 0ebc 1cfd 863d 91b9 d7bc
00000130: 4b19 96bb bce4 babb 8a53 08bd 743a 353c
00000140: 4526 61bb 21de 863d b063 d53c 4084 b5bc
00000150: aed2 ac3d e2d7 993c fe84 3f3c 005f 153c
00000160: 820a 213b 5571 c8bb d20c 0b3c 07a4 a53b
00000170: f640 ea3c dec4 e23b 4e96 0ebc 6b07 303c
00000180: 52b3 c03b 6f1e 6ebc fd2d 133c d7fa 2a3b
00000190: 00f8 b9bc f99e 8ebc 286d 88bb 03a3 03bd
000001a0: 317c 9cbc a696 c7ba 1641 b43d fdd1 9e3d
000001b0: 4641 d53c 7d5d e33c b56d 1abd 4ab8 933d
000001c0: 9214 563c 2e29 5bbd aa3f 033d ca3c 04bc
000001d0: c76f 303c 1f8f 0abc 8f19 60bd 9a4b 89bc
000001e0: 2b27 24bc 78c8 acbb c728 febb 8d84 8cbd
000001f0: 6fc3 2dbd 6eae 6ebb ea6f 983b dea1 ad3b
00000200: 8acc dbbb 3647 413d 7fd6 69bb c838 a7bc
00000210: 5917 ce3b 86e2 223b de06 ba39 a636 13ba
00000220: c63c 183c 14c8 bf3c 40f8 a33d 0a01 69bc
00000230: 41c6 23bc ae1e d0bc d9dd 3bbc a511 b6bd
00000240: a88b 86bb 5fc6 603c cb68 f73b e73d 323d
00000250: 80e9 303b c764 a8bb c2af f63c cc7b 423d
00000260: c3e0 283d e46e 79bb 1475 da3b 559d f4bc
00000270: d3cb f23b 38be 88bc bad3 673d cbe5 04bd
00000280: fead fbbc 322d 9dbb 03e9 a9bc 9198 673c
00000290: 4f53 b43c bd15 2fbc 0b0b 483b d4cb 4a3b
000002a0: ebc9 173d 86e7 233c eea2 8b3d 3e03 743d
000002b0: e2d5 9c3d 00e2 ddbb c3b7 d5bb 9517 f7bb
000002c0: 2941 a13d a954 5a3d 4833 a83c c15b f23c
000002d0: 5de6 873c 31cd 87bc ca72 cd3d 2845 48bd
000002e0: f731 45bd 997a dfb8 6eaf a93b e914 cbbb
000002f0: 362c 903d 73c2 f63b 58bd 09bd 3022 ee3c
00000300: 8d68 6dbc 1578 4f3b 8429 edbb 0fe0 c53b
00000310: e958 1abc 4c58 5d3c 3dae 3e3c 34a4 6cbc
00000320: c70d e13c d821 9fbc 7bd7 89bc 8b40 983c
00000330: cfdb 74ba a6d5 82bb 945f 053d 8f4a 3a3c
00000340: 0e1d fd3c 7296 c23d 76a4 c13b 9ea3 bebc
00000350: 03d2 f4bc 45be 3abc 9d5c 10bd 8bcc 10bc
00000360: d1fe ba3c e256 aeba 555d ef3c 3783 6dbd
00000370: 42b9 583d 703e dcbc 8d3a 36bc 56b2 223d
00000380: 7832 163c f4b4 6cba 8d59 acbc 58d3 4abc
00000390: 0dbb 3e3c 8e27 12bc c571 da3b 3bf1 33bd
000003a0: 3d9e e3bc 1d4b 95bd e052 edbb edaa 4fbb
000003b0: 4e81 38bd 3b25 0dbc e05f 723d 7fe8 983a
000003c0: 1e68 05bb 92f1 443c aadc 0cbd 927a 393b
000003d0: 5da4 fd3c 6912 d23c 2e8a 5bbb 4925 d23c
000003e0: a91a 003d a9cc 20bc 657d a33d f6a9 f5bc
000003f0: c303 1a3d cd2a 89bb 000b 443b 32cb 1fbd
-0.049481034 -0.018288782 -0.026871959 -0.05064203 0.054464538 0.011831747 -0.024800759 0.014514451
-0.012561928 0.00592845 -0.0042878753 -0.010026339 0.03617649 -0.01793256 -0.07344784 -0.011288847
0.0071409727 -0.0014931777 0.012758697 -0.0037227802 0.03781538 -0.011323718 0.009539043 -0.0064117154
-0.003405785 -0.004198812 0.056454565 0.0074598272 -0.0044292863 -0.0064749266 0.085121654 -0.011256155
0.07568307 0.040129766 0.005888317 -0.014477345 -0.011402009 -0.0030659712 -0.035129428 0.012245552
0.021113133 -0.009588616 -0.010501437 -0.018550409 0.05392954 -0.008743751 0.0013706029 0.009277667
-0.00068975124 0.008402565 -0.0050952355 0.06295489 0.015610881 -0.0076458077 0.036261264 -0.009078866
-0.01003 0.014067404 0.008243154 0.03175178 0.029044922 -0.023517845 -0.0130582405 0.013627926
0.024399599 0.006368058 -0.0034511043 0.017062321 -0.076232016 0.002836706 -0.003995223 -0.0030784584
0.051463507 -0.008690745 0.065912455 -0.026333602 -0.004580652 -0.005703537 -0.033282794 0.0110613
-0.0034355086 0.065853365 0.026048511 -0.022157788 0.084386215 0.018779699 0.011689423 0.009116888
0.0024572914 -0.006117026 0.008486943 0.005054954 0.028595429 0.006920441 -0.008702828 0.010743956
0.0058807516 -0.014533623 0.008983132 0.0026089454 -0.022701263 -0.017409788 -0.004163403 -0.032137882
-0.019102188 -0.0015227392 0.08801477 0.07754896 0.026032101 0.02775454 -0.03770228 0.07212885
0.013066428 -0.05350607 0.032043137 -0.008071134 0.010768837 -0.008456974 -0.054711875 -0.016759682
-0.010019104 -0.005272921 -0.007756326 -0.068612196 -0.042422708 -0.0036419886 0.004652013 0.005298837
-0.0067077326 0.047187053 -0.0035680828 -0.020412818 0.0062894044 0.0024854257 0.000354818 -0.0005615748
0.009291833 0.023410834 0.08006334 -0.014221439 -0.009995998 -0.025405254 -0.011466467 -0.08890084
-0.004106004 0.01371917 0.007550334 0.043516066 0.0026994646 -0.0051389667 0.030113105 0.047481343
0.041229974 -0.003806048 0.006666789 -0.029860178 0.0074095516 -0.016692266 0.056598403 -0.03244571
-0.030722614 -0.0047966475 -0.020740991 0.014135496 0.02201238 -0.010686335 0.003052416 0.0030944245
0.0370578 0.01000393 0.06818186 0.059573404 0.076579824 -0.006771326 -0.0065221502 -0.007540653
0.078737564 0.053303394 0.020532265 0.029584767 0.016589338 -0.016577335 0.1003166 -0.048894078
-0.048143353 -0.00010656304 0.0051783836 -0.006197561 0.070396826 0.0075305044 -0.033627838 0.029069036
-0.014490259 0.0031657268 -0.007237615 0.0060386728 -0.009420612 0.013509821 0.011638221 -0.014443446
0.02747239 -0.019425318 -0.016826382 0.018585464 -0.00093406154 -0.003992754 0.032561854 0.011370315
0.030897643 0.095013514 0.005909498 -0.023271378 -0.029885298 -0.011397903 -0.035244573 -0.008837829
0.022826584 -0.001330104 0.029219309 -0.057986464 0.05291105 -0.026885241 -0.011122358 0.039720856
0.009167306 -0.00090296497 -0.021038795 -0.01237949 0.011641276 -0.008920563 0.0066663944 -0.043931227
-0.027785415 -0.07289717 -0.0072425455 -0.0031687573 -0.04504519 -0.0086148335 0.059173465 0.0011665969
-0.0020356248 0.0120204855 -0.03439013 0.0028301817 0.030962164 0.025643544 -0.003349911 0.025652545
0.031275425 -0.00981442 0.079829015 -0.02998827 0.037601244 -0.0041860105 0.0029913783 -0.03901214

network_body.linear_encoder.seq_layers.0.bias f4 [256]
00000000: da65 a1ba b4c7 b0bb b3bc 6abb 0575 9b39
00000010: f400 32bd 52a8 343c 87da bcbb 2f3d b23b
00000020: 477e 9a3c 689e 1a3c e008 b13c d765 2f3b
00000030: 3edf 493b ae9a 523b 9020 a2bb 51b7 f5ba
00000040: 6f2d 793a 8c63 07bc 1593 80bb 4248 15bc
00000050: ed94 513c b473 57bc 994a 573c c807 2f3b
00000060: 5738 9e3b 30d5 d3bb d8c8 d93a d16e 643c
00000070: 509a abba 6a5f 82bc cefc 4a3a eceb bbbb
00000080: 2d02 f0bb 8387 003c 7de3 00bc ae08 833c
00000090: 9b12 ea3b 9ee0 283b 9712 2abc cf4d 813c
000000a0: 801a 5ebc b32a 523c a7ea 583c ea36 17bb
000000b0: 1c5f 483a 410a 66bb 0fc7 37bc 91d1 343b
000000c0: 32f0 003c 4a90 403c cec5 b2bb 76a3 14bc
000000d0: 5deb fc38 95c8 3abc e00d c53b 2ef9 de3b
000000e0: 4645 243c 3fbf a0bc 17d4 8c3c 750b ae3a
000000f0: 13c4 f83b bc0d 7abd d9ed a9bc 37f2 c2bb
00000100: 94c7 b4bc 9c17 253c 68d6 e03a 8a94 86bb
00000110: 295f bfbb 7bdf d0b9 1199 05bc 5b48 a73c
00000120: d893 403b 3472 943c 670c f3bb 28b5 5f3c
00000130: 4d0e 0c3b 7fda 5d3b 56b5 70bd 707d 88bb
00000140: 333f 4dbd 073d f4bb d814 ea3b 4739 5cbc
00000150: c9a2 1aba 3590 243c fbf2 8f3a 34d4 8bbb
00000160: 8f28 87bb b227 64bc d72c 8fbb ed30 e23b
00000170: 61d3 9d3b eaaa a3ba 1003 823b 08b2 123c
00000180: 64f1 30bc 1d95 6bbc 109e 69bb cdf2 e6bc
00000190: 5c56 c339 1b5a 3a3c 0f13 a03c f37c 73bc
000001a0: 3900 f7bb 8314 93bd 37df 103b d5d8 8a3b
000001b0: 3b0e 57bd 822d 0dbc e975 66bb 7a1d 00bd
000001c0: cf10 903c cf87 d4bb b09c 88ba 1836 613b
000001d0: 9b90 3bb8 1e81 453b 55c0 213c 46a8 89bc
000001e0: 04bc 46bd ff8f cb3c ce23 2abd d7bf 943c
000001f0: fd0c 503c 2acd ef3b 33dc c6bb b211 09bc
00000200: cd2c 5ebb a741 95bb a3eb 67bc de2b bf3b
00000210: b604 8bbc 93f3 a13c 2a63 41bc a451 53b9
00000220: 111f 2a39 28e2 6c3b 98b2 9abd c0fc 2cb9
00000230: 77b8 8ebc 0c14 223c b854 1ebc ca3d 23bd
00000240: a802 c8bc 23c8 4bbd 6fda 13bb fa78 11bc
00000250: 5ccb a4bc a0a3 f7ba 4003 0a3c c9c2 5dbd
00000260: ae3b 563a ff20 1cbd abfc 2f3b 2a7b 32bb
00000270: 717f 4b39 1fa9 623c c3d9 293c 8a18 a9bc
00000280: dfb4 843c 1e60 08bd dbb5 4ebc 6fae 07bc
00000290: 1095 88b9 73f7 863c 04d6 c83b 1eb0 0fbb
000002a0: 0a13 2c3d 0ec8 9f3b d151 b2bd 36c6 023b
000002b0: 2531 20bc e4b7 6bbd ab4e 56bc 6fbd 2b3b
000002c0: 5411 4dbb d797 853b 0345 df3b 2d2d 4f3b
000002d0: 0181 05bd d7d7 333c 70fc 743c 57d1 b13b
000002e0: bc30 51bc e65b 2cbd 878c 4cbc 33c8 cabc
000002f0: e985 733c 2422 e939 dc2e 8e3b 9c69 de3b
00000300: 5e56 313b 5948 04bb 510d 8bbb 4ffe 893a
00000310: 8842 16bc 40d8 853b bc4e 6c3a 15b9 6cbb
00000320: 1e95 4f3c 23b7 443a f725 ce3c 6ad5 343c
00000330: 9f49 20bc d3eb 22bc 0fba 113c fd36 5cbc
00000340: da9d b1ba e2b3 adbb fe1a c5bb de04 b3ba
00000350: a6a3 273c d0f6 173b 8d86 023d b197 853b
00000360: 5182 883c aaaa 16bd 38f7 603c 51c5 b8ba
00000370: ed30 293c 4717 613c aa3c c0bb 90f4 03bc
00000380: 0b55 883c 30f7 31bc 3342 093b 7541 beba
00000390: 3bcb 69ba ddfe 64bd 779f fdba 7155 8f3b
000003a0: 882d 983b 3ca0 a1ba d19d 083c c531 333c
000003b0: 7c88 c6ba b75e e23b cc7f 513c 48cf 043c
000003c0: 943c 18bc 09bb a23a ae57 e3bb 12ec cb3b
000003d0: 7e53 c13a 3219 b5ba 9852 25bd 2fcb 423c
000003e0: 8f67 413a d498 833c b2f1 85bb b6db 153b
000003f0: c51a 493b eddb e3bc 7876 333b af59 aebb
-0.0012313679 -0.0053949 -0.003581804 0.0002965109 -0.04345794 0.011026459 -0.005763355 0.0054394226
0.018859042 0.009437181 0.021610677 0.0026763582 0.0030803229 0.0032135653 -0.0049477294 -0.0018746649
0.00095053663 -0.00826348 -0.0039237835 -0.009111466 0.012791854 -0.013150144 0.013140344 0.002670752
0.0048284936 -0.006464623 0.0016615642 0.013942436 -0.0013092253 -0.015914638 0.00077433593 -0.005734911
-0.007324478 0.0078448085 -0.007866737 0.01599535 0.007143331 0.0025768648 -0.010380409 0.015784172
-0.013556123 0.012827563 0.013239539 -0.0023073503 0.0007643567 -0.0035101327 -0.011216893 0.0027590732
0.007869767 0.011753151 -0.005455709 -0.009072175 0.00012060136 -0.011400362 0.006013617 0.006804607
0.010026282 -0.019622443 0.017190976 0.0013278561 0.0075917332 -0.061048254 -0.020743297 -0.0059492844
-0.022067823 0.01007643 0.0017153742 -0.0041070627 -0.0058402014 -0.00039839357 -0.00815417 0.020420244
0.0029384997 0.018120863 -0.00741725 0.013654031 0.0021370829 0.0033852158 -0.058766685 -0.004165344
-0.0501091 -0.007453564 0.007143598 -0.01344139 -0.00058988907 0.010044147 0.0010982448 -0.00426724
-0.004124708 -0.01392548 -0.004369359 0.006902805 0.004816458 -0.001248685 0.0039676502 0.008953579
-0.0107997395 -0.014378813 -0.003564719 -0.028191948 0.0003725764 0.011374022 0.019540338 -0.014861333
-0.0075378683 -0.07181647 0.0022105703 0.004237274 -0.052503806 -0.008616807 -0.0035165495 -0.03127811
0.01758614 -0.006485916 -0.0010422673 0.0034364518 -4.471895e-05 0.0030136774 0.009872516 -0.016803872
-0.04851915 0.024848936 -0.041538052 0.018157883 0.012698409 0.0073181586 -0.0060687303 -0.008366035
-0.0033901215 -0.0045549455 -0.014155301 0.005834087 -0.01697002 0.019769466 -0.011803428 -0.00020152942
0.00016224037 0.0036145542 -0.07553595 -0.00016497355 -0.017421944 0.009892475 -0.009663753 -0.03985385
-0.02441533 -0.049751412 -0.0022560616 -0.008878941 -0.0201165 -0.0018893369 0.008423626 -0.05414084
0.0008172345 -0.038117405 0.0026853483 -0.0027234056 0.00019407064 0.013834267 0.01036686 -0.020641584
0.016199527 -0.03329479 -0.0126166 -0.008281334 -0.00026051002 0.016475415 0.0061290283 -0.0021925042
0.042010345 0.0048761433 -0.087070115 0.0019954569 -0.009777342 -0.05754842 -0.013080279 0.002620544
-0.0031290846 0.0040769386 0.0068136468 0.003161262 -0.03259373 0.010976753 0.014952764 0.0054265666
-0.012767967 -0.04207983 -0.012484676 -0.024753666 0.01486347 0.0004446666 0.004339082 0.006787492
0.0027059535 -0.0020184724 -0.004243531 0.001052806 -0.009171136 0.004084617 0.0009014418 -0.003612106
0.01266983 0.0007504096 0.025164587 0.01103721 -0.009783178 -0.00994392 0.0088944575 -0.013440845
-0.0013551072 -0.0053009847 -0.0060151806 -0.0013658067 0.010231888 0.0023187883 0.0318666 0.004076921
0.016663702 -0.03678385 0.013730817 -0.0014096891 0.010326606 0.01373846 -0.0058666067 -0.008053914
0.016642114 -0.010862157 0.0020943999 -0.0014515357 -0.00089185283 -0.05590712 -0.0019349892 0.004374199
0.0046440996 -0.0012331079 0.008338408 0.010937159 -0.0015146877 0.0069082635 0.012786817 0.00810606
-0.009291787 0.001241536 -0.0069379425 0.00622321 0.0014749614 -0.0013816713 -0.04036197 0.011889263
0.0007377797 0.016064085 -0.00408765 0.0022866554 0.0030686122 -0.02781483 0.0027383845 -0.0053207497

network_body.linear_encoder.seq_layers.0.weight f4 [256, 255]
00000000: 1171 35be 9c67 0f3d c5ee 2dbd 3696 8b3c
00000010: c7f6 63be 6c8d a73c 3586 80bd 9f60 c1bd
00000020: da36 5cbe 8154 c63d 727f 863c e3dd 9a3c
00000030: 202f 693d a6e7 253d 7e61 fa3d 6d9c c5bc
00000040: e8b6 173d c298 15be aaa5 833d b60f 10bd
00000050: df0e f43c 7ab3 6cbc d6d7 953e 8be7 e13b
00000060: 5352 853d c9c6 28be 4a5a 633d 1a7a 923d
00000070: 0adc cd3d 0f0b 343d 95dd 833d c42b 64be
00000080: e0c0 79bd ec21 833d e266 afbd d5c9 7dbd
00000090: 4a7b 00bd 977b 853d d7b3 9d3e ee30 e7bd
000000a0: 0875 443c 3d07 bb3c 61bf 123d 5aac 01be
000000b0: d648 abbd 82ee cc3d 51b7 7c3e 5c49 213d
000000c0: 7183 3b3e 3948 7dbd 983f 183e 9b02 d73c
000000d0: fabb 02bc 9c80 b6bc a9f3 353c a643 8fbc
000000e0: 8efb 583d db1f 6b3d 3dda a23d 796d 063d
000000f0: c21b 2cbd ac33 ac3b f870 be3d 935e d63c
00000100: dbd5 d8bc 77c2 f8bd e846 183e 86d5 063d
00000110: 1907 34be f978 0e3d 6f00 00be b4c1 653d
00000120: cd7d babd 5a18 02be 0446 fe3d fbc3 cfbc
00000130: 8d3a fb3d c4a8 1f3d 5977 d3bc 8b5d 84ba
00000140: 7bbf b83c c551 84bd ca37 733d cdf4 cfb9
00000150: 8fec d4bd a2c0 c13e aaa2 7cbc 6eaf adbd
00000160: 3128 e03c a54a ed3c 1d1d 52bd aafb 123d
00000170: ab23 c1bd 1d7e 223d 2473 383c 2e11 d3bd
00000180: 5c29 b9bd 4287 4fbd 4593 da3c a464 c2bc
00000190: adbc a6bd 7bb2 94bb c12c 96bc ba7d 8c3d
000001a0: a8cd 03be 6a02 0fbe 3e70 41bb df0a 87bc
000001b0: 6d87 b73d fe2f 3fbc e63e 003d dad9 95bd
000001c0: d466 c03a d5fb 043e 3f7e 5e3d 8720 063e
000001d0: 0d87 2a3d 34f6 bcbc 1039 14bd 602d b9bd
000001e0: 51cb d73c 4841 373e 8ce7 0b3d 384f 0d3e
000001f0: 565a cfbd 5f6b a0bc f9b4 413d 7773 b83b
00000200: be4c cc3d 936a 453c 3e9b c3bd 3370 853e
00000210: 518b c5bd 0bce 003d f5f4 393d 76c0 f93d
00000220: 724b 073e bf29 69bd ad51 09be 33b8 0b3e
00000230: fc08 e8bd 74c4 01be 0636 76bd 557d 903d
00000240: 7adc 69bc 2d18 90bd 5859 b2bc c909 353d
00000250: b017 9c3c 91f3 59bd d0c3 fabc 8df8 7e3d
00000260: b4e1 5b3d ef8c f8bc 828c b0bd 64e5 c73d
00000270: ae94 fdbd 75dd b7bd 76ef 5d39 d212 733e
00000280: 3315 333e 2673 c0bd 9116 bebd 3d59 38bd
00000290: 2e90 27bd abe0 063d 3ffe 2dbd 78e6 353e
000002a0: f054 b93c e9f4 aabd d9db 24bd 7e56 2fbd
000002b0: a9a9 f1bd ab53 21bd c76a 77bd 376c 7f3e
000002c0: f86b 233d 699c f4bc 7c90 85bd 1804 a93d
000002d0: 7186 20be db88 7d3d 5af1 103d 16a4 1b3e
000002e0: 08d4 003d 96dd 0b3d 7cf4 b7bb 40fa 77bb
000002f0: ba12 d6bc 1779 23bd 8230 05bd 6eb2 983e
00000300: b65b e6bb 8e33 3ebc bc5a 78bd e8ff 033e
00000310: f4c1 dcbd f3bc ba3c 3ffd 8c3d eda0 473e
00000320: af61 83bd d203 dcbd 4819 c3bd f4a2 ad3d
00000330: ced2 183d b41f 91bc 9592 883d 20a5 f03d
00000340: 4515 f7bd 6537 713c 17a5 c1bc 3273 1cbd
00000350: 5431 8c3d 2cc2 a53d e4ef 86bd a687 d13d
00000360: 813c cb3d 4950 873c 4d30 91bd c962 893d
00000370: 287d 01be 23f8 d0bc f240 a83d 5cd3 173e
00000380: d9d9 7f3d ef27 063c 5a57 ae3c 0295 1c3d
00000390: c65d 95bc 7b8c 2dbd 7f23 773d 6fa0 04be
000003a0: 14d1 eabd baa4 7b3e 93a9 31bd 75d3 7abc
000003b0: d8fc 213e dec9 03ba 0a38 aebd 50cc 62bd
000003c0: c873 bc3c 982f 3f3d 3f02 b43d c91a 843e
000003d0: 3e3d bbbd 0502 72bc 6edd 463d 7a69 54bd
000003e0: 8879 f4bd d79f 47bc 40f1 083e f54c 80be
000003f0: 8a28 96bd 5e35 d8bd af71 de3d 4691 b43d
-0.17718913 0.03501092 -0.042464036 0.0170394 -0.22262107 0.020453177 -0.06275598 -0.09442257
-0.21505299 0.096840866 0.016418193 0.018904632 0.056929708 0.04050412 0.122256264 -0.024122441
0.037039667 -0.14609054 0.06428082 -0.035171233 0.029792247 -0.014447087 0.29266232 0.006894057
0.06509843 -0.1648208 0.05550603 0.07152195 0.10051735 0.04395586 0.06438748 -0.2228232
-0.060974956 0.064029545 -0.08564545 -0.06196006 -0.031367578 0.065177135 0.3080127 -0.112886295
0.011990793 0.0228306 0.035827044 -0.12663403 -0.08363502 0.10006429 0.24679305 0.0393766
0.1831186 -0.061836455 0.14868009 0.02624636 -0.007979387 -0.022278123 0.011105456 -0.017488312
0.052974276 0.057403427 0.07951782 0.032819245 -0.04201866 0.005255183 0.09298891 0.026168143
-0.026469162 -0.12146466 0.14870799 0.032918476 -0.17580833 0.034783337 -0.12500165 0.056092933
-0.09106026 -0.12704602 0.12415698 -0.025362005 0.12267027 0.038979307 -0.025813745 -0.0010098679
0.022552243 -0.06460909 0.059379376 -0.00039664507 -0.103966825 0.3784228 -0.0154196415 -0.08480726
0.027362915 0.028966257 -0.051297296 0.035884537 -0.09430631 0.039671052 0.01125792 -0.10306011
-0.09041092 -0.0506661 0.026681552 -0.02372963 -0.08141456 -0.004537878 -0.018331887 0.06859918
-0.1287142 -0.13965765 -0.0029516364 -0.016484676 0.08961377 -0.011669157 0.031309985 -0.073169425
0.0014679083 0.12986691 0.054319616 0.13098346 0.0416327 -0.023066618 -0.03618723 -0.09041858
0.026342066 0.17895997 0.034156367 0.13799751 -0.10124652 -0.019582449 0.04729173 0.005628999
0.09975575 0.012049335 -0.095510945 0.26062164 -0.09645713 0.031446498 0.045399625 0.12194912
0.13212374 -0.056924578 -0.13410063 0.13644485 -0.11329839 -0.12672597 -0.060110115 0.07055155
-0.014273757 -0.07035861 -0.021771118 0.044198785 0.019054264 -0.0532108 -0.030610949 0.062248755
0.053682044 -0.03034064 -0.0862055 0.0976055 -0.12381874 -0.089777865 0.00021165409 0.23737648
0.17488556 -0.09396963 -0.09281648 -0.04500698 -0.040908985 0.032929104 -0.042478796 0.17763698
0.02262351 -0.08347494 -0.040248726 -0.042807095 -0.11799938 -0.039386433 -0.060404565 0.24943624
0.03989789 -0.029859738 -0.06521699 0.08252734 -0.15676285 0.061898094 0.03538642 0.15199313
0.03145221 0.034146868 -0.0056138616 -0.003783837 -0.026131976 -0.039910402 -0.032516964 0.2982363
-0.0070299758 -0.011608971 -0.060633406 0.12890589 -0.10779181 0.022795176 0.0688424 0.19494982
-0.06415116 -0.10742916 -0.095263064 0.084783465 0.037310414 -0.017715313 0.06668583 0.11750245
-0.12064604 0.01472268 -0.023638291 -0.038195796 0.06845346 0.08093676 -0.06588724 0.10230951
0.099236496 0.016517775 -0.07089291 0.06708295 -0.126454 -0.025508946 0.08215512 0.14826721
0.062463615 0.008188232 0.021281887 0.038228042 -0.018233191 -0.0423703 0.060336586 -0.12951826
-0.1146566 0.24574557 -0.04337461 -0.015309204 0.15819108 -0.0005027334 -0.08506782 -0.05537063
0.023004428 0.04667625 0.08789491 0.25801685 -0.091425404 -0.014770989 0.048551016 -0.051858403
-0.11937243 -0.012184105 0.1337328 -0.25058714 -0.07331951 -0.10557054 0.10861527 0.08816771

network_body.linear_encoder.seq_layers.2.bias f4 [256]
00000000: 8366 08bd 0ca9 03bd f73a a6bd 9261 d2bc
00000010: 1b69 d9bc 0f5d 0ebd 63bc 41bd 4fe7 12bd
00000020: b4f8 7b3a b4ff 1cbd e37a b9bb ca80 8abd
00000030: e4f9 7dbd eeb4 2fbd 2b13 c3bc 8d65 c8bc
00000040: cff0 69bc bd89 87bc d43b 19bb 1cae 46bd
00000050: 4dec 48bd 3d43 cdbc df02 02bd 3f13 2cbd
00000060: b57e b3bc 9b9a 45bc 36e0 04bc 1662 0cbd
00000070: d45f e3bc d740 87bc f9b4 4abd 69b2 03bd
00000080: 7303 96bd 5d42 9dbc 9948 0dbd f046 0ebd
00000090: f0c7 10bd 069b 773b 6775 6ebc 8c14 9ebb
000000a0: bc63 edbc 1d25 1ebd 5564 48bc 3fe5 4d3b
000000b0: 60cb e3bc 9e68 3c3c 771b 12bd b5ab dbbc
000000c0: 1ea4 28bc 582b 2bbc a1a5 a3bd e819 92bb
000000d0: 7f55 60bc 2159 30bd ee3f dfbc 486d 703a
000000e0: f31d 19bd 58a8 53bc ad55 37bd 8323 7ebc
000000f0: 8eb3 43bd 0538 8ebb 9550 d6b9 1139 33bd
00000100: a392 43bd 4c2f 38bc 9fcd 33bd 29e7 f9bc
00000110: 5a60 5ebd dbeb f0bc 73f5 fabc d5ba d4bc
00000120: 568e 1b3a bd5a 91bc 98af 4fbd c9f2 973b
00000130: e2a7 6cbd f404 70bd f556 c0bd 1295 e7bc
00000140: 56f4 08bd 8da8 93bb ce72 30bd 82db 853c
00000150: 6957 c8bc e0ec 47bd 0e94 eabc c32e 73bd
00000160: 4f68 a9bc 7c0e 65bd f90f 02bd 4c7c afbc
00000170: 993b 7cbc f5e6 78bd 7686 8fbc 7cfd d9bc
00000180: 7c28 8abc d6cb 19bd 158d 8ebc f66c 87bc
00000190: 2fb8 0cbd e191 debc 9f60 0639 f8ec 50bd
000001a0: c6ab ffbc 1517 173c 5077 75bc 5258 09bd
000001b0: c2ab f8bc 18c4 4fbd 11c6 eebc ca1b 67bd
000001c0: d248 91bb 4d7f a4bc f306 3cbd 964d a3bd
000001d0: aa82 193d ed0f 05bd 0bf9 03bc 84bc 13bd
000001e0: 5e65 b13c 4048 5fbd 081a 18bd 0e39 b7bc
000001f0: fc5c 27bd 689b a7bd 8afe e4bc b6b9 5bbd
00000200: fded 82bb d1a5 eabc fe8c 10bd a855 db3c
00000210: fec9 adbc 4890 593c 73c9 e2bc 8882 2bbd
00000220: 2fcf 0abd e7c2 92bd 0351 f8bb 8b5c 95bc
00000230: bab2 343c a5f3 82bc 2d80 5bbd 0976 4abd
00000240: 71e6 35bd c331 e9bc 1758 203c 20af 8abb
00000250: 3bf8 62bc 19eb a5bc 442f 6cbd 05c5 d0bb
00000260: 0e2a f7bc 42e4 b6bc 4073 90bc b718 d0bc
00000270: 2c6f 8bbc 8613 e3bc 438c a0bd 7fe3 a0bc
00000280: 0dde 4ebd e4e7 2cbd 0599 d0bc c66d 09bd
00000290: 5291 68bc dc0b 8cbd 3bcc 83bc 5800 34bd
000002a0: 6646 a4bd ce23 46bd 2651 d4bc b745 a7bc
000002b0: 6843 3b3c 230a 02bd e725 963c 5e2b f4bc
000002c0: b47f 52bd ec73 c2bc 1007 12bd ef53 0ebd
000002d0: 623d 9cbc b993 5fbd 1e62 a7bd decd dfbc
000002e0: 987f c4bc e58f e038 4d99 09bd 659a f3b8
000002f0: bd04 98bd a451 80bd 080a 2bbd c265 9d3b
00000300: 9dde cc3a bb09 e5bc 79b5 58bd d022 8bbd
00000310: 7fe9 15bd 3152 67bc 5f37 bdbc b58e 06bd
00000320: fef7 8cbd 02f7 c3bc 1fda 62bc 33f6 88bd
00000330: c071 d43a d37e a0bd 5b02 45bd 3fd0 95bc
00000340: 7285 1abc b991 a7bd 2904 e4bc 7e11 2bbc
00000350: 35a9 fcbc 9573 9cbb aa19 2bbd b229 b9bc
00000360: 3700 6dbd a001 60bd 3820 94bc 073a 613b
00000370: d6fe 04bc 4f82 a6bc c9a6 7ebc e6fe 3ebc
00000380: 0743 b2bd d142 14bd e7ff e9bc a5b5 c6bc
00000390: 7188 51bd 9a17 90bc b612 e03b 817b 07bd
000003a0: 9996 9d3c f4ff 2c3b ef1c 8dbb 85e5 a8bc
000003b0: b474 7ebc 56de 44bc 1713 1dbb 195a efbc
000003c0: 9309 4bbd 7b04 ffbc c544 45bd 7fe7 ddbc
000003d0: 7ead 36bd d818 93bd f403 dabc e347 6cbd
000003e0: 3420 f13b 429a 22bd 5d27 45bc f22f 4bbc
000003f0: 17c3 45bd 0d45 c6bb cc19 433c d61b bdbc
-0.033300888 -0.032143638 -0.081167154 -0.02568129 -0.026539376 -0.034756716 -0.0472988 -0.035865124
0.000961195 -0.038329795 -0.005660401 -0.06762846 -0.062005892 -0.042897157 -0.023812851 -0.024462486
-0.014278605 -0.01654517 -0.0023381608 -0.048505887 -0.04905348 -0.025056476 -0.03174102 -0.042010542
-0.021911005 -0.012060787 -0.008110097 -0.03427323 -0.027755655 -0.01651041 -0.049488995 -0.032152567
-0.07324877 -0.019196684 -0.034493063 -0.03473562 -0.035346925 0.003778161 -0.014554358 -0.0048242267
-0.028978221 -0.038609613 -0.012230952 0.003141716 -0.027806938 0.011499552 -0.035670724 -0.026815275
-0.010293035 -0.010447346 -0.079905756 -0.0044586547 -0.013692259 -0.04305375 -0.027252164 0.00091715576
-0.037382077 -0.012918554 -0.04475944 -0.015511396 -0.04777866 -0.004340174 -0.000408773 -0.043755595
-0.047747266 -0.011241745 -0.043897267 -0.030505734 -0.054291107 -0.02940934 -0.030634617 -0.025967995
0.00059339905 -0.017743463 -0.05070457 0.0046370965 -0.057777293 -0.058598474 -0.09391586 -0.028269324
-0.033436142 -0.004506177 -0.043078236 0.016340021 -0.024455743 -0.048809886 -0.028635051 -0.059370767
-0.020679621 -0.055922017 -0.031753514 -0.021421574 -0.015395069 -0.060767133 -0.01752017 -0.026610129
-0.016865008 -0.03754791 -0.017401258 -0.016531449 -0.03435534 -0.02716917 0.0001281523 -0.05100724
-0.031209838 0.009221812 -0.01498206 -0.033531494 -0.030355338 -0.05072412 -0.02914718 -0.056422986
-0.0044337297 -0.020080233 -0.045905065 -0.07973783 0.037478127 -0.03248589 -0.008054982 -0.036068454
0.021654781 -0.054512262 -0.0371342 -0.022366073 -0.04086016 -0.08183938 -0.027953405 -0.053643905
-0.0039956556 -0.02864352 -0.03529071 0.026774243 -0.021214481 0.013279028 -0.02768395 -0.04187253
-0.033888992 -0.07166081 -0.0075780167 -0.018232604 0.01102894 -0.01598532 -0.053589035 -0.049428973
-0.04440922 -0.028466111 0.009786627 -0.0042323023 -0.013853128 -0.020253705 -0.057662264 -0.006371143
-0.03017142 -0.022325639 -0.01763308 -0.02540241 -0.017020784 -0.02771927 -0.07839253 -0.019639729
-0.050504733 -0.042213336 -0.02546359 -0.033551954 -0.014194803 -0.068381995 -0.016088596 -0.04394564
-0.0802124 -0.04837399 -0.0259176 -0.020418985 0.011429645 -0.03174795 0.01832862 -0.029805835
-0.05139132 -0.023736916 -0.035651267 -0.034748014 -0.019072238 -0.05458424 -0.08173011 -0.027319845
-0.023986623 0.00010707955 -0.033593465 -0.00011615901 -0.07422779 -0.06265572 -0.041757613 0.0048033902
0.0015630309 -0.027958741 -0.05290744 -0.06793749 -0.036599632 -0.014118717 -0.023097692 -0.03285094
-0.06883238 -0.023921493 -0.013845949 -0.06687584 0.0016208217 -0.0783669 -0.04809795 -0.018287776
-0.00943123 -0.08182091 -0.027834015 -0.010441182 -0.030842403 -0.0047745206 -0.041772522 -0.02260289
-0.057861533 -0.05468905 -0.01808177 0.0034366862 -0.008117398 -0.020325808 -0.015542694 -0.011657452
-0.08704191 -0.036196534 -0.028564407 -0.024256537 -0.05115551 -0.01758938 0.006838168 -0.033076767
0.01923685 0.0026397677 -0.0043064277 -0.020617256 -0.015530754 -0.0120159 -0.0023967677 -0.029217767
-0.049569678 -0.031130066 -0.048161287 -0.027087925 -0.04459905 -0.07182473 -0.026613213 -0.057685744
0.0073585752 -0.039697893 -0.012033311 -0.012401568 -0.048281755 -0.006050712 0.011908006 -0.023084562

network_body.linear_encoder.seq_layers.2.weight f4 [256, 256]
00000000: 267a 29be 8974 df3d c4dd 04be 7284 9d3b
00000010: ebb7 d1bc c0f2 09be 15b3 413d fe83 30bd
00000020: d03d e33d 4b54 9b3c 9ecc afbb 50b0 ebbd
00000030: 65ed fb3b 8773 813c 0572 95bd 06f6 03bd
00000040: 0bb3 263d 71e9 5fbd 6ece 813d 0da8 4e3d
00000050: 6729 fe3d 0d74 0a3e 3b0a 7cbc d19b 2fbd
00000060: 1038 e6bd 5da8 24be 55ba cc3c 4865 9a3c
00000070: 0c95 9a3d 2b27 1abd 0b52 293e 34f8 ec3d
00000080: a0e4 6abc 87a3 5d3e 3c32 31bd 4a0b 0b39
00000090: c323 f1bd dbcd e7b7 7ab5 dd3c 09a4 0c3e
000000a0: 363a d03d d4f0 203c 259c bebd 9540 ffbd
000000b0: cd26 cfbb 414f 00bd 6aee a83d 8b2c b33c
000000c0: c84f 32be 2066 cc3d 04df ffbd 5e18 17bd
000000d0: ae16 9abd 07cf c7bd 938c 24be b17c d33b
000000e0: e9e2 13bd 9898 263e 3d89 943c 4641 b13d
000000f0: b640 bdbd 152d 793d 62ed 153e 45ab 293e
00000100: 0d79 1d3d be19 dc3a 1492 ccbd 6db3 013e
00000110: 9f61 31bd ad48 6c3d 7286 11bd 4730 dabc
00000120: 685e e23d 9d45 d1bd 3a88 ff3c 045f 93bd
00000130: 61a1 243c b333 04bc 6110 8a3c 4fa9 683d
00000140: c3c6 fbbd 2f1d 13bc 53d4 193e b2b3 a83d
00000150: 54f3 a23d b848 d7bd 0269 63bd 1e4a 0bbd
00000160: 12a9 18be 412d dabb c829 b2bd 8a37 d6bd
00000170: 26ac 1d3d d7c4 c03d bbb1 133e 33d2 883c
00000180: 3351 03be 3edf 20bd 34e4 c4bc ca9e 443d
00000190: 67ea f33c 3359 49bd e2c4 d0bd b8f6 96bc
000001a0: 2fad c63d 96b8 193e 97eb 363d 579b e33d
000001b0: a1a7 113e 171b 8fbd bfe5 d03d f5b0 b63c
000001c0: ea39 3a3d 83ce cf3d 2ca3 20bc 3e2d b73d
000001d0: 65e5 65bd 4170 893d 2399 a3ba ddfd c73d
000001e0: 5904 e03b 69dd efbd 7edb 923d 2e7b 323e
000001f0: 8c0f 133d 836c e5bc 1657 e23c 63f1 2a3e
00000200: 1b7d eabc a18a e4bd 6eeb 343d 9b12 5e3d
00000210: ef9f cebd aa14 80bd 83c4 83bd 43fe 953a
00000220: 46a9 22bd d47a 66bd 3068 6f3c a055 e73c
00000230: 9767 e2bd 248d f9bd 89a8 91bc e798 913d
00000240: 781f 663d f380 993d 6bff b6bd 8aa1 9c3b
00000250: 8131 0a3e 6d5d 2cbd 78e8 293d 1853 413d
00000260: 9839 753c 8640 a13c 7362 553c 026c 3fbd
00000270: 8d73 4a3d 79a8 0abe a4d3 833d 6024 1cbd
00000280: e8a6 57bd 5490 2e3e 760b 093e 48db a83d
00000290: a447 e53d 4ca2 223d f7c8 acbd 5eef afbd
000002a0: b59a b13c 3693 afbb 8b83 0e3d 04f5 233e
000002b0: beb9 a83d e1f3 bcbd 0fa0 043e d1d9 68bd
000002c0: 3d13 003a 99b9 e03d 9bfa 2e3e 372d 4a3e
000002d0: 10ed 163c fbd2 433d 2cf1 06be 345e 3cbd
000002e0: 4dee fa3c 7d98 be3d 8bb6 ba3d e42f abbc
000002f0: f836 1c3e ce62 b5bd 7a0d 193e d8d0 fa3a
00000300: 472c 9b3d 7c5c 30bc 207e dc3c 63d2 1f3b
00000310: 0352 f63d e8dd 54be 17ef eb3c f9da 9cbd
00000320: 8d24 e33d b76f 0dbd 5539 2f3c a148 cfbd
00000330: f68d 3a3d ec70 bc3d 708e 9d3d 485e e0bc
00000340: 4f67 473d 7540 d1bc 1793 6e3d d7b6 0ebd
00000350: 48df 9c3c bd6e 55bd 6552 e6bd 9396 83bd
00000360: 4cbd a4bd 539a 123d 6258 aabd e616 66bd
00000370: dbc1 b53c 72d6 983d 65c1 d93d 2a45 1ebd
00000380: 4b82 bcbc df18 913d 719e 79bd 37d4 663d
00000390: d749 a53d 1e98 b63d 8dea eabc 0263 07bc
000003a0: cdc1 a4bd 6b21 b1bd d7b9 023d 33b8 c73d
000003b0: eb23 093e 7cef 3abe 054b 4fbe a3b4 9a3c
000003c0: 3c70 853d 6391 88bd bb7f 9fbd 3be5 0abe
000003d0: 4cb4 42bd fd1e 0d3e 212c 15be aef9 13bd
000003e0: bf6c dcbd 7301 cf3d 4d29 c03d 3ac3 703d
000003f0: a8df ab3d 3d94 58bd 2d6e 6b3d 005f 63bc
-0.16550502 0.10910899 -0.12975222 0.0048070485 -0.025600394 -0.13471508 0.047289927 -0.043094628
0.11095774 0.018961092 -0.0053649684 -0.11508238 0.0076882117 0.015802158 -0.07297138 -0.032217048
0.040698092 -0.054665986 0.063382015 0.050453234 0.124102406 0.13520832 -0.0153832985 -0.042873207
-0.11241162 -0.1607985 0.024991194 0.018847123 0.0754796 -0.03763501 0.16535203 0.115707785
-0.014336735 0.21644412 -0.043260798 0.00013260279 -0.11774399 -2.7633205e-05 0.027064074 0.1373445
0.10167353 0.009823043 -0.09307126 -0.1246349 -0.006321764 -0.031325582 0.08248599 0.021871826
-0.17413247 0.09980416 -0.12493709 -0.036888473 -0.07523857 -0.09756284 -0.1606925 0.0064540734
-0.03610507 0.16269147 0.018131847 0.08655028 -0.09240858 0.06083401 0.14641336 0.1656924
0.03844552 0.001679234 -0.099888 0.12666102 -0.04330599 0.057686497 -0.035528608 -0.026634349
0.11053163 -0.10218356 0.031192888 -0.07195857 0.010048241 -0.008068967 0.016853513 0.05680209
-0.1229377 -0.008979126 0.15022402 0.08237399 0.079565674 -0.10511917 -0.055520065 -0.03400623
-0.14908245 -0.0066582267 -0.086993754 -0.10459812 0.03849425 0.09412544 0.14423268 0.016701793
-0.12823944 -0.0392754 -0.024034597 0.048002996 0.029774858 -0.049157333 -0.101938024 -0.018428192
0.09701001 0.1501182 0.04465827 0.11113613 0.14224102 -0.06987589 0.102000706 0.022301177
0.045465387 0.10146811 -0.009804528 0.08944176 -0.05612697 0.06710864 -0.0012481551 0.097652175
0.006836456 -0.117121525 0.07170771 0.17429802 0.0359035 -0.028005844 0.027629416 0.16693644
-0.028624108 -0.11159254 0.044169836 0.054216962 -0.10089099 -0.06253941 -0.06433966 0.0011443574
-0.039712213 -0.05626948 0.014612243 0.028239071 -0.110549144 -0.121851236 -0.01778056 0.07109242
0.056182355 0.07495298 -0.08935436 0.004779999 0.13495447 -0.042081285 0.041481465 0.047198385
0.014967345 0.019684087 0.01302396 -0.046733864 0.049426604 -0.1354083 0.064368516 -0.038120627
-0.05264941 0.17047244 0.13383278 0.082449496 0.11195305 0.03970556 -0.084367685 -0.085905775
0.021680215 -0.005358125 0.034793418 0.16011435 0.082385525 -0.09226204 0.12951683 -0.05684835
0.0004885679 0.109729 0.17087786 0.1974381 0.009211794 0.04780863 -0.13177937 -0.045988277
0.030631209 0.093064286 0.091168486 -0.02089686 0.15255344 -0.08856736 0.14946547 0.0019135727
0.075768046 -0.0107642375 0.02691561 0.0024386875 0.12027361 -0.20787776 0.02880053 -0.07658953
0.11090956 -0.034530368 0.010694821 -0.10121275 0.04554554 0.09201226 0.076931834 -0.027388707
0.048682507 -0.02554343 0.058245745 -0.03484234 0.019149438 -0.05210756 -0.11246184 -0.06425204
-0.08043918 0.035791706 -0.08317639 -0.05617418 0.022187164 0.07462777 0.1063259 -0.03864018
-0.023011347 0.07084822 -0.060942117 0.056354728 0.080707245 0.08915733 -0.028676296 -0.008263351
-0.08044777 -0.08648952 0.031915512 0.0975193 0.13392608 -0.18255419 -0.20243461 0.018884962
0.06515548 -0.06668355 -0.077880345 -0.13564007 -0.047535226 0.13781352 -0.14567615 -0.036126785
-0.10762929 0.10107698 0.093828775 0.058779933 0.083922684 -0.052875746 0.05747812 -0.01387763

network_body.linear_encoder.seq_layers.4.bias f4 [256]
00000000: 1057 b53c 6123 453c a9e6 4cbc 8da6 cc3c
00000010: 52f0 a93c 8b5f 05bd 9493 2dbc 61d1 823c
00000020: 15e2 89bc 189e 5dbc ad6f 20bd c2b7 123c
00000030: 4163 bdbc f1d5 f93b dced 073d a064 633c
00000040: f489 b7bc 507c 63bc b288 49bc 9067 02bd
00000050: 278e 90bc cabd 673c b730 c1bc b96c 04bc
00000060: 0f70 04bd 8a82 99bb 4c5a 273d 6a9e ebbc
00000070: 937b 733c e930 273c 2c35 173d 0fc2 18bc
00000080: 81a2 133d 1df1 ebbc 332e 95bb 8c73 f2bc
00000090: 3083 0fba 54b0 02bd a9d9 21bd ed5a 2abc
000000a0: 725f 31bb 7762 753b 8695 6cbd a948 eabc
000000b0: 70f8 9f3c 3b05 80bc 88fd 72bd 84d9 663c
000000c0: e9fb 0ebd a471 16bd ae8d 2dbd a62e 513d
000000d0: 4e96 933a 538f 28bd d463 063d 16d6 33bd
000000e0: 1f4f 32bd d4cb 94bb 0715 8eba a557 beba
000000f0: 9388 afbc a860 37bc 477a 7c3b ec02 aebb
00000100: 5de0 15bd e992 b83b edc7 22bd 1b28 40bd
00000110: d829 5e3d 22ac 0dbd d007 bfbc 5ddf 1cbd
00000120: 6f80 a03c 657a 0dbd a315 9b3c 3729 1b3d
00000130: f52f 873c aa2c 1bbc edd1 993c 7741 e0bc
00000140: e22d 58bc 4699 983c ecd8 47bd 3b0c afbc
00000150: 4286 f73c d36c 273c 71b8 883c 6b87 8abd
00000160: 497f 6fbc 7e38 e1bc bb37 0abd 6b3a 8cbd
00000170: b1ca 3c3c be64 ab3b 803d 03bd 0600 4fbd
00000180: f19e 86bc b4f7 30bc dd00 5cba fb9e 3bbd
00000190: 31e1 b73c 6d0b 31bc 0eb9 34bd bbbd 2ebc
000001a0: c6db 4e3c 7691 42bd 8916 c73c 59e0 0a3d
000001b0: 255d 10bc bfd0 13bc b332 673c de3f 073d
000001c0: a5ef eb3c 58a8 903c bcfe cd3b 5266 40bd
000001d0: c185 afbd b7e3 57bd 7ab6 b93c 380c 8b3a
000001e0: cf77 5a3b 105c 98bc 57b7 c0bc 0219 393d
000001f0: 9406 823c 7ff2 943b e9d4 c03c f273 c3bc
00000200: 7dea 2fbc 6def 523c 99bc 5ebd 3c6e 813c
00000210: bef0 6fbd 0d68 f6bc 6dc6 8dbb 9d28 f1bc
00000220: 1c25 a9bc f44d 843c 7a51 043d fbe8 043c
00000230: 130c 01bd 8ae2 4cbc 2858 bebc 5d99 d13b
00000240: 3e58 8abc 1ab0 703c fddc a9bb 7d9e 023d
00000250: 1999 76bd 92ec 45bd 687c 843c 086b 693c
00000260: dea3 5dbb 4074 bebd 3e59 8dbc ff74 d3bb
00000270: 247f 07bc 29e6 be3b 2bb6 933b f692 b23c
00000280: 2408 9d3c b281 623c e51d 4fbc 1659 f5bb
00000290: 1fb4 7cbc 6194 f9bc 3fd2 7e3a e055 873c
000002a0: e9ec 96bc cd94 513c 82ae fa3c 6653 2d3b
000002b0: 621a 163d 22c8 45bd 17f8 38bd 60a5 a7bc
000002c0: ea5f a53c b2bb 2a3d 6e2b 03bc 09bc 823c
000002d0: b26f 0dbc 448b 67bc a666 af3c 6043 653d
000002e0: a59d 003b 63a2 1dbc 09db 433d 8a3f da3c
000002f0: e507 da3c 2841 f9bc efcf 0e3d 53f4 793c
00000300: 50d5 b6bc f4db 86bd 658d 4cbd e301 33bc
00000310: 6cc2 cf3b 6041 9c3c 03be 9fbc 2434 57bb
00000320: 29b7 bc3c d0f2 dbbc 6290 03bd 5b00 fdbc
00000330: 0e36 1ebc 15b7 54bd 6a28 243c e1fc a53c
00000340: f53f 05bc 6516 fd3c 41e4 1ebd 0d70 d83b
00000350: 7673 24bd f29b 48bc 7d78 373b 0510 a5bc
00000360: a568 853c c15c f6bc 87b5 6dbc b3b5 393d
00000370: 906f e33c 0191 80bd 13c3 b9bc c9ef 873c
00000380: d8ca 29bc f5fd d0bc 5ac0 32bd 215a c53b
00000390: 68c6 9dbc 1d65 1cbd 4e7d 11bd f2f1 233d
000003a0: c2f4 1fbd 0aa6 473d 1556 ccbc 223d cbbc
000003b0: 0955 55bc c0a7 60bc 77ee 243d 2b1d 86bc
000003c0: 45f7 e0bc fee5 d53c 1091 5bbb 9c25 19bc
000003d0: d1a7 463c 9de0 003b a5a6 75bc 0fa8 ce3c
000003e0: 7312 563c 6fa1 08bd a125 ec3c e49d a2bc
000003f0: 15e8 463c de01 a4bc 7c6c f0bc a029 0bbc
0.022136241 0.012032361 -0.012506166 0.024981761 0.020744476 -0.03256182 -0.010594267 0.01596898
-0.016831437 -0.013526462 -0.039169002 0.008954944 -0.023118617 0.0076243808 0.033185825 0.013878971
-0.022404648 -0.013884619 -0.012300657 -0.031837046 -0.017645909 0.01414437 -0.0235828 -0.008082562
-0.03233343 -0.004684751 0.0408576 -0.028762061 0.014861005 0.010204532 0.036915943 -0.009323611
0.036043648 -0.028801495 -0.0045526265 -0.029596113 -0.00054745656 -0.03190644 -0.039514218 -0.010397655
-0.0027064946 0.0037442723 -0.057759784 -0.0285991 0.019527644 -0.015627494 -0.059323817 0.014089946
-0.03490821 -0.03672947 -0.042371444 0.051069878 0.0011260004 -0.04115231 0.032810047 -0.04390534
-0.043532487 -0.0045409 -0.0010840007 -0.001452197 -0.021427428 -0.011192478 0.0038525031 -0.005310407
-0.036590923 0.0056327474 -0.039741445 -0.046913248 0.054239124 -0.034587987 -0.023319155 -0.038298953
0.019592492 -0.034540553 0.018931216 0.037881102 0.01650236 -0.009471098 0.018776858 -0.027374966
-0.013194533 0.018627774 -0.048790857 -0.021368137 0.030215386 0.010218817 0.016689511 -0.0676411
-0.0146177495 -0.027492758 -0.033744555 -0.0684708 0.011522935 0.0052305153 -0.032041073 -0.05053713
-0.016433211 -0.0108012445 -0.00083924626 -0.045805912 0.022446247 -0.010805947 -0.044121794 -0.010665352
0.01262564 -0.047502004 0.024302738 0.03390536 -0.00881127 -0.009021937 0.014111209 0.033019893
0.028800795 0.017658398 0.00628647 -0.04697258 -0.085704334 -0.0527074 0.02267002 0.00106085
0.0033335572 -0.018598586 -0.023524923 0.045189865 0.015872277 0.0045455093 0.023539023 -0.023858998
-0.010737059 0.012874466 -0.05437908 0.015799634 -0.0585792 -0.030078912 -0.0043266327 -0.029438311
-0.020647578 0.016150452 0.032304265 0.0081121875 -0.031505655 -0.012505183 -0.023235396 0.006396456
-0.01688778 0.014690423 -0.0051838146 0.031889427 -0.0602046 -0.048321314 0.016172603 0.01424671
-0.0033819596 -0.09299517 -0.017254468 -0.006453156 -0.008270059 0.005825777 0.0045078 0.021798592
0.01916892 0.013824867 -0.012641405 -0.0074874265 -0.015423804 -0.03046626 0.000972066 0.01652044
-0.018423514 0.0127918245 0.03060079 0.0026447414 0.036646254 -0.048286565 -0.045158472 -0.0204646
0.020187337 0.041682906 -0.00800596 0.015958803 -0.008632587 -0.014132325 0.021411251 0.055972457
0.0019625213 -0.009621236 0.04781631 0.026641626 0.026615093 -0.030426577 0.03486627 0.015256005
-0.022318512 -0.065849215 -0.04993953 -0.010925743 0.0063403156 0.019074142 -0.019499784 -0.0032837475
0.023036556 -0.02684918 -0.032120116 -0.030883959 -0.009656442 -0.051932413 0.010019401 0.020262184
-0.008132924 0.030894468 -0.0387919 0.0066051544 -0.040149175 -0.0122442115 0.00279954 -0.02014924
0.01628525 -0.030073525 -0.0145086115 0.045339298 0.027763158 -0.06277657 -0.022676026 0.01659383
-0.010363303 -0.025511721 -0.043640472 0.006022707 -0.019259647 -0.038182367 -0.03551989 0.04002566
-0.03905178 0.04874233 -0.02494339 -0.024809424 -0.013020762 -0.01371187 0.04026648 -0.01637133
-0.027461657 0.026110645 -0.0033503212 -0.009347346 0.0121249715 0.001966513 -0.014993344 0.025226621
0.013065922 -0.03335708 0.028826537 -0.019850679 0.012140294 -0.020020422 -0.029348604 -0.008493811

network_body.linear_encoder.seq_layers.4.weight f4 [256, 256]
00000000: d96d 743d 427f 08bc f1f4 f1bc e0d9 95bd
00000010: 5b10 cfbd ba3d e7bd 7f20 bdbc 1978 533b
00000020: 9e58 0e3e 64f8 9e3d 2f25 6abc a754 4dbd
00000030: ec31 a33d 9d74 b5b9 f91a 41bd ce07 f0bd
00000040: 5210 1bbe b336 2abc 102b 563d 75c6 b53d
00000050: 7d2c d4bd 9961 9c3b 00c8 0fbd 5777 333e
00000060: 9647 fabd 9c69 11bd 750a 0ebd f063 823c
00000070: 18af febb 8f57 96bd b72e 0bbe c06f a93c
00000080: b9e2 493d 62db 37bd bc71 9e3c 66a8 04be
00000090: aff3 63ba 6dad 183d b7be b2bc bfe0 43bd
000000a0: 44a8 573d 830b 9cbd 7494 a2bc c9be 3a3c
000000b0: 84f3 e9bc 86ea 0f3a cca1 43bd dbbf a03c
000000c0: 1039 373d aba8 283d 98aa c9bd 0b0f e53c
000000d0: 5955 993d 46ca 343d bd9a 85bb ec91 1ebe
000000e0: 285e 43bb ad74 76bd d7f6 54bd 79d5 673c
000000f0: a0f0 18bd 54d4 57bd 527e f7bd c6e7 fdbd
00000100: 6e29 c73d a92e 1fbe ce67 8dbd 340f cfbc
00000110: 8835 84bd c67a 1ebe 8d0b d33d 7c2d 663c
00000120: 69ea b5bb ab91 29be b2bc 2d3d 8f15 b13b
00000130: 82da 453d f5ca 1e3d d3d2 92bd 6475 8f3d
00000140: 5107 743d 828b 20be b458 63bd 65f9 43bc
00000150: 0c4c 25bb 9aca 3fbe 4aaa 353d 271f 42bd
00000160: 4f68 c2bd 1ada 4abd 3cdd 763d c41a 9dbd
00000170: d582 b43c ebf1 d9bd d577 36bd 908d d53d
00000180: 0c12 9e3d 24b6 3bbd 3183 09be 37fb 29bc
00000190: d481 4f3d 2839 963d 09cb 1e3b bbc6 f2bd
000001a0: 5801 103d 9cac 453c dc5e 4abd f5cc 18bd
000001b0: 0a55 cc3c 4298 323d a18c fd3d 846e 30be
000001c0: 96fb 023d 59cf b03c 10c2 dc3d 03c8 0fbe
000001d0: ad1d 57bd 8585 0abe 3c0d a2ba 2489 0abe
000001e0: b95b 1fbe 9920 b73d 27a0 b9bc 1052 cdbd
000001f0: 4007 d0bd 21bd 98bd 56a6 973d da34 90bc
00000200: 6e9e cdbd c758 a93c 097c 27bd cf93 17be
00000210: 9882 893c c1e4 1cbb c70b c9bc 1a65 3ebe
00000220: f5ba 9dbc 8b4b 623c a824 1cbd 8171 8cbd
00000230: ff06 c0bc 5399 4abd 048c 93bc 8f6e 1abd
00000240: 0288 9dbc 7269 283c c8c3 2f3d e1e2 9c3d
00000250: 2bec 833d 422a acbc 5321 39bd 68b9 363d
00000260: bdc6 e7bd 0ec1 a6bd 3b20 fcbd fbf4 b2bd
00000270: d7ff ebbb 7efd e43d f2c4 3abe 852d 82bc
00000280: ed67 3dbc a4b7 31be 0dbf 1abe 6d6a cc3d
00000290: 8d84 90bc 4e10 c3bd c203 603d 591e 2f3d
000002a0: c733 9abd b658 82bd 1b2a a43b 9a1d 95bd
000002b0: 0834 abbd abd2 873d b248 d9bd cd64 0abe
000002c0: 4d25 97bd 0eb9 9cbd 703a f1bd 4c7e 20be
000002d0: 511e 32bc 7cfe b5bd 8254 e9bc f170 01be
000002e0: c3aa 81bd f4b1 dabd c52d 0cbe 3c3f 5fbc
000002f0: 7fb6 0a3d 3ba6 93bd 6d7b d6bd 4dac 45bc
00000300: 2954 e93d 30d3 d73b e46f 31bd 4802 d9bd
00000310: 9dd7 8c3d 2ef2 013c 67ba f9bd 8830 5ebd
00000320: ff84 a7bd 3909 063c 52ed 25be 8e3c d7bc
00000330: 4e9f 36bb 2f91 653c 437c 2dbe bb7d 36bd
00000340: 97e1 883a 6c5b fb3b ca1e b23d 72f3 a0bc
00000350: c20d 20bd fb49 c93d 39c4 8abd b54e 02bd
00000360: 2f6e ba3d 8ff1 97bc 97f6 86bd 029d 89bd
00000370: 3597 3d3e 6e39 2e3b 8e5b c13c 30c9 a33c
00000380: ed29 f6bd 2d34 a5bd bbf0 07be aa35 74bd
00000390: ff56 d6bc 1708 c13d 4d26 a6bd 7bc4 8abd
000003a0: a54c c33d 86ad 70bd d4c4 fcbd f01e 5cbe
000003b0: 2520 59be 07aa 05bd 204c b23d 0562 3c3e
000003c0: 747a 53bd 5a47 8fbc c428 36bd 6e20 a93d
000003d0: 1dea cebd dddd 9bbd 0439 1cbd 463c 443d
000003e0: f372 8bbd cb45 0e3d a2d8 9b3d bbe8 98bc
000003f0: 311b 6d3d 8053 1bbe e2b5 a5bc b682 94bc
0.05967507 -0.008331122 -0.029535742 -0.07316947 -0.101105414 -0.1129107 -0.023086784 0.0032267629
0.13900992 0.077622205 -0.014291092 -0.05012956 0.07968506 -0.00034609894 -0.047144864 -0.117202386
-0.15142944 -0.010389018 0.05228716 0.08875743 -0.10360048 0.0047723767 -0.035102844 0.17525993
-0.12220685 -0.035501108 -0.03467794 0.015916795 -0.0077723376 -0.07340919 -0.13592039 0.02068317
0.049288485 -0.044886954 0.019341342 -0.12954864 -0.00086956745 0.037274767 -0.021819456 -0.047821756
0.052650705 -0.07619383 -0.019846179 0.011398026 -0.0285585 0.0005489964 -0.047761723 0.019622734
0.044732153 0.04117648 -0.09846991 0.027961275 0.07486982 0.044138215 -0.004077284 -0.15485352
-0.002981076 -0.060169864 -0.051993217 0.014150017 -0.037338853 -0.052692726 -0.120846406 -0.12397723
0.09724699 -0.15545143 -0.06904565 -0.025275804 -0.06455523 -0.15476522 0.103049375 0.01404893
-0.0055516255 -0.16559474 0.042416282 0.0054041813 0.04830409 0.038767774 -0.07169118 0.07004812
0.05957729 -0.15678218 -0.055504516 -0.011961316 -0.002522233 -0.1872963 0.044351853 -0.04739299
-0.094925515 -0.049524404 0.06026958 -0.07671121 0.022035042 -0.10641845 -0.044547874 0.104273915
0.07718286 -0.045828 -0.13428952 -0.010374836 0.050660923 0.073351204 0.0024229905 -0.11854311
0.03515753 0.012065079 -0.04940687 -0.037304837 0.024942894 0.043602236 0.123803385 -0.17229658
0.031978212 0.021583246 0.10779202 -0.14041142 -0.052518535 -0.13527496 -0.0012363563 -0.13528877
-0.15562333 0.089417644 -0.022659374 -0.10025418 -0.10157633 -0.074579485 0.07404773 -0.017603327
-0.10039984 0.020672215 -0.040889774 -0.14802478 0.016785905 -0.002394006 -0.024541749 -0.18593255
-0.019254187 0.013811956 -0.038120896 -0.06857587 -0.023440836 -0.049462628 -0.0180111 -0.037703093
-0.019229893 0.010279046 0.04291132 0.07660461 0.0644153 -0.021016244 -0.045197796 0.04461041
-0.11317203 -0.08142291 -0.12310835 -0.087381326 -0.0072021293 0.11181162 -0.18239191 -0.015890846
-0.011560422 -0.1735521 -0.15111943 0.099812366 -0.01764133 -0.09524594 0.054691084 0.04275355
-0.07529407 -0.063645765 0.005009902 -0.07281037 -0.083595335 0.066319786 -0.10609569 -0.13515015
-0.073801614 -0.07652484 -0.11778724 -0.15673178 -0.010871486 -0.0888643 -0.02848268 -0.1264074
-0.06331398 -0.10678473 -0.13689335 -0.013625916 0.033865448 -0.0720944 -0.1047276 -0.0120650055
0.113930054 0.006586455 -0.043319598 -0.10596138 0.068770625 0.007931275 -0.121937566 -0.0542455
-0.08179664 0.00818091 -0.16203812 -0.026273992 -0.002786595 0.014011665 -0.16941933 -0.0445535
0.0010443208 0.0076708104 0.08697279 -0.019647334 -0.03907562 0.09828564 -0.06775708 -0.031813342
0.09103047 -0.018547801 -0.06590002 -0.067194 0.18514712 0.0026584524 0.023603227 0.019993395
-0.120197155 -0.08066592 -0.13275425 -0.05962149 -0.02616453 0.09425371 -0.08112774 -0.06775757
0.09536103 -0.058759235 -0.123422295 -0.21496177 -0.21203668 -0.032632854 0.08705926 0.18396766
-0.051630452 -0.017490078 -0.04447247 0.082581386 -0.10103247 -0.076106764 -0.03814031 0.047909044
-0.06809034 0.03473453 0.07609679 -0.018665662 0.05788726 -0.15168571 -0.02022833 -0.018128734
