Assets/Scripts/CarAgent-1499973.onnx (onnx, 670258 bytes, 10 tensors)

action_model._continuous_distribution.log_sigma.bias f4 [2]
0	0xbf8b7e23	-1.0897869
1	0xc02c9e12	-2.6971478

action_model._continuous_distribution.log_sigma.weight f4 [2, 256]
0	0xbce3279a	-0.027728844
1	0xbd089640	-0.033346415
2	0x3ce81f15	0.028335134
3	0x3d087ffd	0.033325184
4	0x3e25f493	0.16206579
5	0xbc848aff	-0.01617956
6	0x3d11ec48	0.035625726
7	0xbcdb7c88	-0.02679278
8	0x3cc02958	0.023457214
9	0xbd8b32a5	-0.06796769
10	0xbd927eff	-0.07153129
11	0xbc55d3f1	-0.013051019
12	0xbda42583	-0.08014967
13	0x3ea92c5a	0.3304165
14	0xbd0d3721	-0.034476403
15	0xbd8bbd43	-0.06823208
16	0xbdd5d9c3	-0.104419254
17	0x3d65c524	0.05609621
18	0x3cf27a50	0.029599339
19	0x3d6c2de6	0.05766096
20	0xbd047f75	-0.032348115
21	0xbcbd438c	-0.023103498
22	0x3d6ca4d6	0.057774387
23	0x3cee4af9	0.029088484
24	0x3ec3395c	0.381297
25	0x3d855f15	0.06512276
26	0x3ac7aad2	0.0015233404
27	0x3e07e108	0.13269436
28	0xbc7b3499	-0.0153323645
29	0xbd0221f0	-0.031770647
30	0xbd37c934	-0.044869617
31	0xbc81a2e8	-0.01582475
32	0x3def3166	0.11679344
33	0xbd2f898d	-0.042855788
34	0x3d521097	0.051285353
35	0xbcf4dd2e	-0.029890623
36	0x3d856cc7	0.06514888
37	0x3dc9d27e	0.09854601
38	0x3d064475	0.03278013
39	0x3c11703f	0.008876859
40	0x3e1b6cd3	0.15178232
41	0xbe301062	-0.1719375
42	0x3ccc3d35	0.02493153
43	0xbcf21d0c	-0.029554866
44	0xbcbf907f	-0.02338433
45	0x400a6489	2.1623862
46	0x3d413180	0.047166348
47	0x3cdee089	0.027206676
48	0xbd928588	-0.07154375
49	0xbc063b12	-0.008192794
50	0x3ab8cd3e	0.0014099253
51	0xbda3a2e0	-0.0799005
52	0xbe3557b0	-0.17709231
53	0xbec5af89	-0.38610485
54	0xbd0cd50c	-0.034382865
55	0xb9c11de3	-0.00036834096
56	0x3cf6fffb	0.030151358
57	0xbc85c869	-0.016330915
58	0x3d4ce9ae	0.05002754
59	0x3e22e2b6	0.15906796
60	0x3ca0f617	0.019648595
61	0xbdfcf7d9	-0.12351961
62	0xbd6965d7	-0.056981888
63	0xbcafae1d	-0.021445328
64	0x3cf562aa	0.029954273
65	0xbce6025d	-0.028077299
66	0x3c82f5d7	0.015986366
67	0xbca35dcc	-0.019942187
68	0xbd0165d4	-0.03159125
69	0x3e093141	0.13397695
70	0xbd96f09a	-0.0737011
71	0xbdfa821b	-0.12231847
72	0xbdb1064f	-0.086437814
73	0x3cac2fa0	0.021018803
74	0xbcff26a7	-0.03114636
75	0x3d60308e	0.054733805
76	0xbcbc74fe	-0.023005005
77	0xbc1c9cdd	-0.0095588835
78	0xbe0a4ef8	-0.13506687
79	0x3e1e327e	0.15448949
80	0xbd2624a3	-0.040562283
81	0xbe076c9a	-0.13225022
82	0x3dbdba9f	0.09264111
83	0x3d2c93a6	0.042132996
84	0x3cf416b6	0.029795986
85	0xbc7894c5	-0.015172188
86	0x3c123416	0.008923551
87	0x3db748f6	0.08949463
88	0x3bed63cb	0.0072445623
89	0x3dbf79d3	0.09349408
90	0x397596d1	0.00023421204
91	0xbe64385c	-0.22287124
92	0x3ba87bbb	0.005141703
93	0x3de4e551	0.11176551
94	0x3cf7c20a	0.030243892
95	0x3d873dc3	0.06603577
96	0x3c711782	0.014715077
97	0xbd567770	-0.05236
98	0xbd479661	-0.048727397
99	0x3e280ea2	0.16411832
100	0x3d720956	0.059090935
101	0x3ddb3cb4	0.107049376
102	0xbdf5945f	-0.1199119
103	0x3db52c28	0.08846313
104	0x3cc496c5	0.023997674
105	0xbd4a172c	-0.049338505
106	0xbe128368	-0.1430794
107	0xbb8854a8	-0.0041604824
108	0x3caec12b	0.021332344
109	0x3c97200e	0.018447902
110	0xbd017663	-0.031607043
111	0x3d427d71	0.04748291
112	0xbd7d3a22	-0.061823018
113	0x3df2a5de	0.11848043
114	0xbccbdf48	-0.024886742
115	0x3d2ae696	0.04172381
116	0xbda1a1ba	-0.07892175
117	0x3dbd971b	0.09257337
118	0x3dc83159	0.09775037
119	0xbca9e07c	-0.020736925
120	0x3b6fe501	0.0036605003
121	0x3d332756	0.043738686
122	0x3c483c9f	0.012221484
123	0x3b940285	0.004516902
124	0x3dbb146f	0.09134757
125	0xbe2cf8d6	-0.16891798
126	0xbd38be94	-0.045103624
127	0xbd87ed0e	-0.066370115
128	0x3cf22f92	0.029563699
129	0xbc986dee	-0.018607106
130	0x3d05de9a	0.032682993
131	0x3c9f1033	0.019416904
132	0x3dd21c97	0.10259359
133	0xbdbb0377	-0.0913152
134	0x3cb87ffb	0.022521963
135	0xbc730dd1	-0.014834837
136	0x3cd1a10d	0.02558949
137	0x3c21ed34	0.009883214
138	0x3dae80dd	0.085206725
139	0xbdf550b3	-0.11978283
140	0xbc81f725	-0.015864918
141	0xbd55453b	-0.052067976
142	0x3de91400	0.11380768
143	0xbd095854	-0.033531502
144	0xbdf1a5fa	-0.11799236
145	0xbcddb348	-0.027063027
146	0xbc9bc212	-0.019013438
147	0x3d8c9f4e	0.068663225
148	0xbb23705b	-0.0024938795
149	0x3d53cb03	0.05170728
150	0xbe874b8c	-0.26424825
151	0x3d512b93	0.051066946
152	0x3d2b0366	0.041751288
153	0x3ce081c6	0.02740563
154	0x3d634771	0.055488054
155	0x3c69c265	0.014267539
156	0x3cd72a0f	0.026265172
157	0xbcbdc7ce	-0.023166563
158	0x3c27711a	0.010219837
159	0xbc66b176	-0.014080396
160	0xbeaba5a3	-0.33524808
161	0x3c39ece5	0.011347984
162	0x3b842964	0.0040332545
163	0x3cf1e7c1	0.029529454
164	0x3cc92249	0.024552481
165	0xbd8d9ff7	-0.069152765
166	0xbc1aac68	-0.009440519
167	0x3dee81c1	0.11645842
168	0xbec2543a	-0.37954885
169	0x3dd3c25a	0.10339804
170	0x3dc5a0d5	0.09649817
171	0x3dadc32d	0.084844925
172	0x3c0f46db	0.008744921
173	0xbd30d510	-0.043171942
174	0xbd65d570	-0.056111753
175	0x3da5f916	0.0810415
176	0xbdd4de55	-0.10393969
177	0x3cc81e1f	0.024428425
178	0x3d81a533	0.063303374
179	0xbdb5ddd6	-0.088802025
180	0x3cd7c13e	0.026337262
181	0x3dc5f2e7	0.096654706
182	0x3bcfc0da	0.0063401284
183	0x3d00e8a8	0.03147188
184	0xbe519ff0	-0.20471168
185	0x3d9f54d9	0.07779855
186	0xbd73bcf6	-0.05950638
187	0xbd5c96ea	-0.05385486
188	0xbd1db44b	-0.03850202
189	0xbb8da3a0	-0.004322484
190	0x3e3a6cc5	0.18205555
191	0x3dbf34b4	0.09336224
192	0x3d08d060	0.033401847
193	0xbca5f084	-0.020256288
194	0x3d163062	0.036667235
195	0x3dbbf7b3	0.09178104
196	0xbdc56d36	-0.09639971
197	0x3db6671d	0.08906386
198	0xbd144276	-0.036196195
199	0xbb4c2ccc	-0.003115463
200	0xbd8b5e32	-0.06805076
201	0x3e43ffcb	0.19140546
202	0x3c393e51	0.011306361
203	0x3bce2d92	0.0062920535
204	0x3dac2979	0.08406348
205	0xbd5bc7d6	-0.053657375
206	0xbbd2c208	-0.0064318217
207	0xbc6ef43c	-0.014584597
208	0x3dbfe411	0.09369672
209	0x3d847288	0.064671576
210	0xbdbfea72	-0.09370889
211	0x3dd36f3f	0.10323953
212	0xbdc73418	-0.09726733
213	0xbcfd1847	-0.030895365
214	0x3d5b1a02	0.0534916
215	0x3e15786b	0.14596717
216	0xbd01d634	-0.03169842
217	0x3bdf7ad4	0.006820062
218	0xbaba6a87	-0.0014222421
219	0x3da419a6	0.080127046
220	0xbd55ff26	-0.05224528
221	0xbd60b852	-0.05486328
222	0xbd1c9c9d	-0.038235296
223	0xbccdc1ea	-0.02511688
224	0x3f5b6a7e	0.8570937
225	0xbdc8ddc1	-0.09807921
226	0x3d8539c3	0.06505158
227	0xbd9d4bc5	-0.076804675
228	0x3d8f85a4	0.07007912
229	0xbf1317f2	-0.5745841
230	0x3c9775f8	0.01848887
231	0x3df3ccc3	0.119042896
232	0xbd29d9f7	-0.041467633
233	0xbba77353	-0.0051101833
234	0x3d3e357e	0.046437733
235	0xbd1ef949	-0.038811956
236	0x3cd36d18	0.025808856
237	0x3ce2cc18	0.02768521
238	0xbe34e959	-0.1766714
239	0x3d3cd735	0.046103675
240	0xbe606d4f	-0.21916698
241	0xbc7b9c32	-0.015357064
242	0x3da69c82	0.0813532
243	0x3dfd4cee	0.12368189
244	0xbe282291	-0.16419436
245	0xbe95b83a	-0.29242116
246	0x3d336af5	0.043803174
247	0x3c835549	0.016031878
248	0x3d56df04	0.052458778
249	0x3cd7c3ae	0.026338425
250	0x3d73d13a	0.059525706
251	0x3c52fb27	0.012877262
252	0xbc615263	-0.013752553
253	0x3d96a832	0.073562995
254	0x399dc8f3	0.00030095092
255	0xbba360cf	-0.0049859057

action_model._continuous_distribution.mu.bias f4 [2]
0	0x3d9e5010	0.077301145
1	0xbc0b615f	-0.008507102

action_model._continuous_distribution.mu.weight f4 [2, 256]
0	0x3e152993	0.1456664
1	0xbf4dbb1f	-0.8036365
2	0xbe80400c	-0.25048864
3	0xbdf2a120	-0.118471384
4	0x3f3ef443	0.74591464
5	0x3e7069c7	0.23477851
6	0xbeaf9620	-0.34294224
7	0xbe1cb0c0	-0.153018
8	0x3e4b9bad	0.19883604
9	0xbe09bd5e	-0.13451144
10	0x3a4dadb0	0.0007846011
11	0x3cb56f30	0.022147745
12	0x3d553241	0.05204988
13	0x3e6cc389	0.23121466
14	0x3e20e613	0.15712766
15	0xbeac88bc	-0.3369807
16	0xbbed953c	-0.007250456
17	0x3e5f8be1	0.21830703
18	0x3e5b540a	0.21418777
19	0x3e413b4c	0.18870276
20	0xbe746d32	-0.2386978
21	0xbd63d554	-0.055623367
22	0x3e1925cf	0.14955829
23	0x3e142d24	0.14470345
24	0xbe00d46b	-0.12581031
25	0x3eace89f	0.33771226
26	0xbb61b253	-0.0034438565
27	0x3d940148	0.07226807
28	0x3e9e547e	0.30923837
29	0xbebdf8d4	-0.37103903
30	0xbe4226a8	-0.18960059
31	0xbcb901ba	-0.022583831
32	0x3e5ee502	0.21767047
33	0xbd34d51a	-0.044148542
34	0xbee3c2ae	-0.44484466
35	0xbe06456e	-0.13112423
36	0x3e51d5b8	0.20491683
37	0x3e9f1dc8	0.3107741
38	0xbe515e98	-0.20446241
39	0xbec34df0	-0.381454
40	0x3f18d6e2	0.59702885
41	0xbf0f6072	-0.5600654
42	0x3d8a3762	0.06748845
43	0xbecc83ee	-0.39944404
44	0xbe2a092e	-0.16605064
45	0xbe3635a8	-0.17793906
46	0x3e84582a	0.25848514
47	0xbebb9d34	-0.36643374
48	0xbd81d265	-0.06338958
49	0x3dc24ab1	0.094869025
50	0x3d93e9dd	0.0722234
51	0xbe66c8e9	-0.22537579
52	0xbe6124c0	-0.21986675
53	0x3d45bd71	0.04827637
54	0xbd8a1adc	-0.06743404
55	0xbebefb13	-0.3730093
56	0xbdd884bd	-0.10572193
57	0xbcec409e	-0.028839406
58	0xbdec97b6	-0.11552374
59	0xbe1967a8	-0.14980948
60	0x3d9e9a99	0.07744331
61	0xbeaa220d	-0.33229104
62	0x3dd162c3	0.102239154
63	0x3cc1b141	0.023644092
64	0xbe2a8c51	-0.16655089
65	0xbe87486c	-0.2642244
66	0x3e7e6de6	0.2484661
67	0xbe94e6a8	-0.29082227
68	0xbd33f24c	-0.043932244
69	0xbed66eb7	-0.41881344
70	0xbe84c5d8	-0.25932193
71	0x3e8f3af9	0.2797468
72	0xbe3d7730	-0.18502498
73	0xbdf1ddd5	-0.11809889
74	0x3dea863d	0.11451385
75	0x3e2cf84e	0.16891596
76	0xbd958903	-0.073015235
77	0x3cf1b5a0	0.02950555
78	0xbe68d374	-0.22736913
79	0xbd9f5087	-0.07779031
80	0xbec61aa2	-0.38692194
81	0x3d81ccdd	0.06337903
82	0x3e786c5d	0.24260087
83	0x3d4446cb	0.047919076
84	0xbec0563c	-0.37565792
85	0xbe472bdb	-0.19450323
86	0xbe98e602	-0.29862982
87	0xbecd2a02	-0.40071112
88	0x3df086e6	0.1174448
89	0x3e36b577	0.17842661
90	0x3e7e30c1	0.24823286
91	0x3eeedafe	0.46651453
92	0x3c07e370	0.008293971
93	0x3ebbcc90	0.36679506
94	0x3dc72f4b	0.09725817
95	0x3e758752	0.23977402
96	0xbdfcd67c	-0.12345597
97	0xbd81b733	-0.063337706
98	0xbee6aa13	-0.4505163
99	0xbea040fb	-0.31299576
100	0x3e2c483b	0.16824429
101	0x3e74397c	0.23850054
102	0xbeb1792e	-0.34662765
103	0xbdd0fae1	-0.10204101
104	0x3e004035	0.12524493
105	0x3d5861b8	0.052827567
106	0xbc898133	-0.01678524
107	0xbe222012	-0.15832546
108	0xbe1d616d	-0.15369196
109	0xbf08071c	-0.5313585
110	0x3e187715	0.14889176
111	0x3e7f0411	0.24903895
112	0x3d9b3663	0.07578733
113	0xbe5f8810	-0.21829247
114	0x3ef4079e	0.4766206
115	0x3ecf5ef6	0.40502137
116	0xbe859071	-0.26086763
117	0xbf0b4c3f	-0.5441322
118	0x3ea1ca87	0.3159983
119	0xbcc320e8	-0.023819402
120	0xbb9726ee	-0.004612795
121	0x3b2e1b0c	0.0026566414
122	0xbcd50ba8	-0.026006535
123	0x3da22d5a	0.079188064
124	0xbea8fe4c	-0.33006513
125	0x3ee45316	0.4459464
126	0x3d1ae014	0.037811354
127	0xbe15286e	-0.14566204
128	0x3d9d89dd	0.07692311
129	0xbc9c359a	-0.019068528
130	0x3eef446c	0.4673189
131	0xbc33f374	-0.010983337
132	0xbe2a61a9	-0.16638817
133	0x3dda9236	0.10672419
134	0x3e8aa893	0.27081737
135	0xbdf5b751	-0.119978555
136	0x3e496d79	0.19670667
137	0x3e03d97e	0.12875935
138	0x3e7f40ee	0.24927112
139	0xbf1a68f1	-0.6031638
140	0xbe871f6f	-0.2639117
141	0x3ba2bd94	0.004966447
142	0x3eaf029a	0.34181672
143	0xbeaf3700	-0.3422165
144	0x3d5d2b01	0.05399609
145	0xbdd184dd	-0.1023042
146	0x3e07af75	0.13250525
147	0xbf0bc104	-0.54591393
148	0x3da603b3	0.08106174
149	0x3e92c377	0.28664753
150	0xbe90517b	-0.28187165
151	0xbdd2c3aa	-0.10291226
152	0x3db11c77	0.08648007
153	0x3e83efb3	0.25768813
154	0xbe436c72	-0.19084337
155	0x3d202205	0.039094944
156	0x3cf6e7c4	0.030139811
157	0x3c01225c	0.007881727
158	0x3e483e32	0.19554976
159	0x3ebeaadc	0.3723973
160	0xbe0e2bff	-0.1388397
161	0xbcd0f621	-0.025507988
162	0x3dbbee53	0.09176316
163	0xbe192c92	-0.14958408
164	0x3e40ce20	0.1882863
165	0xbe94902d	-0.29016247
166	0x3e010e6a	0.12603155
167	0xbe88f74a	-0.26751167
168	0x3ec79ab0	0.38985205
169	0x3d9a9136	0.07547228
170	0xbe0172b6	-0.12641415
171	0xbe3598a4	-0.17734009
172	0xbde10573	-0.109873675
173	0xbe069f8c	-0.131468
174	0xb9b848a4	-0.00035149336
175	0x3eef0919	0.46686628
176	0xbde23f27	-0.110472016
177	0x3d64b240	0.055834055
178	0x3e53c5e4	0.20680958
179	0xbe940707	-0.2891161
180	0xbe4b98cf	-0.1988251
181	0x3ea7da43	0.32783708
182	0x3e169242	0.1470423
183	0x3a6c6fed	0.0009019364
184	0x3e9898fc	0.29804218
185	0x3da2bfe8	0.079467595
186	0xbe90a529	-0.28251007
187	0xbea9a372	-0.3313251
188	0xbda8f51b	-0.08249875
189	0x3d6d19d4	0.05788596
190	0x3e1da536	0.15395054
191	0x3ea36fff	0.31921384
192	0xbea85d44	-0.32883656
193	0xbe451ad0	-0.1924851
194	0x3db083e8	0.08618909
195	0xbe3deb92	-0.18546894
196	0xbf16d0b3	-0.589122
197	0x3e64f194	0.2235778
198	0xbe8ac1aa	-0.2710088
199	0xbe9c11aa	-0.30482227
200	0xbe7805f3	-0.2422102
201	0xbdf56b79	-0.119833894
202	0x3d8b1ab6	0.06792204
203	0xbe8ffd63	-0.28123006
204	0x3e3f03dd	0.18653817
205	0xbd83196f	-0.064013354
206	0xbe0edf0f	-0.13952278
207	0x3d473403	0.048633587
208	0x3e1e851e	0.15480468
209	0x3e3b2642	0.18276313
210	0x3ca06678	0.01958011
211	0x3dbc9f3d	0.0921006
212	0xbc409450	-0.01175411
213	0xbdb1c5b8	-0.0868029
214	0xbe73aad9	-0.23795642
215	0xbe108669	-0.14113773
216	0xbe925756	-0.28582257
217	0x3e23d6d2	0.15999916
218	0x3e3547e3	0.17703204
219	0xbe9383f4	-0.2881161
220	0xbe02d58d	-0.12776776
221	0xbc57bccf	-0.013167574
222	0x3eb19bbd	0.3468913
223	0x3e7fd6c5	0.24984272
224	0xbe2882f5	-0.16456206
225	0xbee8be0c	-0.45457494
226	0x3e95b63a	0.2924059
227	0x3effcc35	0.49960485
228	0xbde7c2ad	-0.11316428
229	0x3f127ec2	0.5722467
230	0x3cc50a12	0.024052653
231	0x3ecb4090	0.39697695
232	0xbdba96f8	-0.09110826
233	0xbe3642c5	-0.17798908
234	0xbe95038b	-0.29104266
235	0x3d3e59e0	0.04647243
236	0x3dff834f	0.12476217
237	0xbe7b2a59	-0.24527873
238	0xbdd6026f	-0.10449683
239	0x3d12c32b	0.035830658
240	0xbdc404eb	-0.095712505
241	0xbf507e1e	-0.8144244
242	0xbe60112a	-0.21881548
243	0xbe358e9b	-0.17730181
244	0x3e570c93	0.2100089
245	0x3ebff5c9	0.37492207
246	0x3e068081	0.13134958
247	0x3e2ba800	0.16763306
248	0xbe224db6	-0.15849957
249	0x3e0076c7	0.1254531
250	0xbe4621d0	-0.19348836
251	0xbe51d3bf	-0.20490931
252	0x3e72266c	0.2364747
253	0xbe95903e	-0.2921161
254	0x3ebdd857	0.37079117
255	0xbe4645a4	-0.19362503

network_body.linear_encoder.seq_layers.0.bias f4 [256]
0	0x3d396290	0.045260012
1	0xbd6af1c4	-0.057359472
2	0xbda37351	-0.07980979
3	0xbd2f79fa	-0.042840935
4	0xbdf9fefc	-0.122068375
5	0xbc093e88	-0.008376725
6	0xbd5ba64e	-0.053625397
7	0x3b0f4452	0.002186079
8	0xbd82aeaf	-0.063809745
9	0xbc3b345d	-0.011426059
10	0xbd623d1f	-0.05523407
11	0xbc72b004	-0.014812473
12	0x3d040648	0.032232553
13	0xbd1a65c5	-0.03769471
14	0x3c8ce3af	0.017198412
15	0xbd1da770	-0.03848976
16	0x3d8e54be	0.06949757
17	0xbb7badaa	-0.0038403072
18	0xbb758c03	-0.0037467487
19	0x3c1b75ce	0.009488536
20	0xbddd32d5	-0.10800711
21	0xbc612bd8	-0.013743363
22	0xbc8e85b3	-0.017397737
23	0xbd51c764	-0.051215544
24	0x3af22d87	0.0018476703
25	0xbd3b77c7	-0.045768525
26	0x3b484f28	0.003056476
27	0xbdbb9831	-0.091598876
28	0x3caeee05	0.021353731
29	0x3d94e79a	0.07270737
30	0xbcb69773	-0.022289013
31	0xbc901d37	-0.017592056
32	0x3ce46a37	0.027882678
33	0xbc8212de	-0.015878137
34	0x3b38d5b6	0.0028203554
35	0xbba32208	-0.004978422
36	0xbbf7736c	-0.007551601
37	0xbe1e7824	-0.15475518
38	0xbe2f9c9e	-0.17149588
39	0xb9699210	-0.00022275024
40	0xbc4d87a8	-0.01254455
41	0x3cb54691	0.022128375
42	0xbe09b5ea	-0.13448301
43	0xbbd05e47	-0.006358895
44	0xbc9e382d	-0.019313896
45	0x3c40326f	0.011730774
46	0xbe26ac96	-0.16276774
47	0xbcd8985d	-0.02643984
48	0xbda8278c	-0.08210668
49	0xbd0b1dbf	-0.033963915
50	0x3b9d4fb2	0.00480076
51	0xbbb93cd3	-0.0056530028
52	0xba30c27e	-0.0006742849
53	0xbd33af48	-0.043868333
54	0x3b8f1962	0.0043670395
55	0xbb464623	-0.0030254207
56	0x3b026743	0.0019897975
57	0xbcb1941f	-0.021677075
58	0x3b3939b4	0.0028263154
59	0x3d21e71a	0.039527036
60	0xbdddbd9d	-0.108271815
61	0xbe1929c7	-0.14957343
62	0xbbe14294	-0.006874392
63	0x3dd474ef	0.10373866
64	0xbd11d0dd	-0.03559958
65	0xbcf2315f	-0.029564558
66	0x3c0add75	0.008475651
67	0x3c52eaa7	0.012873328
68	0xbd03344b	-0.032032292
69	0xbe150d8c	-0.14555949
70	0xbc54d542	-0.012990298
71	0x3c835e64	0.01603622
72	0xbdeb4578	-0.114878595
73	0xbc14e4ec	-0.009087782
74	0xbdd34708	-0.103162825
75	0x3b40dc5d	0.0029428222
76	0xbd7774e7	-0.06041422
77	0x3bada6f8	0.0052994452
78	0x3cdd5c99	0.027021693
79	0xbd0491ba	-0.03236554
80	0xbd7a4b46	-0.061106943
81	0xbd8d286c	-0.068924755
82	0x3afd418d	0.0019321904
83	0x3c3b6ada	0.01143905
84	0xbd7b6b79	-0.06138179
85	0xbd29a22d	-0.04141443
86	0xbbfcec4b	-0.007718598
87	0xbdc931ef	-0.09823977
88	0xbc6e5d69	-0.014548638
89	0xbc987479	-0.018610226
90	0xbbe4e113	-0.0069848388
91	0xbcdccb06	-0.026952278
92	0xbe1ae80e	-0.15127584
93	0xbcca7694	-0.024714746
94	0xbbc5bff7	-0.006034847
95	0x3c837aa4	0.01604969
96	0x3cd15c81	0.025556805
97	0x3ddfc0b3	0.10925426
98	0xbc5309dd	-0.01288077
99	0x3c1051e7	0.00880859
100	0x3b028962	0.0019918312
101	0xbd6dc82f	-0.058052238
102	0xbc763ea0	-0.015029579
103	0x3d77b6e6	0.06047716
104	0xbd82bd82	-0.06383802
105	0xbc125ef6	-0.008933773
106	0xbb682027	-0.0035419555
107	0xbd05eb4e	-0.032695107
108	0xbd7fcfda	-0.062454082
109	0xbd387fce	-0.04504376
110	0xbdafb675	-0.08579723
111	0xbd6fc9cb	-0.058542054
112	0x3d9c2f83	0.0762625
113	0xbcd30821	-0.025760712
114	0xbcb1445a	-0.021639038
115	0x391a87a3	0.00014737113
116	0xbd972e87	-0.07381921
117	0xbd17e082	-0.03707934
118	0x3b377d08	0.0027998108
119	0xbbe0a713	-0.0068558543
120	0xbca41226	-0.020028185
121	0xbe35b412	-0.17744473
122	0xbb251e90	-0.0025195219
123	0xbd8923ab	-0.06696256
124	0xbc5321e9	-0.012886503
125	0x3c518cb5	0.012789895
126	0xbd1380e6	-0.0360116
127	0xbddb770d	-0.107160665
128	0x3d43b404	0.0477791
129	0x3c83ac73	0.016073441
130	0xbdba33a5	-0.09091882
131	0x3b22e34b	0.0024854715
132	0x3a3952ab	0.00070695084
133	0x3ae83fd4	0.0017719218
134	0x3cc35a67	0.023846818
135	0xbd448f15	-0.047988016
136	0xbcee7ee4	-0.02911324
137	0xbda8e8eb	-0.082475506
138	0xbb1893e0	-0.00232815
139	0xbe2897a7	-0.16464101
140	0xbc4a49ea	-0.012346724
141	0xbcff515f	-0.03116673
142	0xbd29431d	-0.04132377
143	0xbcf1e3f1	-0.029527636
144	0xbbabf80e	-0.0052480763
145	0xbcccbb85	-0.02499176
146	0xbd0f4bbb	-0.03498433
147	0x3cae71ee	0.02129456
148	0xbbaea96d	-0.0053302557
149	0xbd270a8b	-0.04078154
150	0xbcfac88c	-0.030613206
151	0xbd577fdf	-0.05261218
152	0xbc660234	-0.014038611
153	0xbddd775d	-0.10813782
154	0x3cbe7b50	0.02325216
155	0xbe208f5a	-0.15679684
156	0xbc57d7ab	-0.013173978
157	0x3becc82b	0.0072260103
158	0xbd47e5a2	-0.04880298
159	0x3d760350	0.060061753
160	0x3c70f161	0.014705987
161	0xbd25e7c8	-0.040504247
162	0xbc93c329	-0.018037396
163	0xbdbb0dd8	-0.091335
164	0x3cfce885	0.030872593
165	0x3d32dec2	0.04366947
166	0xbdb09d28	-0.08623725
167	0xbdca1148	-0.098665774
168	0xbda2d6c1	-0.07951117
169	0x3cb3f6a9	0.021968203
170	0xbc8195eb	-0.015818557
171	0x3d9afdc2	0.07567932
172	0x3c04b6e1	0.008100242
173	0x3c2ea913	0.010660428
174	0xbd003fe6	-0.03131094
175	0xbdf0206c	-0.11724934
176	0xbcc8cb50	-0.02451101
177	0x3c0ea6a4	0.008706722
178	0xbcaeae74	-0.02132342
179	0xbe1c39ec	-0.1525647
180	0xbd17c7c9	-0.037055764
181	0xbddc2db6	-0.10750906
182	0xbc84feac	-0.016234718
183	0xbd840aae	-0.064473495
184	0xbcce796f	-0.025204388
185	0xbc40223e	-0.011726914
186	0xbc830b3d	-0.01599657
187	0xbcddae3a	-0.027060617
188	0x3ca7b0fc	0.020470135
189	0xbc6f4999	-0.014604949
190	0x3cd3c726	0.025851797
191	0x3d113203	0.035448086
192	0xbdd591bd	-0.10428188
193	0x3cbb70b0	0.022880882
194	0xbdc96454	-0.09833589
195	0xbd5c3b00	-0.053767204
196	0xbdb4d32f	-0.088293426
197	0xbc6ba8c6	-0.0143835
198	0x3d2c4f65	0.042067904
199	0xbc976cfb	-0.018484583
200	0xbd244767	-0.040107157
201	0xbd856324	-0.0651305
202	0x3c3cf29a	0.01153245
203	0xbe01d7af	-0.12679933
204	0x381994d0	3.6616635e-05
205	0xbe02dbeb	-0.12779205
206	0xbd14a0e0	-0.036286235
207	0xbd18a84b	-0.03726987
208	0xbcd7312f	-0.02626857
209	0xbd6afc03	-0.057369243
210	0x3d6c672a	0.057715572
211	0xbd53515c	-0.051591262
212	0x3ce0605e	0.027389701
213	0x3d1cdde8	0.038297564
214	0x3dd84d5f	0.10561632
215	0xbbef0c61	-0.007295177
216	0x3ad0b438	0.001592285
217	0x3d094df9	0.033521626
218	0x3c9add04	0.018904217
219	0xbdd7cba0	-0.10536885
220	0xbd25bdd1	-0.040464226
221	0xbb38b01e	-0.0028181146
222	0x3ce1b300	0.027551174
223	0xbc8ef757	-0.017451925
224	0xbb98159c	-0.004641248
225	0xbdd7cab1	-0.10536707
226	0xbd9004de	-0.07032178
227	0xbd4162f7	-0.04721352
228	0xbdcbb85d	-0.09947274
229	0x3c1b9239	0.009495311
230	0xbd6f4950	-0.058419526
231	0xbca3c62a	-0.019991953
232	0xbc3e67d1	-0.011621431
233	0xbcede276	-0.029038649
234	0x3c7781a1	0.0151065895
235	0x3d5caedb	0.053877693
236	0xbd15028f	-0.036379393
237	0xbd391ce9	-0.045193586
238	0xbbf43a02	-0.007453204
239	0x3d44164c	0.047872826
240	0xbda3521b	-0.07974645
241	0x3d225039	0.039627288
242	0x3af7242e	0.0018855387
243	0xbc96c977	-0.018406613
244	0x3ccdcb59	0.025121378
245	0x3d74363d	0.05962204
246	0xbd2d80dd	-0.04235922
247	0x3d8f798a	0.070056036
248	0x3cabc7f8	0.020969376
249	0xbd95a74a	-0.073072985
250	0xbbbdc5ef	-0.005791418
251	0x3cb40fc7	0.02198018
252	0x3ccdb8f4	0.025112607
253	0x3cd431b9	0.025902616
254	0xbd859bd6	-0.06523864
255	0x3ac7947e	0.0015226749

network_body.linear_encoder.seq_layers.0.weight f4 [256, 133]
0	0xbdded5d8	-0.10880631
1	0xbddb8027	-0.107178025
2	0x3e235abb	0.1595258
3	0x3d61fb6b	0.05517141
4	0x3eb427f0	0.3518672
5	0xbd99573a	-0.0748734
6	0x3da98f01	0.08279229
7	0x3dd0d13f	0.101961605
8	0xbc26f57c	-0.010190364
9	0xbc005a2a	-0.007833997
10	0x3d4bf486	0.049793743
11	0x3e562bc5	0.20915134
12	0xbe26dcc8	-0.16295159
13	0x3c5991f4	0.013279427
14	0x3e370589	0.17873205
15	0x3cdc5f5f	0.026900945
16	0xbe3d97d5	-0.1851495
17	0x3dc909f6	0.09816353
18	0x3e8c58d6	0.27411526
19	0xbd459fb4	-0.048248008
20	0xbea34eb3	-0.3189598
21	0x3dabb04f	0.083832376
22	0x3e08362a	0.13301912
23	0x3dc10ea1	0.09426618
24	0xbe2cf171	-0.16888978
25	0x3df1134b	0.11771258
26	0xbdc3a17f	-0.09552287
27	0x3d1cef0f	0.03831392
28	0x3ebe937c	0.37221897
29	0x3d72d163	0.059281718
30	0x3e149992	0.14511707
31	0x3d2f8815	0.042854387
32	0x3c0d59a7	0.008627332
33	0xbcc925b7	-0.024554117
34	0x3dfb03f0	0.122566104
35	0x3d59901b	0.053115945
36	0x3d881440	0.066444874
37	0x3daa66fe	0.083204255
38	0x3d196fe4	0.037460223
39	0x3db58973	0.08864107
40	0x3ea7ba30	0.32759237
41	0x3de21ed1	0.11041034
42	0xbd9dc88a	-0.077042654
43	0x3a7267d1	0.0009247037
44	0x3f11ce74	0.5695565
45	0xbc725fda	-0.014793361
46	0x3d52c5f9	0.051458333
47	0xbd324206	-0.043519996
48	0x3f252f5c	0.6452539
49	0xbdc4889b	-0.09596368
50	0x3d1c599e	0.038171403
51	0xbd4db439	-0.0502207
52	0x3c852693	0.016253745
53	0xbd07f4d8	-0.033192486
54	0x3d06266f	0.032751497
55	0xbd7eef78	-0.062240094
56	0x3e2d5bf2	0.16929606
57	0x3dd59738	0.10429233
58	0xbce21c71	-0.027601453
59	0xbdf05e3b	-0.11736723
60	0x3e3fafeb	0.18719451
61	0xbc310a22	-0.0108056385
62	0x3dfd5362	0.1236942
63	0x3e600a19	0.21878852
64	0x3e6647ab	0.22488277
65	0x3d05b576	0.032643758
66	0xbac2d5a1	-0.0014864692
67	0x3e00fa0c	0.12595385
68	0xbe046a19	-0.12931098
69	0x3c283041	0.010265411
70	0x3e0de3a2	0.13856366
71	0x3ceef494	0.029169358
72	0xbde66a53	-0.112507485
73	0x3df4acee	0.11947046
74	0x3d9b4d5f	0.07583117
75	0xbd498e50	-0.049207985
76	0x3d86ce3e	0.06582306
77	0x3d11aebe	0.035567038
78	0x3c911044	0.017707951
79	0x3e448c41	0.19194128
80	0x3d551fa1	0.052032117
81	0xbd8c62ff	-0.068548195
82	0x3e5af360	0.21381903
83	0x3b854d7b	0.0040680743
84	0x3f1ce895	0.6129239
85	0x3d1278c2	0.035759695
86	0x3e0004b2	0.12501791
87	0xbe18afe1	-0.14910842
88	0x3e3f579b	0.18685763
89	0x3dbcb5d3	0.09214368
90	0x3d841390	0.06449044
91	0x3e0dceb3	0.1384838
92	0x3c983ac1	0.018582704
93	0x3c7ea9a8	0.015543379
94	0xbddfb3be	-0.10922955
95	0x39a9b7d8	0.00032371166
96	0x3edc2693	0.4299818
97	0xbdfd38ed	-0.12364373
98	0x3e48412c	0.19556111
99	0xbd0e3f6e	-0.03472846
100	0x3d846d1c	0.064661235
101	0x3d972e4e	0.07381879
102	0xb9a1faf7	-0.00030895296
103	0xbc7ed2dd	-0.015553203
104	0x3edee184	0.4353143
105	0x3d00b4ad	0.031422306
106	0x3c9afbdc	0.018918924
107	0x3e1c7b84	0.15281492
108	0x3e845b93	0.25851116
109	0x3c00a11e	0.007850913
110	0x3da089af	0.07838761
111	0x3df782f8	0.12085527
112	0x3e01a3a0	0.12660074
113	0xbc9013b6	-0.017587524
114	0x3e12d46c	0.14338845
115	0x3e43e467	0.19130097
116	0x3d9a0609	0.07520682
117	0xbdacd1e1	-0.08438469
118	0x3d7a4af2	0.06110663
119	0x3d53b643	0.05168749
120	0x3eed93e6	0.464019
121	0xbdc8d539	-0.09806294
122	0xbaf2a58c	-0.0018512472
123	0x3d0020bc	0.031281218
124	0xbc95f26c	-0.018304072
125	0xbd7e0dfb	-0.06202505
126	0xbd4b99b9	-0.04970715
127	0xbc951aa8	-0.018201187
128	0xbf8a922a	-1.0825856
129	0xbf904110	-1.1269855
130	0xbead9473	-0.3390232
131	0x3ef688a6	0.4815113
132	0xbf9eee2b	-1.2416433
133	0xbe06148a	-0.13093773
134	0xbc3b42e2	-0.01142952
135	0xbe430850	-0.1904614
136	0x3d54fb4b	0.051997464
137	0xbe125077	-0.14288507
138	0x3d9c21ed	0.07623658
139	0xbadbefb2	-0.0016779809
140	0xbde9a6c5	-0.11408762
141	0x3c848c14	0.016180076
142	0x3db10716	0.0864393
143	0x3d06f375	0.032947022
144	0xbe4b8da1	-0.19878246
145	0x3e11bb8f	0.14231704
146	0xbde1d6d8	-0.11027306
147	0xbd4a8a05	-0.049448032
148	0x3da538c7	0.0806747
149	0xbcbf671c	-0.023364596
150	0xba3ef18b	-0.00072839175
151	0x3d84c5cb	0.064830385
152	0xbdacddd9	-0.084407516
153	0x3e16cd9e	0.14726874
154	0xbe02bf44	-0.12768275
155	0xbd62b629	-0.055349503
156	0x3d4ab79b	0.049491506
157	0x3c8e984d	0.017406607
158	0xbd5ecdf6	-0.05439564
159	0xbdc93946	-0.09825377
160	0x3d9693b7	0.07352393
161	0xbe1e9006	-0.15484628
162	0x3d110fcc	0.035415456
163	0xbcb36c7c	-0.021902315
164	0x3bc85689	0.0061138314
165	0xbe62144d	-0.22078057
166	0xbd48468a	-0.048895396
167	0xbd34d5a8	-0.04414907
168	0xbd448465	-0.047977824
169	0xbd36561a	-0.044515707
170	0x3c30abbe	0.010783134
171	0xbe284608	-0.16432965
172	0xbcfa0be2	-0.030523244
173	0xbdd576d7	-0.104230575
174	0x3d39cf89	0.045363937
175	0xbdf8bdc2	-0.121455684
176	0xbd9dd01f	-0.077057116
177	0xbd0bb0ee	-0.03410428
178	0xbd015d75	-0.03158327
179	0x3daaafb5	0.08334295
180	0xbb755a4d	-0.0037437857
181	0x3b52db18	0.0032174047
182	0x3b736550	0.0037139244
183	0x3d5d381f	0.0540086
184	0xbca023b6	-0.019548278
185	0xbdde80f8	-0.108644426
186	0x3d35887d	0.04431962
187	0xbd78a65d	-0.06070553
188	0x3c55c3c2	0.013047161
189	0x3d93665b	0.07197257
190	0xbe23b250	-0.1598599
191	0xbdef6aea	-0.11690314
192	0xbd74ebd2	-0.05979521
193	0x3c1edc3c	0.009696063
194	0x3cdc917c	0.026924841
195	0xbd08f98c	-0.03344111
196	0xbd848f39	-0.0647263
197	0xbec630bc	-0.38709056
198	0xbe52bb45	-0.2057925
199	0xbc8219ca	-0.015881438
200	0xbb6ef7b0	-0.0036463551
201	0xbe4f65cb	-0.20253675
202	0x3c169f39	0.009193235
203	0xbe074915	-0.13211472
204	0xbdd2563c	-0.10270354
205	0xbebd337e	-0.36953348
206	0xbd8b7453	-0.068092965
207	0xbda50ebf	-0.08059453
208	0xbc6c8b34	-0.0144374855
209	0xbd5078aa	-0.050896324
210	0xbccda9d3	-0.025105393
211	0xbbca4116	-0.0061723096
212	0x3d32c0e3	0.043640982
213	0xbed01d06	-0.40647143
214	0x3d86c61d	0.06580756
215	0x3c6374a1	0.013882787
216	0xbcd2c1a5	-0.025727103
217	0x3e8e3c13	0.27780208
218	0xbc800f16	-0.015632194
219	0x3dc37b5b	0.095450126
220	0xbdfed382	-0.12442686
221	0xbeaaf005	-0.33386245
222	0xbe0e6753	-0.13906603
223	0xbd564f2b	-0.052321594
224	0x3cf5f47a	0.030023802
225	0xbde2b9e4	-0.11070612
226	0x3e47f467	0.19526826
227	0xbda72f94	-0.08163372
228	0xbb4b46ed	-0.0031017617
229	0xbd5635ac	-0.05229728
230	0xbcc6bdd4	-0.024260439
231	0xbceb99e9	-0.028759914
232	0xbda757fb	-0.08171078
233	0x3d09073f	0.033454176
234	0xbe12cde7	-0.14336358
235	0xbdd381b2	-0.10327472
236	0xb9462576	-0.00018896707
237	0xbe493297	-0.19648205
238	0x3c12a3c0	0.008950174
239	0x3b6bd8e5	0.0035987434
240	0xbe3d6f28	-0.18499434
241	0xbea1fe1a	-0.31639177
242	0xbda160bb	-0.07879778
243	0xbdef3491	-0.11679948
244	0x3e1f9b4d	0.15586586
245	0xbe994c0b	-0.2994083
246	0xbc69fe6b	-0.014281849
247	0xbd265a27	-0.04061332
248	0xbdb7548a	-0.089516714
249	0xbe141089	-0.14459433
250	0x3e0c3d29	0.13695206
251	0xbaafafa9	-0.0013403791
252	0xbe846cf9	-0.2586439
253	0x3dfa874d	0.12232838
254	0xbd13b1ed	-0.036058355
255	0xbca17dce	-0.019713309

network_body.linear_encoder.seq_layers.2.bias f4 [256]
0	0xbe0f7e38	-0.14012992
1	0x3e430014	0.19042999
2	0x3dd3a611	0.10334409
3	0xbe9f9950	-0.31171656
4	0xbebe099e	-0.37116712
5	0x3b13908c	0.0022516577
6	0x3c0bf27a	0.008541698
7	0x3dc6fd2d	0.09716258
8	0x3e2fb665	0.17159422
9	0xbdafbbee	-0.085807666
10	0xbe584e10	-0.21123528
11	0x3db37e0c	0.08764276
12	0xbe255f4f	-0.16149639
13	0x3aaacd85	0.001303122
14	0xbd2a0e3c	-0.04151748
15	0xbdecc56b	-0.11561092
16	0xbdff04e9	-0.124521084
17	0xbda80958	-0.08204907
18	0xbdae1f88	-0.08502108
19	0xbd1daf4b	-0.03849725
20	0xbe7d803e	-0.24755952
21	0xbdddcd08	-0.10830122
22	0xbbe696ce	-0.0070370203
23	0x3da9d418	0.08292407
24	0xbe578537	-0.21046911
25	0xbe9dc7b9	-0.3081644
26	0x3d75cdfb	0.06001089
27	0x3d079646	0.033102296
28	0xbe98b54b	-0.29825816
29	0x3dd7a1d6	0.10528915
30	0x3e883d3d	0.2660922
31	0xbcd73d60	-0.026274383
32	0xbc2a95e0	-0.01041171
33	0xbe6684b9	-0.22511567
34	0xbd1216fc	-0.03566645
35	0xbebce7f3	-0.36895713
36	0xbe90d9d7	-0.282912
37	0xbc4ac457	-0.012375913
38	0x3d162ee2	0.036665805
39	0xbdc06570	-0.09394348
40	0xbd276190	-0.040864527
41	0xbecbfc3d	-0.3984088
42	0xbe12fbad	-0.14353819
43	0x3d023347	0.031787183
44	0x3d0c17c8	0.034202367
45	0x3cb5812a	0.022156317
46	0x3e044527	0.12917005
47	0x3e9c1abc	0.30489147
48	0xbec2ce3c	-0.3804797
49	0xbdea5c36	-0.11443369
50	0xbe2f297d	-0.1710567
51	0xbe6fc303	-0.23414235
52	0xbc5f07f6	-0.013612738
53	0xbd87c69a	-0.06629677
54	0x3e199ce3	0.15001254
55	0xbe7f0d04	-0.24907309
56	0xbe6ca4d4	-0.23109752
57	0xbe6995be	-0.22811028
58	0x3cc1c458	0.023653194
59	0xbcc68134	-0.02423153
60	0xbd591c7c	-0.05300568
61	0x3d978743	0.07398846
62	0x3d28c52c	0.041203663
63	0x3db5781b	0.08860799
64	0xbe829e9a	-0.25511628
65	0x3d0d14e3	0.034443747
66	0x3d1c12bc	0.038103804
67	0xbe889e75	-0.26683393
68	0x3e4aa464	0.19789273
69	0xbe216826	-0.15762386
70	0x3d4879f1	0.048944417
71	0x3e8275d6	0.25480527
72	0xbea04fd9	-0.3131092
73	0xbe095326	-0.13410625
74	0x3d708add	0.05872618
75	0xbc9962e5	-0.018723914
76	0x3d4d4657	0.05011591
77	0xbdf82369	-0.12116129
78	0x3e37caa6	0.17948398
79	0xbecbfad0	-0.39839792
80	0x3d87d6f4	0.06632796
81	0xbd3e381e	-0.046440236
82	0xbe1db326	-0.15400371
83	0x3dea75a5	0.1144822
84	0xbe3ab013	-0.1823123
85	0xbe606f1d	-0.21917386
86	0xbd93fa41	-0.072254665
87	0xbd9923c9	-0.074775286
88	0x3cc7d63d	0.024394149
89	0xbd93d050	-0.07217467
90	0x3e4c6753	0.1996129
91	0x3e7ebae7	0.24875985
92	0xbe18fec1	-0.14940931
93	0xbe8a31c1	-0.26991084
94	0xbd7792b1	-0.06044263
95	0x3d64aa90	0.055826724
96	0xbe40a139	-0.18811502
97	0xbc89627a	-0.01677059
98	0xbe96c5d8	-0.29447818
99	0x3cb5ca67	0.02219124
100	0x3d2f0570	0.042729795
101	0xbcc0a4f9	-0.023516165
102	0x3eb017f3	0.34393272
103	0x3c9e5bf7	0.019330962
104	0xbe3964b9	-0.18104829
105	0x3e00d77f	0.12582205
106	0xbd65f015	-0.056137163
107	0xbdf8a40a	-0.12140663
108	0x3d5b2091	0.053497855
109	0x3e545f86	0.20739564
110	0xbd1eb562	-0.0387472
111	0x3c623c4a	0.013808319
112	0xbe788c66	-0.24272308
113	0xbd6e40d6	-0.0581673
114	0xbe4e7b80	-0.20164299
115	0xbebedbb5	-0.37276998
116	0xbdb364da	-0.0875947
117	0x3cc6da1a	0.02427392
118	0x3c5f1b4e	0.01361735
119	0xbd6b8a8b	-0.05750517
120	0x3c45a743	0.012063804
121	0xbe8cd4df	-0.27506158
122	0xbdc7536f	-0.097327106
123	0x3d830518	0.06397456
124	0xbe5687e6	-0.20950279
125	0xbd84a830	-0.06477392
126	0xbde87cd1	-0.11351932
127	0x3d508b37	0.050914016
128	0x3d9a2172	0.075259104
129	0xbd4de93a	-0.05027125
130	0xbe9a9a6d	-0.30195943
131	0x3e8ca0d7	0.2746646
132	0x3c8f47c1	0.01749027
133	0xbddd2f0d	-0.1079999
134	0x3de4d4f1	0.11173428
135	0xbee0982c	-0.43866098
136	0xbd2a38c8	-0.041558057
137	0x3b449532	0.0029996154
138	0x3e15f71d	0.14645047
139	0xbb8a13cb	-0.0042137853
140	0x3e6f9f31	0.2340057
141	0xbd867885	-0.06565956
142	0xbd9cf699	-0.07664222
143	0x3d1578a8	0.03649202
144	0x3e324815	0.1741031
145	0xbd78e903	-0.060769092
146	0xbe44e5cf	-0.1922829
147	0xbea6e49c	-0.3259629
148	0x3e6b3889	0.22970785
149	0xbf066417	-0.52496475
150	0x3dbca9b0	0.09212053
151	0xbe8ed395	-0.278958
152	0xbe88c176	-0.267101
153	0xbe878b59	-0.264735
154	0x3b9986d1	0.004685261
155	0xbe8ced69	-0.2752488
156	0xbe7e88c7	-0.24856864
157	0xbe85a2cf	-0.26100776
158	0x3db106c5	0.08643869
159	0xbdebf599	-0.115214534
160	0xbe29a060	-0.16565084
161	0x3e1b66f2	0.1517599
162	0xbe157288	-0.14594471
163	0xbdd10434	-0.1020588
164	0xbdc424b1	-0.09577311
165	0xbddb315b	-0.10702773
166	0xbe86eecd	-0.26354066
167	0xbdf92160	-0.12164569
168	0x3e8d0283	0.2754098
169	0x3c9768d0	0.018482596
170	0xbe92430f	-0.28566787
171	0xbe4470a6	-0.19183597
172	0xbeb4d172	-0.35316044
173	0xbe8d2fed	-0.27575627
174	0xbae044a9	-0.0017110306
175	0xbca52a04	-0.020161636
176	0x3e8ccd55	0.27500406
177	0x3d8acab3	0.06776943
178	0xbe1d0216	-0.15332827
179	0x3db9817a	0.09057899
180	0xbddab094	-0.10678211
181	0xbdcf1705	-0.101118125
182	0x3d3d39b2	0.0461976
183	0xbddc67f7	-0.10762017
184	0x3c43d21d	0.01195195
185	0x3e917471	0.2840915
186	0xbb535e59	-0.003225228
187	0x3e4f9035	0.20269854
188	0xbdf9880b	-0.12184151
189	0x3de5bccf	0.11217653
190	0xbda0e46d	-0.07856069
191	0x3d5284d7	0.051396217
192	0xbc85ed2a	-0.01634844
193	0xbd8f2e35	-0.06991235
194	0xbe37c3bc	-0.1794576
195	0xbdc053d5	-0.0939099
196	0x3deb8082	0.1149912
197	0x3e30bb70	0.17259002
198	0xbed36258	-0.41285968
199	0xbe87fd0d	-0.2656025
200	0x3d3ea1af	0.046540912
201	0xbd4a5cf5	-0.049405057
202	0xbe9a73eb	-0.30166563
203	0xbd8eccd1	-0.069726594
204	0xbe87a22a	-0.2649091
205	0xbe9fe52c	-0.31229532
206	0x3d98599e	0.07438968
207	0x3d940d86	0.07229142
208	0xbd940d50	-0.07229102
209	0xbe6d9d4c	-0.23204535
210	0xbc1e9b57	-0.009680591
211	0x3da36bf3	0.07979574
212	0x3e38f3f0	0.18061805
213	0x3d840d5e	0.06447862
214	0xbe84713a	-0.25867635
215	0xbda9cd30	-0.082910895
216	0x3da0ae77	0.078457765
217	0xbdff4e98	-0.124661624
218	0x3e3b88d4	0.18313915
219	0xbed3d9d6	-0.41377133
220	0xbe74b811	-0.23898341
221	0xbe008b9c	-0.12553257
222	0xbdab0444	-0.08350423
223	0xbe8914d8	-0.26773715
224	0x3e390ab5	0.1807049
225	0xbddc611c	-0.1076071
226	0xbefe267a	-0.4963873
227	0xbeaba797	-0.33526298
228	0xbe874f6f	-0.2642779
229	0x3e55e12a	0.20886675
230	0xbe6ac9a9	-0.2292849
231	0x3deda8e6	0.116044804
232	0x3e04c662	0.12966302
233	0xbeb8d829	-0.36102417
234	0xbe6466cb	-0.22304837
235	0x3d48af1e	0.04899513
236	0xbd647437	-0.055774894
237	0x3ef0b9c4	0.47016728
238	0x3e88aeff	0.2669601
239	0x3ca837cd	0.02053442
240	0xbe3b23b4	-0.18275338
241	0x3e389adf	0.18027829
242	0x3e3ffd09	0.18748869
243	0xbebfab22	-0.3743525
244	0xbe8c2391	-0.27370885
245	0x3c8a4979	0.016880738
246	0xbd01d9ab	-0.031701725
247	0x3d176161	0.036958102
248	0xbec784fd	-0.3896865
249	0xbd656d5b	-0.056012493
250	0xbddbc9b0	-0.10731828
251	0xbc967968	-0.018368438
252	0xbe116dc2	-0.14202026
253	0x3dbe1aae	0.092824325
254	0x3db77985	0.08958725
255	0x3e18ef1f	0.14934967

network_body.linear_encoder.seq_layers.2.weight f4 [256, 256]
0	0xbf33991d	-0.7015551
1	0x3d99fce2	0.07518937
2	0xbc504e52	-0.0127139855
3	0x3e2f82f2	0.17139795
4	0xbc18c816	-0.009325048
5	0x3e5cb261	0.21552421
6	0xbc8d2ef9	-0.017234312
7	0x3e0b0dd0	0.13579488
8	0x3e57e950	0.21085095
9	0x3d9e7579	0.0773725
10	0xbc4ab69e	-0.012372641
11	0x3e0b4e29	0.13604034
12	0x3e60f768	0.21969378
13	0x3e169a9b	0.14707415
14	0xbe456487	-0.1927663
15	0x3e9c6979	0.3054922
16	0x3e38aff2	0.18035868
17	0x3a758764	0.0009366183
18	0x3e735403	0.23762517
19	0x3e1f6553	0.15565996
20	0xbe27ccaf	-0.16386674
21	0x3e6efd97	0.23338924
22	0x3e2e3e64	0.17015988
23	0x3e49313d	0.19647689
24	0x3e38260a	0.17983261
25	0x3e2bfa62	0.16794732
26	0xbe521755	-0.20516713
27	0x3d3c7905	0.04601385
28	0x3e9765fb	0.29569992
29	0x3e19df24	0.15026528
30	0x3e06881e	0.13137862
31	0x3e88025b	0.26564297
32	0x3c622218	0.013802074
33	0x3e486249	0.19568743
34	0x3e8897bf	0.26678273
35	0x3ddc9f3e	0.107725605
36	0xbe9218cc	-0.28534544
37	0xbe4240f2	-0.18970087
38	0x3e6d17ed	0.23153658
39	0x3e9f409a	0.31103975
40	0x3e62459d	0.22096868
41	0xbc57724c	-0.013149809
42	0x3d9d767f	0.07688617
43	0x3e8b0de8	0.27159047
44	0x3dd131c9	0.10214574
45	0xbe84de4c	-0.2595085
46	0xbd914689	-0.07093532
47	0x3e08f0aa	0.13373056
48	0xbdd0ec39	-0.10201306
49	0x3e89118a	0.26771194
50	0x3dedaa48	0.11604744
51	0xbd8a933a	-0.067663625
52	0x3d008288	0.031374484
53	0x3c5c278c	0.013437163
54	0x3e28f482	0.16499522
55	0x3e440e53	0.1914609
56	0x3e2b1820	0.16708422
57	0x3e4fe664	0.20302731
58	0x3dd8d830	0.105881095
59	0x3e1a606f	0.15075849
60	0x3e295d25	0.16539438
61	0xbd8b7c6b	-0.0681084
62	0xbe479ecb	-0.19494168
63	0xbe217bdb	-0.15769903
64	0x3d3b3ae8	0.045710474
65	0xbb9e6d89	-0.004834835
66	0x3d03d133	0.03218193
67	0x3ca1305f	0.019676385
68	0x3e6c25aa	0.23061243
69	0x3d4677ae	0.04845398
70	0x3d15f315	0.036608774
71	0x3daeacb4	0.08529034
72	0xbd542020	-0.05178845
73	0x3e7042b7	0.2346295
74	0xbd8c4d6a	-0.06850703
75	0x3e1f8ee3	0.1558185
76	0x3dae5844	0.08512929
77	0x3e7da4f4	0.24769956
78	0x3c9a5f68	0.018844321
79	0x3d99650f	0.074899785
80	0x3e376dee	0.17913029
81	0x3eac293e	0.33625215
82	0x3db10960	0.08644366
83	0x3da50ab7	0.08058684
84	0xbdeee1a8	-0.11664134
85	0xbeb3538d	-0.35024682
86	0x3d6cc775	0.057807405
87	0xbdc3f8b0	-0.09568918
88	0xbd67718f	-0.056504782
89	0xbe6604cc	-0.22462767
90	0x3db7ebc9	0.08980519
91	0xbd6c55b5	-0.057698924
92	0xbdea03f7	-0.114265375
93	0x3e66f1bc	0.22553152
94	0x3dffdbd5	0.124931015
95	0xbc45cc03	-0.012072566
96	0x3cdbbdf4	0.026823975
97	0xbeec855f	-0.46195504
98	0x3d9b940b	0.07596596
99	0x3eae54cc	0.3404907
100	0xbcd8bfe0	-0.02645868
101	0xbe621176	-0.22076973
102	0x3d89c5b2	0.067271605
103	0x3dc543db	0.09632083
104	0x3dbee3a0	0.0932076
105	0x3d26ba39	0.04070494
106	0x3d17b8ce	0.037041478
107	0xbd3c600b	-0.04599003
108	0x3d925995	0.07145993
109	0x3d275a0f	0.04085737
110	0x3db03551	0.08603919
111	0xbd18a848	-0.03726986
112	0xbe2229e1	-0.15836288
113	0x3a40be49	0.00073525734
114	0x3e6e2121	0.23254825
115	0xbf04d60d	-0.51889116
116	0xbdeb369d	-0.11485026
117	0x3e30bfa9	0.17260613
118	0x3c65ca61	0.014025302
119	0x3f025fa8	0.5092721
120	0x3e2381d8	0.159675
121	0xbc1f1580	-0.009709716
122	0x3dc3a4a9	0.09552891
123	0xbe26ac5e	-0.1627669
124	0x3e839d3b	0.25705895
125	0x3c83bf97	0.016082568
126	0x3dd4ff06	0.10400204
127	0xbda2d824	-0.07951382
128	0x3e359597	0.17732845
129	0xbe4baa3d	-0.1988916
130	0x3daf286a	0.0855263
131	0x3d3cdfdd	0.04611193
132	0x3dee8ec5	0.11648325
133	0x3de217fb	0.1103973
134	0xbeaa2b60	-0.33236217
135	0x3e4f43ba	0.2024068
136	0x3d641685	0.05568554
137	0x3e3c7ed3	0.18407755
138	0xbea9c30c	-0.3315662
139	0x3e056878	0.13028133
140	0xbe3586f0	-0.17727256
141	0x3b797ef7	0.0038070062
142	0xbe4f4730	-0.20242
143	0xbc1bbff5	-0.009506215
144	0x3e33ad59	0.17546596
145	0x3e0297f7	0.12753282
146	0xbc6337ec	-0.013868313
147	0xbe140f9d	-0.14459081
148	0x3e49ebef	0.19718908
149	0x3dc9c676	0.098523065
150	0x3e329798	0.17440641
151	0x3c97e51e	0.018541869
152	0x3ecb7898	0.39740443
153	0xbd425f15	-0.04745396
154	0x3ced9adb	0.029004505
155	0xbde61ff4	-0.11236563
156	0xbdc9fc94	-0.098626286
157	0x3e77cf96	0.24200282
158	0xbd0a1d0c	-0.033719108
159	0x3dd443c4	0.10364488
160	0x3e5a0b51	0.2129338
161	0xb9b1db9d	-0.00033923695
162	0x3d88b7c9	0.06675679
163	0xbc94bed4	-0.0181574
164	0x3da46c22	0.08028437
165	0xbbd81d63	-0.0065953
166	0x3cf6ed3e	0.030142423
167	0x3e06194c	0.13095587
168	0xbe2e08bf	-0.16995524
169	0x3e3bf12b	0.18353717
170	0x3db9d67d	0.090741135
171	0x3e0a8b56	0.13529715
172	0xbe23224d	-0.15931053
173	0x3cc4c422	0.024019305
174	0xbdb7dec6	-0.089780375
175	0xbd1a2906	-0.03763678
176	0x3cc5932a	0.024118025
177	0xbf212c7b	-0.62958497
178	0x3eb6da53	0.35713443
179	0x3de7a92e	0.11311565
180	0xbe104a3e	-0.14090821
181	0x3e2f759b	0.17134707
182	0x3e054243	0.13013558
183	0x3d2d6082	0.042328365
184	0x3e5acf2a	0.2136809
185	0x3eb88de6	0.3604576
186	0xbd9173a5	-0.071021356
187	0x3c63151b	0.013860012
188	0xbe6b2528	-0.22963393
189	0x3e6d6118	0.2318157
190	0xbc4a03c4	-0.012329999
191	0xbed46a08	-0.41487145
192	0x3e2f27c2	0.1710501
193	0x3e99b943	0.30024156
194	0xbd9ad98a	-0.075610235
195	0x3e6e29c8	0.23258126
196	0x3e68118c	0.22662944
197	0x3dafd1aa	0.08584912
198	0x3e67787e	0.22604558
199	0x399dca1f	0.00030095965
200	0xbcc03f4a	-0.023467679
201	0x3d3edc1c	0.04659663
202	0x3e4b3a6f	0.1984651
203	0xbd3008c4	-0.04297711
204	0xbe0b5e76	-0.13610253
205	0xbe0222f9	-0.12708654
206	0x3ea226d3	0.31670246
207	0x3d2bb23e	0.041918032
208	0xbda11bf3	-0.07866659
209	0x3d4440c5	0.04791333
210	0x3e806ebb	0.2508448
211	0x3dd3cf7b	0.10342308
212	0xbdfdcdd6	-0.12392776
213	0xbf05fd01	-0.5233918
214	0x3df791df	0.120883696
215	0x3ebb001c	0.3652352
216	0x3dd94c4b	0.10610255
217	0xbf00fc26	-0.5038475
218	0xbc51b7b9	-0.012800151
219	0x3de027a7	0.10945063
220	0xbb909d86	-0.0044133095
221	0x3e9867b2	0.29766613
222	0xbeefa97e	-0.46809
223	0x3e0070f8	0.12543094
224	0xbe425fad	-0.1898181
225	0x3e3e8c0b	0.1860811
226	0x3d5e35b6	0.05425044
227	0x3ecbdf91	0.39819005
228	0x3cc3c9c2	0.023899917
229	0x3dacdeba	0.08440919
230	0x3e4e688e	0.20157072
231	0x3e4bc7ab	0.19900386
232	0x3e0bad1e	0.13640258
233	0xbc2ab738	-0.010419659
234	0xbe996e98	-0.2996719
235	0x3da7ccc8	0.08193356
236	0x3dbecbaf	0.09316193
237	0x3db8948f	0.0901271
238	0xbe0bd15c	-0.13654083
239	0xbe4be15a	-0.19910184
240	0x3e7aaeb2	0.24480703
241	0xbe4ddc82	-0.20103648
242	0xbe22bf98	-0.158934
243	0x3df411b6	0.119174406
244	0x3da1b575	0.07895938
245	0x3e3330ce	0.17499086
246	0x3d9bd06e	0.07608114
247	0xbf1e3c61	-0.6181088
248	0x3e6370da	0.22211018
249	0x3d0d21b4	0.03445597
250	0x3eb3ca52	0.35115296
251	0xbec02beb	-0.37533507
252	0x3ddf32b1	0.108983405
253	0x3d7b056c	0.061284468
254	0x3d10508c	0.035233065
255	0xbe096ebb	-0.13421147

network_body.linear_encoder.seq_layers.4.bias f4 [256]
0	0xbe8d7556	-0.27628583
1	0x3c8a8c97	0.016912742
2	0xbde07bde	-0.10961126
3	0x3decd99b	0.115649424
4	0x3d1b5962	0.03792704
5	0xbe4f55aa	-0.20247522
6	0xbe0eb06b	-0.13934486
7	0xbe7081d4	-0.23487025
8	0xbe23f8da	-0.16012898
9	0xbd8e2641	-0.0694089
10	0x3a34cfc4	0.00068974146
11	0xbdc8b992	-0.0980102
12	0xbe860db8	-0.26182342
13	0xbd2edbe6	-0.04269018
14	0xbe9b6e33	-0.30357513
15	0xbea38752	-0.3193918
16	0xbe324a3c	-0.1741113
17	0xbe5aa691	-0.21352603
18	0xbe2e85da	-0.17043248
19	0xbecebf39	-0.40380266
20	0xbeb784ae	-0.35843414
21	0xbefe6ec6	-0.49693888
22	0xbd1e44fb	-0.038640004
23	0xbec01a8e	-0.3752026
24	0xbf02841f	-0.5098285
25	0xbd40252d	-0.046910454
26	0xbf05a03c	-0.52197623
27	0xbe38275c	-0.17983764
28	0xbef80fda	-0.48449594
29	0x3d3c9613	0.04604156
30	0xbe818770	-0.25298643
31	0xbd34c577	-0.04413363
32	0xbd9db96d	-0.07701383
33	0xbed6c17c	-0.41944492
34	0xbda8c20e	-0.08240138
35	0xbdadbd5e	-0.084833845
36	0xbe4ed2a0	-0.20197535
37	0xbda195bf	-0.0788989
38	0x3cc0f73a	0.023555387
39	0xbc9e6095	-0.019333163
40	0x3e4c5599	0.19954528
41	0xbe79dbad	-0.24400206
42	0xbe0741a8	-0.1320864
43	0xbea3cd24	-0.31992447
44	0xbe958bb1	-0.2920814
45	0xbe9c6e9e	-0.30553144
46	0xbdf24f39	-0.11831517
47	0xbe45d601	-0.19319917
48	0xbd2e889e	-0.042610757
49	0xbe11f616	-0.1425403
50	0x3e30381d	0.17208906
51	0xbe52280d	-0.2052309
52	0xbe55dcd2	-0.20885018
53	0xbe5de822	-0.21670583
54	0xbdceef6c	-0.1010426
55	0xbc9e2f9a	-0.019309808
56	0xbea52873	-0.32257423
57	0xbe08307c	-0.13299745
58	0xbe71b843	-0.23605447
59	0xbf0043bb	-0.5010335
60	0xbec90fc5	-0.39269844
61	0xbe51b09a	-0.20477524
62	0xbdd382fb	-0.10327717
63	0xbdf9f2d7	-0.12204521
64	0xbeefd123	-0.46839246
65	0x3c4b2d3d	0.012400922
66	0xbe168a04	-0.14701086
67	0xbe43583d	-0.19076629
68	0xbe798cb3	-0.24370079
69	0xbd9bd98a	-0.07609852
70	0xbe48928d	-0.19587155
71	0xbe669455	-0.22517522
72	0xbebc4a93	-0.36775646
73	0xbe928d97	-0.2862365
74	0xbe8865f6	-0.2664029
75	0x3db79384	0.08963683
76	0xbf029619	-0.5101028
77	0xbf00341b	-0.50079507
78	0xbe85390a	-0.2602008
79	0xbe49f5e5	-0.19722708
80	0xbcd4800c	-0.025939964
81	0xbe149b38	-0.14512336
82	0xbe1ac7ce	-0.15115282
83	0xbe35a3c2	-0.1773825
84	0xbe38b2bd	-0.18036933
85	0xbbb2c922	-0.005456106
86	0xbdecb218	-0.11557406
87	0xbe1d6d0c	-0.1537363
88	0x3db10b8d	0.08644781
89	0x3c3f5296	0.011677405
90	0xbe0dce80	-0.13848305
91	0xbee140bc	-0.439947
92	0xbd25ff4a	-0.040526666
93	0xbc2f4954	-0.010698635
94	0xbe62056e	-0.22072384
95	0xbf01d8ad	-0.50721246
96	0xbcaa9e40	-0.020827413
97	0xbc491e1f	-0.012275248
98	0xbe7464ae	-0.23866531
99	0xbe8693b8	-0.26284575
100	0xbd650812	-0.0559159
101	0xbe095843	-0.13412575
102	0xbe141e78	-0.14464748
103	0xbe2531a6	-0.1613222
104	0xbf12f999	-0.57412106
105	0x3de3626a	0.11102755
106	0xbd7cd379	-0.061725114
107	0xbe07ba54	-0.13254672
108	0xbcec3367	-0.028833104
109	0xbd2d883d	-0.042366255
110	0xbde93d79	-0.11388678
111	0xbe9564cf	-0.29178473
112	0xbe87352e	-0.2640776
113	0xbeac8e1e	-0.33702177
114	0xbe8e9546	-0.27848262
115	0xbe87c9ce	-0.26521152
116	0xbcec3f02	-0.028838638
117	0xbde43568	-0.11142999
118	0xbea3ce76	-0.31993455
119	0xbe660f5e	-0.224668
120	0xbe9cb4bb	-0.30606636
121	0xbecb61a4	-0.3972293
122	0xbea2c304	-0.3178941
123	0xbeaaafec	-0.33337343
124	0xbe467421	-0.19380237
125	0xbdfbad54	-0.12288919
126	0xbd77f097	-0.06053218
127	0xbe927cae	-0.28610748
128	0xbe17e260	-0.14832449
129	0xbe4a4bcc	-0.19755477
130	0xbea64507	-0.3247454
131	0xbdfeb3f6	-0.124366686
132	0xbc80413c	-0.015656106
133	0xbe685392	-0.2268813
134	0xbebe7be2	-0.3720389
135	0xbe186569	-0.14882435
136	0xbde3c574	-0.111216456
137	0xbe87b3be	-0.2650432
138	0xbe54582a	-0.20736757
139	0xbe90fab7	-0.2831628
140	0xbe3c3dce	-0.18382952
141	0xbe68094a	-0.22659793
142	0x3cbfcaeb	0.023412189
143	0xbe511986	-0.20419893
144	0xbe44541c	-0.1917271
145	0xbe0e7fc3	-0.13915925
146	0xbd1cb48e	-0.038258128
147	0xbd83f94a	-0.064440325
148	0xbcf8b05c	-0.030357532
149	0xbe0d1b0b	-0.13779847
150	0xbea2117e	-0.3165397
151	0xbe15276f	-0.14565824
152	0xbe86b640	-0.2631092
153	0x3d979b43	0.07402661
154	0xbe2e8629	-0.17043366
155	0xbd5d5615	-0.054037172
156	0xbd6968bd	-0.05698465
157	0x3e1d1409	0.15339674
158	0x3d3ced94	0.04612501
159	0xbe0d09d4	-0.1377328
160	0x3d2d1969	0.04226056
161	0xbe9893a3	-0.29800138
162	0x3b30106e	0.0026865262
163	0xbdc94e9e	-0.09829448
164	0xbe4d1b6d	-0.20029993
165	0xbe7a02a8	-0.24415076
166	0xbebfe1a9	-0.37476853
167	0xbecffa7c	-0.40620792
168	0xbe7ceaa7	-0.24698888
169	0x3b92710f	0.004469044
170	0xbde870a3	-0.11349609
171	0xbe6cea0a	-0.23136154
172	0xbe1c8989	-0.1528684
173	0xbe91631f	-0.28395936
174	0xbead5eb1	-0.33861306
175	0xbed29907	-0.41132376
176	0xbe503746	-0.20333585
177	0xbe0701bb	-0.13184254
178	0xbe97cae6	-0.29646987
179	0xbe445285	-0.19172104
180	0x3da81896	0.082078144
181	0x3e9890ea	0.2979806
182	0xbe13448c	-0.14381617
183	0x3e869a26	0.2628948
184	0xbdc26309	-0.09491546
185	0xbe0ae945	-0.13565548
186	0xbd8e4a9f	-0.069478266
187	0xbea116b6	-0.3146264
188	0xbe0ba495	-0.13637002
189	0xbd5a8050	-0.053345025
190	0x3d83ca2e	0.06435047
191	0x3df7ada3	0.120936655
192	0xbe98c86a	-0.29840404
193	0xbe3868d8	-0.18008745
194	0xbeb76f15	-0.35826936
195	0xbe4a7a2a	-0.19773164
196	0xbe650179	-0.22363843
197	0xbe82fbbb	-0.2558268
198	0xbe41cca1	-0.18925716
199	0xbe80621a	-0.25074846
200	0xbed96460	-0.42459393
201	0xbe39111d	-0.18072934
202	0xbe45d472	-0.19319323
203	0xbda97d3d	-0.082758404
204	0xbe8fb5be	-0.28068346
205	0x3db47497	0.088113
206	0x3cb0d9d7	0.02158825
207	0xbea7c9d4	-0.3277117
208	0xbdf4706e	-0.11935507
209	0xbdba127a	-0.090855554
210	0xbe75987c	-0.2398395
211	0xbeb963e6	-0.3620903
212	0xbdf617e7	-0.12016278
213	0xbe741c4c	-0.2383892
214	0xbe899112	-0.26868492
215	0xbef07f03	-0.46971902
216	0xbebbcc53	-0.36679325
217	0x3b0e2667	0.002169037
218	0xbe30184b	-0.17196767
219	0xbdd47c1c	-0.103752345
220	0xbd5c9309	-0.05385116
221	0xbde05d86	-0.10955338
222	0x3bbd55c6	0.0057780473
223	0xbe63874b	-0.22219579
224	0xbeaa87c1	-0.33306697
225	0xbe85941b	-0.26089558
226	0xbddd8aaa	-0.10817464
227	0xbed91f42	-0.4240666
228	0xbe65f2d5	-0.22455914
229	0xbe085f92	-0.13317707
230	0x3d047cb9	0.032345507
231	0xbd18b9a3	-0.037286412
232	0xbc0342f2	-0.0080115665
233	0xbe0992da	-0.13434926
234	0xbdcdb208	-0.100437224
235	0xbeb6e869	-0.3572419
236	0xbdfc2b85	-0.12312988
237	0xbe62755b	-0.2211508
238	0xbe6e518c	-0.23273295
239	0xbf24e1c0	-0.6440697
240	0xbe8b7da2	-0.27244288
241	0xbd714b07	-0.058909442
242	0xbe7dac52	-0.24772766
243	0xbeaa1044	-0.33215535
244	0xbdf32913	-0.11873069
245	0xbed3d8b5	-0.41376272
246	0xbed33317	-0.41249916
247	0xbe8b208b	-0.27173266
248	0xbde233d1	-0.110450394
249	0xbed93113	-0.42420253
250	0xbec28cfc	-0.37998188
251	0xbe9b61fd	-0.30348197
252	0xbea3e8d3	-0.32013568
253	0xbecd233f	-0.40065953
254	0xbe7c1783	-0.24618344
255	0xbeba450b	-0.363808
