Assets/ML-Agents/mla-1.0.6/results/carchase01/CarAgent.onnx (onnx, 347954 bytes, 8 tensors)

distribution.branches.0.bias f4 [3]
0.056776 -0.5415813 0.40876982
00000000: f38d 683d 12a5 0abf 474a d13e

distribution.branches.0.weight f4 [3, 256]
-0.3273164 0.16160871 -0.1883432 0.42896616 -0.18977626 -0.9620004 0.23626336 -0.22583868
-0.03570509 -0.2283521 0.12787808 0.345403 -0.49879786 0.34258196 -1.0048977 0.03435703
0.6341635 -0.077979565 0.34454328 0.24284722 -0.38621002 -0.18467194 0.19838765 -0.5029044
0.22919963 0.30806372 -0.12899558 -0.60065144 -0.26597762 0.56195563 0.67259675 0.20459843
-0.14173806 0.51217014 0.2342807 0.17032297 -0.87077045 -0.087098636 -0.109955065 -0.8459963
0.706683 -0.49994978 -0.25742084 -0.4485023 0.2702621 -0.4200508 0.14401975 -0.27355117
-0.023638172 -0.030547908 0.25986534 -0.40605363 0.57390726 0.05813652 0.09259557 0.022839021
0.72958344 -0.56907016 0.24425054 0.62082183 -0.33081797 0.12195991 0.16541953 0.43799615
0.39482 -0.6717121 0.5273586 0.26172316 0.38591957 -0.11822677 -0.7629799 0.13901772
0.5826722 -0.030598253 0.57200444 -0.2544961 -0.55263394 0.38074374 -0.18273328 -0.11924869
0.6081631 -0.0020540797 0.46044764 -0.03696278 -0.1784596 -0.4778999 -0.290413 -0.035554506
0.23940338 0.2123889 0.32754987 -0.2982677 0.36419302 -0.28435856 -0.051945306 0.2420955
0.32471356 0.34578958 -0.31527835 -0.66134983 -0.3003918 -0.59172565 -0.4659169 0.24762224
0.33488116 -0.27397197 -0.79525155 0.072482616 0.3601872 -0.3905849 0.029998269 -0.5970106
-0.47096038 -0.753641 -0.34778783 -0.570952 0.034984704 -0.27661252 -0.5081536 -0.89863026
-0.055428743 0.23356408 -0.055469085 -0.4479272 -0.37937734 -0.290868 -0.21182531 -0.042302504
-0.11053883 -0.23990543 -0.22950192 -0.90484685 -0.20696825 0.42846996 0.33997765 0.13228121
0.16736944 -0.5157454 0.2668638 -0.08446316 -0.65835476 -0.40082616 -0.07974859 -0.65031284
0.16861865 -0.45995384 -0.14517823 0.15570888 0.123593286 0.05848457 0.06925538 -0.1969165
0.4367251 0.5744724 -0.45340526 -0.72888607 0.46651262 0.6577343 0.6649531 -0.3306435
-0.6008982 -0.8283528 0.74804765 0.2118641 0.44205117 0.25327522 0.20370814 0.9616031
0.18800415 -0.6418161 -0.03355701 0.44664803 0.043288976 -0.10241016 0.025814744 -0.5814316
-0.09923205 -0.19566831 0.31353232 -0.5858358 0.17589892 0.24700414 0.5122222 0.39526108
-0.20566395 -0.16861919 0.24330331 -0.14368336 0.6507532 -0.8934854 0.12933253 0.27158168
-0.4061876 0.026425688 -0.018515551 0.36142778 0.13386482 -0.17010406 -0.39125273 0.550619
-0.061908416 0.3151741 -0.17696951 -0.71363735 0.4182379 -0.3467094 -0.13289575 0.3509168
0.61509985 -0.76322055 -0.17597878 0.3202962 -0.77747786 -0.3982406 0.8034641 -0.070376806
-0.1839076 0.25958636 0.28008747 -0.16485284 0.23380256 0.5282728 0.7250417 -0.6789303
0.44452545 -0.006055451 0.5158557 -0.5316223 -1.1327744 0.24714151 -0.02859162 0.017005397
-1.047578 0.1662062 -0.9740498 -0.0010367543 0.43538797 0.03376729 -1.0407554 0.061456043
0.20117106 0.29562777 -0.06565078 -0.88323456 0.38366407 -0.9235465 -1.2412472 -0.2687837
0.22701822 0.71861947 0.16334851 0.3636943 0.28833142 0.038838394 0.69905657 -0.28104782
00000000: 0496 a7be c17c 253e 0add 40be 74a1 db3e
00000010: b554 42be a945 76bf 06ef 713e 4142 67be
00000020: 803f 12bd 22d5 69be 79f2 023e a9d8 b03e
00000030: 6f62 ffbe e766 af3e 7da0 80bf f5b9 0c3d
00000040: 8a58 223f c0b3 9fbd fa67 b03e f1ac 783e
00000050: 52bd c5be a41a 3dbe 2226 4b3e 58be 00bf
00000060: 4fb3 6a3e 87ba 9d3e 6b17 04be 4bc4 19bf
00000070: 382e 88be 53dc 0f3f 4d2f 2c3f 4082 513e
00000080: c823 11be 951d 033f 48e7 6f3e 2569 2e3e
00000090: d0ea 5ebf c560 b2bd 1f30 e1bd 3793 58bf
000000a0: 2de9 343f 6bf9 ffbe aacc 83be 18a2 e5be
000000b0: cb5f 8a3e e610 d7be ea79 133e e60e 8cbe
000000c0: d7a4 c1bc 9b3f fabc 120d 853e 43e6 cfbe
000000d0: 96eb 123f 8f20 6e3d bfa2 bd3d e618 bb3c
000000e0: fbc5 3a3f 95ae 11bf d01c 7a3e 2eee 1e3f
000000f0: f960 a9be 1ec6 f93d bd63 293e 0841 e03e
00000100: d925 ca3e 53f5 2bbf f900 073f 9400 863e
00000110: 4097 c53e e020 f2bd a752 43bf a95a 0e3e
00000120: 012a 153f 30a9 fabc e26e 123f 504d 82be
00000130: 6b79 0dbf d8f0 c23e 6f1e 3bbe a838 f4bd
00000140: 94b0 1b3f bd9d 06bb cbbf eb3e 4966 17bd
00000150: 1dbe 36be 4caf f4be 03b1 94be 9aa1 11bd
00000160: 2926 753e 7a7c 593e 9eb4 a73e 8bb6 98be
00000170: 8277 ba3e 7297 91be 9ac4 54bd e2e7 773e
00000180: db40 a63e 550b b13e 2a6c a1be 394e 29bf
00000190: f4cc 99be 557b 17bf a98c eebe af90 7d3e
000001a0: 8b75 ab3e 0e46 8cbe 9b95 4bbf c471 943d
000001b0: 756a b83e befa c7be eebe f53c b0d5 18bf
000001c0: b821 f1be 9eee 40bf 3f11 b2be e929 12bf
000001d0: 1f4c 0f3d 28a0 8dbe 5b16 02bf a20c 66bf
000001e0: 4009 63bd 6c2b 6f3e 8d33 63bd b756 e5be
000001f0: bf3d c2be a7ec 94be bce8 58be 6445 2dbd
00000200: 2f62 e2bd c5a9 75be 8d02 6bbe 0ba4 67bf
00000210: 7cef 53be 6a60 db3e 8d11 ae3e ba74 073e
00000220: e562 2b3e e407 04bf 5fa2 883e 05fb acbd
00000230: f089 28bf 1639 cdbe 3b53 a3bd e77a 26bf
00000240: 5eaa 2c3e 127f ebbe 9aa9 14be 2672 1f3e
00000250: 7a1e fd3d 848d 6f3d c4d5 8d3d 7ba4 49be
00000260: 6f9a df3e a010 133f bc24 e8be 4798 3abf
00000270: beda ee3e 4661 283f 5e3a 2a3f 1b4a a9be
00000280: 77d4 19bf ee0e 54bf 0d80 3f3f e7f2 583e
00000290: 8854 e23e 4aad 813e de98 503e 9f2b 763f
000002a0: 2984 403e 0f4e 24bf 1373 09bd 0daf e43e
000002b0: c84f 313d 6bbc d1bd 7179 d33c b4d8 14bf
000002c0: 2c3a cbbd 465d 48be 4f87 a03e 56f9 15bf
000002d0: d91e 343e a7ee 7c3e fe20 033f a95f ca3e
000002e0: 9299 52be 82aa 2cbe 8124 793e bb21 13be
000002f0: c397 263f 76bb 64bf bf6f 043e c10c 8b3e
00000300: d2f7 cfbe af7a d83c edad 97bc 100d b93e
00000310: dc13 093e c22f 2ebe 4752 c8be 5ef5 0c3f
00000320: ae93 7dbd 805e a13e 7f37 35be f0b0 36bf
00000330: 4723 d63e e583 b1be d315 08be 5eab b33e
00000340: 2f77 1d3f 6c62 43bf c833 34be ddfd a33e
00000350: ca08 47bf 31e6 cbbe d3af 4d3f b721 90bd
00000360: 4652 3cbe 81e8 843e a067 8f3e 2fcf 28be
00000370: f069 6f3e e33c 073f 559c 393f 60ce 2dbf
00000380: d798 e33e ce6c c6bb 1f0f 043f 6618 08bf
00000390: c0fe 90bf aa12 7d3e f938 eabc e74e 8b3c
000003a0: 0917 86bf f531 2a3e 545b 79bf b4e3 87ba
000003b0: 2ceb de3e 924f 0a3d 7937 85bf 55b9 7b3d
000003c0: c9ff 4d3e 865c 973e eb73 86bd a91b 62bf
000003d0: 9e6f c43e 8b6d 6cbf 30e1 9ebf 049e 89be
000003e0: 7777 683e 72f7 373f d544 273e 2436 ba3e
000003f0: 2da0 933e 0215 1f3d 5ff5 323f 80e5 8fbe

distribution.branches.1.bias f4 [3]
0.02773378 0.35855198 -0.1252359
00000000: f431 e33c 2094 b73e d73d 00be

distribution.branches.1.weight f4 [3, 256]
0.19441989 -0.11855803 -0.1004464 0.42548412 -0.29518527 0.4761463 0.08955413 0.20946154
0.69925576 -0.9830831 -0.1887118 -0.63088024 -0.14490019 -0.02993033 0.81775904 0.22330706
0.2861552 -0.2556598 -0.45565754 -0.28655607 -0.8433539 -0.7009117 -0.69934905 -0.073738694
-0.31478447 0.12629347 0.27543846 0.30732188 0.33399615 -0.5525021 -0.21787411 -0.22722384
0.34473133 0.16351257 -0.33140185 -0.13398525 -0.30253693 -0.26902986 0.44882694 -0.33679643
-0.03257721 0.5105615 0.46433154 -0.06898011 -0.34886596 -0.2161316 0.21181528 0.0157774
-0.2807113 -0.0004029153 -0.0076262853 0.17799865 0.1354259 0.11179546 0.22614726 -0.86052173
-0.10570657 0.5172786 -0.4620214 -0.38929537 0.5366033 -0.62042004 0.350639 0.11057103
0.47188908 -0.46655488 -0.27645427 0.22326767 -0.13829726 -0.15666755 -0.3603528 0.70531374
-0.9714897 0.07811185 0.36694336 -0.93642193 0.4865281 0.059211332 0.6055648 0.13094206
0.188353 0.23860155 0.39071095 -0.6157175 0.5625658 -0.27121982 -0.5060349 -0.3806206
-0.26788527 0.035244618 -0.7146961 -0.36956447 0.16564748 -0.0987162 -0.7353524 0.22302356
-0.13377672 0.24579352 -0.13251829 0.3361101 0.13378519 0.5384409 0.39338237 -0.024079794
-0.45951918 0.014594457 0.024734803 0.3461943 -0.13788936 0.5135109 0.34511822 0.24428949
0.667932 0.035332672 -0.49590755 -0.01798372 -0.5991929 0.621669 -0.47538978 -0.2825096
0.08990612 0.43476656 0.11420167 0.40404978 -0.033310767 -0.34955472 0.2548052 -0.38470566
0.35644665 0.16840634 -0.6777649 0.35724038 0.42298388 0.6066936 0.24331015 0.39166138
0.13980238 0.32442364 0.17280383 0.19112615 0.50065374 0.24276888 -0.5938331 -0.85885626
-0.088116154 -0.094069585 -0.12261905 0.34883547 0.22475868 0.64885104 0.49766496 0.56778437
0.2565127 -0.014959359 0.2863191 -0.5666983 0.0030113293 0.10210453 -0.41354048 -0.4805824
-0.46535683 -0.59613836 0.1651635 0.3652556 -0.35263333 0.3012112 0.37225196 0.12552042
-0.07201024 0.2013544 0.24642009 -0.20930262 -0.24185681 0.07794724 0.004240027 0.45354897
0.49279344 0.416224 0.122540586 0.3232 0.29941025 -0.1291994 0.03943014 0.19677146
-9.699342e-05 0.039150555 -0.19147539 -0.48890433 -0.82113427 0.304219 -1.049492 0.15466747
0.46341857 -0.98049057 0.54392725 0.03175589 -0.52637035 0.087651834 0.27435356 0.20359382
0.73514354 0.37087956 0.27300587 0.9473708 0.04606956 0.08152812 -0.31471902 -0.28066662
0.11100788 0.14975086 0.13501811 -0.97959423 -0.014725012 0.088698804 -0.15515035 -0.076121554
-0.7793949 -0.17311174 -0.0613448 -0.8328941 0.20414902 0.14319837 -0.547347 -0.47444797
-0.009922921 0.93313086 0.059477866 -0.03724333 -0.11018263 -0.53761137 -0.9112588 -0.059033945
-0.41048136 0.38155907 0.5515848 -0.18701538 -0.1962289 -0.06233631 -0.77026427 0.043534238
-0.3873442 0.2967453 -0.56200135 0.4037944 -0.047505386 -0.039369788 0.0052412273 -0.7378523
0.38586012 -0.17927478 -0.77030456 0.1571343 -0.962616 0.18237133 0.41406912 0.10275771
00000000: 0216 473e 8dce f2bd d8b6 cdbd 0ed9 d93e
00000010: 8622 97be 73c9 f33e 2868 b73d 167d 563e
00000020: 6d02 333f 56ab 7bbf ab3d 41be 5e81 21bf
00000030: b760 14be 7430 f5bc a858 513f 9baa 643e
00000040: ef82 923e d7e5 82be f24b e9be 7ab7 92be
00000050: 0be6 57bf f36e 33bf 8a08 33bf 5004 97bd
00000060: 6e2b a1be 1353 013e 4506 8d3e 4b59 9d3e
00000070: 8b01 ab3e c770 0dbf 641a 5fbe 5ead 68be
00000080: a080 b03e d76f 273e 81ad a9be 6e33 09be
00000090: 1fe6 9abe 48be 89be a5cc e53e 9570 acbe
000000a0: ae6f 05bd 29b4 023f ddbc ed3e 7245 8dbd
000000b0: 8f9e b2be 9a51 5dbe 1be6 583e 9b3f 813c
000000c0: 64b9 8fbe 603e d3b9 ebe5 f9bb 4745 363e
000000d0: 16ad 0a3e 05f5 e43d 2693 673e 274b 5cbf
000000e0: b07c d8bd 5f6c 043f 128e ecbe b951 c7be
000000f0: d55e 093f d9d3 1ebf f486 b33e 1073 e23d
00000100: 729b f13e 48e0 eebe 6a8b 8dbe 48a0 643e
00000110: cc9d 0dbe 756d 20be 2a80 b8be 718f 343f
00000120: 8db3 78bf 1bf9 9f3d 00e0 bb3e 59b9 6fbf
00000130: 361a f93e 9587 723d 4b06 1b3f ad15 063e
00000140: 9cdf 403e f753 743e 440b c83e a99f 1dbf
00000150: 5004 103f 53dd 8abe 818b 01bf b4e0 c2be
00000160: 4228 89be a95c 103d 53f6 36bf 8e37 bdbe
00000170: 7e9f 293e b82b cabd 0e40 3cbf 4a60 643e
00000180: c4fc 08be 4cb1 7b3e e0b2 07be 9f16 ac3e
00000190: fcfe 083e 43d7 093f 6a69 c93e fd42 c5bc
000001a0: 1946 ebbe 971d 6f3c a4a0 ca3c 6140 b13e
000001b0: de32 0dbe 7375 033f 56b3 b03e 0627 7a3e
000001c0: 97fd 2a3f feb8 103d 98e7 fdbe 9852 93bc
000001d0: b564 19bf b325 1f3f 4a66 f3be 19a5 90be
000001e0: b320 b83d b999 de3e 91e2 e93d 9ddf ce3e
000001f0: df70 08bd d6f8 b2be d475 823e 24f8 c4be
00000200: 2d80 b63e b672 2c3e 0082 2dbf 36e8 b63e
00000210: 5891 d83e 4650 1b3f 4c26 793e d787 c83e
00000220: 5b28 0f3e db1a a63e 7df3 303e 93b6 433e
00000230: d82a 003f 6898 783e 7205 18bf 01de 5bbf
00000240: 3e76 b4bd 8ea7 c0bd b21f fbbd 909a b23e
00000250: 2427 663e 1a1b 263f f1cd fe3e 515a 113f
00000260: a255 833e 1918 75bc 6b98 923e 2413 11bf
00000270: b959 453b 2e1c d13d 94bb d3be e50e f6be
00000280: 4043 eebe 869c 18bf 9f20 293e c802 bb3e
00000290: 5b8c b4be 5b38 9a3e cf97 be3e 6d88 003e
000002a0: 1b7a 93bd d92f 4e3e 8c55 7c3e 6d53 56be
000002b0: 50a9 77be cda2 9f3d edef 8a3b 9237 e83e
000002c0: 6c4f fc3e 501b d53e 8ff6 fa3d 787a a53e
000002d0: 4d4c 993e d94c 04be 8081 213d 757e 493e
000002e0: f268 cbb8 555c 203d 2012 44be ab51 fabe
000002f0: db35 52bf 98c2 9b3e c155 86bf 2661 1e3e
00000300: 3345 ed3e 6e01 7bbf d13e 0b3f 7712 023d
00000310: 35c0 06bf ce82 b33d 1278 8c3e e67a 503e
00000320: 5e32 3c3f ede3 bd3e 6dc7 8b3e e586 723f
00000330: 6fb3 3c3d 37f8 a63d da22 a1be 89b3 8fbe
00000340: 1958 e33d 4a58 193e 3042 0a3e b0c6 7abf
00000350: 2d41 71bc b8a7 b53d bcdf 1ebe 9ee5 9bbd
00000360: 6d86 47bf 3444 31be af44 7bbd 8c38 55bf
00000370: 710c 513e 98a2 123e ef1e 0cbf d8ea f2be
00000380: bf93 22bc aae1 6e3f 109f 733d 768c 18bd
00000390: 6ea7 e1bd e6a0 09bf 4248 69bf 94cd 71bd
000003a0: 9d2a d2be b65b c33e a934 0d3f f680 3fbe
000003b0: 3bf0 48be 5c54 7fbd 0a30 45bf f550 323d
000003c0: fb51 c6be 00ef 973e 52df 0fbf 24be ce3e
000003d0: 0295 42bd 3742 21bd 9abe ab3b e3e3 3cbf
000003e0: 758f c53e cf93 37be ae32 45bf d0e7 203e
000003f0: 016e 76bf 8dbf 3a3e de00 d43e a272 d23d

network_body.linear_encoder.seq_layers.0.bias f4 [256]
-0.16781761 -0.02713788 -0.20531246 0.005366736 -0.09594696 -0.10463542 -0.020791115 -0.30117503
1.6272084e-12 -9.918012e-06 -0.07092 -0.07031363 -0.0009583901 -0.019886566 -0.080873854 0.045959778
0.07813011 0.0037346315 -0.033103187 9.307277e-08 0.035565186 -0.21527047 -0.29454967 0.063268095
6.799108e-17 -0.20220499 -0.03516771 1.712761e-13 -0.013923755 -0.013811608 -0.07638697 -0.0514529
0.028605824 -0.19089602 -3.4535381e-09 -0.022874586 6.9051566e-05 -2.5363984e-15 -0.00044462254 -0.0788353
-0.00055771816 -0.084218375 -0.118440874 5.372033e-11 0.03620455 -1.0992981e-05 0.015065675 0.0835093
-1.0517205e-11 -0.015527165 -0.14825533 -0.09045851 -0.0578412 -0.025581822 -0.24749294 -7.912314e-10
-0.16695209 -3.36891e-05 0.08201172 -0.08814779 0.002491399 -0.21550037 0.066344485 -0.15328762
-0.26471373 -0.10533319 -0.1678824 -0.062187538 -0.06472043 -0.006274392 -0.028379196 1.1044873e-06
5.2068017e-06 -0.01367576 -3.2092448e-06 -0.05085937 -0.14398532 -0.21987586 -0.08954624 -0.050693467
0.047478102 0.017352374 -0.028398303 -3.866499e-05 -0.09973064 -0.23367526 -0.19626017 0.01200156
0.009624214 0.043978646 -2.757934e-12 -0.13092984 0.027372034 0.0546538 -0.02091848 -0.19145413
-0.091837734 -0.007843996 2.6772597e-14 0.05322773 -0.027968528 -0.108212054 -0.09981276 -0.16704953
0.067155994 -0.13237722 -0.089553975 -1.46423e-06 -0.023760771 -1.9949877e-17 0.037037816 0.01575321
-0.092389084 0.031162344 1.054155e-09 -0.061616722 -1.4820588e-05 -0.038334534 -0.12258147 0.06553509
1.077528e-12 -0.057053696 -5.3625776e-05 0.048218857 -0.0058621354 -0.015018671 -0.09529744 0.05009114
-0.24058999 -9.432512e-06 -0.00018549537 -0.36758777 -1.2894884e-13 -0.011541567 -0.23399875 8.195507e-06
3.4795088e-18 -0.26615602 -0.109402716 -0.1318641 -0.012373956 -0.09987573 4.0054738e-13 -0.21770841
0.016134901 -0.16678743 -0.022326786 -0.0028329156 4.2453856e-08 -0.17132562 -7.5961616e-05 0.032625653
-0.022433354 0.0023251027 -0.09700193 -0.21847034 -0.06936768 -0.15300137 0.0043110666 -0.091805965
7.3964884e-06 -0.16913925 -0.021543931 -0.02850523 1.3461621e-15 -0.04568816 -0.030666662 -0.07625185
-0.27905056 3.2181475e-15 4.028083e-07 0.0015768457 -0.00028954397 -0.04974283 -9.684937e-09 0.013593151
0.0008344139 -1.8535967e-08 -0.2451987 0.07853573 -0.100837514 -0.04794712 -0.13533261 0.025815697
0.007093128 -0.10477662 0.0018846525 -0.13679229 0.010913738 -0.17356221 -7.012299e-08 -0.21182847
-0.17226763 -0.09768414 -0.10367862 0.024265354 0.06808633 -0.13935935 -0.20057644 0.0037127184
-0.02782494 -0.1451589 0.04684866 -0.050256357 -0.060008038 -0.030884596 -0.07016322 3.4288296e-15
-0.14905104 -0.017446605 -0.23429477 0.029847065 -0.16669391 -0.059909143 -0.05409158 -2.7237557e-12
-0.041529335 -0.16313682 -0.13278413 -5.2680343e-07 0.0007515392 -0.0635315 0.018509932 -4.4764713e-11
-0.13863288 -1.3375199e-05 -0.017220292 -0.050206687 1.5494396e-13 0.025890231 0.004448806 -0.37224782
-8.983614e-18 -0.12162527 -6.2283357e-06 3.792831e-13 -0.20762607 -1.30028434e-14 1.7657188e-09 0.048891358
8.904861e-07 -0.2157873 -5.5360303e-20 -0.013030422 -0.00026179684 -0.008136381 -0.006392423 3.9738882e-08
-2.5219062e-08 -0.11327348 0.053981215 0.039518014 -0.023991704 0.023244107 -0.006206809 -0.007199199
00000000: 61d8 2bbe 4250 debc 6e3d 52be 72db af3b
00000010: d77f c4bd 184b d6bd 2152 aabc 9d33 9abe
00000020: 5c02 e52b 8a65 26b7 813e 91bd 9800 90bd
00000030: 793c 7bba 27e9 a2bc 31a1 a5bd 5240 3c3d
00000040: ae02 a03d b8c0 743b 3597 07bd 4cdf c733
00000050: cdac 113d dd6f 5cbe 37cf 96be b492 813d
00000060: dac6 9c24 d30e 4fbe 040c 10bd fad6 402a
00000070: 7620 64bc 154a 62bc c670 9cbd 47c0 52bd
00000080: c356 ea3c 3f7a 43be 4953 6db1 7c63 bbbc
00000090: c7cf 9038 4bc4 36a7 3a1c e9b9 6774 a1bd
000000a0: d533 12ba af7a acbd 2191 f2bd b743 6c2e
000000b0: 394b 143d 7e6e 38b7 05d6 763c ed06 ab3d
000000c0: 4805 39ad a665 7ebc 3fd0 17be 5042 b9bd
000000d0: e5ea 6cbd f890 d1bc ca6e 7dbe f67d 59b0
000000e0: 7df5 2abe 654d 0db8 c3f5 a73d d486 b4bd
000000f0: bd46 233b 21ac 5cbe 9edf 873d 6ef7 1cbe
00000100: 8f88 87be edb8 d7bd 5de9 2bbe 5cb8 7ebd
00000110: 258c 84bd 6a99 cdbb 7d7b e8bc e53d 9435
00000120: 16b6 ae36 4b10 60bc 685e 57b6 ea51 50bd
00000130: e370 13be 2327 61be 0564 b7bd f4a3 4fbd
00000140: 6678 423d 9126 8e3c 8fa3 e8bc 382c 22b8
00000150: 943f ccbd 9148 6fbe 6df8 48be 31a2 443c
00000160: e1ae 1d3c f422 343d 8612 42ac 7912 06be
00000170: 513b e03c aadc 5f3d 3b5d abbc 8d0c 44be
00000180: 6c15 bcbd 1b84 00bc 6825 f128 5205 5a3d
00000190: 411e e5bc 489e ddbd a26a ccbd 080f 2bbe
000001a0: 1589 893d e58d 07be 1368 b7bd 8f86 c4b5
000001b0: f3a5 c2bc 5101 b8a3 f7b4 173d e00c 813c
000001c0: 7d36 bdbd 2c48 ff3c c8e1 9030 d161 7cbd
000001d0: f1a5 78b7 ac04 1dbd fe0b fbbd 4337 863d
000001e0: 0aa6 972b 23b1 69bd 3dec 60b8 2381 453d
000001f0: 2817 c0bb df10 76bc 4e2b c3bd 5e2c 4d3d
00000200: 395d 76be 5540 1eb7 8981 42b9 7734 bcbe
00000210: f92e 11aa d718 3dbc 5e9d 6fbe 6f7f 0937
00000220: 085f 8022 9a45 88be 880e e0bd 6207 07be
00000230: 22bc 4abc a68b ccbd f67c e12a f4ee 5ebe
00000240: 572d 843c 53ca 2abe aae6 b6bc 70a8 39bb
00000250: 8256 3633 fc6f 2fbe 954d 9fb8 7aa2 053d
00000260: 27c6 b7bc c060 183b f3a8 c6bd b0b6 5fbe
00000270: a410 8ebd 64ac 1cbe d943 8d3b c404 bcbd
00000280: 5a2f f836 d732 2dbe e67c b0bc cd83 e9bc
00000290: 9e00 c226 8223 3bbd a738 fbbc ee29 9cbd
000002a0: b7df 8ebe 58e4 6727 8d41 d834 29ae ce3a
000002b0: efcd 97b9 23bf 4bbd ce62 26b2 cfb5 5e3c
000002c0: 92bc 5a3a 0639 9fb2 5e15 7bbe 57d7 a03d
000002d0: e683 cebd 3364 44bd a294 0abe 717b d33c
000002e0: 786d e83b 2095 d6bd 7206 f73a 4713 0cbe
000002f0: 89cf 323c 4bba 31be 8596 96b3 90e9 58be
00000300: ed66 30be 9f0e c8bd 7555 d4bd 23c8 c63c
00000310: d970 8b3d 38b4 0ebe e963 4dbe 1451 733b
00000320: 21f1 e3bc 89a4 14be 61e4 3f3d 9cd9 4dbd
00000330: fdca 75bd b101 fdbc bcb1 8fbd be12 7727
00000340: d6a0 18be 2fec 8ebc f8ea 6fbe d581 f43c
00000350: cfb1 2abe 4a63 75bd 228f 5dbd d2aa 3fac
00000360: aa1a 2abd 570d 27be 90f8 07be a869 0db5
00000370: f102 453a ce1c 82bd 24a2 973c 96e0 44ae
00000380: c7f5 0dbe 0b66 60b7 9211 8dbc 87a5 4dbd
00000390: 8e73 2e2a c017 d43c 4ac7 913b 4497 bebe
000003a0: ebb7 25a3 ab16 f9bd fffc d0b6 7584 d52a
000003b0: ee9b 54be 083d 6aa8 b5ad f230 4e42 483d
000003c0: bd09 6f35 59f7 5cbe 40b7 829f 8d7d 55bc
000003d0: c741 89b9 754e 05bc 8877 d1bb 5dad 2a33
000003e0: 4ea1 d8b2 edfb e7bd 681b 5d3d a4dd 213d
000003f0: 408a c4bc 6d6a be3c 7d62 cbbb 42e7 ebbb

network_body.linear_encoder.seq_layers.0.weight f4 [256, 73]
0.3714439 -0.21062188 -0.021637678 -0.6629854 -0.36691746 0.022459403 -0.14121139 0.09046097
0.07584006 -0.37449497 0.3834249 0.9360356 -0.3115292 -0.33306327 -0.15091386 0.3475194
0.11519505 0.11858246 -0.07507702 -0.32685354 -0.48964188 1.4002732 -0.07124871 0.3954965
0.20024592 0.031904984 1.1118319 0.15238257 -0.8046814 -0.41142738 0.034234762 1.4583172
0.10718785 -0.27608693 -0.14127108 -0.025257695 0.5308058 -0.16706017 -0.3601573 -0.21454255
-1.5883312 1.6612878 -0.15977748 0.42356968 0.19210541 -0.074832626 0.4656001 0.07169721
-0.47062445 -0.33224872 1.5133855 -1.396646 -0.024477897 -0.095965624 -2.5319068 -0.44956473
0.1575703 -1.0026964 -2.5604851 -2.216901 0.37298673 0.0100077735 0.22210073 0.17758192
-0.02331499 -1.448803 1.7123523 0.4370311 -0.043776978 0.92537034 -0.4475212 1.2219299
0.017919518 -0.072665155 -0.16986552 0.12779857 0.05792607 -0.20759703 0.16996561 -0.12961353
0.1452706 -0.109823704 -0.085203074 0.15142584 -0.073298514 -0.17361245 0.35419568 0.011784345
-0.5916568 0.035046585 -0.20326996 0.32993832 0.20558845 -0.6301257 -0.30795598 -0.00821967
0.43428186 -0.10339125 0.34788954 -0.5941715 -0.30980074 -0.032900825 0.053822853 -0.37218323
-0.57794076 -0.088858806 0.013929023 -0.22092666 0.25364175 -0.22522765 0.074947864 -0.37131017
0.05619092 0.24255201 -0.16408196 -0.26019222 -0.21324265 -0.38729924 0.004337299 -0.15632746
-0.057462834 -0.38406196 -0.06831766 -1.4113085 -0.26628378 0.83863944 -0.23077703 -0.23405904
1.6749016 0.17228651 0.69858795 0.19616424 -0.84603024 -1.2273802 -0.10876717 -0.10518122
-1.5510066 -0.051853985 -0.45457968 0.48178983 -0.18480861 0.13638617 1.0407603 -0.29384118
-0.16981491 -1.0293193 -0.45909792 -0.32245514 0.1718538 -0.5110216 -0.35290757 -0.34300554
-0.023873305 0.14610414 0.30106702 -0.07311419 -0.50985354 -0.095282525 0.03199968 0.23351997
-0.2017153 -0.5871135 0.058691148 -0.032123733 -0.12020771 -0.41091296 0.8105038 -0.74077487
-0.17405276 -1.0987957 -1.1046693 -1.3115808 -0.7870321 -0.18283142 0.4767853 0.2862267
0.2944669 -0.89438605 -0.033455364 -0.6426552 -0.8868471 -1.1895856 0.0022614952 0.062472973
0.4543933 0.027720612 1.2479645 -0.6903432 0.09305115 -1.544818 -0.89297473 -0.15469049
0.21042629 -0.12047657 -0.28696626 -0.074369594 -1.177797 -1.5388994 -0.8995423 -0.15720093
-1.6602522 -1.0584587 0.0406783 -0.74209744 1.1378905 0.11338939 0.08970418 0.027405145
0.34962985 -0.31767407 -0.2285034 -1.6228698 -0.68530357 1.5739721 0.10342314 -0.43178785
0.57775396 -0.58895284 -0.4073857 -1.8273653 0.069263555 0.0036068836 0.2936278 0.24775937
-0.5270514 -0.12836051 0.13586865 0.19322938 0.19540682 -0.3554526 -0.23332511 -0.15238102
-0.034130283 -0.20772603 -1.2706015 -0.19253848 0.058808357 0.31022713 0.21271148 -0.25755024
-0.9512032 -0.14395669 0.27516994 -0.003860837 -0.8298448 -1.1006513 -0.031125259 0.044379395
0.12192608 -0.83537525 -0.7844305 -0.016187755 0.24434417 -0.068875544 -0.8211714 -0.37754625
00000000: e52d be3e 43ad 57be 8041 b1bc 69b9 29bf
00000010: 9bdc bbbe c8fc b73c b899 10be 9a43 b93d
00000020: 0952 9b3d cebd bfbe 4550 c43e 07a0 6f3f
00000030: c180 9fbe 4587 aabe 2a89 1abe 10ee b13e
00000040: 62eb eb3d 5cdb f23d fbc1 99bd 5959 a7be
00000050: 57b2 fabe 273c b33f d8ea 91bd 847e ca3e
00000060: 440d 4d3e cdae 023d 8250 8e3f 2d0a 1c3e
00000070: 9aff 4dbf 9ca6 d2be c039 0c3d 23aa ba3f
00000080: 4e85 db3d 445b 8dbe 5ea9 10be 3ae9 cebc
00000090: e4e2 073f d211 2bbe 8a66 b8be 0bb1 5bbe
000000a0: 704e cbbf 14a5 d43f b59c 23be 20de d83e
000000b0: 48b7 443e d941 99bd 2363 ee3e fdd5 923d
000000c0: b0f5 f0be 811c aabe 9eb6 c13f 4cc5 b2bf
000000d0: df85 c8bc a089 c4bd c30a 22c0 592d e6be
000000e0: 1c5a 213e 5b58 80bf fdde 23c0 b5e1 0dc0
000000f0: 1ef8 be3e a5f7 233c 606e 633e 09d8 353e
00000100: 14ff bebc 6072 b9bf 5c2e db3f 8ac2 df3e
00000110: 7d4f 33bd 12e5 6c3f 8021 e5be 3368 9c3f
00000120: f4cb 923c 78d1 94bd 3af1 2dbe a1dd 023e
00000130: e343 6d3d 5194 54be 770b 2e3e 69b9 04be
00000140: d1c1 143e 40eb e0bd f37e aebd 600f 1b3e
00000150: 881d 96bd 76c7 31be 2359 b53e 2013 413c
00000160: d276 17bf 028d 0f3d 0026 50be aded a83e
00000170: c785 523e eb4f 21bf 68ac 9dbe cbab 06bc
00000180: 315a de3e cbbe d3bd 941e b23e a01b 18bf
00000190: 349e 9ebe 04c3 06bd 5a75 5c3d cd8e bebe
000001a0: edf3 13bf 9bfb b5bd 8f36 643c 993a 62be
000001b0: 55dd 813e 14a2 66be 447e 993d 5e1c bebe
000001c0: 7328 663d 8e5f 783e 1a05 28be ea37 85be
000001d0: 485c 5abe 164c c6be e71f 8e3b 4e14 20be
000001e0: 265e 6bbd c5a3 c4be 21ea 8bbd c2a5 b4bf
000001f0: 5956 88be 13b1 563f d050 6cbe 2cad 6fbe
00000200: 2d63 d63f e06b 303e a9d6 323f 47df 483e
00000210: 7095 58bf cb1a 9dbf 52c1 debd 4069 d7bd
00000220: 6287 c6bf d864 54bd abbe e8be 28ad f63e
00000230: 783e 3dbe d1a8 0b3e a237 853f 5a72 96be
00000240: f6e3 2dbe bcc0 83bf e20e ebbe d718 a5be
00000250: 71fa 2f3e 50d2 02bf 4db0 b4be 6c9e afbe
00000260: f391 c3bc 539c 153e 7525 9a3e e4bc 95bd
00000270: c385 02bf 7c23 c3bd 1912 033d dc1f 6f3e
00000280: 758e 4ebe 124d 16bf 2166 703d 2d94 03bd
00000290: 762f f6bd 2f63 d2be 2d7d 4f3f 6ca3 3dbf
000002a0: e33a 32be 56a5 8cbf ce65 8dbf e1e1 a7bf
000002b0: f07a 49bf 2938 3bbe 341d f43e 4e8c 923e
000002c0: 5ec4 963e 7cf6 64bf 7e08 09bd 0d85 24bf
000002d0: 6908 63bf 5744 98bf 9835 143b a9e3 7f3d
000002e0: 3da6 e83e 5616 e33c 4dbd 9f3f 55ba 30bf
000002f0: 9a91 be3d 99bc c5bf fe99 64bf 2f67 1ebe
00000300: fd79 573e 6cbc f6bd 3eed 92be 164f 98bd
00000310: 0dc2 96bf a8fa c4bf 6748 66bf 48f9 20be
00000320: 2583 d4bf 937b 87bf 4a9e 263d 19fa 3dbf
00000330: 65a6 913f b238 e83d d3b6 b73d c180 e03c
00000340: af02 b33e 2da6 a2be ccfc 69be 33ba cfbf
00000350: 0e70 2fbf eb77 c93f 83cf d33d 4c13 ddbe
00000360: afe7 133f 9dc5 16bf dc94 d0be 1be7 e9bf
00000370: 0dda 8d3d 7761 6c3b 6256 963e a2b4 7d3e
00000380: d7ec 06bf f070 03be 2721 0b3e ecdd 453e
00000390: ba18 483e e2fd b5be c7ec 6ebe c509 1cbe
000003a0: 32cc 0bbd 22b6 54be 12a3 a2bf cf28 45be
000003b0: 08e1 703d 17d6 9e3e 0ad1 593e a0dd 83be
000003c0: 0e82 73bf 6269 13be 13e3 8c3e 1906 7dbb
000003d0: b570 54bf 24e2 8cbf 66fa febc 2bc7 353d
000003e0: 61b4 f93d 27db 55bf 70d0 48bf 2f9c 84bc
000003f0: 5c35 7a3e 9f0e 8dbd 4a38 52bf be4d c1be

network_body.linear_encoder.seq_layers.2.bias f4 [256]
-0.23363538 0.18359534 -0.26424658 -0.084022276 -0.22139807 -0.1243024 0.3592648 -0.17200616
-0.04981446 -0.25019902 -0.23817815 -0.22661707 -0.106541045 -0.121229514 -0.043262016 -0.12263235
0.014629122 0.033739325 -0.044744976 -0.0510495 0.03971764 -0.019509003 -0.22681911 -0.00057404465
0.032455463 0.3002394 -0.11869022 -0.11758539 -0.016376289 0.05442312 0.30832288 0.028262045
0.1884579 -0.045510072 -0.24587071 0.076488525 -0.052424196 -0.22503373 0.12894893 -0.17009862
0.0077891303 -0.00829655 -0.024386564 -0.052866697 0.09577208 -0.110667616 -0.075353995 -0.09170972
-0.06363447 -0.18668376 -0.18597026 -0.090173386 0.1711108 -0.18891364 -0.045677584 0.082498334
0.1366139 0.00993818 -0.10464258 0.08720271 0.05235665 0.27053005 0.23421746 -0.14970002
-0.13328925 -0.07819242 -0.2059348 -0.022435071 0.06725198 -0.11800048 -0.15423408 -0.081501365
0.069760606 0.03194327 -0.16729128 -0.04374716 -0.21110485 -0.1567673 -0.23835279 -0.16546388
-0.04084481 -0.18442042 0.0557283 -0.26932207 -0.12198485 -0.22473884 0.0004163636 -0.13834292
-0.41195437 -0.11133729 -0.09073192 -0.17181395 -0.21897294 -0.26630077 -0.14945081 0.12610228
0.027488714 0.20684773 -0.15669577 -0.22992331 -0.16006607 -0.10258808 -0.14089638 -0.21513055
-0.019385444 -0.15951037 -0.2111762 -0.1365483 -0.1825541 -0.16585891 -0.046548683 0.100941375
-0.054363757 -0.23200725 -0.08941568 -0.27311343 -0.32282886 -0.13402897 -0.10252296 -0.015227653
0.05181686 -0.11579239 -0.13397947 -0.2687561 0.13818684 0.021551255 0.010540295 0.11679921
0.14394313 -0.20145455 0.15077373 -0.018951314 0.072667 -0.06436523 -0.061819877 -0.06425048
-0.114918165 -0.0042011193 -0.1627192 0.22824329 -0.013551046 0.085783266 0.01529911 -0.16792648
-0.1311036 -0.0398748 -0.084394574 0.06820074 -0.088525616 -0.040118337 0.11924282 -0.092129424
0.06449872 -0.055524956 -0.10050486 -0.054005243 -0.17372788 0.10171226 -0.042320218 -0.052416943
-0.006823292 -0.040865343 -0.21329696 -0.10202793 0.0052473345 -0.16652255 0.13129658 -0.2010339
0.01656502 -0.12430115 0.098693796 0.23520802 0.041735817 0.12774162 0.14365101 -0.083880454
0.022773255 0.021567622 -0.089440584 -0.1040844 0.014049132 -0.20937327 0.049503077 0.34564313
0.12300449 -0.29537955 0.30279076 0.040337835 0.021514816 -0.16519742 -0.16671276 -0.17004374
-0.035596073 0.00091698597 -0.21609019 0.038204424 0.098513074 -0.28105247 0.042661898 -0.39606217
-0.296097 0.28655362 -0.067103006 -0.09192442 -0.07384399 -0.098723575 -0.02873809 -0.030490605
-0.071592756 -0.17780589 -0.071924835 -0.14795838 -0.056889016 -0.059637886 0.24861462 -0.22250713
0.046228714 -0.07487154 0.12463062 -0.05080088 -0.21781191 0.13656317 0.2716174 -0.013930582
-0.086036466 -0.1277264 -0.008764893 -0.039577883 -0.018960109 0.0682484 0.045391444 -0.037983608
-0.032179084 -0.05208314 -0.13551144 -0.14825381 -0.08365161 0.058604747 -0.041784372 0.32123125
0.052006524 -0.074323446 -0.11344334 0.050826587 0.24000175 -0.05464735 0.00023704386 0.07808074
0.030447679 -0.21085851 -0.3030894 0.116285056 -0.114114106 -0.21943556 0.037147433 -0.16033366
00000000: 1d3e 6fbe 6b00 3c3e 544b 87be df13 acbd
00000010: 2db6 62be 4292 febd 8ef1 b73e 6222 30be
00000020: 3f0a 4cbd 161a 80be f9e4 73be 4e0e 68be
00000030: 3132 dabd 2e47 f8bd 8333 31bd ab26 fbbd
00000040: fcae 6f3c 3f32 0a3d 8246 37bd 4819 51bd
00000050: f7ae 223d 58d1 9fbc 4543 68be 7c7b 16ba
00000060: 05f0 043d fbb8 993e dc13 f3bd 9cd0 f0bd
00000070: 9127 86bc c7ea 5e3d 7fdc 9d3e ce85 e73c
00000080: 1cfb 403e c568 3abd 88c5 7bbe 04a6 9c3d
00000090: c1ba 56bd 3e6f 66be 300b 043e 552e 2ebe
000000a0: f63b ff3b 41ee 07bc 55c6 c7bc c08a 58bd
000000b0: 2724 c43d b4a5 e2bd 3253 9abd 4ed2 bbbd
000000c0: ca52 82bd 072a 3fbe fd6e 3ebe d3ac b8bd
000000d0: ab37 2f3e 9472 41be 6b18 3bbd e3f4 a83d
000000e0: 84e4 0b3e c0d3 223c d94e d6bd 5697 b23d
000000f0: ed73 563d ea82 8a3e b4d6 6f3e f64a 19be
00000100: fa7c 08be 5923 a0bd 92e0 52be c1c9 b7bc
00000110: 68bb 893d 3caa f1bd 8aef 1dbe 30ea a6bd
00000120: a6de 8e3d f2d6 023d 684e 2bbe 3930 33bd
00000130: df2b 58be 9b87 20be c112 74be 5d6f 29be
00000140: e34c 27bd b5d8 3cbe 5c43 643d 95e4 89be
00000150: 31d3 f9bd f021 66be 604b da39 c4a9 0dbe
00000160: afeb d2be ce04 e4bd a8d1 b9bd ffef 2fbe
00000170: 713a 60be 9358 88be a209 19be f520 013e
00000180: 0330 e13c e4cf 533e db74 20be 0471 6bbe
00000190: 5ce8 23be b319 d2bd 2447 10be 2f4b 5cbe
000001a0: 39ce 9ebc b056 23be 933e 58be 51d3 0bbe
000001b0: 76ef 3abe ebd6 29be d5a9 3ebd 5aba ce3d
000001c0: 88ac 5ebd 4f93 6dbe 911f b7bd 86d5 8bbe
000001d0: d349 a5be e43e 09be 8ff7 d1bd 687d 79bc
000001e0: ea3d 543d 9024 edbd ea31 09be 669a 89be
000001f0: da80 0d3e 428c b03c 34b1 2c3c 6d34 ef3d
00000200: d465 133e 1a4a 4ebe 6e64 1a3e c93f 9bbc
00000210: 70d2 943d ebd1 83bd d736 7dbd c195 83bd
00000220: 375a ebbd 8ba9 89bb dd9f 26be 9cb8 693e
00000230: 3505 5ebc 23af af3d 1ea9 7a3c ebf4 2bbe
00000240: 0640 06be c253 23bd 10d7 acbd d4ac 8b3d
00000250: eb4c b5bd 2053 24bd 9435 f43d 5aae bcbd
00000260: e817 843d 236e 63bd 7ed5 cdbd 9a34 5dbd
00000270: b9e5 31be 844e d03d f757 2dbd 26b3 56bd
00000280: ec95 dfbb 6b62 27bd 856a 5abe 05f4 d0bd
00000290: d5f1 ab3b e384 2abe 9c72 063e d5db 4dbe
000002a0: 5db3 873c 9a91 febd f91f ca3d 5fda 703e
000002b0: 2df3 2a3d b3ce 023e 4019 133e 84c9 abbd
000002c0: fa8e ba3c 95ae b03c a02c b7bd 342a d5bd
000002d0: 552e 663c f265 56be bdc3 4a3d 23f8 b03e
000002e0: c7e9 fb3d fd3b 97be 6407 9b3e 4939 253d
000002f0: d73f b03c 8329 29be c0b6 2abe f21f 2ebe
00000300: 30cd 11bd e361 703a bf46 5dbe 3e7c 1c3d
00000310: 39c1 c93d 1ce6 8fbe 3ebe 2e3d a9c8 cabe
00000320: 079a 97be 28b7 923e 4d6d 89bd df42 bcbd
00000330: 853b 97bd 962f cabd 256c ebbc 6fc7 f9bc
00000340: 399f 92bd bf12 36be 544d 93bd 6782 17be
00000350: 7504 69bd db46 74bd d594 7e3e e9d8 63be
00000360: 525a 3d3d 4056 99bd 573e ff3d 9514 50bd
00000370: 160a 5fbe 37d7 0b3e 7011 8b3e 193d 64bc
00000380: e333 b0bd b6ca 02be a09a 0fbc 6b1c 22bd
00000390: 3b52 9bbc d1c5 8b3d 61ec 393d b394 1bbd
000003a0: 37ce 03bd 2155 55bd 83c3 0abe d9cf 17be
000003b0: 8951 abbd 880b 703d 1726 2bbd 6c78 a43e
000003c0: cb04 553d e436 98bd fb54 e8bd 8a2f 503d
000003d0: 05c3 753e e6d5 5fbd fa8e 7839 cce8 9f3d
000003e0: 696d f93c 4beb 57be 892e 9bbe dc26 ee3d
000003f0: a8b4 e9bd b7b3 60be e827 183d 822e 24be

network_body.linear_encoder.seq_layers.2.weight f4 [256, 256]
0.0013530254 0.36493796 -0.45035055 0.65891445 -0.57293415 -0.26775202 -0.1835284 -0.044509392
0.0053501143 -0.06613369 0.017543824 0.29280338 -0.67247015 -0.2459685 0.2925431 0.1731194
-0.06419737 0.47200617 -0.022990277 -0.014658245 -0.47148228 -0.021443486 0.026276544 -1.2295288
-0.024053795 0.08031108 -0.47478342 -0.07202675 0.6086534 -0.060001675 0.123527765 -0.104088984
-0.9172462 -0.024599867 -0.07191236 -0.5056992 -0.054062728 0.043437824 0.10186014 -0.38647777
-0.04775751 -0.25149244 -0.14202985 -0.023727752 0.084171094 -0.048932392 -0.13129991 0.033559915
-0.069854066 -0.28585792 -0.056346808 -0.14210469 0.20886175 0.018755337 -0.19858845 -0.020205984
-0.3729958 -0.06555244 0.12119469 -0.5406157 -0.0706105 0.56669325 0.7997995 0.04675504
0.11951803 -0.3864401 0.023835842 0.15532568 -0.042239457 0.19103073 -0.1363347 0.024630532
-0.011011572 -0.5029345 0.0024597133 -0.59043396 -0.048048634 0.052155472 0.43189183 -0.19888215
0.123528026 -0.26196095 -0.16640314 0.029314302 0.10672309 -0.33562684 0.00070115726 -0.57526237
-0.085653014 0.5767555 -0.0017749678 -0.15254056 -0.32076463 -1.1202393 -0.25012493 0.18262166
-0.8996739 0.3047064 0.03395124 -0.24273944 -0.10035333 -0.3418292 0.22662994 -0.14670132
0.581468 -0.07568906 0.04034562 -0.05597316 -0.50570697 -0.040834296 -0.35468122 -0.08120054
-0.16982566 1.0004393 0.002924069 -0.044594124 -0.09570044 0.34172627 -0.38110024 -0.6972767
-0.062216654 -0.73575944 -0.010079715 0.1613377 -0.17494832 0.9680974 0.18437956 0.36462015
-0.33419624 0.058413327 0.050510786 0.057847355 0.08327131 0.044475205 0.11699192 -0.025060803
-0.025916275 0.5513944 0.081038624 -0.28639707 0.20131832 0.8941234 -0.033652015 -0.041945294
-0.41662827 0.16146526 0.0030393524 0.06073313 0.0006219796 0.17686895 -0.10794502 0.1328396
0.02566523 -0.06583074 0.11962187 0.035637725 0.023883628 -0.056620497 0.2205297 0.17119676
0.16420561 0.21311595 0.34703225 0.0009741118 -0.05352618 1.0801858 0.37439442 -0.23524822
-0.67067903 -0.024237107 0.049649578 -0.57034194 0.05506872 -0.14243163 -0.00674486 0.98641783
0.064121 -0.01037045 -0.15013161 -0.065022655 0.5758929 -0.20650612 0.060009975 0.14168473
0.03365717 -0.14270134 0.40825096 -0.30058149 -0.6157119 -0.12730724 -0.094647825 -0.03520143
0.31988695 0.18556833 1.2788192 -0.59180135 0.11287353 -0.19860457 -0.26373976 -0.44211864
0.06534624 -0.03725648 -0.48822358 0.31691688 -0.044386756 -0.14948247 0.03277321 -0.08509806
0.06837153 -0.4185147 0.13657233 -0.52148676 0.0018618758 -0.47772494 -0.37876734 0.04756187
-0.023516236 0.12520061 -0.4520376 0.0050468724 -0.50558585 0.19627328 -0.020453239 0.033746026
-0.09098764 0.03901805 -0.6363406 -0.48184705 0.051299445 -0.16314055 -0.11558393 -0.09103539
0.07173214 0.10425776 0.017766904 -0.08483336 -0.37534508 0.06349798 0.09323554 0.090306364
-0.047284182 -0.24391593 -0.031946987 0.0091413 -0.011501411 -0.2092773 0.48472762 -0.0042556063
-0.035066776 -0.06855357 -0.49280444 0.3156297 -0.7491096 -0.7240154 0.04418152 -0.28407884
00000000: 0058 b13a 26d9 ba3e 5994 e6be 9eae 283f
00000010: d0ab 12bf cb16 89be deee 3bbe 7b4f 36bd
00000020: 0350 af3b 1a71 87bd 11b8 8f3c 53ea 953e
00000030: 0127 2cbf 2bdf 7bbe 36c8 953e 3646 313e
00000040: e979 83bd cbaa f13e 1b56 bcbc 2329 70bc
00000050: 2066 f1be 40aa afbc e841 d73c 3361 9dbf
00000060: 770c c5bc 237a a43d d016 f3be c382 93bd
00000070: b6d0 1b3f 51c4 75bd 20fc fc3d 9b2c d5bd
00000080: a6d0 6abf a985 c9bc ca46 93bd 8175 01bf
00000090: e170 5dbd dceb 313d 0d9c d03d 6ae0 c5be
000000a0: 619d 43bd 9ec3 80be 4670 11be b460 c2bc
000000b0: e561 ac3d 556d 48bd 7c73 06be 1f76 093d
000000c0: a60f 8fbd f85b 92be e9cb 66bd e483 11be
000000d0: dbdf 553e cba4 993c c55a 4bbe 0587 a5bc
000000e0: 4ef9 bebe 5c40 86bd ec34 f83d ca65 0abf
000000f0: 3d9c 90bd cf12 113f a9bf 4c3f 3682 3f3d
00000100: dec5 f43d 7adb c5be 6243 c33c b20d 1f3e
00000110: 4803 2dbd 8f9d 433e 539b 0bbe f8c5 c93c
00000120: e169 34bc 51c0 00bf 2433 213b ae26 17bf
00000130: a5ce 44bd faa0 553d ed20 dd3e c3a7 4bbe
00000140: 43fc fc3d bf1f 86be 9665 2abe 8c24 f03c
00000150: a391 da3d 48d7 abbe decd 373a 6544 13bf
00000160: d96a afbd 40a6 133f 09a6 e8ba 9833 1cbe
00000170: 433b a4be 0064 8fbf 6010 80be 2c01 3b3e
00000180: 0751 66bf 7a02 9c3e 7510 0b3d b090 78be
00000190: 0c86 cdbd 3d04 afbe ae11 683e df38 16be
000001a0: 16db 143f de02 9bbd 7341 253d 1d44 65bd
000001b0: 0376 01bf dd41 27bd c798 b5be 784c a6bd
000001c0: c7e6 2dbe 650e 803f bda1 3f3b 54a8 36bd
000001d0: 98fe c3bd bff6 ae3e 921f c3be ba80 32bf
000001e0: e4d6 7ebd bb5a 3cbf 6425 25bc b635 253e
000001f0: a725 33be 3bd5 773f ffcd 3c3e 7eaf ba3e
00000200: c51b abbe d042 6f3d 66e4 4e3d 59f1 6c3d
00000210: 268a aa3d a22b 363d 7699 ef3d 504c cdbc
00000220: 5e4e d4bc 2f28 0d3f 94f7 a53d a3a2 92be
00000230: 6426 4e3e 45e5 643f b2d6 09bd d4ce 2bbd
00000240: 4d50 d5be 2657 253e df2f 473b 4dc3 783d
00000250: 580c 233a 221d 353e 4712 ddbd 1b07 083e
00000260: e33f d23c 44d2 86bd 50fc f43d ddf8 113d
00000270: 99a7 c33c e5ea 67bd 8ad2 613e 344e 2f3e
00000280: 8425 283e 113b 5a3e 36ae b13e 895b 7f3a
00000290: 453e 5bbd 8743 8a3f a0b0 bf3e e9e4 70be
000002a0: 9fb1 2bbf e68c c6bc 5b5d 4b3d ee01 12bf
000002b0: bd8f 613d 99d9 11be fd03 ddbb e185 7c3f
000002c0: df51 833d d2e8 29bc 1abc 19be 992a 85bd
000002d0: b86d 133f 5776 53be 05cd 753d cd15 113e
000002e0: 1adc 093d 4d20 12be 4506 d13e d1e5 99be
000002f0: 4c9f 1dbf d45c 02be b8d6 c1bd 602f 10bd
00000300: 39c8 a33e a005 3e3e 59b0 a33f 4b80 17bf
00000310: 3d2a e73d ff5e 4bbe e608 87be 605d e2be
00000320: 40d4 853d 409a 18bd 71f8 f9be ee42 a23e
00000330: e3ce 35bd ef11 19be 343d 063d e447 aebd
00000340: 5f06 8c3d 8f47 d6be 9ed9 0b3e 2880 05bf
00000350: 2f0a f43a 5d98 f4be cbed c1be 3cd0 423d
00000360: 1fa5 c0bc 9734 003e 7971 e7be 3c60 a53b
00000370: 136e 01bf ddfb 483e 8d8d a7bc 4639 0a3d
00000380: ba57 babd 64d1 1f3d 38e7 22bf a8b4 f6be
00000390: 5e1f 523d 510e 27be 44b7 ecbd c370 babd
000003a0: 4de8 923d 1885 d53d e68b 913c 1dbd adbd
000003b0: 3b2d c0be 3b0b 823d 46f2 be3d 8bf2 b83d
000003c0: 0fad 41bd 19c5 79be d8da 02bd 64c5 153c
000003d0: 6a70 3cbc ca4c 56be 382e f83e 9d72 8bbb
000003e0: 2ea2 0fbd d065 8cbd dd50 fcbe 379a a13e
000003f0: a6c5 3fbf 1359 39bf aef7 343d c872 91be
