Assets/ML-Agents/mla-1.0.6/results/carchase01/CarAgent/CarAgent-160207.onnx (onnx, 347954 bytes, 8 tensors)

distribution.branches.0.bias f4 [3]
00000000: c622 75be 943f f93d 8abe 403e
-0.23939046 0.1217033 0.18822685

distribution.branches.0.weight f4 [3, 256]
00000000: ba8d b93e 29cd f63e 5b7c 9fbe d3db 213c
00000010: 2ebc b93e b169 c03a 32b6 33bd 5e03 a0be
00000020: 725c fe3d ab39 833e 3f9e dbbd 0c80 043f
00000030: 0bad b93e 7558 973d 461a aebd 6b8b d4bd
00000040: 523b 92be 098d d43c caf7 3ebf 981b 42be
00000050: f3e0 5bbe 13bd 823e 7113 e5bd e94e f5bc
00000060: 831a f5be 49ec c13e 039d d2bd e2a0 a3be
00000070: 45ca fe3d e84a 463d e308 bdbd a672 053f
00000080: a46d 1bbf 1adc 933e 436b a2be 799d 79bd
00000090: c975 cd3e beaa 363d 7d44 143f f538 aebd
000000a0: 696d 723e 3d55 84be 5a05 6dbd 26ba 20be
000000b0: 7351 d2be f3a8 dcbd d950 b5bd 2c8b 0abd
000000c0: 6097 d23b 6294 61be a5d8 1f3e aeba bdbe
000000d0: 8da0 3bbe 6c7b 6bbf 8c5c cb3e 206d 97be
000000e0: 336f 35bf 37fc 523d e704 33be 5393 bd3d
000000f0: 3648 94bd 0bd3 57bd f96b bcbd 4f4d 003f
00000100: de1b 2b3f 10bc d6bd 2532 b9be a53c 023f
00000110: 2446 e13e 8d63 93be 9d53 d73d 0ca2 1a3e
00000120: 1e01 423e df8a 963e f239 be3e 1eab b13d
00000130: 5531 9fbe ec70 83be 037d a7be 01f6 d93e
00000140: ccaf 18be caa2 a0be d17f 8bbe 2dcb a2be
00000150: 0a68 793e 9899 c83d c3eb 283f 6e2d 343c
00000160: 9207 a53e 454e 2b3d 386d 2bbe bc7c 9dbe
00000170: 342d 803e 6bbd 35bd 7854 6ebe 13a0 1dbf
00000180: 39bd 4abe a443 303e d0ca d03e 85b7 993e
00000190: f6e6 83be cbaa e63d 3716 dc3e fb3e 03be
000001a0: 198a 7fbe 4fd4 0f3e c6ad 043c 48fc 64be
000001b0: 919d 23be 1f75 37be 31f7 be3e 7088 ee3d
000001c0: e71f ac3e 883b 843e 31d5 d23d 03de 123d
000001d0: 4070 893e f8b6 293f 9f98 2ebe 0a80 f33e
000001e0: cba2 233e a814 c03e a4eb 8abe d8f3 fbbd
000001f0: b103 983e ecaa 94bd ef30 e5bd 4c4b 0cbf
00000200: 67ae 973e add1 8e3e 0bf7 223c 9b79 eebe
00000210: 9b63 293f 56fe 903e 26df da3e 71b4 2c3e
00000220: 4a67 c03e a614 fb3e f718 94be 0b3d a7bd
00000230: 7d1d bc3e f0c5 b5be 93d8 dbbe 64c6 39be
00000240: 59bf 5c3e 8953 763e 59ff af3e a77e 1b3e
00000250: d367 2d3e 9748 edbd 876e 883d fc6d ec3e
00000260: 9fcf d8bd 6812 2fbe 6f2f 52be 1b52 cfbd
00000270: f06c 443e db49 a2be 5e75 593e be78 69bf
00000280: 89e6 9bbd d126 05be 2c80 8abe 4e0f f3be
00000290: 910d c13d 7c13 803e 0219 593e 723a a13d
000002a0: bcbf fe3c 7662 e03d 248f d93d de35 44be
000002b0: 7cd2 3a3e aeaf 2fbc 617d 08bf 0e4e 293d
000002c0: 6885 75be ccf1 293e 1c37 0e3d 58ab d63d
000002d0: 3c49 263e 6251 4cbe 8d22 84bd 79fc 583e
000002e0: 2497 543f 904c e63e b0b6 fcbe cca4 143f
000002f0: 534d 863e 8c21 5abd 9580 9fbe 14a1 813e
00000300: bf91 18be 0902 c13d 0e5d 5b3d 463d c1bd
00000310: 8569 0bbe 1040 15bf 1e0c b03e 56b2 033e
00000320: a7d0 793d 80f6 d13e dea2 e63e 3d34 aa3e
00000330: ccbf 7b3e 8cd8 c23e 2856 b03e b7a3 0d3e
00000340: 0779 b5be f08a 213f dd6e ddbd bc9f a8bd
00000350: 0820 b4be 3d67 90bb 9691 a2be 37b2 483e
00000360: 7840 ae3e dda5 803e f96f 563f 9d6a 923e
00000370: 345a 513e 184a 06bf 62ca 173f 5db4 70be
00000380: 8f75 143e 5b55 753e 08d3 a93e 5609 4a3e
00000390: 8497 923d 95c9 6e3e c9d7 ccbc 3ad9 00bf
000003a0: 2bc1 8cbe f13c 2c3e a74e 5fbd 6598 923e
000003b0: 1baf e3be eb5b 29bf de3b 47be b425 0c3e
000003c0: 6406 f4bd 8364 423e 202a 5d3c 320c 533e
000003d0: 14a8 063e fb47 db3e a159 273e b444 c4bb
000003e0: e666 9dbe 92fe c9bd f6f3 03be a9ba 7cbd
000003f0: 8d20 a7be d1b1 8ebe 7f05 b03e 91b0 4fbe
0.3624094 0.482034 -0.31149563 0.00987907 0.36276382 0.0014679936 -0.043874927 -0.3125257
0.12419976 0.25629935 -0.107235424 0.51757884 0.36264834 0.07389919 -0.08501105 -0.10378154
-0.28560883 0.025946157 -0.74596846 -0.18955839 -0.2147253 0.25534877 -0.11185349 -0.029944854
-0.4787179 0.37875584 -0.10283854 -0.3195868 0.124409236 0.04841128 -0.09230211 0.52128065
-0.60714173 0.28878862 -0.3172246 -0.060941193 0.40128925 0.044596426 0.57917005 -0.085069574
0.23674549 -0.25846282 -0.05786643 -0.1569601 -0.41077766 -0.10774412 -0.08853311 -0.03382413
0.0064267367 -0.2202926 0.15609987 -0.37056488 -0.18322964 -0.919852 0.39719045 -0.29575443
-0.708728 0.051510062 -0.17482339 0.092566155 -0.07240336 -0.0526915 -0.09200282 0.50117964
0.66839397 -0.10485089 -0.3617107 0.50873786 0.43998826 -0.2878689 0.10513995 0.15100878
0.18945739 0.29402825 0.37153584 0.08675216 -0.31092325 -0.2567209 -0.32712564 0.425705
-0.14910811 -0.31374198 -0.27245954 -0.31795636 0.24356094 0.09794921 0.65984744 0.010997159
0.32232338 0.04182269 -0.16740882 -0.30759227 0.25034487 -0.044370096 -0.2327441 -0.6157238
-0.19798745 0.17213303 0.40779734 0.30022827 -0.25762147 0.11263045 0.429857 -0.12816994
-0.24955024 0.14045833 0.008098071 -0.22361863 -0.15978076 -0.17915772 0.37297967 0.11647117
0.3361809 0.2582667 0.10294569 0.035856258 0.26843452 0.66294813 -0.17050408 0.47558624
0.1598007 0.3751576 -0.27132905 -0.12302369 0.29690316 -0.07259163 -0.11190974 -0.54802394
0.29625246 0.27894345 0.009946595 -0.46577153 0.6616761 0.28319043 0.42748374 0.16865708
0.37578803 0.4903919 -0.28925297 -0.0816594 0.36741248 -0.35502577 -0.4293867 -0.18142086
0.21557368 0.24055304 0.34374502 0.15185033 0.16934137 -0.11586111 0.066617064 0.4617766
-0.105864756 -0.17096865 -0.20525907 -0.10123082 0.19182181 -0.31696972 0.21236178 -0.9119986
-0.076123305 -0.13003089 -0.27050912 -0.47472614 0.09426416 0.25014865 0.21200946 0.07872476
0.031097285 0.1095628 0.10623005 -0.19161174 0.18244356 -0.010723038 -0.53316313 0.041334204
-0.23976672 0.16596144 0.034720525 0.104819 0.16238874 -0.1995292 -0.064519025 0.2119006
0.8304312 0.44980288 -0.4935813 0.5806396 0.2623087 -0.05325465 -0.31152788 0.25318205
-0.14899348 0.09424216 0.05355554 -0.09435515 -0.13614471 -0.58300877 0.34384245 0.12860999
0.060990002 0.41008377 0.45046133 0.3324298 0.24584883 0.38055837 0.34440732 0.13831984
-0.354439 0.63102627 -0.10812161 -0.08233592 -0.35180688 -0.004406838 -0.31751698 0.19599234
0.3403356 0.25126544 0.83764607 0.28596964 0.20444566 -0.5245681 0.59293187 -0.23506303
0.1449797 0.23958342 0.33168817 0.19730124 0.071578056 0.23319085 -0.025005238 -0.5033146
-0.27491125 0.16820122 -0.054518368 0.28631893 -0.44469532 -0.6615588 -0.19456431 0.13686258
-0.119152814 0.18983655 0.013498813 0.20610121 0.13150054 0.42828354 0.16342784 -0.0059896354
-0.30742568 -0.098630086 -0.12886032 -0.06170145 -0.32642022 -0.27870038 0.34379193 -0.20282198

distribution.branches.1.bias f4 [3]
00000000: ef14 833e 790d 793d 4284 7abe
0.2560191 0.060803864 -0.24464515

distribution.branches.1.weight f4 [3, 256]
00000000: f405 023f 20ac bc3e 044e 0b3e 2ba7 31bf
00000010: acf8 05be c774 a83e d207 19be f526 8e3e
00000020: 909a a43e 45b5 a13e 33fe 3cbf 91a0 bbbd
00000030: 597b cbbe e4ed cfbe 2469 68bb 0a3d 26bf
00000040: 0cfb b4bd 64b6 f03e e73c c8be 09cd 3e3d
00000050: 0b3c ac3c 864f fa3e 95d8 e83e 7bac bf3e
00000060: 91d8 1fbd 418a 67be 708a bcbe 762c c7be
00000070: 5e21 8ebe 70ea 963e 30a2 ed3d 14ab b03d
00000080: e4a3 a53e 5675 d2be 9a8b cc3d e807 adbd
00000090: 646a a1be 67aa 01bf 543c 543e 0b03 bc3e
000000a0: cb4f 163e f535 b0be 1493 a2be 2930 063e
000000b0: f0d3 083f c112 b43e f54f 0cbf 2f2e 0ebf
000000c0: 9b84 30be c3ef d0bd 5cde 0e3f ccd5 6ebe
000000d0: e814 ee3d fc32 6bbe f987 4aba 4181 b4bd
000000e0: bf98 00bf ce6c 083f b624 953e e3ab 9a3e
000000f0: d8ee fa3d 18b5 ec3e 1293 063f 6ea8 e4be
00000100: bf95 5a3e cf15 0a3e e8c5 67be b2fd 4d3e
00000110: 93d5 1bbe 8b58 ebbd b3e5 d3bd b09e 17bf
00000120: b3ed e9be 90eb e73d 2325 453e 9ee0 153e
00000130: 2064 773c 6b17 a2be 0753 c3be d7de b93e
00000140: 93e1 1e3e 1fea 333e b11f 1d3e 1b79 993d
00000150: 5345 30be da8a 8dbe 086d f9be 9bfe 013e
00000160: 7777 aa3e 3f8d a1be 62f8 43bd 8e6a d3be
00000170: eaa9 d63e 6c04 b73e 752e d43d 89ac d63e
00000180: abdb 0bbf 4eeb cd3a ea01 91bd 3c7e 5cbe
00000190: b913 dc3e b7f0 d23e 2d7b 823d c060 f7be
000001a0: b9e4 9f3e 5595 92be a782 b83d 864e e5bb
000001b0: 1470 13be e9eb d0be fba8 fabd b85f 12be
000001c0: 8d03 a43e 2119 84bd c0a0 19be 88a0 e4be
000001d0: e816 debd 4f1d 40be 5b45 f23e 9d8d dd3d
000001e0: b045 443d 1cd0 f3be f6d6 74bd c247 31be
000001f0: f534 debe 8f26 75bd 8f1f 8b3e d1e4 a6be
00000200: 7733 d3be a79c 8ebd 687c 05bd b61d 653e
00000210: b995 9c3e b1d9 21bc 55f8 87be 99c8 2cbf
00000220: 0822 363e edd6 64be cd95 623d e9ec c4be
00000230: 1745 e13e dbe6 813e 64da edbd da8e f3bd
00000240: d578 1b3e 607e 84be 4f4d 78be 8bb8 b9bd
00000250: 39e1 11bf 26cc b33e 667f fc3e b576 093f
00000260: dad4 ee3e 089d 573f 79b9 21be 42f0 443e
00000270: 08a5 fabd dea8 f0be ee9e f4bc 60a6 2d3f
00000280: 8258 193c 7fd2 bc39 7230 a43e f433 f9bd
00000290: 9607 3a3e 92f4 13bf 6e7b 893e d498 33be
000002a0: 3569 be3e c1d1 0e3e d0c0 1ebd 66ce e23e
000002b0: 09af 933e 1339 6dbe 516c b3be bafc 7f3e
000002c0: 9e67 053f f26f e63e bdff df3d 8c48 aabe
000002d0: cb60 a1bd 28eb 94be bf03 2abe 3126 08be
000002e0: 3c43 0fbe 2a17 1cbd 32e2 5f3d 309e 8ebd
000002f0: 325c bfbe fe86 233e b4f5 643e a8e7 f63d
00000300: de51 be3e 8458 823b e7de dbbd 69a1 c83e
00000310: 4ee8 453e 3c0c d0be df56 6c3c 353d e43d
00000320: b381 cfbe 5c2e ed3e b19f 87be 3ee0 d73d
00000330: 9526 f3bc 70df 493e 2623 0f3f cc25 ec3d
00000340: a133 6c3e 727f d5bd fc27 e33e 6c3e 343e
00000350: 5bbc acbb 08ea 00bf a4c6 903e df4e 3abe
00000360: 9c77 5d3e a646 42be e576 1ebf 6ef8 d63d
00000370: 50f1 06bf 856a 46bf 9981 21be d6e4 c73e
00000380: 4a50 423e db6f e5bd 7961 a83e a1b1 193e
00000390: 535d 8fbe e61a 043e 6c1e c9be cabe 86be
000003a0: 689d dbbd c56c 2e3c 172b 87bd 9758 e5be
000003b0: d71b 143e 73e2 7f3e c80f 9c3e fc40 843d
000003c0: 7269 9b3d 375a bfbd ee51 d2bc 3f64 78bd
000003d0: 1e7d b7be b605 863e 1617 113e 55b4 40bd
000003e0: 78c5 9b3e c595 273e 09fb 02bf e356 f33e
000003f0: eb1f c43d 987e b83e 82c8 983e af65 be3e
0.50790334 0.3685007 0.1360398 -0.69395703 -0.13083142 0.32901594 -0.1494439 0.27764097
0.32149172 0.3158361 -0.7382538 -0.09161485 -0.39742544 -0.40611184 -0.003546306 -0.6493689
-0.08836946 0.47014153 -0.39108965 0.046582256 0.021024724 0.48888797 0.4547774 0.3743628
-0.039024893 -0.22611333 -0.3682437 -0.38901109 -0.27759832 0.29475737 0.116032004 0.086263806
0.323516 -0.41105145 0.099875644 -0.084487736 -0.31526482 -0.5065064 0.20726138 0.36721072
0.14678876 -0.34416166 -0.31752837 0.13104309 0.5344839 0.35170558 -0.54809505 -0.5553922
-0.17238085 -0.10201981 0.55808043 -0.23323745 0.11625081 -0.22968668 -0.000772595 -0.08813716
-0.5023307 0.5329102 0.2912957 0.30209264 0.12252587 0.46231914 0.5256816 -0.44659752
0.21346186 0.13484882 -0.22634089 0.20116308 -0.15218191 -0.114914976 -0.10346546 -0.5922651
-0.45689163 0.11324227 0.19252448 0.14636466 0.015099555 -0.31658491 -0.38149282 0.36302826
0.15515737 0.17569779 0.1534412 0.07493802 -0.17213945 -0.27644998 -0.48715997 0.1269478
0.3329427 -0.31553075 -0.0478443 -0.41292232 0.4192651 0.3574556 0.103604235 0.4192851
-0.5463206 0.0015710385 -0.07080443 -0.2153253 0.42983797 0.41199276 0.0637115 -0.48316002
0.3122919 -0.28629556 0.09009295 -0.006997886 -0.14398223 -0.40804985 -0.12239262 -0.14294326
0.3203396 -0.064501055 -0.15002728 -0.44653726 -0.10844213 -0.1876118 0.4731854 0.10818026
0.04791802 -0.47619712 -0.059775315 -0.1731253 -0.43399778 -0.059851225 0.27172515 -0.32596448
-0.41250202 -0.06963473 -0.032589346 0.22374615 0.3058298 -0.009878562 -0.2655665 -0.6749359
0.1778642 -0.22347613 0.055318642 -0.38461998 0.43998024 0.2537144 -0.1161392 -0.11892481
0.15182813 -0.25877666 -0.24248241 -0.09068402 -0.5698429 0.3511669 0.49315947 0.5369676
0.46646768 0.84223986 -0.15793408 0.19232276 -0.122385085 -0.47003835 -0.02986094 0.67831993
0.009359481 0.00036014986 0.3206821 -0.121681124 0.18166956 -0.5779506 0.26851982 -0.17538768
0.37189642 0.13947202 -0.0387581 0.44298095 0.2884448 -0.23166303 -0.35043576 0.24998751
0.5211123 0.45007282 0.1093745 -0.33258474 -0.0787979 -0.2908566 -0.16602992 -0.13295819
-0.13990492 -0.03810803 0.054659076 -0.069637656 -0.37375027 0.15969464 0.22359353 0.12055904
0.37171835 0.003977837 -0.107358746 0.39185646 0.19326898 -0.40634334 0.014425009 0.11144487
-0.4052864 0.46324432 -0.26489022 0.10540818 -0.029681483 0.19714141 0.5591301 0.11530647
0.2306657 -0.10424699 0.44366443 0.17601937 -0.005271477 -0.50357103 0.2827655 -0.1819415
0.21627659 -0.18972263 -0.6190017 0.10496603 -0.52711964 -0.77506286 -0.15772094 0.39041775
0.1897594 -0.11202975 0.32886866 0.15009166 -0.28000888 0.12900886 -0.39281023 -0.26317436
-0.10723382 0.01064605 -0.066000156 -0.4479415 0.14463745 0.24988727 0.3048079 0.06457707
0.075884715 -0.09343379 -0.025673833 -0.060642477 -0.35837644 0.26176232 0.14168963 -0.047046978
0.30424094 0.16365726 -0.511643 0.47527227 0.095764 0.36034083 0.29840475 0.37186953

network_body.linear_encoder.seq_layers.0.bias f4 [256]
00000000: 4870 6ebd 041c 16b4 bdac 973c de17 93bd
00000010: a482 f1ae be43 28be a091 c93b 72a0 063d
00000020: 5913 15b8 2836 f23c be38 423d 40c2 59be
00000030: 2846 8e3d 9ef0 2035 b6a1 8f3d 71eb a5b7
00000040: d426 73be b93a 0b3b 325c 8ebd 0d42 9bba
00000050: e7ba 643b cc36 07be b8ba a33c 6162 17be
00000060: 7025 16bd fe89 613d 1701 fb3c 31d0 d9b4
00000070: 1bfb 5ebb a203 353c 9e24 29be 0b72 e5bd
00000080: 372e 60bc 013a 06bd 2372 25bd bf7f 85bc
00000090: 71c1 a6bd e380 433d 254d c23c feb7 4abc
000000a0: d13b 6ebe d5e4 c2bd e65a 20bd abfc ffbd
000000b0: 3c01 dbbd 8f27 0438 610d f3bc 6aae 36bd
000000c0: 865e e6bc ef87 cebd 8a12 2026 6ab5 1cbc
000000d0: a8b5 a1bc 5ddd b23a 0bea d9bd 4ee1 3c3d
000000e0: 71a3 cebd 82eb 34be c8ae 70af 09bc 233d
000000f0: 69d8 12bd ed6b 01be a83b 5bbd 7926 42bc
00000100: 6c3f a096 0352 d6bd 0b1b 833d c1c5 dbb5
00000110: e6e0 633d f56d 4abc 7d56 0abe 95c4 d2bd
00000120: 499d 74bd ee0e 4bbd 9709 b1bd 955e aabd
00000130: 30e4 e53c 015b e53b 70b0 54bd 9ff8 053d
00000140: 59fb b73c 1c61 2dbc c989 4537 acf2 16be
00000150: 3df9 09be b212 3c3d 1265 41bc f066 873d
00000160: e769 d92e bc47 54be fd3d e0bd 37e0 5aac
00000170: 7a14 ba3d b92f 41be a5c7 37bd 652b 39be
00000180: 0824 923c e2b7 1d3d f47c 493d 91e1 07bd
00000190: d02d a1bd 7fae be2b a133 1bbe 799e 339b
000001a0: efd7 4abd 6305 8dbd 670c 85bc 1360 04b3
000001b0: 816a 3abe 4dc4 c6bc 2253 ca3d 8de5 3daa
000001c0: d715 4fbd 3251 a03d 352c 65bd 2bbd 68be
000001d0: 35b9 8fbd a055 e03d 5cde ddbd 51d6 37be
000001e0: 4d98 b0b2 0f39 ccb7 bcf7 6cbd e7ae b3bd
000001f0: 9a88 193d 721d 07be a16a ceb7 360d 8cbd
00000200: 472b 69bc 1318 a52b 21c6 82bb 4c85 d6be
00000210: a5e4 0fb7 7a88 f4bd 91ed 04bd 93e4 9b3c
00000220: b6e4 f2bd de8d cfbd b7e0 68bd 46dd b8be
00000230: 7dd1 1fbd f58f 8bbd 620d 18bd dbc0 b4b6
00000240: 9f9a 5bbd cfa6 08b4 c18b 8ab6 b786 32be
00000250: 9c42 a8bc fffb c63c 0759 8c3d 861b e5b5
00000260: 30cd 90bc 1207 6dbe 5d13 cbbb 147c 943a
00000270: 85b8 5d3d 0a0a 11b5 91b4 c0a0 9efa bfbd
00000280: fe69 8dab cb62 0e3b 41c7 19be c162 99bd
00000290: a9fe b53c dcc6 a13c 9261 0cbe c11b 5b32
000002a0: 44fa a83c 7071 d7bd 1a54 83be e85a 22bd
000002b0: c9c5 4abc 4880 b4bb fd75 cfbd 0b2a 08bd
000002c0: 0abb fabd 3e91 983d 32e1 9b3c 3c15 8cbc
000002d0: dd85 86ad 4231 b1bc 39be 473c e050 b3bd
000002e0: e129 7bbc f592 cdbd 2ae9 b5ab 3d1c bcbd
000002f0: a405 dfbd 25e3 1cbd b288 61bd 99c1 21be
00000300: 8903 9bbd bf70 f1bd 31e8 c7bd 4383 f0bc
00000310: ee12 8d3d 7215 00be cdcf 4dbe e22f 3c3d
00000320: d006 0cbe e154 afbd 18b9 6cbc 81dd 2bbd
00000330: c22c 1ebe 504f 3bbe c9e1 60be e37d 2bbd
00000340: c782 ae3c 3882 37bc 9371 a23d a923 30be
00000350: 5e06 bbbd 76d7 b2bd d645 763c 9022 943d
00000360: 97f0 e03c 78c3 2a3d 092d 90bc 9863 68bc
00000370: eafd 553d 5d5a 803d 121a 64bd 2902 0b3d
00000380: 1b9e 35bd 58e0 6fbd ffd4 103d 30d8 dabc
00000390: 236c 933c ee5a 7bbd 3227 9ebd 746c 803b
000003a0: f87f fa34 4c6d 313d f6e4 ebbd 821c 6fbd
000003b0: 686a 52b3 08dc e2bc 765a 103c 48b6 02be
000003c0: 348d 5ebc 6ce9 e2bc c6fe a9bd 972a 57be
000003d0: 0bb8 01bc 1e32 04be 51f3 eab2 4dd0 6b21
000003e0: cf26 0abd 89ac 2ea6 aff6 943d 6879 74b1
000003f0: 68ee 2abe e6c3 b4bd 40c1 63ab 1d30 1dbd
-0.05821255 -1.398003e-07 0.018514985 -0.07182287 -1.09826176e-10 -0.16432092 0.006151393 0.032867856
-3.5542387e-05 0.02956684 0.047417395 -0.21265507 0.06946975 5.995479e-07 0.07013266 -1.9779169e-05
-0.2374528 0.0021244718 -0.069511786 -0.0011845246 0.0034901442 -0.13204497 0.019986495 -0.14783622
-0.036656797 0.05506324 0.030640168 -4.057088e-07 -0.0034024182 0.011048229 -0.16517875 -0.112033926
-0.0136828935 -0.03277016 -0.040392052 -0.016296266 -0.08142365 0.047730338 0.023718426 -0.012372969
-0.23265006 -0.095163025 -0.039149188 -0.124993645 -0.10693595 3.1508094e-05 -0.029669465 -0.044599928
-0.028121244 -0.10084521 5.5536276e-16 -0.009564737 -0.01973994 0.0013646294 -0.10640343 0.046113305
-0.10089768 -0.17667964 -2.1889968e-10 0.039974246 -0.035850916 -0.12638827 -0.05352369 -0.011849993
-2.588942e-25 -0.10464861 0.064016424 -1.6374325e-06 0.0556344 -0.012355317 -0.13509555 -0.10291401
-0.05972031 -0.049574785 -0.08644407 -0.08318821 0.02806291 0.006999374 -0.051926076 0.032707807
0.02245872 -0.010582235 1.1774196e-05 -0.1474101 -0.13473983 0.045916267 -0.011803882 0.06611431
9.8868295e-11 -0.2073049 -0.10949323 -3.1104128e-12 0.09085937 -0.18865861 -0.04486813 -0.1808296
0.017839447 0.038505442 0.04919143 -0.0331741 -0.07870066 1.3548744e-12 -0.15156414 -1.4857738e-22
-0.049522337 -0.06885793 -0.016241265 -3.0821024e-08 -0.1820469 -0.024263525 0.098791376 -1.6866214e-13
-0.050557937 0.07827987 -0.055950362 -0.22728412 -0.07017747 0.10953832 -0.10833427 -0.17952849
-2.0558355e-08 -2.4345265e-05 -0.057853445 -0.08773594 0.03748379 -0.13194826 -2.4606767e-05 -0.06838457
-0.0142315095 1.1730637e-12 -0.003990904 -0.41898572 -8.5767e-06 -0.11940093 -0.032453123 0.019029891
-0.118600294 -0.10134481 -0.05685493 -0.36106318 -0.039018143 -0.06814567 -0.037122138 -5.3868694e-06
-0.053614255 -1.2726672e-07 -4.12899e-06 -0.17434202 -0.020539574 0.024290083 0.06852918 -1.706984e-06
-0.017675966 -0.23147228 -0.0061973766 0.0011328482 0.05413105 -5.403132e-07 -3.2645554e-19 -0.09373973
-1.0048071e-12 0.0021726366 -0.15017416 -0.07489539 0.022216158 0.019748144 -0.13709095 1.2753788e-08
0.020627148 -0.10519683 -0.25650102 -0.039637476 -0.012376257 -0.0055084564 -0.10129926 -0.03324322
-0.12242706 0.07449578 0.01902828 -0.01709997 -1.5293483e-11 -0.021629933 0.012191349 -0.0875566
-0.015329809 -0.100377955 -1.292554e-12 -0.091850735 -0.10889748 -0.03830256 -0.055062003 -0.15796508
-0.07569034 -0.11789083 -0.09761084 -0.029359465 0.06888376 -0.1250818 -0.20098801 0.045944102
-0.13674474 -0.08561111 -0.014448427 -0.04195929 -0.15446761 -0.18291974 -0.2196113 -0.0418681
0.021302594 -0.01120048 0.07931819 -0.17201103 -0.09132074 -0.08732502 0.015031299 0.07233155
0.027458472 0.04169032 -0.0175996 -0.014183901 0.052244104 0.062672354 -0.055688925 0.033937607
-0.044340234 -0.05856356 0.03535938 -0.026714414 0.0179959 -0.061366014 -0.0772232 0.0039191786
4.6659238e-07 0.043317124 -0.1151828 -0.058376797 -4.899121e-08 -0.02769281 0.00881063 -0.12764847
-0.01358347 -0.027699195 -0.08300547 -0.2101234 -0.007917414 -0.12909743 -2.7351833e-08 7.989678e-19
-0.033728417 -6.0602206e-16 0.07273614 -3.5575685e-09 -0.16692507 -0.08826427 -8.091479e-13 -0.038375963

network_body.linear_encoder.seq_layers.0.weight f4 [256, 73]
00000000: b8cf 903d 4af2 8dbf b5ee 18bc 130f 133c
00000010: 11fc 80be caaa 13bf 4ba8 0dbf 717c 1c3a
00000020: f45a 383e 8455 fa3d 419e f83e 5713 05bf
00000030: eddb 81bd a1c9 e6be 6caa 9abe 500e 3fbf
00000040: 0235 1dbf faae 9c3d 5be8 053f 6ec6 e53e
00000050: f6ca a0be a34b 63bf ab18 093e 1f33 a73e
00000060: 24fe 6dbd 8516 3abf a86e 52be 8519 fd3d
00000070: a9c9 373f 9a92 b83d 2524 79be 4844 73be
00000080: 6c3b 113e c1fa 023e 97aa 4cbe ea50 143e
00000090: 52a1 0cbf 920a 7a3d 0ccf 61bd 6f8d ecbe
000000a0: c941 303e c77e db3d 2dce 35bc 6e50 97bc
000000b0: 87f9 35be 7d99 7dbe 1456 633c 2138 9c3d
000000c0: 490c cabb b029 a23d db42 ad3f 0697 54be
000000d0: db26 123f caee 0fbf 115c 90bf a87b 79bf
000000e0: 06a6 2ebf ceab 2d3f e9d1 3bbd b2ba 12bf
000000f0: ff1f 143d 4378 8a3c bcfd a839 956c 2ebe
00000100: f00f d43d 8c09 1f40 0145 983e c4a4 a7be
00000110: 2194 26be e66f 65be 3427 b2be be28 a3bf
00000120: e4e3 32bf d3e3 61bd e472 223e b1a4 0b3e
00000130: f25b 9d3d fb56 e93d 5d95 2a3b 6041 72bc
00000140: d5a6 f03c 33f1 a1bc ddc5 06be 09bb 153e
00000150: c6fb fd3b 37fd 44be 8bdc 14bd b68f 97be
00000160: f148 1c3d 4aa8 993d 71d2 913c 1cc4 943c
00000170: 9195 82bd e4a7 ab3d 0516 7ebd 70e9 24bc
00000180: 6cd3 863d f67a dfbd 86a2 063e fcbe 8a3d
00000190: 9189 2d3d b554 4e3d 42a7 90bd 7c26 393e
000001a0: 6c55 ae3e 5c3d 0cbe 2749 9f3d a8f2 ae3d
000001b0: f746 8bbc 68cf 54bc 0433 4a39 4ea2 c63d
000001c0: 2388 b83c 306b d7bc 99c1 5abe 7e76 46be
000001d0: a899 34bc 3dbc c2bc 60a9 1fbe 35bd 6bbc
000001e0: 8516 ebbd 8306 d7bd 0207 84bd 4d11 f73d
000001f0: 9b51 313e 8b16 c6bc 44f5 51be 513d 81be
00000200: 0fcf 51be 042e 16be 6c9e 38bc c134 8a3e
00000210: c09e 4bbd 50f5 5d3d 88b4 04be 06e1 0abe
00000220: 192b 4dbc 60fd 0cbd 733d e2bd 1940 b2bd
00000230: 194d b93d 7bee 71be aa2a ae3c 3c5a 053d
00000240: 5383 0b3d 58d5 233d ca63 963e b9f0 a4be
00000250: 8c07 a73d 9bd3 98be e552 e5be c365 2c3f
00000260: 8a46 a9be 619c 0b3c 02de 9ebf 88fa 9bbe
00000270: 6cd6 063f 1141 2abd ac57 bf3d 1ed2 42bf
00000280: 6135 0bbf 5488 85be 1ef7 febe 1b8e 9cbd
00000290: 3c69 9ebe 141f 1fbc 056f 153d 2051 f6bc
000002a0: 4968 89bd 4f81 9bbe 8a52 43be 6a13 223e
000002b0: a5f4 943e 1919 8abd 3cd2 5abf aa51 26be
000002c0: 52b8 7a3e 38e7 e13e 380f 47bd cfc5 1abf
000002d0: 97c6 4fbe ca6c b93e 96a9 243e f09e f63c
000002e0: 753e fabe 554a 513d 9077 f43e b696 16be
000002f0: 2be7 8c3d ce9f 6cbf 9d8f e8be f078 b33f
00000300: 1684 9a3e 84e9 0c3e 9778 81bf f194 34be
00000310: 33b1 95be e3bf 3bbc dbc3 b6bf 88c0 383e
00000320: 3f6e c03c edea 11bf dbd6 5a3e c0b7 aabf
00000330: ab09 b23e 67d1 f5bf 9ddb febe b594 2bbc
00000340: c31b 3ebd 57c7 52be fdc9 cc3b 5245 46bf
00000350: a08c 9bbf 80e2 303f 12f6 30bd c923 343f
00000360: f4f7 9ebc 7181 cfbf 6648 b0bb d84d 9fbd
00000370: 32b2 e5be 2ba6 2d3d 3eb2 8abe 29f8 b5be
00000380: 5fe3 d5be e42c 49bf a7aa 91bd bfb8 273f
00000390: 7a60 18be 9e35 f23e ba01 aebe 7aae 5fbd
000003a0: 1bb9 30bf aed1 bfbe dc47 fe3d 708c 0fbf
000003b0: 5de2 00be b105 02bc 2ae4 72be 1f56 8a3e
000003c0: 6420 bdbe a46c ba3d 6d0c a9bd c963 49be
000003d0: 953c 1d3e abf2 3c3f 5985 8c3d fb14 b5be
000003e0: 58f3 5fbe c661 3b3e c19f 4a3f 9e45 683c
000003f0: 80c9 70be 1413 02be 7638 a5be 96c7 e73e
0.07070869 -1.1089566 -0.009334256 0.008975762 -0.2519231 -0.5768248 -0.5533492 0.0005969471
0.18003446 0.12223342 0.48558238 -0.51982635 -0.06340776 -0.45075706 -0.30208147 -0.74631214
-0.6140901 0.07650562 0.5230767 0.44877952 -0.31404847 -0.8878729 0.13388316 0.3265619
-0.058103696 -0.7269061 -0.20550025 0.12358383 0.71792084 0.09012337 -0.24330194 -0.23756516
0.14182824 0.12790968 -0.1998695 0.14483991 -0.54933655 0.061045237 -0.055129096 -0.46201655
0.17212595 0.1071754 -0.011096519 -0.018470969 -0.17770968 -0.24765582 0.013875503 0.07627893
-0.0061660153 0.079181075 1.3536028 -0.20760736 0.5709054 -0.5622374 -1.1278096 -0.9745431
-0.6822208 0.6784028 -0.045854483 -0.57316124 0.036163326 0.016903048 0.00032232504 -0.17033608
0.10354602 2.4849577 0.29740146 -0.32742894 -0.16267444 -0.22405967 -0.34795535 -1.2746809
-0.69878983 -0.05514891 0.1586414 0.13637044 0.07683553 0.11393543 0.002602897 -0.014786094
0.029376427 -0.019768333 -0.13161416 0.1462213 0.007750961 -0.19237219 -0.03634314 -0.2960183
0.0381555 0.07502802 0.017800542 0.018159918 -0.06376184 0.08381632 -0.06203272 -0.010065421
0.06583294 -0.10912125 0.13147935 0.06774709 0.04236752 0.05037375 -0.07063152 0.18081087
0.34049547 -0.13695282 0.077776246 0.08542377 -0.017001612 -0.012988903 0.00019283226 0.09698926
0.022525853 -0.026296228 -0.21362914 -0.19381139 -0.011022963 -0.0237714 -0.15591955 -0.014388372
-0.11478905 -0.10499289 -0.06446649 0.12063847 0.17316286 -0.024180671 -0.20503718 -0.25242093
-0.20489143 -0.14665991 -0.0112682395 0.26993373 -0.049711943 0.054189026 -0.12959492 -0.13562402
-0.012522482 -0.034421325 -0.11046877 -0.08703632 0.09047908 -0.2362613 0.021260578 0.032556757
0.034060787 0.039998382 0.29373008 -0.32214907 0.08155736 -0.29848942 -0.44789806 0.67342776
-0.3306163 0.00852117 -1.2411501 -0.30464578 0.5267093 -0.04156596 0.09342894 -0.76101863
-0.54378325 -0.26080573 -0.4979791 -0.07644292 -0.30939662 -0.009711999 0.03648283 -0.03006798
-0.06709344 -0.30372092 -0.19074455 0.15827718 0.290929 -0.06743068 -0.8547704 -0.1624209
0.24484375 0.44121718 -0.048598498 -0.6045808 -0.202906 0.36215812 0.16080317 0.030105084
-0.48875776 0.05109628 0.4774747 -0.14705929 0.06880029 -0.9243134 -0.45422068 1.4021282
0.301789 0.13760954 -1.0114926 -0.17634942 -0.29236755 -0.011459324 -1.427852 0.18042195
0.02349007 -0.56999093 0.21371023 -1.3337326 0.34773 -1.920453 -0.49776927 -0.010472466
-0.046413194 -0.20583855 0.006249665 -0.77449524 -1.215229 0.6909561 -0.04320342 0.70367104
-0.019405343 -1.6211377 -0.0053797243 -0.077785194 -0.44862515 0.0423948 -0.27089113 -0.35540894
-0.41775033 -0.7858412 -0.071126275 0.65516275 -0.14880553 0.47306532 -0.33985692 -0.054609753
-0.6903245 -0.3746466 0.1241605 -0.56073666 -0.1258635 -0.007935927 -0.2371985 0.2701883
-0.36938775 0.09102753 -0.08254323 -0.19666971 0.15355141 0.7380778 0.068613715 -0.3536757
-0.21870172 0.18299016 0.79150015 0.014176754 -0.23514366 -0.1270259 -0.3226964 0.4526946

network_body.linear_encoder.seq_layers.2.bias f4 [256]
00000000: b8af 64bb e4e5 643d 9c2e 363c 0869 07be
00000010: 5d87 66bd 3e8d f73d 43df efbc 6f52 43be
00000020: d8ae a1bd 7907 56bd 8ada 67bd e734 e2bd
00000030: 63f4 393d 5302 21bb 218a 9a3d 9262 87bd
00000040: a608 30bd 4b4b 40bd 92b3 31be e78e 28bd
00000050: 71bb ccbd 75f5 b83d 2c2a 3c3d adf4 6dbc
00000060: f01d 923d ae7c 8c3d d64d b7bd cccf 98bc
00000070: 4c6f ed3d 4347 80bb 7d2c 45bd 970a 37bd
00000080: 378d 6ebd 682b 76be 063d 2ebd 047f 5bbe
00000090: b71b 7a3a b938 37bd 3f2e a8bc 7db6 fdbd
000000a0: 8d4e 31bd 2105 dabd 4087 00bc 83b8 3cbe
000000b0: 44da a5bd b67d b6bd ea3e 80bd 7b55 123c
000000c0: e08b 32be 6f96 353d 5d52 11bd 3c17 413d
000000d0: ebf1 00be 2261 18bd 07bf 93bd 6cd5 0abd
000000e0: ed72 c8bd 1179 59be 80e8 f03d f441 babd
000000f0: 8e68 32be 7b6d 883c 427c 5abd 2468 95bd
00000100: 66b3 b33d 4eb1 ecbc 3098 41be 43c1 b0bd
00000110: f0c0 8fbd 9658 d7bc 7c99 633d 4558 c9bd
00000120: 2d1f 89bd 2b72 8fbd bba7 c2bc b4d4 42bd
00000130: b29f d8bd 5081 0fbe e44f b83c ed4d 87bd
00000140: 88a5 1ebe 6548 853b 8c85 2cbe 3bec d2bd
00000150: a8a7 403e 3186 7d3d 03bf 91bc 4999 913d
00000160: 5f42 8fbd b28e fcbd 0e9b 08bd 2b3f 763c
00000170: 4172 82bd d16e 7cbd d5ae 84bd 18c5 32bd
00000180: fd60 503d c8dd 6abd 87e9 e13d ceff 56bd
00000190: def2 22be 434d 0ebd a628 e8bc 36e7 fabc
000001a0: d2ee 86bd 5606 94bd c08e 40be 441f bbbc
000001b0: 798b 4cbc 3b50 f23c 8545 5ebd d718 55bc
000001c0: 5a95 aebd 71cc 553d 5d1a 14bd e32b 08bd
000001d0: e870 dcbc 0200 f6bc 746a 5c3d 8443 09bd
000001e0: f91a c13d e106 20be 504c d6bd 98f0 bcbd
000001f0: 1979 06be e70f 09be f228 123e 040c 593b
00000200: a102 c5bd fffc 84bd bf04 fcbd 4ba6 ef3c
00000210: 43be 68be 70ed 1c3c f015 bb3d 3995 09be
00000220: c326 413d d6d0 a2bc 64d7 85bd 7c2c 9abd
00000230: 97c0 f63d 6896 2dbd 1370 e3bd 4ab6 80bd
00000240: a0f3 91bd 5e9f c43d fefe 95bd cfff e63d
00000250: cd48 263d 12fe 64be 4570 d6bd e464 22bd
00000260: 383a 813d ee27 0cbe dfd3 b7bd 67b0 88bd
00000270: 4969 50bd 9450 b0bd ffcc f13d aabf 133d
00000280: a262 ddbd 537f 8dbd 4e38 c3bd e676 c7bd
00000290: 47ce 333c 1d95 14be e19e 80bb 761e 92bd
000002a0: 4d44 a73c ca60 18be 6168 34be 097b a8bc
000002b0: fe88 b1bd 6876 65bd 7bfc 83bd d11e be3d
000002c0: bff6 a6bd 2439 423b 01fe b5bd 28b2 293b
000002d0: f8fd febd cd29 edbd f7d8 4fbc e63b a7bd
000002e0: 7cf1 12be cc35 cfbd e1c8 22be a510 fd3c
000002f0: 5f68 21bb 4dae 8dbc d59a 94bd 3c59 523e
00000300: 45bb efbd d108 0f3b afa3 073e c087 5fbc
00000310: 4a2b d23c c6e4 27be 58df bcbd 3c45 c93b
00000320: 7d7e 66bc de72 c5bd 01f1 9dbd 19e5 a33d
00000330: c467 31be e4b4 c4bd 5b93 91bd 8ca4 32bd
00000340: 696a 3ebe 30c1 db3d 4a2f d3bd a18a b93d
00000350: 7e54 7dbd 74c6 01be d02a 1fbe 01f0 963d
00000360: 3a7b 8bbd 2ad6 d53d 555f a23c 3dc6 b5bc
00000370: 77f4 4fbd 3f0a abbd a4f7 333d 97c6 14be
00000380: 388d 353e 96c9 a2bd e668 d2bd cf31 ffbd
00000390: 75a9 7cbd 2a84 a63d 6c1f a3bd ca5e 83bc
000003a0: f530 c83d 639a 4f3c ecf7 343d 0c10 b1bc
000003b0: f894 04bd 76f6 68bd a15d 25bd 9766 063d
000003c0: 9292 5fbd fbb1 c33d c00a a9be e1aa 54be
000003d0: d064 5abd c98c 86bd acca 33be e94a ccbd
000003e0: ad72 00be 0622 57be b926 dbbd adcb d3bd
000003f0: a1c6 7fbe d359 403c 2a7a 373c a425 56bd
-0.0034894776 0.055883303 0.011119511 -0.1322366 -0.056281436 0.12087487 -0.029281264 -0.19074415
-0.07894677 -0.05225322 -0.0566049 -0.110452466 0.04539908 -0.0024568036 0.07545877 -0.06610598
-0.042976998 -0.046946805 -0.17353657 -0.041151907 -0.09996689 0.09031192 0.045938656 -0.014523667
0.071346164 0.06859718 -0.08950393 -0.018653773 0.11593494 -0.003914745 -0.04813813 -0.044687834
-0.05824014 -0.24039996 -0.042538665 -0.21435171 0.0009540873 -0.04473183 -0.020529864 -0.123883225
-0.043287802 -0.106455095 -0.007844746 -0.1842976 -0.080982715 -0.08910696 -0.06262 0.008931513
-0.1743617 0.044332918 -0.03547894 0.0471413 -0.12592284 -0.037202008 -0.0721417 -0.03389494
-0.09787545 -0.2123759 0.11763096 -0.09094611 -0.17422697 0.016653767 -0.053341158 -0.07295254
0.08774452 -0.02889314 -0.18905711 -0.08630612 -0.07019222 -0.026287358 0.055566296 -0.09831289
-0.066953994 -0.07004198 -0.02376162 -0.04756613 -0.105773345 -0.14014173 0.022499032 -0.0660666
-0.15492833 0.004067468 -0.16847819 -0.10298964 0.18813956 0.061895553 -0.017791277 0.07109315
-0.06995081 -0.123319045 -0.033350997 0.015029709 -0.063694485 -0.06162912 -0.06478659 -0.043644994
0.050873745 -0.057340413 0.1103087 -0.052490048 -0.15912959 -0.03474165 -0.028339695 -0.030627828
-0.0658852 -0.07227771 -0.18804455 -0.022842057 -0.012484425 0.029579272 -0.054265518 -0.013006411
-0.0852458 0.052196924 -0.036157954 -0.03324498 -0.026909307 -0.0300293 0.05381246 -0.033511654
0.09428973 -0.15627624 -0.10463774 -0.09225577 -0.13132133 -0.13384973 0.14273432 0.0033118734
-0.09619642 -0.06493568 -0.12305593 0.0292541 -0.22728829 0.009578094 0.091350436 -0.1343583
0.047156107 -0.019874971 -0.06535223 -0.07528016 0.12048452 -0.042379767 -0.11105361 -0.06284769
-0.07126546 0.096007094 -0.073240265 0.1127926 0.040596772 -0.22362545 -0.104706325 -0.039646998
0.063099325 -0.13687107 -0.08975958 -0.06674271 -0.050881658 -0.08609119 0.11806678 0.036071457
-0.10809828 -0.06909051 -0.09532224 -0.09739475 0.010974473 -0.14510007 -0.00392519 -0.07134716
0.02041831 -0.14880672 -0.17617942 -0.02056648 -0.08668707 -0.056021124 -0.06444641 0.092832215
-0.08152532 0.002963611 -0.08886338 0.0025893543 -0.124507844 -0.115802385 -0.012686006 -0.081657216
-0.14349931 -0.10117683 -0.15896942 0.030891726 -0.002462886 -0.017295027 -0.07256094 0.20541853
-0.11705641 0.0021825323 0.13246034 -0.013643205 0.025655407 -0.16395864 -0.09222287 0.0061422866
-0.014068243 -0.0964105 -0.077119835 0.08002681 -0.1732474 -0.09604815 -0.07108184 -0.043613955
-0.1859528 0.10730207 -0.10311754 0.090596445 -0.061848156 -0.1267336 -0.15543675 0.07369996
-0.06810613 0.10441239 0.019820848 -0.022189254 -0.05077025 -0.08351564 0.04393734 -0.14528881
0.17729652 -0.07948606 -0.10273914 -0.12460672 -0.061685044 0.08130677 -0.079649776 -0.01603641
0.09774963 0.012671086 0.04418175 -0.021614097 -0.03236863 -0.05687567 -0.040372495 0.03281268
-0.05458314 0.095554315 -0.33016014 -0.2076831 -0.0533188 -0.065698214 -0.17557782 -0.099752255
-0.12543745 -0.21009073 -0.10700745 -0.103415824 -0.24978115 0.011740166 0.01119856 -0.05228199

network_body.linear_encoder.seq_layers.2.weight f4 [256, 256]
00000000: 2bde babd 8d1b 30bd 6f3e 033e 3d8c a6be
00000010: de39 b6bb 1c92 81be 8000 5cbe 7eff 943e
00000020: be35 64bd 3a49 a63e 4263 2bbe 5ddc 133e
00000030: 22a3 153e 7027 d63c bd1c d03e ba7c 19be
00000040: 8e2f 0abd 15a3 9cbe 7243 cbbd 4ad7 9e3c
00000050: c348 833d c4ba d8bd 8bbb 3b3e 7526 8f3d
00000060: b1c9 d03e 4cf9 b03d a844 a43e 0819 a4bd
00000070: bad9 d43b c7e4 4c3e 693a c6be 3dbc fabb
00000080: 72a0 8fbe b789 933e 4459 1e3e 94e3 7dbe
00000090: 345d 1bbe 0e7c 1dbe 0511 e9be dba2 293e
000000a0: 0b99 a4be 5510 a0be 036d 983d 2925 11be
000000b0: 81cf 763e d57b 893d 808c 7ebc 4af5 ab3d
000000c0: 5cab 673d 9b32 9fbd c22a 19bd 6b9d ce3e
000000d0: 0d2c bdbe f8f4 adbe 1d77 4bbd 4446 1cbe
000000e0: c26e b2be 27f3 e4bd 1427 cd3d 79ad 00bd
000000f0: cb92 b53d f5bd cfbc 261e 86be aa14 f23e
00000100: 5ec1 883c f0f3 383e 8458 25bd 65d6 ab3d
00000110: 4db6 d73d 92a6 893c 95d3 883d 09f9 c8bd
00000120: 19c3 ba3d c24c 52be ede3 263d 341a 8a3d
00000130: ec42 9abe 2f91 d53e 35ce a63e 1cf7 34be
00000140: 7246 8fbe 8e63 b83d 16b5 b0bc 0dee 8a3d
00000150: b562 3ebe 72f4 e23e 7e91 233d 4ca8 1a3d
00000160: c7c4 623d 75cf b63d 1249 65bd c32a e83c
00000170: 7bce 90bf 9c6d 8ebe 1989 11be b1cb 84bb
00000180: 1020 4ebd 8d04 8b3d f9d2 4fbe 9d53 63bd
00000190: 0d89 16bd 645b 93bc d246 583d 7442 b23c
000001a0: 67b7 f4be 0c96 88be c34c bebd 32b1 c33c
000001b0: f1ae 38bd 6dca 98be 7e85 fabd 188b 283c
000001c0: efd6 61be 9815 9cbe 0e17 0bbe 5638 7ebd
000001d0: 5dc8 7bbe 4146 493d 062b a3bd c02a 80be
000001e0: c4c1 673d 6ce7 843c 552b 86be 2fe1 02be
000001f0: dbdb 71be 3dcf 9ebe b60a bf3c 8983 e7bd
00000200: 3cd3 a3bd 5cb9 bcbb 53dd 4e3d 8d0c a93d
00000210: 56f8 09bd a1ec d03b 9f59 28bd 1c57 9cbe
00000220: 4e35 883b 5d96 bb3c 6d1b c1be a7a5 153e
00000230: 5c07 a5be 40f3 f6be d9a2 18bd 898e 08bc
00000240: c4f1 483d 65b3 a53d 2166 a8bc 2c7c d6be
00000250: 3eff 3d3b 5929 1d3e 6031 c03e ec7b c7bc
00000260: b5fd a43e b988 2abd d1fc 1bbe 5274 0c3f
00000270: 68d8 86bd 235c a6bd 50f9 473d 8818 683e
00000280: b7a0 953d 9f60 f23e 02d7 1b3e 8a91 c8be
00000290: 4c46 a9be 422d 2cbf 573f 30be 866d e1bc
000002a0: ec78 61bd 571f 053e 5970 afbd a94f 803e
000002b0: 64b4 e4bd b5b3 95bd c78d 973e 1f7e e3be
000002c0: 350e 58be 656e edbe e19c 72be 53b7 cebe
000002d0: c1c5 563d 849b 16bf 67b3 42be 6713 66bf
000002e0: a824 9f3e 11c0 f13d 4699 013d 04a3 d3bd
000002f0: 1c2c f3be 84c3 42be 48b0 1f3e 7512 eabd
00000300: 8760 83be 8487 14be a6dd bdbd 5a1d 7a3d
00000310: 81b2 90bd d0ee e2bd efc0 10be 19a4 153f
00000320: bbba 50be 68bc 943d aa10 63bd 7a55 f63c
00000330: c660 0cbe c45f 49bd 0184 83bd 04ae 873d
00000340: 5f45 2ebf cab3 d7be dea1 883e 16f9 5cbd
00000350: 3a0c 393c 11bf 6fbd b494 13bc 6bf9 dc3e
00000360: 7432 97be 9259 b5be 64b9 323d 16d5 87bd
00000370: f73d 56be 1ea7 99bd 3ba2 473e 7279 c13d
00000380: 0e1f b0bd 9649 7bbe 41fa 41be f69d d0bd
00000390: 7f00 9bbe 9a4f bfbd 4e26 ba3d 23db 87bd
000003a0: 1cf4 173d a158 8e3e 1f44 adbe bdd9 123e
000003b0: 9e43 96bd 19ae 2ebc bbd9 b9be 75cf adbe
000003c0: 4b8f 05be 28e3 193e cd59 86bc 1418 e03c
000003d0: 5573 21bd 01df 143d 731e 0bbd e7cd 4bbd
000003e0: 2e94 9dbe 85a6 0fbb 238c 56be 5e1a ab3b
000003f0: 5d81 89be 30cc 48be b9b1 6cbd c332 04be
-0.091244064 -0.042995024 0.12816785 -0.32528868 -0.0055610975 -0.25306785 -0.21484566 0.29101175
-0.055715315 0.32477742 -0.16737083 0.1443953 0.14613011 0.026141852 0.40646926 -0.14988986
-0.033736758 -0.30593172 -0.099249735 0.019389767 0.064103626 -0.10582498 0.1833326 0.06989757
0.40778878 0.086412996 0.3208363 -0.08012587 0.0064956816 0.20009147 -0.38716438 -0.0076518343
-0.28052098 0.28816006 0.1546374 -0.24793845 -0.15172273 -0.15379354 -0.45520797 0.1656603
-0.32148013 -0.3126246 0.07442667 -0.14174332 0.24102594 0.06713072 -0.0155364275 0.083963946
0.056559905 -0.07773324 -0.037394293 0.40354475 -0.3694767 -0.3397596 -0.049674142 -0.15261179
-0.34850127 -0.1117919 0.10017219 -0.031415436 0.08865889 -0.025359133 -0.26194876 0.4728139
0.016693767 0.18061805 -0.04036762 0.08390502 0.10532818 0.01680306 0.06680981 -0.09813125
0.09119243 -0.20537093 0.04074471 0.06743279 -0.30129182 0.4171233 0.32579198 -0.1767239
-0.27983433 0.090033635 -0.021570724 0.06783686 -0.18592341 0.44327122 0.039933674 0.037758157
0.055363443 0.08926288 -0.05597789 0.028340703 -1.1313013 -0.27818 -0.14212455 -0.004052602
-0.050323546 0.06787977 -0.20295323 -0.05549966 -0.036751796 -0.017987914 0.052801915 0.021760203
-0.47796175 -0.26676977 -0.09291985 0.023888204 -0.045088712 -0.2984194 -0.12232493 0.010287069
-0.22054647 -0.30485225 -0.13583013 -0.062065445 -0.24588151 0.049139265 -0.079671904 -0.25032616
0.056581274 0.016223632 -0.26204935 -0.12781213 -0.23619024 -0.31017485 0.023320537 -0.11304385
-0.07999274 -0.0057594012 0.05050404 0.08254347 -0.033684097 0.0063758646 -0.041101094 -0.3053521
0.004156745 0.022898847 -0.37716237 0.14613973 -0.32232177 -0.4823246 -0.03726468 -0.008334764
0.04905869 0.080908574 -0.020556511 -0.4189161 0.0028991248 0.15347804 0.3753767 -0.024351083
0.32224813 -0.041634295 -0.1523316 0.5486499 -0.06584245 -0.081230424 0.048821747 0.22665608
0.073060445 0.4733934 0.15218738 -0.39173537 -0.33061445 -0.6725656 -0.17211662 -0.027518045
-0.05504696 0.13000236 -0.085663505 0.25060776 -0.11167219 -0.07309667 0.29600355 -0.4443216
-0.2109917 -0.46373287 -0.23692657 -0.4037424 0.052434687 -0.5883105 -0.19013749 -0.89873356
0.31082654 0.11804212 0.031640314 -0.10333827 -0.4749459 -0.19019896 0.1559459 -0.11429302
-0.25659582 -0.1450482 -0.09270792 0.061063148 -0.07065297 -0.11080706 -0.14136098 0.5845352
-0.20383732 0.07262498 -0.055435814 0.030070055 -0.13708791 -0.049163595 -0.06421662 0.06624988
-0.680746 -0.42129356 0.26685995 -0.053948484 0.011294419 -0.058531824 -0.009007622 0.4315904
-0.2953068 -0.354199 0.043633834 -0.0663244 -0.20922075 -0.07502578 0.1949548 0.09446992
-0.08599673 -0.2453979 -0.1894312 -0.10186379 -0.30273816 -0.09341355 0.09089337 -0.06633594
0.037098035 0.27801993 -0.33841035 0.14340873 -0.07337116 -0.010661625 -0.36298928 -0.3394734
-0.13042943 0.1502806 -0.016400242 0.027355231 -0.03941663 0.036345486 -0.033964586 -0.04975691
-0.30777115 -0.0021919322 -0.20951895 0.005221649 -0.2685651 -0.19609141 -0.057786677 -0.12909989
