Assets/ML-Agents/mla-1.0.6/results/carchase01/CarAgent/CarAgent-183.onnx (onnx, 347954 bytes, 8 tensors)

distribution.branches.0.bias f4 [3]
-0.0025289154 0.0034292552 -0.0021937427
00000000: 29bc 25bb 5bbd 603b e5c4 0fbb

distribution.branches.0.weight f4 [3, 256]
0.0053919666 0.00022206186 -0.008065541 0.0125341285 -0.009555334 -0.007974001 0.010622085 -0.00069085497
-0.0053296974 0.005602659 -0.0071697184 -0.0027718786 -0.006474947 0.0033238607 -0.016396118 0.005437823
-0.0029020917 0.004327528 5.378386e-05 -0.00951523 -0.019542482 0.0016352428 0.009498286 0.00081798533
0.0055122785 0.007869976 0.0032827284 -0.004208735 -0.0040087937 0.0011454023 -0.013259649 0.0025707844
-0.011485309 -0.0026003073 0.005521526 -0.0069171595 0.011813972 0.0018648125 -0.006324318 -0.0057233786
-0.0057622837 0.0033975635 0.009277108 -0.016226906 0.014323676 -0.0055796676 -0.008575976 0.00850111
-0.0118340505 0.004600697 0.009197452 -0.0029203375 -0.004072785 0.0045261336 0.003663501 0.007063432
-0.0060631586 0.0045085596 -0.005169256 -0.0031342765 0.0053729666 0.001681678 -0.0006931235 -0.0009940977
0.011538823 0.0024532434 -0.0075995033 -0.0010793253 -0.0036283263 0.010288505 -0.012375333 0.0013688693
-0.0020843328 -0.010556701 -0.0048805834 0.0006541355 -0.006746517 0.010227129 0.0027209949 0.008273541
-0.00052852876 0.0044019963 -0.00950239 -0.008202818 0.0042056353 0.000510876 -0.011185708 -0.0105503
-0.00034895557 0.008178648 0.0104829 0.0018613377 -0.014889065 -0.0036238874 0.010627204 0.016706089
0.002116726 -0.008124224 0.0034315984 0.0028331722 0.0040690857 -0.003723884 -0.0012917469 0.0014560713
-0.0056347265 -0.0025132347 0.011928277 0.004127156 -0.0078114276 0.004104889 -0.010559826 -0.0049934937
-0.003633073 -0.011304515 0.008672923 0.012554017 0.015408581 -0.00021227852 -0.00039914044 0.0075161466
0.0043718778 -0.0024681382 -0.0040427065 -0.0042409906 -0.0062885117 0.007700192 -0.014837367 -0.0021134298
-0.0040414142 0.0034127112 -0.005504591 -0.008511088 0.006430597 -0.012251565 -0.0065449895 0.0032279775
-0.006266336 -0.0012992535 -0.008541597 -0.001958761 0.0004660796 0.007895953 0.0159605 0.0058920914
0.0031860203 0.0056125005 -0.0007118511 -0.0077734333 -0.00017531075 0.004460865 -0.005648596 0.0065445695
0.00547789 -0.0033770383 -0.009463106 -0.0037359276 -0.004596759 0.0015880994 -0.0021548904 -0.0045421557
-0.019372733 0.0019408562 -0.00064726715 0.005425913 0.011838244 0.0038328145 0.0006454218 -0.0015125709
0.00038473448 -0.0026372978 0.011606135 -0.0033884577 -0.00027727266 0.0021612884 -0.008352162 0.00040447316
-0.012796198 0.004509102 -0.012870778 0.0028079092 0.013159164 -0.0119734425 -0.0021181835 0.0025076363
-0.0040640146 -0.00018165793 -0.0069742054 0.00027839193 -0.004400357 0.0052771103 -0.001571587 0.0036481705
-0.0015655082 -0.00615529 -0.014447195 -0.005471348 0.000861529 0.0016939734 0.008871168 -0.0016207825
0.0064380188 0.0040400005 0.009740592 -0.021904597 -0.000924063 0.004471379 0.010903948 0.0037737004
0.0070042773 0.00044554108 -0.011420558 -0.008261926 -0.0021154303 -0.0027288622 -0.0076403846 0.010609848
-0.0063690455 -0.0005468697 -0.0014037896 -0.0024148133 -0.003549902 0.0057823793 -0.0035215868 0.003717877
-0.0029942286 -0.005933848 0.001426275 0.0014535355 -0.0046091196 -0.009377284 -0.0058385436 -0.0064199334
-0.00721228 -0.004624087 0.0119737685 -0.006713411 0.008342714 0.0066044666 -0.01354062 -0.0018279264
0.0011964858 -0.0024137632 -0.007861529 0.009120038 -7.962848e-05 0.007231856 0.0031705773 -0.004361833
-0.005412191 -0.004086261 -0.009170651 0.0019539874 -0.004385212 0.009318669 -0.0031193392 -0.0031084458
00000000: 18af b03b 47d9 6839 5525 04bc f25b 4d3c
00000010: fa8d 1cbc 62a5 02bc 4108 2e3c 7e1a 35ba
00000020: bea4 aebb 8396 b73b f5ef eabb 68a8 35bb
00000030: cb2b d4bb 21d5 593b 2751 86bc c42f b23b
00000040: 0531 3ebb f0cd 8d3b fb95 6138 c4e5 1bbc
00000050: 8e17 a0bc a555 d63a b39e 1b3c 116e 563a
00000060: 58a0 b43b 12f1 003c 0b23 573b 6ee9 89bb
00000070: 335c 83bb 5321 963a 003f 59bc 9b7a 283b
00000080: e12c 3cbc eb69 2abb ebed b43b 57a9 e2bb
00000090: 648f 413c b96c f43a 393c cfbb 2e8b bbbb
000000a0: 8ad1 bcbb a8a9 5e3b 03ff 173c 4aee 84bc
000000b0: daad 6a3c a5d5 b6bb 4082 0cbc 3d48 0b3c
000000c0: 9be3 41bc 72c1 963b e9b0 163c 2263 3fbb
000000d0: ff74 85bb f64f 943b 5917 703b 5d74 e73b
000000e0: 76ad c6bb 8abc 933b dd62 a9bb 6f68 4dbb
000000f0: b60f b03b c06b dc3a bbb2 35ba 624c 82ba
00000100: 550d 3d3c 98c6 203b 4105 f9bb 2678 8dba
00000110: 37c9 6dbb 1e91 283c e9c1 4abc a26b b33a
00000120: 4d99 08bb 03f6 2cbc 4ded 9fbb 4a7a 2b3a
00000130: e311 ddbb b08f 273c b852 323b bf8d 073c
00000140: f78c 0aba 9f3e 903b eaaf 1bbc 1d65 06bc
00000150: 6dcf 893b 4fec 053a 4344 37bc 2adb 2cbc
00000160: 06f4 b6b9 bcff 053c 78c0 2b3c 21f8 f33a
00000170: 44f1 73bc be7e 6dbb b91d 2e3c 35db 883c
00000180: c5b8 0a3b 771b 05bc abe4 603b beac 393b
00000190: f755 853b 680c 74bb d54f a9ba a5d9 be3a
000001a0: 83a3 b8bb 15b5 24bb d26e 433c 183d 873b
000001b0: 01f7 ffbb 4e82 863b 1f03 2dbc 76a0 a3bb
000001c0: da18 6ebb 9336 39bc e018 0e3c 5daf 4d3c
000001d0: 4674 7c3c 1597 5eb9 b943 d1b9 024a f63b
000001e0: f841 8f3b 7dc0 21bb ae78 84bb 02f8 8abb
000001f0: dc0f cebb e451 fc3b 6e18 73bc 7881 0abb
00000200: d76d 84bb cba7 5f3b db5f b4bb 1772 0bbc
00000210: c2b7 d23b caba 48bc 5a77 d6bb 7a8c 533b
00000220: d655 cdbb b74b aaba 0ef2 0bbc 8e5e 00bb
00000230: 255c f439 075e 013c 98bf 823c 7212 c13b
00000240: 8dcc 503b 11e9 b73b 859b 3aba 49b8 febb
00000250: 9fd3 37b9 732c 923b dc17 b9bb d473 d63b
00000260: df7f b33b 4d51 5dbb 250b 1bbc 77d6 74bb
00000270: 69a0 96bb c627 d03a 1039 0dbb 5dd6 94bb
00000280: 91b3 9ebc 5464 fe3a 5dad 29ba dbcb b13b
00000290: 32f5 413c f52f 7b3b 8631 293a 7541 c6ba
000002a0: 30b6 c939 84d6 2cbb a927 3e3c e310 5ebb
000002b0: e85e 91b9 67a4 0d3b 82d7 08bc 780f d439
000002c0: 25a7 51bc 17c1 933b f5df 52bc e604 383b
000002d0: 8999 573c 422c 44bc 39d1 0abb 2857 243b
000002e0: 6d2b 85bb 6e7b 3eb9 e087 e4bb 22f5 9139
000002f0: df30 90bb 9ceb ac3b b6fd cdba 2516 6f3b
00000300: bd31 cdba 51b2 c9bb eeb3 6cbc fe48 b3bb
00000310: 3cd8 613a 5108 de3a 6058 113c 7070 d4ba
00000320: 04f6 d23b fb61 843b 0197 1f3c 4571 b3bc
00000330: d13c 72ba a584 923b 79a6 323c 3050 773b
00000340: 2384 e53b 8397 e939 4b1d 3bbc 075d 07bc
00000350: 08a3 0abb b6d6 32bb 315c fabb eed4 2d3c
00000360: 6db3 d0bb ce5b 0fba 5dff b7ba d841 1ebb
00000370: 79a5 68bb 1d7a bd3b 6cca 66bb a0a7 733b
00000380: d23a 44bb ba70 c2bb d9f1 ba3a 8f84 be3a
00000390: 1908 97bb 2ea3 19bc 4151 bfbb 4e5e d2bb
000003a0: fd54 ecbb a785 97bb a02d 443c 2cfc dbbb
000003b0: e1af 083c 486a d83b 7ad9 5dbc 0897 efba
000003c0: 67d3 9c3a 3a30 1ebb a4cd 00bc 366c 153c
000003d0: 37fe a6b8 35f9 ec3b 76c9 4f3b b5ed 8ebb
000003e0: c058 b1bb 0be6 85bb 8040 16bc 780e 003b
000003f0: d3b1 8fbb 55ad 183c d46d 4cbb 11b7 4bbb

distribution.branches.1.bias f4 [3]
-0.0022563539 0.0034788789 -0.0026760802
00000000: 56df 13bb e7fd 633b 2d61 2fbb

distribution.branches.1.weight f4 [3, 256]
-0.012312922 -0.009984601 -0.00075301336 -0.0021966475 -0.005034942 -0.0034977067 -0.005520215 0.0006808093
-0.010263923 0.0060437513 0.010932446 -0.0017423761 0.0017496926 -0.005506008 -0.0003855217 0.0012967824
-0.00194213 0.006890957 -0.005492896 0.00828318 0.0019009118 0.0035129366 -9.774871e-05 0.00407898
-0.0015996591 -0.005928871 -0.007647307 -0.0064647375 0.0032017506 0.0033203869 0.00015937544 -0.0051521882
-0.005292612 -0.014609912 -0.0020526007 0.0029785247 0.016724031 0.00844953 -0.010729922 0.0017014297
-0.00287287 -0.00021215559 0.0045125578 0.014731937 0.0074176914 0.0016933605 -0.0059313714 -0.0052301395
0.0011695286 0.008422513 -0.0075521944 0.004524761 0.002306959 -0.00393832 -0.0046572266 -0.014969741
-0.006322463 -0.008284447 0.0009736464 0.00090544496 0.0025489966 0.0003386326 0.006896128 -0.0026435114
0.008683915 0.014934803 -0.00019588835 0.0034896426 0.0005601677 0.0021237854 -0.013145929 -0.0018253921
0.001168325 -0.002420056 -0.0069705197 -0.0019099812 0.0022485373 -0.005942644 -0.011539172 -0.00997558
-0.0027141566 -0.0010027586 -0.00041694645 0.0036600374 -0.0056357095 0.0006943161 -0.0003343745 -0.0015697473
0.0017147273 -0.0007054678 0.00064866006 0.0019225297 0.0052403845 -0.003523979 0.00091834756 -0.0064182673
0.004597496 0.0023542761 -0.0030110374 -0.0034358904 0.001284054 0.0053701918 -0.002392665 0.0008439567
0.0012033742 0.0014467684 0.0029014207 -0.001147379 0.0050380984 0.0019379827 -0.0011972482 -0.00064021716
0.0003360978 -0.004606258 0.004085119 -0.0019052802 6.9260284e-05 -0.005063262 -0.008432437 -0.0067631733
0.0025277636 -0.007864888 0.007985231 -0.010349261 -0.0065835672 0.0020163776 0.00039967592 -0.0030467217
0.0022317483 0.015109267 0.0050718193 -0.0017435838 0.002007794 0.00544446 0.0051243464 -0.00067344477
-0.012507853 -0.005715574 -0.0012309123 0.0029919082 -0.0047311224 0.0066627376 -0.0044129025 0.00918212
0.010588835 0.0072936285 -0.00054592994 0.00020957108 0.0059198965 -0.0013943262 0.00047949265 -0.0013867576
-0.009323018 0.006339584 -0.0050020386 0.009292947 0.009677255 -0.008446046 -0.00032682146 -0.002099743
-0.0059882603 -0.0013551563 -0.0079905 0.0022501692 -0.004210235 -0.008577658 -0.0013230331 -0.0009559337
0.007883534 -0.005774176 0.004751172 0.002722687 0.0030980525 0.00023399181 -0.0069387727 -0.010129398
-0.010116164 0.007199247 -0.0028253803 -0.0034276564 0.0017233873 0.006034581 -0.005498206 0.008576965
0.004497121 -0.0020912467 0.008068199 0.007931696 -0.0019692818 0.0025875925 -0.006323603 -0.005345768
-0.0035937151 0.0032248048 -0.006490555 -0.004347893 -0.005808139 -0.013893349 0.008413652 0.00095590187
0.004411988 0.007400693 0.0011847436 -0.0014008111 0.011085873 -0.004972843 -0.003156232 0.0065905224
0.010483135 -0.0030794356 0.0070689875 0.0020005882 -0.004356504 0.00070916844 -0.0010837681 0.010685462
-0.012553 -0.00013619063 0.012989228 0.003074969 0.006180427 0.0048642084 -0.00016300607 0.0013580937
-0.013548615 0.011578854 0.00036734814 0.008188457 -0.0016181299 -0.002119466 -0.0025851198 0.008334288
-0.00011678595 0.008296036 0.00028637509 0.011069828 0.017108282 -0.0017122992 -0.016114473 0.0025493402
-0.0040362845 5.2155433e-06 -0.0031473008 -0.008861757 -9.443933e-07 0.009234994 0.0056752204 0.002777631
0.0025407104 0.009069388 -0.008744441 0.00928689 0.0038087522 0.006287999 -0.008189158 0.0075758793
00000000: 23bc 49bc 7496 23bc df65 45ba a1f5 0fbb
00000010: 28fc a4bb c839 65bb ebe2 b4bb 5778 323a
00000020: 032a 28bc a90a c63b 011e 333c 7160 e4ba
00000030: f155 e53a be6b b4bb d91f cab9 ccf8 a93a
00000040: 128f feba 89cd e13b c0fd b3bb 2db6 073c
00000050: 0428 f93a 4c39 663b 70fe ccb8 f7a8 853b
00000060: a7ab d1ba fa46 c2bb 4396 fabb 26d6 d3bb
00000070: 76d4 513b d99a 593b 051e 2739 b0d3 a8bb
00000080: a66d adbb 6a5e 6fbc ed84 06bb 5a33 433b
00000090: d600 893c e66f 0a3c 8ecc 2fbc 8202 df3a
000000a0: c346 3cbb 1576 5eb9 14de 933b 395e 713c
000000b0: 1b10 f33b c0f3 dd3a f35b c2bb 9761 abbb
000000c0: de4a 993a 94fe 093c 6678 f7bb 7244 943b
000000d0: 5930 173b 060d 81bb a69b 98bb a543 75bc
000000e0: aa2c cfbb 7dbb 07bc 4e3c 7f3a 625b 6d3a
000000f0: 110d 273b 808a b139 eaf8 e13b c33e 2dbb
00000100: fb46 0e3c 1bb1 743c 6167 4db9 7db2 643b
00000110: 38d8 123a 352f 0b3b 0662 57bc ff41 efba
00000120: 7b22 993a cd99 1ebb f568 e4bb 5658 faba
00000130: 325c 133b 83ba c2bb cc0e 3dbc 9d70 23bc
00000140: fedf 31bb ff6e 83ba 9b99 dab9 3ddd 6f3b
00000150: c2ab b8bb c402 363a fc4e afb9 fbbf cdba
00000160: b3c0 e03a 25ef 38ba d70a 2a3a 64fd fb3a
00000170: 88b7 ab3b 8ff2 66bb 43bd 703a 5450 d2bb
00000180: 97a6 963b 334a 1a3b d354 45bb ad2c 61bb
00000190: b44d a83a 6ff8 af3b 42ce 1cbb fa3c 5d3a
000001a0: 8aba 9d3a 7ea1 bd3a c325 3e3b a763 96ba
000001b0: a216 a53b e903 fe3a fcec 9cba 3fd4 27ba
000001c0: 4836 b039 18f0 96bb 76dc 853b 98ba f9ba
000001d0: d53f 9138 b8e9 a5bb 3428 0abc 9c9d ddbb
000001e0: d6a8 253b bbdb 00bc 7cd4 023c f28f 29bc
000001f0: f7ba d7bb 3425 043b 988b d139 82ab 47bb
00000200: 8642 123b dc8c 773c 8131 a63b f788 e4ba
00000210: 3295 033b 7167 b23b 22ea a73b 1d8a 30ba
00000220: bded 4cbc b649 bbbb 9056 a1ba e413 443b
00000230: 8807 9bbb 1853 da3b 1c9a 90bb 9a70 163c
00000240: cb7c 2d3c 64ff ee3b bd1c 0fba 4fc0 5b39
00000250: b1fb c13b d3c1 b6ba 6a64 fb39 ddc3 b5ba
00000260: 92bf 18bc 49bc cf3b 24e8 a3bb 7241 183c
00000270: 598d 1e3c 4961 0abc 3c59 abb9 d89b 09bb
00000280: 2b39 c4bb 809f b1ba 96ea 02bc 9377 133b
00000290: 03f6 89bb 4e89 0cbc a069 adba a097 7aba
000002a0: f029 013c 4d35 bdbb b8af 9b3b 1c6f 323b
000002b0: b208 4b3b b35b 7539 a55e e3bb c6f5 25bc
000002c0: 44be 25bc a9e7 eb3b 042a 39bb 88a2 60bb
000002d0: 48e3 e13a bcbd c53b 4b2a b4bb 6686 0c3c
000002e0: 965c 933b 4c0d 09bb 7b30 043c f2f3 013c
000002f0: 110f 01bb 9994 293b 3a36 cfbb 8d2b afbb
00000300: 8984 6bbb 3f57 533b b9ae d4bb c578 8ebb
00000310: 3452 bebb eea0 63bc 6ad9 093c 7d95 7a3a
00000320: 7092 903b 8381 f23b 6649 9b3a 6c9b b7ba
00000330: 85a1 353c 3bf3 a2bb c9d8 4ebb 4ff5 d73b
00000340: 74c1 2b3c 5bd0 49bb f7a2 e73b 4d1c 033b
00000350: 01c1 8ebb 7de7 393a 390d 8eba 1312 2f3c
00000360: 19ab 4dbc 65ce 0eb9 c5d0 543c 6b85 493b
00000370: 2e85 ca3b f063 9f3b 9cec 2ab9 1002 b23a
00000380: 03fb 5dbc 3cb5 3d3c a298 c039 e128 063c
00000390: 6e17 d4ba bde6 0abb 1d6b 29bb 8a8c 083c
000003a0: fbea f4b8 19ec 073c 9d24 9639 395e 353c
000003b0: ab26 8c3c 3a6f e0ba 8002 84bc d512 273b
000003c0: cf42 84bb 2d01 af36 f242 4ebb e730 11bc
000003d0: 3782 7db5 5f4e 173c 33f7 b93b ea08 363b
000003e0: 0c82 263b c597 143c d844 0fbc 0a28 183c
000003f0: 429c 793b 8f0b ce3b d12b 06bc 153f f83b

network_body.linear_encoder.seq_layers.0.bias f4 [256]
0.00074141746 -0.002429615 -1.336561e-05 -7.584713e-27 -0.0026678394 -0.0033956622 -0.0032234956 0.00022423718
-0.0033456052 -0.00015298645 -0.0034189036 -0.0014208896 -0.0027117252 0.0034465163 0.0032547708 3.173589e-16
0.0033162325 0.0032117679 -0.001685157 -6.579493e-10 -0.0026258226 6.4411246e-08 0.0016159278 -0.0015504421
0.00049233524 -0.0032722706 -0.0007108352 -0.0034107142 -0.0031979328 -0.0017403862 -0.0034143536 -0.0032129714
0.0032383918 0.002592841 -0.0031712868 -0.003234913 0.002699742 -0.0034332585 -8.992182e-06 1.7253276e-23
-5.903207e-08 0.0020835253 0.0030105135 -0.003281834 -7.935235e-05 0.0032648437 0.0032716405 -4.9575517e-09
0.00016103116 -0.003100734 0.0030262368 0.00046127118 0.0024514638 -1.7145986e-07 -0.00035884668 -0.0018026786
3.4548428e-23 0.0034399568 -0.0033036743 -0.0012237594 2.1452849e-10 -0.0032430927 0.0032487004 1.8321834e-17
1.166526e-05 -0.003402424 0.0027074702 0.0033455843 1.8965899e-08 4.313864e-12 -0.0022024487 0.002898017
-0.0029173775 8.677059e-07 1.1140858e-11 -0.0033603122 -1.4786717e-11 0.00033665326 -2.198962e-08 0.0020765492
0.00338263 -0.00284583 0.003246165 6.765303e-16 0.0018016885 0.0001732888 -0.0010842386 0.0030161198
-0.0017257632 4.413961e-21 -0.0034128737 -0.0010598967 -0.0032195614 -0.0024204818 -0.0028714342 0.0032067418
0.0033787787 0.001030025 0.0020845912 0.0025444268 -0.00033405368 -1.0601358e-07 0.0033991921 -0.0018606645
0.0020639228 -0.002355658 -0.0014178506 -2.937243e-09 -0.0016152782 0.0007556932 -0.0034145585 0.0035120442
-0.0017971882 -0.002519607 0.0031368842 -7.727224e-14 -0.0010361563 -0.0023641945 0.0035100838 0.001532592
0.00076067296 -0.0031614252 -0.0031561118 -2.5045799e-11 -1.4744886e-16 0.0015583457 0.0013032525 0.00033645306
0.0006335467 -0.0034423422 -7.1503564e-08 0.0014570762 4.033792e-10 -0.00022436497 -0.0019397726 4.4787894e-16
-0.0018877146 3.887064e-14 -0.0032894327 -0.002826028 0.0034563288 -2.8048269e-05 0.0017364287 -0.0034266936
-0.0032925843 0.0029376002 -0.0032352086 -0.0033925811 -3.4852204e-15 -0.0024270446 0.0035126915 0.003265147
-0.0033151773 0.00047771816 -0.003389612 0.00030814743 -0.0031174172 -0.00070089224 -0.0024071971 -0.0028843947
0.0033870807 -5.3843763e-05 0.0035446417 3.0081292e-08 -4.801236e-07 -0.0027777 0.0033058485 7.639132e-10
-1.7443246e-18 -0.0023071468 -0.0010774676 9.281141e-05 5.86147e-15 -0.0034189117 -0.001579228 0.001227779
0.002486084 0.0035620956 0.0034476684 0.0033320226 -2.4037751e-13 -5.5284553e-13 0.00026723268 0.0026790204
-4.882331e-10 -1.3738834e-06 3.0401825e-05 0.003479483 -0.0019792705 2.0969848e-05 -0.0025541007 1.0665586e-12
0.00055369386 -7.713012e-11 0.0034434395 -0.003283033 0.0028214292 0.0019366104 -1.666331e-14 0.0033501282
1.090005e-09 -0.0033856658 9.970505e-19 0.003584316 3.7698197e-07 -0.001983247 0.0015437227 0.0034446372
0.0035195528 -0.0017737106 -0.003391592 -3.7283132e-13 0.0033074978 0.0030421717 -0.0012143856 -0.0022708562
-0.002343857 -9.2091355e-08 0.0028293212 0.0032469037 -9.934228e-15 0.0017654251 -0.0033234255 -0.0034740893
0.0028838848 -0.0029470038 0.0012330271 0.0033741896 0.0034650406 0.00350052 -0.0020579558 0.0028005685
-0.0021426487 -2.417514e-05 0.003113416 4.1947576e-08 -0.0028745756 3.0612814e-08 0.0031364753 0.00088297075
3.7645546e-11 -6.988504e-08 0.0034125524 -0.0016363396 -0.0034719803 0.0005888488 0.0029309383 -0.00090867904
0.0032602013 -0.0034029656 9.821373e-17 4.9957083e-07 0.0018955799 0.00081830425 0.0029549154 -0.0012376314
00000000: af5b 423a 2d3a 1fbb dc3c 60b7 103b 1694
00000010: ebd6 2ebb c289 5ebb 4841 53bb 3621 6b39
00000020: f141 5bbb fd6a 20b9 af0f 60bb 253d baba
00000030: 33b7 31bb f3de 613b fe4d 553b e8f1 b625
00000040: 2655 593b 867c 523b 7ce0 dcba 11db 34b0
00000050: fe15 2cbb 7552 8a33 8acd d33a 3438 cbba
00000060: 0f10 013a 9773 56bb 5857 3aba 4a86 5fbb
00000070: 6994 51bb ac1d e4ba 59c3 5fbb b790 52bb
00000080: 333b 543b a7ec 293b 5dd5 4fbb d600 54bb
00000090: 28ee 303b 8500 61bb 21dd 16b7 0bdd a619
000000a0: 738a 7db3 c18b 083b 094c 453b 0a14 57bb
000000b0: f869 a6b8 fdf6 553b 0569 563b 1657 aab1
000000c0: 79da 2839 af35 4bbb d453 463b c5d6 f139
000000d0: bda8 203b 871a 38b4 9623 bcb9 db47 ecba
000000e0: e210 271a e670 613b 7582 58bb 8d66 a0ba
000000f0: 67e0 6b2f 118a 54bb 26e8 543b 35fd a823
00000100: e9b5 4337 34fb 5ebb d06f 313b 9741 5b3b
00000110: 74ea a232 d5c7 972c f556 10bb a8ec 3d3b
00000120: 7931 3fbb 4cec 6835 f7fd 432d af38 5cbb
00000130: ba10 82ad d680 b039 b0e3 bcb2 b716 083b
00000140: 1daf 5d3b 1b81 3abb 9dbd 543b 20ff 4226
00000150: a226 ec3a dcb4 3539 031d 8eba 18aa 453b
00000160: 0133 e2ba 36c1 a61d 85aa 5fbb 3bec 8aba
00000170: 47ff 52bb f2a0 1ebb ac2e 3cbb 3328 523b
00000180: 806e 5d3b e701 873a a39d 083b 66c0 263b
00000190: ed23 afb9 95a9 e3b3 fbc4 5e3b 8ae1 f3ba
000001a0: e142 073b 6261 1abb 2cd7 b9ba 86d8 49b1
000001b0: beb7 d3ba b619 463a c9c6 5fbb 532a 663b
000001c0: a18f ebba fe1f 25bb 2f94 4d3b 6a00 aea9
000001d0: a3cf 87ba 9af0 1abb 6f09 663b 41e1 c83a
000001e0: e667 473a ea2f 4fbb c5d6 4ebb 204e dcad
000001f0: 39ff 29a5 6841 cc3a e6d1 aa3a f765 b039
00000200: 9914 263a eb98 61bb 808d 99b3 5dfb be3a
00000210: 93c2 dd2f 8343 6bb9 f83f feba a217 0126
00000220: 316d f7ba cc0e 2f29 8693 57bb e234 39bb
00000230: 9383 623b 3349 ebb7 e198 e33a 6192 60bb
00000240: 66c8 57bb c184 403b cb05 54bb 1156 5ebb
00000250: f822 7ba7 0d0f 1fbb 2f35 663b 14fc 553b
00000260: 7243 59bb 3f76 fa39 4124 5ebb d98e a139
00000270: 954d 4cbb 15bc 37ba 11c2 1dbb 1d08 3dbb
00000280: c9f9 5d3b 4dd6 61b8 384d 683b bb32 0133
00000290: d8e1 00b5 130a 36bb efa6 583b 9dfb 5130
000002a0: 5cb5 00a2 8033 17bb d039 8dba bfa3 c238
000002b0: 852e d327 d20f 60bb 19fe ceba 6ded a03a
000002c0: 91ed 223b 0c72 693b 47f2 613b 105e 5a3b
000002d0: 0d52 87aa b89c 1bab 5d1b 8c39 8192 2f3b
000002e0: 5a34 06b0 4666 b8b5 6c07 ff37 0a08 643b
000002f0: a6b6 01bb 68e8 af37 b362 27bb d31a 962b
00000300: c425 113a 669c a9ae 54ab 613b 2728 57bb
00000310: bae7 383b ddd5 fd3a fa16 96a8 d38d 5b3b
00000320: 24cf 9530 0ce2 5dbb 8123 9321 d8e6 6a3b
00000330: 0264 ca34 5df9 01bb bd56 ca3a 6cbf 613b
00000340: 4ca8 663b da7b e8ba 7945 5ebb a8e2 d1aa
00000350: 9bc2 583b 2c5f 473b 052c 9fba a5d2 14bb
00000360: 659b 19bb c2c3 c5b3 226c 393b 01ca 543b
00000370: 8af5 32a8 d665 e73a d4cd 59bb 8cad 63bb
00000380: 8fff 3c3b 8522 41bb 869d a13a 8221 5d3b
00000390: bc15 633b fb68 653b c5de 06bb be89 373b
000003a0: ae6b 0cbb b8cb cab7 740a 4c3b d929 3433
000003b0: 6063 3cbb 257b 0333 538d 4d3b 2a77 673a
000003c0: 1e91 252e b513 96b3 21a5 5f3b 727a d6ba
000003d0: 2a8a 63bb f95c 1a3a fc14 403b 6b34 6eba
000003e0: 1aa9 553b 4a04 5fbb 2777 e224 3f1a 0635
000003f0: 1b75 f83a 7883 563a 41a7 413b 0538 a2ba

network_body.linear_encoder.seq_layers.0.weight f4 [256, 73]
-0.03208545 0.078109525 -0.060417213 0.011959811 0.15495932 0.23595972 -0.09043731 -0.15704891
-0.028019212 0.07508891 -0.025373623 0.36062777 0.10627027 0.14551663 0.07135654 -0.04547767
0.07814475 0.03414975 -0.065738 0.011973392 0.08387334 -0.07844348 0.21979645 0.090459794
0.013522608 -0.03256259 -0.13317308 -0.013541882 0.04130569 -0.17051359 0.06485357 -0.30192912
0.16204676 -0.036902066 -0.1166992 -0.083871715 0.031907614 0.01588996 -0.09667964 0.12302815
0.026932184 -0.035478763 -0.02728985 0.096653804 0.25564227 0.03869964 -0.008384885 0.07976556
0.22147073 0.14922199 0.0023441187 -0.013504722 0.18132468 -0.057434965 0.11533737 0.29238245
-0.10287761 -0.13843752 0.035200175 -0.1789547 0.060036395 0.06719035 0.023103388 0.13464613
0.26771992 0.30084002 0.070703454 -0.21928371 0.17858078 0.16218545 -0.04805905 0.100068554
0.15663964 -0.050510217 -0.033899494 -0.04767953 0.13141534 -0.10361879 -0.08010056 -0.004090714
0.037669357 0.023963429 -0.10637828 0.018672911 -0.06551415 -0.11073255 0.013746807 -0.01992944
-0.035406545 -0.08392862 -0.1298656 0.2561804 0.07658993 0.1732473 0.10790616 -0.045862522
-0.19937538 0.07761445 0.07724252 0.062226657 0.09160063 -0.19515292 0.11256681 0.08740241
-0.09785888 0.2730375 0.1975477 0.04249751 -0.030699877 -0.077447675 -0.3164385 0.05947192
-0.07694262 0.11742024 0.07787667 -0.20662962 -0.20803082 0.037022706 0.13947588 -0.20682748
0.11421809 0.08360383 0.03170027 0.10717333 -0.037388127 -0.104094364 -0.11717594 -0.192213
-0.20147136 0.18368135 0.048661117 -0.08266591 0.14270242 0.032417074 0.024890814 -0.12126351
-0.11664277 0.16640177 -0.034106027 0.13319877 -0.029784268 0.003130151 0.1512938 0.12749194
0.077452675 0.10636594 -0.07340824 0.33564633 -0.008752087 0.05680704 0.16798757 -0.199286
0.13467452 0.023868171 -0.19236375 -0.02512723 -0.05494525 -0.23892339 0.09001584 0.041332252
0.06341922 -0.033410385 0.089811504 -0.0019890263 0.0589647 0.016705679 0.13924354 -0.0746337
-0.008265523 0.05904538 0.012525955 -0.07464264 0.023441792 0.034632754 -0.026407588 -0.096247636
-0.04451518 0.06337484 0.062253892 -0.2681792 0.18394266 -0.07132974 -0.039917845 -0.035967827
-0.049746353 0.037807755 0.14669245 0.110565044 -0.07504755 -0.08466372 0.04806117 0.14678921
-0.07837054 -0.05084151 -0.051642623 -0.034907952 -0.069940984 -0.07735068 -0.10925855 -0.049735054
0.1156663 -0.12244485 0.1298805 -0.20173435 -0.03213115 0.13790968 -0.10119372 -0.0948454
0.1239353 -0.07185114 -0.14642434 -0.024241157 -0.078053914 0.10064526 0.04823862 0.1266147
0.021499 -0.027163127 0.043134302 0.042089324 0.07518683 -0.25414607 -0.102745496 -0.20989573
0.02730851 0.029094424 0.22407524 -0.1916881 0.052164223 -0.31231293 -0.10024473 -0.028226137
0.1879496 -0.056940366 -0.017642932 -0.19021769 -0.0705743 0.065524116 -0.37713927 0.14694713
0.08528578 0.008760049 -0.06065496 -0.09887725 -0.12567307 -0.28336698 -0.10487238 0.07897226
-0.050811548 0.13877773 -0.19233882 0.007749271 -0.079683475 0.10587343 -0.1460567 -0.19635819
00000000: 086c 03bd e3f7 9f3d 0a78 77bd 15f3 433c
00000010: a8ad 1e3e 6d9f 713e 3237 b9bd 6ed1 20be
00000020: 8c88 e5bc 37c8 993d 58dc cfbc 34a4 b83e
00000030: 3aa4 d93d 5002 153e 6123 923d cb46 3abd
00000040: 5b0a a03d 9ce0 0b3d a5a1 86bd 0c2c 443c
00000050: c9c5 ab3d faa6 a0bd 5212 613e fc42 b93d
00000060: ee8d 5d3c 5a60 05bd 865e 08be c5de 5dbc
00000070: 2830 293d 1d9b 2ebe f3d1 843d 7496 9abe
00000080: 96ef 253e 9f26 17bd fdff eebd efc4 abbd
00000090: 8fb1 023d a92b 823c faff c5bd 2ff6 fb3d
000000a0: e2a0 dc3c 2e52 11bd f78e dfbc 6ef2 c53d
000000b0: 8be3 823e 8483 1e3d c260 09bc 205c a33d
000000c0: 39c9 623e a6cd 183e c99f 193b e942 5dbc
000000d0: 2dad 393e ed40 6bbd 0036 ec3d 27b3 953e
000000e0: 7fb1 d2bd 91c2 0dbe 0f2e 103d e73f 37be
000000f0: b9e8 753d 189b 893d 5143 bd3c ade0 093e
00000100: 9612 893e b407 9a3e f9cc 903d e98b 60be
00000110: e1dd 363e f113 263e 91d9 44bd bef0 cc3d
00000120: 2466 203e cde3 4ebd 32da 0abd 9c4b 43bd
00000130: be91 063e 1736 d4bd c30b a4bd 650b 86bb
00000140: 2f4b 1a3d f44e c43c dbdc d9bd eff7 983c
00000150: 482c 86bd bfc7 e2bd 4a3a 613c 1143 a3bc
00000160: 7406 11bd c5e2 abbd 7dfb 04be 142a 833e
00000170: 2edb 9c3d bd67 313e e8fd dc3d 57da 3bbd
00000180: 0f29 4cbe 53f4 9e3d 5431 9e3d 61e1 7e3d
00000190: 1c99 bb3d 2bd6 47be 6d89 e63d 0900 b33d
000001a0: 3d6a c8bd 92cb 8b3e f249 4a3e de11 2e3d
000001b0: 4f7e fbbc e39c 9ebd 3a04 a2be d498 733d
000001c0: 1894 9dbd 067a f03d ce7d 9f3d b796 53be
000001d0: 0806 55be 1fa5 173d c4d2 0e3e 95ca 53be
000001e0: 2deb e93d 7c38 ab3d 24d8 013d b17d db3d
000001f0: 4b24 19bd 6d2f d5bd f0f9 efbd 7cd3 44be
00000200: 824e 4ebe f716 3c3e e150 473d bf4c a9bd
00000210: 9520 123e c4c7 043d d2e7 cb3c 0159 f8bd
00000220: 68e2 eebd 3a65 2a3e c3b2 0bbd 4265 083e
00000230: 23fe f3bc 3823 4d3b c3ec 1a3e 3f8d 023e
00000240: 829f 9e3d 63d6 d93d 0f57 96bd d6d9 ab3e
00000250: ea64 0fbc 80ae 683d ef04 2c3e a111 4cbe
00000260: 1ee8 093e 2f87 c33c 01fb 44be 9fd7 cdbc
00000270: 450e 61bd 55a8 74be 3a5a b83d 024c 293d
00000280: f0e1 813d 54d9 08bd 18ef b73d 535a 02bb
00000290: f884 713d 59da 883c dc95 0e3e 8ed9 98bd
000002a0: 1e6c 07bc 92d9 713d aa39 4d3c 3ede 98bd
000002b0: 0009 c03c 13db 0d3d ba54 d8bc 7b1d c5bd
000002c0: 8d55 36bd abca 813d f0fd 7e3d c94e 89be
000002d0: 775b 3c3e 5415 92bd e580 23bd 0053 13bd
000002e0: d5c2 4bbd 4edc 1a3d 8c36 163e ed6f e23d
000002f0: 88b2 99bd 2c64 adbd cadb 443d e94f 163e
00000300: bc80 a0bd 303f 50bd 3787 53bd a4fb 0ebd
00000310: 383d 8fbd 096a 9ebd f2c2 dfbd fcb6 4bbd
00000320: 74e2 ec3d 5ec4 fabd 65ff 043e 7393 4ebe
00000330: f49b 03bd 3238 0d3e a73e cfbd 4e3e c2bd
00000340: cad1 fd3d b126 93bd 43f0 15be 6495 c6bc
00000350: bbda 9fbd 1a1f ce3d dc95 453d 49a7 013e
00000360: ac1e b03c 3585 debc 98ad 303d db65 2c3d
00000370: 8dfb 993d 6f1f 82be 3b6c d2bd e8ee 56be
00000380: 19b6 df3c 6e57 ee3c fb73 653e e349 44be
00000390: 27aa 553d 7be7 9fbe 1c4d cdbd 803a e7bc
000003a0: dc75 403e 4d3a 69bd e987 90bc 6dc8 42be
000003b0: 4289 90bd 8231 863d 6618 c1be 4f79 163e
000003c0: 50aa ae3d 4f86 0f3c 5671 78bd 2880 cabd
000003d0: 71b0 00be 7a15 91be 55c7 d6bd 35bc a13d
000003e0: c51f 50bd c01b 0e3e 78f4 44be 99ed fd3b
000003f0: 1731 a3bd 2bd4 d83d e38f 15be 1f12 49be

network_body.linear_encoder.seq_layers.2.bias f4 [256]
-4.240823e-13 -0.0026027602 0.002935475 0.0032707262 0.0032872034 -1.1552136e-14 -0.0006749298 3.4461826e-11
-0.0029091823 -0.002140782 -4.246941e-06 2.2129592e-08 -0.0022168672 -1.02263506e-07 0.0034559404 2.9768842e-08
0.0034963414 -0.0034294554 0.0003389005 0.0018334165 -0.0019358196 -5.358567e-07 -2.7978472e-15 0.0021654905
-0.0011509232 -0.0020675948 0.0005345568 0.0034087363 -0.00037537096 -0.0019238954 -3.5500562e-09 0.0033118182
0.0023986418 0.0033981423 -0.0029989514 0.0027707194 0.003361762 -0.0028276506 -0.0011385381 -0.0033110806
0.0025007545 -0.0031882466 0.0029870928 -7.942747e-08 0.0019808467 0.0011742039 -0.0033986003 -0.0015716946
-0.0005785296 0.0032687667 -5.0883057e-07 -0.0033202192 0.003452179 -0.0008419323 -0.002297962 0.003149751
0.0034373675 -3.3586432e-12 -1.8865398e-05 0.0022872312 0.0037154038 -0.0030425831 -0.0022600228 1.6214358e-07
0.0029256663 1.2987216e-06 -0.0034469874 -0.0017382106 -1.0157461e-07 -0.000504004 0.0027337691 0.0034884713
-0.003401664 0.0035103248 0.0019762705 -0.0015003993 0.002144054 4.216659e-08 0.00045295013 0.0034767815
-0.0033843059 -4.3408086e-08 -0.0013118018 -1.06771154e-11 0.0036513575 0.0039841696 -0.0025434818 -0.0033394212
-0.00036685745 5.960984e-05 0.0022788157 -0.0022678024 -0.0008120639 0.0032609513 0.0044153477 5.0725216e-06
0.0009896614 -0.0015889193 7.1743243e-06 4.040969e-06 -0.003023682 -0.0027290992 0.0026050797 0.00076055154
0.003396571 0.0027730484 0.0017712855 0.0015741442 0.003275915 -0.00076381746 0.002522999 0.00309202
-0.0010188885 0.0015586083 -0.0032362496 0.004158924 0.0017707236 -0.0031061617 0.0023649484 -0.002041132
-0.002016016 0.0017841996 -0.0007805748 0.0016071066 -1.1931518e-11 0.0038706332 -0.0032428566 0.0003968842
-0.0032865654 0.0035235975 -0.003449678 -0.0016907819 -0.0033430469 -0.0023143305 0.0025785917 0.0022579425
0.0022084191 -0.0029425342 -0.0015763347 -0.0030058294 0.0033755652 -0.0025346251 0.00074775313 0.0028655424
0.0027324902 -0.0027778584 -0.0027315621 0.0031444733 0.00042541194 -0.003194828 -0.0028153185 -0.0029465298
0.004630272 -0.0033627078 -1.1411994e-08 -0.0031699056 0.0030662625 0.0032424072 -0.0028436326 -2.8985273e-11
0.0026637358 -0.0014868764 -0.00025161428 0.0041129505 -0.0016664506 0.0008103492 -0.0029950782 1.3052136e-09
-0.003439062 0.0035119255 -0.0029736029 -0.0020143096 -0.0031384341 0.0016315927 6.8720576e-05 -0.0009432809
0.0034908883 3.929418e-05 0.0024331743 -0.0012862218 -0.002484761 -0.0017259682 -0.0021574013 -0.002092814
0.0029483535 5.155322e-07 -0.0032662048 -0.0033754692 -0.0014495844 -0.0033777046 0.0034629893 0.0034118998
-0.0028878893 -0.0033447065 0.0004098192 -0.0029457994 -0.0030527192 -0.0017806897 0.0020132323 -1.4108245e-11
0.0030589274 2.7519267e-05 -0.0029779784 0.0010766118 -0.0015959954 0.0034757499 4.0059767e-05 0.002562305
0.0035013892 -0.003037442 0.00087993033 -0.0015181631 -9.401488e-12 -0.0029249436 -0.0031536864 2.422561e-05
-0.0026419014 -0.0028834562 -0.0014000023 0.0032385073 0.0022283394 0.0020116144 0.0034413205 0.0027173988
0.0034286396 -0.000710725 -0.0034492791 0.0020767471 -0.0022823042 0.0013944209 0.003214915 -0.00031609848
-3.5855535e-07 -0.0009792799 3.498717e-10 -0.0032222995 0.0037332631 1.5357456e-10 0.0020832282 1.2706202e-12
0.004895985 -0.0031117056 0.003475822 -0.0031447464 6.435184e-14 0.0026436925 -0.0034390897 -0.0034307407
2.601245e-09 0.00037001903 0.003494158 1.7735723e-05 -0.0018076149 6.122548e-08 0.0034775874 0.0004353034
00000000: b3bc eeaa 1293 2abb 1961 403b ae59 563b
00000010: 1f6e 573b d31a 50a8 c6ed 30ba 9190 172e
00000020: fba7 3ebb 5d4c 0cbb f280 8eb6 7d17 be32
00000030: dc48 11bb f59b dbb3 0f7d 623b 60b6 ff32
00000040: e022 653b b7c0 60bb 75ae b139 404f f03a
00000050: 54bb fdba cbd7 0fb5 2c9b 49a7 e7ea 0d3b
00000060: 93da 96ba 7c80 07bb 8021 0c3a 1b65 5f3b
00000070: 70cd c4b9 382b fcba 40f5 73b1 170b 593b
00000080: 8832 1d3b 5eb3 5e3b 0e8a 44bb f594 353b
00000090: 0251 5c3b 1b50 39bb 003b 95ba b7fe 58bb
000000a0: b3e3 233b e7f1 50bb 1ac3 433b b791 aab3
000000b0: 18d1 013b bfe7 993a 0dbb 5ebb 5201 ceba
000000c0: 77a8 17ba ce38 563b 9296 08b5 0998 59bb
000000d0: f43d 623b 1fb5 5cba 6899 16bb 0e6c 4e3b
000000e0: 7545 613b f057 6cac 2241 9eb7 5fe5 153b
000000f0: 227e 733b 1366 47bb e41c 14bb b019 2e34
00000100: 89bc 3f3b bc4f ae35 dae6 61bb abd4 e3ba
00000110: 3b21 dab3 231f 04ba 0929 333b d69e 643b
00000120: 74ee 5ebb 7a0d 663b 5184 013b 0ca9 c4ba
00000130: 4283 0c3b a81a 3533 f079 ed39 b7da 633b
00000140: 3bcb 5dbb b26f 3ab3 c4f0 abba 74d5 3bad
00000150: 9d4b 6f3b a38d 823b 8bb0 26bb 31da 5abb
00000160: c656 c0b9 9405 7a38 2f58 153b 699f 14bb
00000170: b0e0 54ba afb5 553b 9fae 903b a134 aa36
00000180: 87b7 813a 4943 d0ba faba f036 a997 8736
00000190: f728 46bb b0da 32bb fcb9 2a3b c05f 473a
000001a0: 0199 5e3b 08bc 353b 7b2a e83a 8453 ce3a
000001b0: bcb0 563b ec3a 48ba e658 253b 7da3 4a3b
000001c0: 3a8c 85ba 374a cc3a 4217 54bb 9547 883b
000001d0: a017 e83a bf90 4bbb 40fd 1a3b 83c4 05bb
000001e0: 231f 04bb cedb e93a 7d9f 4cba 8da5 d23a
000001f0: c8e6 51ad 73aa 7d3b 1b86 54bb e514 d039
00000200: 6b63 57bb 28ec 663b fe13 62bb 3a9d ddba
00000210: 0517 5bbb 06ac 17bb 97fd 283b fdf9 133b
00000220: 20bb 103b 88d7 40bb 049d ceba 73fd 44bb
00000230: 9638 5d3b f41b 26bb dd04 443a d3cb 3b3b
00000240: 9413 333b bb0c 36bb 0204 33bb 8213 4e3b
00000250: d309 df39 5260 51bb 3581 38bb 911a 41bb
00000260: 89b9 973b e060 5cbb 7b0e 44b2 31be 4fbb
00000270: 59f3 483b 917e 543b 3d5c 3abb 08f5 fead
00000280: 1292 2e3b 4be3 c2ba 19eb 83b9 eec5 863b
00000290: ce6c daba 9d6d 543a 1349 44bb 1f63 b330
000002a0: e361 61bb 5528 663b c7e0 42bb 8202 04bb
000002b0: 30ae 4dbb 2bdb d53a 141e 9038 8246 77ba
000002c0: 63c7 643b cecf 2438 e475 1f3b 7196 a8ba
000002d0: 5fd7 22bb e239 e2ba 3063 0dbb 9827 09bb
000002e0: 2a39 413b 1a63 0a35 d30d 56bb fa36 5dbb
000002f0: fbff bdba 7b5c 5dbb 52f3 623b 2e9a 5f3b
00000300: be42 3dbb dd32 5bbb 00dd d639 500e 41bb
00000310: 2110 48bb 0866 e9ba 6ff0 033b e331 78ad
00000320: 4978 483b 2dd9 e637 302a 43bb 191d 8d3a
00000330: b830 d1ba 68c9 633b d905 2838 58ec 273b
00000340: 9077 653b d20f 47bb 20ab 663a 1afd c6ba
00000350: 8a64 25ad 69b0 3fbb 14ae 4ebb 1a38 cb37
00000360: c023 2dbb 5ef8 3cbb 4880 b7ba 233d 543b
00000370: 5509 123b 4ad5 033b c787 613b 6316 323b
00000380: 07b3 603b f34f 3aba 4d0d 62bb 091a 083b
00000390: b692 15bb 00c5 b63a 53b1 523b 05ba a5b9
000003a0: 797f c0b4 2e5b 80ba 1058 c02f 372d 53bb
000003b0: c3a9 743b 65db 282f c586 083b ebd2 b22b
000003c0: 806e a03b c2ed 4bbb 9eca 633b 1718 4ebb
000003d0: 4fe8 9029 cd41 2d3b 5a62 61bb 47d6 60bb
000003e0: 96c1 3231 1dff c139 3efe 643b 2dc7 9437
000003f0: 7eed ecba 107b 8333 3ce8 633b 6f39 e439

network_body.linear_encoder.seq_layers.2.weight f4 [256, 256]
-0.00614177 0.008704625 -0.0575605 -0.0056830803 -0.0031880103 0.092642404 0.00585698 -0.052452676
0.036901362 -0.084913686 -0.03441187 0.04886822 -0.099188745 -0.03882144 -0.024585126 -0.16536829
0.03026404 0.03852109 -0.03468815 -0.056428302 -0.08351197 0.02211968 -0.10779894 0.06442359
0.094301224 0.0072493027 0.1282835 -0.06568415 0.05842866 -0.069171555 0.06746587 -0.14599921
0.045007356 -0.10900218 -0.02311087 -0.04623355 0.01933897 -0.04837356 -0.0075634834 -0.112763435
-0.06225307 0.018947974 -0.06626418 0.006221828 0.014209256 0.027503818 0.0742346 0.01127704
-0.0026185878 -0.026784278 0.029714348 -0.02353728 -0.037242603 0.04265671 0.0003822426 0.035934113
0.028031226 -0.015030761 -0.021266118 -0.03297203 0.040732637 0.064330086 -0.012003801 0.015381796
0.012755583 -0.029751642 -0.024435813 0.0923427 -0.011655957 -0.08610884 -0.20158878 0.018392637
0.023577081 -0.00093906914 0.09992321 0.020780917 0.025721597 -0.018154934 -0.057435386 -0.009339442
0.0129281785 0.03473628 0.03923183 -0.08771058 -0.009064634 0.049979325 0.038438708 0.0233056
0.0132515915 -0.0033858605 0.10320367 -0.014500095 -0.009137018 -0.11846918 0.102560334 0.00497656
-0.075562075 -0.023677425 -0.012108471 -0.035492 0.047875162 0.16397958 0.024617398 -0.011941739
0.0014529676 -0.08068605 -0.08404615 -0.06685931 -0.10865693 0.021219438 -0.0773143 -0.0082519995
-0.031029021 -0.07693696 0.09267674 -0.10161231 -0.023105945 0.010083999 0.09083881 0.0961129
-0.1449661 -0.04731072 0.023746304 -0.05759359 0.027817616 0.08110365 0.016724354 0.08055716
0.05309513 -0.06323854 0.057998046 -0.058068227 -0.073839754 0.0843765 -0.08808663 -0.11863844
-0.040963802 -0.018510906 -0.05254105 0.010359093 0.06869801 -0.100485876 -0.05307536 -0.008751974
0.013399711 -0.10531389 0.0015048953 -0.022546455 0.010370071 0.011050758 0.02526269 -0.021712588
-0.009798462 0.030520419 -0.07842887 0.04655309 -0.03041946 0.024916226 0.016873622 -0.0052974927
0.101696566 -0.13520855 -0.010569718 0.05983535 0.006460148 0.052718297 -0.12114908 0.07093542
0.07037861 0.041085567 0.08684398 0.009195047 0.048165057 -0.034735825 -0.04681002 -0.114096716
0.002833181 0.047438335 0.0021214196 0.0017492574 0.14879233 -0.047313664 0.052643206 -0.07048838
-0.0007084157 0.074646585 0.026016537 0.03138615 -0.06311116 -0.10479342 -0.08757786 0.042338576
-0.043466926 0.025079051 0.008476472 0.043402486 -0.08484961 -0.07782828 -0.0011732309 0.079133265
-0.14160945 -0.03188354 0.06298766 0.026280215 0.09319786 -0.0524103 -0.045588225 -0.05601049
-0.0592983 -0.02845303 -0.006565617 -0.00081187714 0.02769487 -0.056167215 -0.052551154 -0.08293472
0.011087745 -0.05049009 0.03151826 -0.021477295 -0.0011431668 -0.087762915 -0.053375255 -0.0071241204
0.07112767 0.08590706 0.0024812433 -0.025731605 -0.037082512 -0.092450365 0.051117625 0.10120688
0.05752503 0.07900277 -0.019506162 -0.0055990443 0.019784315 0.072768204 -0.04770431 -0.049091354
-0.050846945 0.051157944 -0.07460725 0.040493675 -0.0095407935 -0.079041205 0.0049294336 -0.072612844
-0.049504433 -0.054623213 -0.0047255666 0.09045634 -0.025487788 -0.015884204 -0.023113502 -0.022502663
00000000: e740 c9bb d89d 0e3c 8fc4 6bbd 2239 babb
00000010: f0ed 50bb 4dbb bd3d e9eb bf3b 9ed8 56bd
00000020: e225 173d 3ae7 adbd 76f3 0cbd 0b2a 483d
00000030: 7823 cbbd 3b03 1fbd bf66 c9bc 4e56 29be
00000040: 4bec f73c 4ac8 1d3d 2915 0ebd 5d21 67bd
00000050: 5308 abbd 5534 b53c b1c5 dcbd 84f0 833d
00000060: 0021 c13d 8f8b ed3b c05c 033e 6985 86bd
00000070: e452 6f3d d1a9 8dbd 8c2b 8a3d d180 15be
00000080: a259 383d 893c dfbd 0253 bdbc 645f 3dbd
00000090: c26c 9e3c 5b23 46bd 19d7 f7bb 84f0 e6bd
000000a0: 13fd 7ebd c838 9b3c 84b5 87bd 7ae0 cb3b
000000b0: f0cd 683c b04f e13c 4f08 983d 55c3 383c
000000c0: 9d9c 2bbb b46a dbbc 816b f33c 41d1 c0bc
000000d0: b38b 18bd cdb8 2e3d bc67 c839 a62f 133d
000000e0: bea1 e53c 9543 76bc 4836 aebc ae0d 07bd
000000f0: 44d7 263d 7ebf 833d 97ab 44bc ee03 7c3c
00000100: cbfc 503c b7b9 f3bc 9d2d c8bc 2b1e bd3d
00000110: a1f8 3ebc d559 b0bd 4a6d 4ebe 28ac 963c
00000120: b924 c13c dd2b 76ba 8aa4 cc3d be3c aa3c
00000130: 19b6 d23c a8b9 94bc 5e41 6bbd 7504 19bc
00000140: b6d0 533c a147 0e3d 8eb1 203d 9ba1 b3bd
00000150: d583 14bc 1fb7 4c3d e871 1d3d 63eb be3c
00000160: 341d 593c 50e5 5dbb 725c d33d ce91 6dbc
00000170: 6eb3 15bc f89f f2bd 270b d23d 6912 a33b
00000180: 4ac0 9abd 29f7 c1bc 9c62 46bc 0f60 11bd
00000190: bf18 443d 43ea 273e 6daa c93c 49a7 43bc
000001a0: 8171 be3a ba3e a5bd 6320 acbd 89ed 88bd
000001b0: 8687 debd 63d4 ad3c f656 9ebd 6533 07bc
000001c0: 9330 febc 2091 9dbd 4dcd bd3d 1d1a d0bd
000001d0: ae48 bdbc 5b37 253c b309 ba3d d7d6 c43d
000001e0: fe71 14be e3c8 41bd 9c87 c23c 42e7 6bbd
000001f0: c5e1 e33c ac19 a63d 8301 893c 27fb a43d
00000200: 477a 593d 3583 81bd 5c8f 6d3d f3d8 6dbd
00000210: 4c39 97bd 96cd ac3d c366 b4bd b6f8 f2bd
00000220: a9c9 27bd 2fa4 97bc 4935 57bd 2fb9 293c
00000230: 8bb1 8c3d 8acb cdbd 8c65 59bd 7164 0fbc
00000240: 768a 5b3c cfae d7bd e83f c53a 58b3 b8bc
00000250: 3be7 293c 3d0e 353c b3f3 ce3c 99de b1bc
00000260: ba89 20bc f505 fa3c 519f a0bd 74ae 3e3d
00000270: 3b32 f9bc 1d1d cc3c 8d3a 8a3c 9796 adbb
00000280: 4a46 d03d 1c74 0abe 9c2c 2dbc e915 753d
00000290: a6af d33b 24ef 573d 021d f8bd 9746 913d
000002a0: a922 903d 5749 283d 42db b13d d3a6 163c
000002b0: b948 453d 2747 0ebd ddbb 3fbd 8aab e9bd
000002c0: e4ac 393b b34e 423d 8407 0b3b 5747 e53a
000002d0: 045d 183e f9cb 41bd 67a0 573d 365c 90bd
000002e0: f9b4 39ba 4fe0 983d a220 d53c c38e 003d
000002f0: 6d40 81bd ef9d d6bd 055c b3bd 376b 2d3d
00000300: 600a 32bd 9572 cd3c e7e0 0a3c cec6 313d
00000310: a2c5 adbd 6f64 9fbd 19c7 99ba 9f10 a23d
00000320: 1102 11be 5198 02bd adff 803d 9b49 d73c
00000330: 85de be3d 2fac 56bd b8ba 3abd 416b 65bd
00000340: c6e2 72bd 5416 e9bc 6324 d7bb 27d4 54ba
00000350: 5ae0 e23c 980f 66bd e13f 57bd aed9 a9bd
00000360: 60a9 353c b2ce 4ebd 4a19 013d 27f1 afbc
00000370: 50d6 95ba 0bbd b3bd 03a0 5abd 7471 e9bb
00000380: 62ab 913d 0af0 af3d 5b9c 223b 16cb d2bc
00000390: d5e3 17bd 9e56 bdbd b760 513d 8d45 cf3d
000003a0: 5e9f 6b3d 34cc a13d 63cb 9fbc 3078 b7bb
000003b0: b712 a23c 7f07 953d 9865 43bd 0414 49bd
000003c0: e344 50bd fe8a 513d b0cb 98bd b2dc 253d
000003d0: fd50 1cbc 5be0 a1bd 1687 a13b 0bb6 94bd
000003e0: 29c5 4abd 97bc 5fbd edd8 9abb 2c41 b93d
000003f0: c4cb d0bc 971f 82bc 8758 bdbc 8157 b8bc
