Assets/ML-Agents/mla-1.0.6/results/carchase02/CarAgent/CarAgent-3127.onnx (onnx, 362126 bytes, 9 tensors)

53 f4 [91]
000000 9e a5 1a 3e 79 ad 23 3d 89 20 cf 3c f9 4c 14 3e
       0.1510224 0.03996036 0.025284069 0.14482488
000010 30 26 fe 3d 3c 78 76 3e 89 20 cf 3c 00 79 92 3c
       0.124096274 0.24069303 0.025284069 0.017879963
000020 d3 45 75 3e ad 08 1c 3e a0 ac 6c 3e 5e a9 23 3e
       0.23952417 0.15237685 0.23112726 0.15982577
000030 89 20 cf 3c 04 e2 2e 3e 47 91 ec 3d b9 d6 88 3e
       0.025284069 0.17078406 0.11551147 0.2672632
000040 00 79 92 3c 00 79 92 3c 54 94 88 3e 9e f9 5f 3e
       0.017879963 0.017879963 0.26675665 0.21872565
000050 b6 13 90 3e 83 6b 12 3d 89 20 cf 3c d0 dd 8e 3e
       0.28140038 0.035747062 0.025284069 0.27903605
000060 14 17 36 3e c5 62 9e 3e 5e a9 23 3e 00 79 92 3c
       0.17782241 0.3093473 0.15982577 0.017879963
000070 c1 a5 8b 3e 09 bf 36 3e b1 e3 8a 3e 79 ad 23 3d
       0.27274898 0.17846312 0.2712684 0.03996036
000080 00 79 92 3c e1 9c 89 3e cf 1a 6e 3e 04 d9 a3 3e
       0.017879963 0.26877502 0.23252414 0.32001507
000090 c4 ca 36 3e 00 79 92 3c 71 25 8d 3e c1 3a 31 3e
       0.17850786 0.017879963 0.27567628 0.17307569
0000a0 b8 b2 99 3e f2 49 7d 3d 00 79 92 3c 32 0b 97 3e
       0.30019164 0.061838098 0.017879963 0.2950073
0000b0 93 0a 36 3e e8 8b 26 3e d4 f0 4e 3d 89 20 cf 3c
       0.17777471 0.16264307 0.05052264 0.025284069
0000c0 16 b7 1d 3e 83 ce 0c 3e af 99 7a 3e 9d a5 37 3e
       0.15401873 0.13750653 0.24472688 0.1793427
0000d0 89 20 cf 3c 1d c8 2f 3e 67 1b ea 3d bf 94 81 3e
       0.025284069 0.17166181 0.11431008 0.25308797
0000e0 84 6b 12 3d 00 79 92 3c 3f 75 80 3e b4 fa 1b 3e
       0.035747066 0.017879963 0.25089452 0.15232354
0000f0 64 71 cb 3e cc 38 68 3e 82 6b 12 3d c3 3e b2 3e
       0.39734948 0.22677916 0.03574706 0.34813508
000100 90 e1 44 3e a1 81 c8 3e 47 b2 b6 3e cd e4 48 3e
       0.1922667 0.391614 0.3568289 0.1961853
000110 57 0a a9 3c a8 64 69 3d b3 74 ef 3d 48 4e d1 3d
       0.020634813 0.05698076 0.116921805 0.10220009
000120 3c fb de 3d aa 33 e5 3c 9d d1 de 3c 84 53 9a 3e
       0.10887763 0.027978737 0.02719956 0.30141842
000130 85 4c 40 3f c9 60 35 3f 4d a4 41 3f 31 16 a5 3c
       0.7511676 0.7085081 0.7564133 0.020152183
000140 13 b1 11 3d 6e 06 22 42 e2 a0 16 3f 90 a4 d5 42
       0.03556926 40.50628 0.5883924 106.82141
000150 d0 28 84 3d 1f 7f 84 3d 74 48 05 3f ec 08 91 3e
       0.06453097 0.06469559 0.5206368 0.2832712
000160 9e 8e 90 3e ea 11 9c 3e eb a0 65 3e
       0.28233808 0.30482417 0.22424667

54 f4 [1, 2]
000000 00 00 00 00 00 00 00 00
       0.0 0.0

distribution.mu.bias f4 [2]
000000 00 00 00 00 00 00 00 00
       0.0 0.0

distribution.mu.weight f4 [2, 256]
000000 02 39 09 3b d3 87 19 3c 5f 06 83 bc 68 55 6f ba
       0.002093852 0.009370762 -0.015994249 -0.0009129853
000010 eb a8 0f 3b 04 d8 8a b9 a5 2f ee bb b2 6c 34 3c
       0.0021920751 -0.00026482355 -0.0072688633 0.011012243
000020 fb 71 a8 3c af 44 d8 3b 53 52 29 3c ee 55 42 bc
       0.020562163 0.0065999846 0.010334569 -0.011861308
000030 93 63 ff 3c db 85 a7 3b 23 26 07 bc 6a 4d 3d bb
       0.03117541 0.0051123924 -0.008248839 -0.0028885254
000040 3a e0 5c 3c ff 76 ab 3b db 9d 9b bc 0c fb 3f bc
       0.013481194 0.0052326913 -0.01899617 -0.011717569
000050 e5 45 19 3c ed ec 35 bc db 83 26 bc ce eb a6 3a
       0.009355043 -0.011103851 -0.010163273 0.001273507
000060 03 c9 ee bb 38 b7 f6 3a 36 74 29 3b 49 f8 82 bc
       -0.007287146 0.0018822914 0.002585662 -0.015987532
000070 d0 95 70 3b e4 e9 86 3b fd 7f 17 bc 60 1d 14 3d
       0.003671039 0.0041172374 -0.009246823 0.036160827
000080 bf 8f d4 bb 6e e7 b6 3b c0 88 75 bc bd 78 f2 bb
       -0.0064868624 0.005581788 -0.014986217 -0.007399647
000090 e0 57 0c bb bb 7b e0 bc 67 7d 81 3a ab 93 ad 3b
       -0.0021414682 -0.02740275 0.0009879292 0.0052971444
0000a0 e8 e0 d5 ba c0 d9 33 bc ca da 75 bb ac 42 49 3b
       -0.0016317638 -0.010977209 -0.0037514442 0.0030709906
0000b0 86 90 23 ba 2d d5 69 3c ca 13 a7 3c 0b 54 f2 3b
       -0.0006239492 0.0142720165 0.020395178 0.0073952726
0000c0 b5 0e 63 3b 53 6d ef ba dd b9 25 bc 3b bd 0f bb
       0.0034646217 -0.0018266834 -0.010115114 -0.0021932859
0000d0 f2 5e 0b ba 9b 90 8a bc 0b 89 55 bc 2e 39 40 bc
       -0.0005316577 -0.016914656 -0.013033162 -0.011732383
0000e0 d7 41 21 3c b4 42 c5 3b 19 f4 0d 3c 2b e3 5b bb
       0.009842358 0.0060199145 0.008664154 -0.003355215
0000f0 0f eb 72 bb eb 0b 34 3c 27 2b eb 3b 6b 56 cb bc
       -0.0037066375 0.01098917 0.007176775 -0.02482148
000100 57 e5 b2 3c 7d fd 52 bd 57 cc ad 3a f7 ce c1 3c
       0.021837873 -0.051511277 0.001325975 0.023658259
000110 f3 f8 1b bc 66 53 aa bc c3 04 59 3c 60 f9 03 3d
       -0.009519803 -0.02079172 0.013245764 0.032220244
000120 ff d3 9f 3b d9 19 42 bc 55 46 62 bc 63 77 09 bc
       0.004877567 -0.011846983 -0.013810714 -0.00839028
000130 9b 22 37 3c 93 2d b5 3b c5 ae d8 bb 34 71 12 3b
       0.011177684 0.0055291145 -0.006612631 0.0022345306
000140 a7 a8 96 3b 18 20 e2 3b dd be 81 3b d5 1a 17 ba
       0.0045977416 0.0069007985 0.0039595203 -0.0005764191
000150 78 2f a3 bc 70 b0 6f 3a 47 10 ef bb 82 6c 14 bc
       -0.019920096 0.00091434177 -0.0072956416 -0.009059073
000160 1f 35 c1 bc ca ec d0 bb 62 e9 35 3b 9e 5c 00 3c
       -0.0235849 -0.0063758837 0.0027757515 0.007834582
000170 e7 d5 30 bc 1f 76 06 bc 6f 43 51 bc c2 b8 e1 3b
       -0.010793186 -0.008206873 -0.012772425 0.00688848
000180 93 af 4a bc a1 23 ba bb 7f a2 03 3a da d8 d2 3c
       -0.012370962 -0.005680517 0.0005021467 0.025738169
000190 33 ad bb 3c 62 af 7f ba 38 b5 e4 3b 03 f2 54 bc
       0.022909736 -0.0009753612 0.006979611 -0.012997153
0001a0 75 7b fd 3b 6a 1b 35 ba 9f bb 87 3c 83 58 d8 bb
       0.0077356645 -0.0006908687 0.016568957 -0.0066023483
0001b0 92 07 84 3c ec 0d 3f bb f3 71 8d bc 23 80 7c bc
       0.016116891 -0.0029152585 -0.01726625 -0.01541141
0001c0 ee 54 ad bb ec fe 0b 3c 3e 9e 81 bc 95 74 c3 b9
       -0.0052896654 0.008544665 -0.015822526 -0.0003728016
0001d0 a0 f3 5f 3c e7 2f b5 3c e5 ae 6f 3b 5b 66 17 3c
       0.013668925 0.022117568 0.003657275 0.009240712
0001e0 fd 02 02 bc cd 7f 95 3c 28 05 17 bc 84 e2 b5 3b
       -0.007935283 0.018249417 -0.009217538 0.0055506844
0001f0 1f 5e 1d 3c 37 e3 a5 3a cc b2 11 bc 0d 88 af bc
       0.00960496 0.0012656216 -0.008892726 -0.021427179
000200 94 fc b3 ba d5 a9 5f bc c9 27 9e 3b 3e df 14 bc
       -0.001373189 -0.013651331 0.00482652 -0.009086428
000210 d6 3c 86 bc 4f b1 94 bc c4 d4 a5 bc 2b 37 d6 3b
       -0.01638643 -0.018150954 -0.020243056 0.0065373383
000220 b3 27 91 ba 2b 15 78 bb 4e f6 a8 3c 7b 4f 56 3c
       -0.0011074453 -0.0037854414 0.02062526 0.013080473
000230 9f a9 01 3d 74 a5 89 3b 4f 2d d1 3b 04 f4 98 bc
       0.031655904 0.0042006318 0.006383575 -0.018671043
000240 5f 8c 5a bc 8a 41 09 bc 48 bf 0d bc 1a 6d 29 3c
       -0.013339131 -0.008377442 -0.008651562 0.010340953
000250 92 12 dd 3a 3b 1f 04 bc 01 9a 43 bb 54 39 96 3c
       0.0016866496 -0.008064087 -0.0029846432 0.018337883
000260 62 ce 07 3c b3 4d 86 3c ef 06 41 3c de 4e 37 3c
       0.008288952 0.016394472 0.011781438 0.011188237
000270 c4 72 11 3d e6 b7 2f bb 05 31 f6 bb 13 24 ea 37
       0.03550984 -0.0026812493 -0.007513168 2.7911772e-05
000280 88 97 70 bc ed e5 87 3c 33 6c 90 3c b0 35 98 bb
       -0.014684565 0.01658913 0.017629718 -0.004645072
000290 37 30 77 3c cf cb 56 3b 58 bc 1f bc 5f 47 ed 3b
       0.015087179 0.0032775288 -0.0097494945 0.007241174
0002a0 5d 5d 38 bb 83 f7 6c bc 60 c7 c6 bc 6b ca eb 3c
       -0.002813182 -0.014463308 -0.024264991 0.028783044
0002b0 8f e5 af bc be 98 00 3b 62 74 97 3b 63 29 ae bb
       -0.021471767 0.0019622291 0.004622028 -0.0053149923
0002c0 c1 d3 20 bc 69 1b b7 ba 3d 28 1e 3c 68 77 e6 bb
       -0.009816111 -0.0013969961 0.009653148 -0.0070332773
0002d0 6e 9c 2c 3c c7 5b 82 3b d2 1b a2 3b a4 f9 a1 3b
       0.010535343 0.003978226 0.004947164 0.0049430896
0002e0 5a 31 d1 ba 5d 16 f5 3c 34 e6 1c 3a 0a 5f 59 bc
       -0.0015960142 0.02991789 0.00059852307 -0.013267288
0002f0 d5 75 79 3c 29 05 82 bb 5e 76 15 3c 1b d7 3b 3c
       0.015225847 -0.0039679003 0.009122459 0.011464859
000300 d7 0a a8 3c db 2e d1 3b e6 72 b8 3b 15 72 ff 3c
       0.020512981 0.0063837594 0.0056289313 0.031182328
000310 75 28 76 3b 05 1c 52 3b 6d a0 5c 3a da 8c b5 3b
       0.0037560735 0.0032060158 0.0008416239 0.0055404725
000320 fb 1f 89 bb 81 c0 2b bc 81 74 0e bc 38 72 05 3a
       -0.0041847206 -0.010482908 -0.008694769 0.0005090567
000330 bb a5 49 39 eb b0 71 bb 67 54 ad bb 82 11 38 bc
       0.00019230593 -0.0036879133 -0.0052896026 -0.011234643
000340 43 4f 50 3c ea 56 c0 ba e8 a6 67 bb 1f 1c 7e ba
       0.01271421 -0.001467434 -0.0035347287 -0.00096935214
000350 7e a4 b7 bc 37 c3 19 bc da 05 fd bb 0f 19 85 3c
       -0.022417303 -0.009384922 -0.007721645 0.0162473
000360 75 31 b1 3b 6f c6 82 bb 35 90 52 bc 52 3d be 3b
       0.005407507 -0.0039909403 -0.012851764 0.00580565
000370 5b 41 fa ba 7b 55 21 bb 80 8d 47 3b 1d e7 09 bc
       -0.0019092964 -0.00246176 0.003044933 -0.008416918
000380 2f 38 59 3c 63 9e d6 3b cc d5 0b bb ff 0d 42 bc
       0.013258024 0.006549643 -0.002133715 -0.011844157
000390 00 0c 50 bc d3 b8 02 bc 4f 40 2f bc 7b d2 b6 bb
       -0.0126981735 -0.007978636 -0.010696485 -0.0055792904
0003a0 9c aa 92 3c 0b 1a 6a bc aa d2 7e 3a 5b 23 07 3b
       0.017903619 -0.014288436 0.00097207224 0.0020620439
0003b0 f6 7a c3 bc 77 41 ca 3a a0 23 50 bc d2 e5 63 bc
       -0.023862343 0.0015430887 -0.012703806 -0.013909774
0003c0 57 70 90 3c 17 b8 de bb 45 1f b7 ba a2 cd 84 bc
       0.017631693 -0.0067968476 -0.0013971111 -0.016211335
0003d0 af 07 b3 bc dd bb d5 3c 59 9e 91 3b 0f 5d 19 bc
       -0.02185425 0.026090557 0.0044439253 -0.009360566
0003e0 8b f7 ce bb 8b 71 5f 3c a7 eb 2f 3b 7a 36 b9 3b
       -0.0063161305 0.013637911 0.002684334 0.005652246
0003f0 df 36 c5 bc 6d 51 4c bc 46 de 36 3c c9 e3 9e 3c
       -0.024074016 -0.012470585 0.011161393 0.019395726

network_body.linear_encoder.seq_layers.0.bias f4 [256]
000000 00 00 00 00 00 00 00 00 00 00 00 00 00 00 00 00
       0.0 0.0 0.0 0.0
000010 00 00 00 00 00 00 00 00 00 00 00 00 00 00 00 00
       0.0 0.0 0.0 0.0
000020 00 00 00 00 00 00 00 00 00 00 00 00 00 00 00 00
       0.0 0.0 0.0 0.0
000030 00 00 00 00 00 00 00 00 00 00 00 00 00 00 00 00
       0.0 0.0 0.0 0.0
000040 00 00 00 00 00 00 00 00 00 00 00 00 00 00 00 00
       0.0 0.0 0.0 0.0
000050 00 00 00 00 00 00 00 00 00 00 00 00 00 00 00 00
       0.0 0.0 0.0 0.0
000060 00 00 00 00 00 00 00 00 00 00 00 00 00 00 00 00
       0.0 0.0 0.0 0.0
000070 00 00 00 00 00 00 00 00 00 00 00 00 00 00 00 00
       0.0 0.0 0.0 0.0
000080 00 00 00 00 00 00 00 00 00 00 00 00 00 00 00 00
       0.0 0.0 0.0 0.0
000090 00 00 00 00 00 00 00 00 00 00 00 00 00 00 00 00
       0.0 0.0 0.0 0.0
0000a0 00 00 00 00 00 00 00 00 00 00 00 00 00 00 00 00
       0.0 0.0 0.0 0.0
0000b0 00 00 00 00 00 00 00 00 00 00 00 00 00 00 00 00
       0.0 0.0 0.0 0.0
0000c0 00 00 00 00 00 00 00 00 00 00 00 00 00 00 00 00
       0.0 0.0 0.0 0.0
0000d0 00 00 00 00 00 00 00 00 00 00 00 00 00 00 00 00
       0.0 0.0 0.0 0.0
0000e0 00 00 00 00 00 00 00 00 00 00 00 00 00 00 00 00
       0.0 0.0 0.0 0.0
0000f0 00 00 00 00 00 00 00 00 00 00 00 00 00 00 00 00
       0.0 0.0 0.0 0.0
000100 00 00 00 00 00 00 00 00 00 00 00 00 00 00 00 00
       0.0 0.0 0.0 0.0
000110 00 00 00 00 00 00 00 00 00 00 00 00 00 00 00 00
       0.0 0.0 0.0 0.0
000120 00 00 00 00 00 00 00 00 00 00 00 00 00 00 00 00
       0.0 0.0 0.0 0.0
000130 00 00 00 00 00 00 00 00 00 00 00 00 00 00 00 00
       0.0 0.0 0.0 0.0
000140 00 00 00 00 00 00 00 00 00 00 00 00 00 00 00 00
       0.0 0.0 0.0 0.0
000150 00 00 00 00 00 00 00 00 00 00 00 00 00 00 00 00
       0.0 0.0 0.0 0.0
000160 00 00 00 00 00 00 00 00 00 00 00 00 00 00 00 00
       0.0 0.0 0.0 0.0
000170 00 00 00 00 00 00 00 00 00 00 00 00 00 00 00 00
       0.0 0.0 0.0 0.0
000180 00 00 00 00 00 00 00 00 00 00 00 00 00 00 00 00
       0.0 0.0 0.0 0.0
000190 00 00 00 00 00 00 00 00 00 00 00 00 00 00 00 00
       0.0 0.0 0.0 0.0
0001a0 00 00 00 00 00 00 00 00 00 00 00 00 00 00 00 00
       0.0 0.0 0.0 0.0
0001b0 00 00 00 00 00 00 00 00 00 00 00 00 00 00 00 00
       0.0 0.0 0.0 0.0
0001c0 00 00 00 00 00 00 00 00 00 00 00 00 00 00 00 00
       0.0 0.0 0.0 0.0
0001d0 00 00 00 00 00 00 00 00 00 00 00 00 00 00 00 00
       0.0 0.0 0.0 0.0
0001e0 00 00 00 00 00 00 00 00 00 00 00 00 00 00 00 00
       0.0 0.0 0.0 0.0
0001f0 00 00 00 00 00 00 00 00 00 00 00 00 00 00 00 00
       0.0 0.0 0.0 0.0
000200 00 00 00 00 00 00 00 00 00 00 00 00 00 00 00 00
       0.0 0.0 0.0 0.0
000210 00 00 00 00 00 00 00 00 00 00 00 00 00 00 00 00
       0.0 0.0 0.0 0.0
000220 00 00 00 00 00 00 00 00 00 00 00 00 00 00 00 00
       0.0 0.0 0.0 0.0
000230 00 00 00 00 00 00 00 00 00 00 00 00 00 00 00 00
       0.0 0.0 0.0 0.0
000240 00 00 00 00 00 00 00 00 00 00 00 00 00 00 00 00
       0.0 0.0 0.0 0.0
000250 00 00 00 00 00 00 00 00 00 00 00 00 00 00 00 00
       0.0 0.0 0.0 0.0
000260 00 00 00 00 00 00 00 00 00 00 00 00 00 00 00 00
       0.0 0.0 0.0 0.0
000270 00 00 00 00 00 00 00 00 00 00 00 00 00 00 00 00
       0.0 0.0 0.0 0.0
000280 00 00 00 00 00 00 00 00 00 00 00 00 00 00 00 00
       0.0 0.0 0.0 0.0
000290 00 00 00 00 00 00 00 00 00 00 00 00 00 00 00 00
       0.0 0.0 0.0 0.0
0002a0 00 00 00 00 00 00 00 00 00 00 00 00 00 00 00 00
       0.0 0.0 0.0 0.0
0002b0 00 00 00 00 00 00 00 00 00 00 00 00 00 00 00 00
       0.0 0.0 0.0 0.0
0002c0 00 00 00 00 00 00 00 00 00 00 00 00 00 00 00 00
       0.0 0.0 0.0 0.0
0002d0 00 00 00 00 00 00 00 00 00 00 00 00 00 00 00 00
       0.0 0.0 0.0 0.0
0002e0 00 00 00 00 00 00 00 00 00 00 00 00 00 00 00 00
       0.0 0.0 0.0 0.0
0002f0 00 00 00 00 00 00 00 00 00 00 00 00 00 00 00 00
       0.0 0.0 0.0 0.0
000300 00 00 00 00 00 00 00 00 00 00 00 00 00 00 00 00
       0.0 0.0 0.0 0.0
000310 00 00 00 00 00 00 00 00 00 00 00 00 00 00 00 00
       0.0 0.0 0.0 0.0
000320 00 00 00 00 00 00 00 00 00 00 00 00 00 00 00 00
       0.0 0.0 0.0 0.0
000330 00 00 00 00 00 00 00 00 00 00 00 00 00 00 00 00
       0.0 0.0 0.0 0.0
000340 00 00 00 00 00 00 00 00 00 00 00 00 00 00 00 00
       0.0 0.0 0.0 0.0
000350 00 00 00 00 00 00 00 00 00 00 00 00 00 00 00 00
       0.0 0.0 0.0 0.0
000360 00 00 00 00 00 00 00 00 00 00 00 00 00 00 00 00
       0.0 0.0 0.0 0.0
000370 00 00 00 00 00 00 00 00 00 00 00 00 00 00 00 00
       0.0 0.0 0.0 0.0
000380 00 00 00 00 00 00 00 00 00 00 00 00 00 00 00 00
       0.0 0.0 0.0 0.0
000390 00 00 00 00 00 00 00 00 00 00 00 00 00 00 00 00
       0.0 0.0 0.0 0.0
0003a0 00 00 00 00 00 00 00 00 00 00 00 00 00 00 00 00
       0.0 0.0 0.0 0.0
0003b0 00 00 00 00 00 00 00 00 00 00 00 00 00 00 00 00
       0.0 0.0 0.0 0.0
0003c0 00 00 00 00 00 00 00 00 00 00 00 00 00 00 00 00
       0.0 0.0 0.0 0.0
0003d0 00 00 00 00 00 00 00 00 00 00 00 00 00 00 00 00
       0.0 0.0 0.0 0.0
0003e0 00 00 00 00 00 00 00 00 00 00 00 00 00 00 00 00
       0.0 0.0 0.0 0.0
0003f0 00 00 00 00 00 00 00 00 00 00 00 00 00 00 00 00
       0.0 0.0 0.0 0.0

network_body.linear_encoder.seq_layers.0.weight f4 [256, 91]
000000 5e f6 f0 bc 45 eb 1d bc 6b 68 a2 bc 72 b3 38 be
       -0.029414352 -0.009638612 -0.019825181 -0.18037203
000010 7f a0 00 be 98 e1 08 be dd 96 1d 3d d3 ea 93 bc
       -0.12561224 -0.13367307 0.038473953 -0.018056309
000020 13 3e 95 3d b5 ee 91 3d 3b 4d 35 3c 76 14 7c bd
       0.0728723 0.07125608 0.011065776 -0.06154295
000030 4c a0 64 bd 3f 85 9f bc ff 23 a0 3e 79 af 97 bc
       -0.055816934 -0.019472716 0.31277463 -0.01851629
000040 3a 85 18 3e fc 94 0a 3c b2 2d c6 3d 2e cc ac bd
       0.14894572 0.008458372 0.096766844 -0.08437382
000050 46 fa 01 be af 20 f1 3d fd c2 64 3d 76 3a 51 3d
       -0.12693128 0.11773812 0.055850018 0.051081143
000060 fd f7 20 3b 9a 63 24 bd 38 42 3b bc ec c3 2f 3e
       0.0024561875 -0.04013405 -0.011429362 0.17164582
000070 cc e8 3b 3d fb c7 27 3d 04 dd a5 bc 69 a7 16 3e
       0.04587631 0.0409622 -0.02024699 0.147123
000080 a1 85 fd bc ce 60 44 bc 02 90 2d 3d 94 d5 8d 3d
       -0.030947508 -0.011985971 0.042373665 0.069255024
000090 6a 00 c6 3c 65 21 1c bd aa 18 e4 3c 4f b3 76 bd
       0.02417012 -0.038117785 0.027843792 -0.060229596
0000a0 21 52 0e bd d1 9c 71 be aa 89 02 be 34 30 84 3d
       -0.034746293 -0.23594977 -0.12747827 0.064545065
0000b0 2e c1 0a be 0b 94 9d 3d 51 b2 e9 3c b5 61 ba bd
       -0.13550255 0.076942526 0.02852741 -0.091006674
0000c0 70 04 e1 bd 0b 91 04 be 74 35 51 3d ba 66 bf 3c
       -0.109871745 -0.12945955 0.051076367 0.023364414
0000d0 56 8c f7 3b 3c 5a 7a bc 6a 75 83 3d bd c3 5a bd
       0.007554571 -0.015280303 0.06418879 -0.053409327
0000e0 5b 7a 0e bd 17 c0 7a be a4 af 91 bd 6d d7 bc 3d
       -0.034784656 -0.24487339 -0.07113579 0.09220777
0000f0 ff a9 52 3d 93 c4 61 3d 67 da 65 bd a3 63 36 be
       0.051431652 0.05511911 -0.056116488 -0.17811446
000100 36 ce 2a be 7b 62 c0 3d 4a 0e 97 bb 45 12 9c 3d
       -0.16680226 0.09393784 -0.0046098577 0.07620672
000110 bb 7b 70 3c b1 ba 23 be 1b aa 03 3e 48 57 7d bd
       0.014677937 -0.15989186 0.12857859 -0.061850816
000120 8f 35 fd 3c 5f 80 0c bd bd 57 67 bd 43 b3 6f 3d
       0.030909328 -0.03430211 -0.056480158 0.058520567
000130 06 0c eb 3d 59 4b 76 be b5 06 24 bd 73 6c 7d bd
       0.11476903 -0.2405218 -0.04004546 -0.061871003
000140 85 54 b0 bd 93 32 76 bd 0c 24 ad 3d 2d 06 ff bb
       -0.08609871 -0.060106825 0.08454141 -0.0077827186
000150 45 28 58 3d d0 d0 46 3c a1 ea 33 be 0c b0 3f be
       0.05277278 0.012134746 -0.17569973 -0.187195
000160 48 f0 15 3e 5b 2f 23 3e 1b 05 14 3e 50 35 be 3c
       0.14642441 0.15936033 0.14455073 0.02321878
000170 59 ae ee bd a7 b4 b8 bd e4 b1 00 3e 18 43 a1 3d
       -0.11654348 -0.09018832 0.1256786 0.07874125
000180 64 4e fa 3d 20 04 d0 bd c3 ea 58 bd 91 77 10 be
       0.12221983 -0.10157037 -0.05295826 -0.14108111
000190 82 1f 47 bd 2b 39 55 bb 28 0d 0b 3d 68 17 ba 3d
       -0.048614033 -0.0032535295 0.033948094 0.09086496
0001a0 31 e9 c1 bc 65 81 1c bc e7 fd f9 3d fe 5d a5 3d
       -0.023670765 -0.009552334 0.12206631 0.08074568
0001b0 83 2a 50 bd 04 11 27 be ef aa 5d be 46 95 04 3b
       -0.050821792 -0.16315085 -0.21647237 0.0020230575
0001c0 05 fc 60 3d 15 97 a5 3d 19 5e 03 bc b4 d1 1c be
       0.054927845 0.08085457 -0.00801804 -0.1531437
0001d0 03 65 d0 3c 38 e2 5f bd 76 ef aa bd 44 e2 cb bd
       0.025438791 -0.0546591 -0.08346455 -0.09955266
0001e0 44 1c af bc 30 36 d4 bb 3c dd 18 bd 83 08 84 bd
       -0.021375783 -0.006476186 -0.03732036 -0.06446936
0001f0 c2 c2 3b be e8 a7 d2 bd 05 53 b0 3d 8c 09 18 3e
       -0.18336013 -0.10285932 0.08609585 0.14847392
000200 43 d5 8a 3d b6 32 cb bc 76 10 b1 bc 6e 90 55 bd
       0.06778958 -0.024804454 -0.021614294 -0.052139692
000210 28 f4 b3 bd 6d ba 5e bd 5a 59 ee bd 23 b7 95 bd
       -0.087868035 -0.05437701 -0.11638136 -0.07310321
000220 ee 48 91 3d b6 bd 61 3d 8d 85 ff 3d 2c c2 05 3d
       0.07093988 0.055112563 0.12476645 0.03265588
000230 f0 d5 bb 3c ef f1 45 bd 02 ea 22 3c 08 cd 3f 3e
       0.022929162 -0.04832643 0.009943487 0.18730557
000240 36 69 5e bd d3 13 9d bd 05 6d 13 3e 48 5e 67 3e
       -0.054299556 -0.07669797 0.14397056 0.22594559
000250 8c 62 c4 bc e9 1b 06 be 28 f3 e8 bb 91 9d 53 3d
       -0.023972772 -0.13096584 -0.0071090646 0.05166394
000260 b6 00 10 b8 16 94 a6 bd fb 03 30 bb 63 4b a5 3d
       -3.4332938e-05 -0.08133714 -0.0026857841 0.080710195
000270 b2 ee 44 be 5c f2 0c 3e 85 88 c1 3c a9 0b ec bc
       -0.1923168 0.13764328 0.023624668 -0.028814154
000280 d2 a3 ac 3d 58 3e 53 3e 3e 67 74 3d a3 d8 ad 3b
       0.08429684 0.20629251 0.059668772 0.005305366
000290 16 04 28 be 07 21 bc 3d 45 3c b8 bc 66 5f 07 be
       -0.16407809 0.09185987 -0.022489676 -0.13219985
0002a0 2e 7d 8c bc 3f cf 82 be 47 ab 57 3d 3b c8 9a 3c
       -0.017149534 -0.2554874 0.052653577 0.018894305
0002b0 9e c2 17 be a4 ef 3d 3d 67 66 41 bd d0 f4 96 bd
       -0.14820334 0.046371117 -0.0472168 -0.07370913
0002c0 c8 7d 0c be 5b af 49 3c e2 cb b4 3d e7 bc b1 3b
       -0.13719857 0.012309874 0.0882795 0.0054241302
0002d0 ac f5 1a bd e6 c0 61 bd 63 0b ee bd f5 0b b4 3d
       -0.037831947 -0.055115603 -0.116232656 0.08791343
0002e0 6a 9e 9c 3d 0c ff 82 bd 3c 43 a0 3d f8 da c1 3d
       0.076474026 -0.063963026 0.07825324 0.09465593
0002f0 1e b1 2f be 62 85 47 bc 68 7e c0 3d 24 8f e0 3c
       -0.17157409 -0.012177797 0.0939911 0.027412005
000300 e4 1f 50 bd a2 3b 8e bd ef d0 74 3d 1b 3e 0b bd
       -0.050811663 -0.06944968 0.059769567 -0.033994775
000310 c1 26 08 be ca ad fe 3d 2d af d6 bd 10 fa dc bd
       -0.13296033 0.124354914 -0.10482631 -0.10789883
000320 a2 13 9e 3c 5d 17 86 3d b5 2b da bc 26 fd 2c 3e
       0.019296471 0.06547425 -0.02663217 0.16893443
000330 0e 33 29 bc 77 e6 17 bd ff 8e 06 bd 3b 66 22 3d
       -0.010327114 -0.037085023 -0.032851215 0.039648276
000340 21 e7 4b 3b 68 ed f5 bd 68 61 15 be 40 76 a4 3d
       0.0031113105 -0.12008172 -0.14587939 0.08030367
000350 87 04 cc bd 58 d7 7c bc 2d f3 bf 3c 9c 69 f6 3d
       -0.09961801 -0.015432201 0.023431385 0.12031862
000360 44 d5 35 bd 9e a2 4c 3d b8 64 21 3d d3 0a 89 bc
       -0.04439284 0.04995977 0.039402694 -0.016728794
000370 97 a2 5c bc 72 e4 9f 3c a7 84 1e be fd 24 b3 3c
       -0.013466499 0.01951811 -0.1548029 0.021868223
000380 12 3d 3f be 23 3c 8d 3d a1 42 9a 3d 87 c1 02 be
       -0.1867564 0.06896236 0.0753224 -0.12769137
000390 73 4f 87 3c cd 35 d2 bd 70 92 99 bc a9 1f 07 3c
       0.016517377 -0.10264168 -0.018746585 0.008247294
0003a0 0e 44 b7 bd 22 d0 fe 3c 9f 22 cf 3d 32 2b 10 be
       -0.08948527 0.031105105 0.10114025 -0.14078978
0003b0 d3 9d 15 3e 81 ae d0 bc cc d9 f8 bd 53 f3 66 bd
       0.14610986 -0.025473835 -0.121509165 -0.056384396
0003c0 06 e0 5a 3e 71 67 02 3d fe 2c 07 be 2a 96 91 bd
       0.2137452 0.03183693 -0.13200757 -0.0710872
0003d0 f6 bd e5 3d 1b e2 c5 bc b1 8f 08 bd cb fd a2 3c
       0.11217873 -0.024155667 -0.03334016 0.019896409
0003e0 41 87 0f 3d 0f 3a 1b be 1c 63 1a 3e 66 76 67 3e
       0.035041098 -0.15158866 0.1507687 0.22603759
0003f0 f0 6c 09 bd 5e 2f 5a bc d8 31 1f 3b d0 d9 31 3d
       -0.033551157 -0.013316957 0.0024291184 0.043420613

network_body.linear_encoder.seq_layers.2.bias f4 [256]
000000 00 00 00 00 00 00 00 00 00 00 00 00 00 00 00 00
       0.0 0.0 0.0 0.0
000010 00 00 00 00 00 00 00 00 00 00 00 00 00 00 00 00
       0.0 0.0 0.0 0.0
000020 00 00 00 00 00 00 00 00 00 00 00 00 00 00 00 00
       0.0 0.0 0.0 0.0
000030 00 00 00 00 00 00 00 00 00 00 00 00 00 00 00 00
       0.0 0.0 0.0 0.0
000040 00 00 00 00 00 00 00 00 00 00 00 00 00 00 00 00
       0.0 0.0 0.0 0.0
000050 00 00 00 00 00 00 00 00 00 00 00 00 00 00 00 00
       0.0 0.0 0.0 0.0
000060 00 00 00 00 00 00 00 00 00 00 00 00 00 00 00 00
       0.0 0.0 0.0 0.0
000070 00 00 00 00 00 00 00 00 00 00 00 00 00 00 00 00
       0.0 0.0 0.0 0.0
000080 00 00 00 00 00 00 00 00 00 00 00 00 00 00 00 00
       0.0 0.0 0.0 0.0
000090 00 00 00 00 00 00 00 00 00 00 00 00 00 00 00 00
       0.0 0.0 0.0 0.0
0000a0 00 00 00 00 00 00 00 00 00 00 00 00 00 00 00 00
       0.0 0.0 0.0 0.0
0000b0 00 00 00 00 00 00 00 00 00 00 00 00 00 00 00 00
       0.0 0.0 0.0 0.0
0000c0 00 00 00 00 00 00 00 00 00 00 00 00 00 00 00 00
       0.0 0.0 0.0 0.0
0000d0 00 00 00 00 00 00 00 00 00 00 00 00 00 00 00 00
       0.0 0.0 0.0 0.0
0000e0 00 00 00 00 00 00 00 00 00 00 00 00 00 00 00 00
       0.0 0.0 0.0 0.0
0000f0 00 00 00 00 00 00 00 00 00 00 00 00 00 00 00 00
       0.0 0.0 0.0 0.0
000100 00 00 00 00 00 00 00 00 00 00 00 00 00 00 00 00
       0.0 0.0 0.0 0.0
000110 00 00 00 00 00 00 00 00 00 00 00 00 00 00 00 00
       0.0 0.0 0.0 0.0
000120 00 00 00 00 00 00 00 00 00 00 00 00 00 00 00 00
       0.0 0.0 0.0 0.0
000130 00 00 00 00 00 00 00 00 00 00 00 00 00 00 00 00
       0.0 0.0 0.0 0.0
000140 00 00 00 00 00 00 00 00 00 00 00 00 00 00 00 00
       0.0 0.0 0.0 0.0
000150 00 00 00 00 00 00 00 00 00 00 00 00 00 00 00 00
       0.0 0.0 0.0 0.0
000160 00 00 00 00 00 00 00 00 00 00 00 00 00 00 00 00
       0.0 0.0 0.0 0.0
000170 00 00 00 00 00 00 00 00 00 00 00 00 00 00 00 00
       0.0 0.0 0.0 0.0
000180 00 00 00 00 00 00 00 00 00 00 00 00 00 00 00 00
       0.0 0.0 0.0 0.0
000190 00 00 00 00 00 00 00 00 00 00 00 00 00 00 00 00
       0.0 0.0 0.0 0.0
0001a0 00 00 00 00 00 00 00 00 00 00 00 00 00 00 00 00
       0.0 0.0 0.0 0.0
0001b0 00 00 00 00 00 00 00 00 00 00 00 00 00 00 00 00
       0.0 0.0 0.0 0.0
0001c0 00 00 00 00 00 00 00 00 00 00 00 00 00 00 00 00
       0.0 0.0 0.0 0.0
0001d0 00 00 00 00 00 00 00 00 00 00 00 00 00 00 00 00
       0.0 0.0 0.0 0.0
0001e0 00 00 00 00 00 00 00 00 00 00 00 00 00 00 00 00
       0.0 0.0 0.0 0.0
0001f0 00 00 00 00 00 00 00 00 00 00 00 00 00 00 00 00
       0.0 0.0 0.0 0.0
000200 00 00 00 00 00 00 00 00 00 00 00 00 00 00 00 00
       0.0 0.0 0.0 0.0
000210 00 00 00 00 00 00 00 00 00 00 00 00 00 00 00 00
       0.0 0.0 0.0 0.0
000220 00 00 00 00 00 00 00 00 00 00 00 00 00 00 00 00
       0.0 0.0 0.0 0.0
000230 00 00 00 00 00 00 00 00 00 00 00 00 00 00 00 00
       0.0 0.0 0.0 0.0
000240 00 00 00 00 00 00 00 00 00 00 00 00 00 00 00 00
       0.0 0.0 0.0 0.0
000250 00 00 00 00 00 00 00 00 00 00 00 00 00 00 00 00
       0.0 0.0 0.0 0.0
000260 00 00 00 00 00 00 00 00 00 00 00 00 00 00 00 00
       0.0 0.0 0.0 0.0
000270 00 00 00 00 00 00 00 00 00 00 00 00 00 00 00 00
       0.0 0.0 0.0 0.0
000280 00 00 00 00 00 00 00 00 00 00 00 00 00 00 00 00
       0.0 0.0 0.0 0.0
000290 00 00 00 00 00 00 00 00 00 00 00 00 00 00 00 00
       0.0 0.0 0.0 0.0
0002a0 00 00 00 00 00 00 00 00 00 00 00 00 00 00 00 00
       0.0 0.0 0.0 0.0
0002b0 00 00 00 00 00 00 00 00 00 00 00 00 00 00 00 00
       0.0 0.0 0.0 0.0
0002c0 00 00 00 00 00 00 00 00 00 00 00 00 00 00 00 00
       0.0 0.0 0.0 0.0
0002d0 00 00 00 00 00 00 00 00 00 00 00 00 00 00 00 00
       0.0 0.0 0.0 0.0
0002e0 00 00 00 00 00 00 00 00 00 00 00 00 00 00 00 00
       0.0 0.0 0.0 0.0
0002f0 00 00 00 00 00 00 00 00 00 00 00 00 00 00 00 00
       0.0 0.0 0.0 0.0
000300 00 00 00 00 00 00 00 00 00 00 00 00 00 00 00 00
       0.0 0.0 0.0 0.0
000310 00 00 00 00 00 00 00 00 00 00 00 00 00 00 00 00
       0.0 0.0 0.0 0.0
000320 00 00 00 00 00 00 00 00 00 00 00 00 00 00 00 00
       0.0 0.0 0.0 0.0
000330 00 00 00 00 00 00 00 00 00 00 00 00 00 00 00 00
       0.0 0.0 0.0 0.0
000340 00 00 00 00 00 00 00 00 00 00 00 00 00 00 00 00
       0.0 0.0 0.0 0.0
000350 00 00 00 00 00 00 00 00 00 00 00 00 00 00 00 00
       0.0 0.0 0.0 0.0
000360 00 00 00 00 00 00 00 00 00 00 00 00 00 00 00 00
       0.0 0.0 0.0 0.0
000370 00 00 00 00 00 00 00 00 00 00 00 00 00 00 00 00
       0.0 0.0 0.0 0.0
000380 00 00 00 00 00 00 00 00 00 00 00 00 00 00 00 00
       0.0 0.0 0.0 0.0
000390 00 00 00 00 00 00 00 00 00 00 00 00 00 00 00 00
       0.0 0.0 0.0 0.0
0003a0 00 00 00 00 00 00 00 00 00 00 00 00 00 00 00 00
       0.0 0.0 0.0 0.0
0003b0 00 00 00 00 00 00 00 00 00 00 00 00 00 00 00 00
       0.0 0.0 0.0 0.0
0003c0 00 00 00 00 00 00 00 00 00 00 00 00 00 00 00 00
       0.0 0.0 0.0 0.0
0003d0 00 00 00 00 00 00 00 00 00 00 00 00 00 00 00 00
       0.0 0.0 0.0 0.0
0003e0 00 00 00 00 00 00 00 00 00 00 00 00 00 00 00 00
       0.0 0.0 0.0 0.0
0003f0 00 00 00 00 00 00 00 00 00 00 00 00 00 00 00 00
       0.0 0.0 0.0 0.0

network_body.linear_encoder.seq_layers.2.weight f4 [256, 256]
000000 95 76 06 3d cc b7 92 3d 26 6f d3 bd 0b 99 4a 3c
       0.032827932 0.07163963 -0.10323934 0.01236559
000010 53 e8 94 3d c0 e2 48 3d b1 03 ad bd 48 93 96 bd
       0.07270875 0.04904437 -0.0844797 -0.073523104
000020 3a 43 91 bc e8 d2 3a bd 52 f7 9c bc a1 87 74 3d
       -0.017732251 -0.045611292 -0.0191609 0.05969966
000030 bd 46 29 bd 69 4e f7 bc a6 62 cf bd 01 99 59 bd
       -0.041327227 -0.030188756 -0.101262376 -0.05312443
000040 c3 1c 44 3c bb 36 75 bd 35 58 b8 bd b5 be ff 3b
       0.011969748 -0.05986665 -0.09001199 0.0078047165
000050 45 91 da bb 63 1a 28 39 54 e2 2a bd d5 d3 20 3d
       -0.0066701495 0.00016031558 -0.04171975 0.03926452
000060 52 43 dd bc ff 1c b8 3c 4c 18 57 3d 1e ec 09 be
       -0.02700964 0.022474764 0.052513406 -0.13468978
000070 f5 c9 bc bd c5 8b 99 3c 3f f4 ca bd 34 a2 5d be
       -0.09218208 0.018743405 -0.099098675 -0.21643907
000080 61 53 90 bb 8c e9 7d bd 2d ad 4c bd 5d cd ab bd
       -0.004404471 -0.061990306 -0.04996984 -0.08388779
000090 4b 74 0d bd 2b 80 37 bd 76 34 a2 bc a7 1e 5f bc
       -0.034534734 -0.044799965 -0.019800406 -0.013618148
0000a0 b9 ac f9 bd d9 f7 37 be 9f ca 2f 3b 21 45 3d 3c
       -0.12191147 -0.1796564 0.0026823652 0.011552126
0000b0 af 71 ff 3c e5 3d a9 3c 86 e1 51 3c 91 42 0c 3c
       0.031182138 0.020659396 0.012810117 0.008560793
0000c0 71 57 36 3c b8 b1 8d 3c 6f 6f 53 3d 41 3e ca b9
       0.011129246 0.017296657 0.051619943 -0.00038574825
0000d0 22 3d a9 bc 79 49 35 ba 1a bf 4a 3d 42 e3 64 bc
       -0.020659033 -0.00069155503 0.049498655 -0.013970198
0000e0 38 1e 98 3c fc 33 af 3c e6 83 ad bd b5 67 80 3d
       0.018569097 0.021387093 -0.08472423 0.062697805
0000f0 80 d4 14 3d 6e 44 0c 3d ee 88 68 3d d8 2a e1 bd
       0.03633547 0.034244947 0.05677121 -0.109945
000100 af 28 8b bd ed 4e aa bc 58 33 e1 bd f0 ca 43 bc
       -0.06794869 -0.020789588 -0.10996121 -0.01195024
000110 36 8f 2e 3d f0 e0 eb 3b 9c dc ad 3c ed 91 59 3c
       0.042617045 0.0071984455 0.021223359 0.01327942
000120 b5 85 e8 bc 67 55 70 bd 59 45 0a 3d e8 51 3a bc
       -0.028384069 -0.058675196 0.03375754 -0.011372067
000130 93 0b 27 3b 8a bb de 3d 3c 41 77 bd 6f b0 77 bd
       0.0025489077 0.10875614 -0.060364947 -0.060470995
000140 07 36 ef 3c 2a 99 3d 3d ca 14 0c bc 8b 68 a8 3d
       0.029200567 0.046288647 -0.008549878 0.08223065
000150 61 c5 88 bd e5 f9 92 3d d3 bb b9 bc d7 6f a2 bc
       -0.06678272 0.0717657 -0.02267257 -0.01982872
000160 06 ad ea bc a6 d6 88 3d dc 1d e9 3b 17 5a 4e bd
       -0.028646957 0.06681566 0.007114155 -0.050378885
000170 9d da 22 bd 59 eb d3 bd 0d 6e 63 3d 6d 89 59 3c
       -0.039759267 -0.103476234 0.055524874 0.013277394
000180 4b 66 a0 bc 06 24 8e bc 8e e7 09 bc 55 6d ce bc
       -0.019580027 -0.017351162 -0.008417023 -0.025198618
000190 8c b9 a4 bc 29 0b f8 bb de cc 85 3c 9b 08 08 3d
       -0.020108007 -0.00756969 0.01633304 0.03321133
0001a0 5c 54 9d bd 48 8e 50 bb 23 91 b4 3c db ec 15 3d
       -0.07682106 -0.0031823087 0.022041863 0.036602836
0001b0 eb a7 da bc 90 29 4a bd c0 e5 f4 3c 7b 54 7c 3c
       -0.026691398 -0.049356043 0.02989471 0.015401001
0001c0 5c dc 32 bd f2 3c a7 bd 10 a8 5f bd d5 c1 a5 3d
       -0.043667182 -0.08165921 -0.054603636 0.08093611
0001d0 04 14 82 3d ab 05 d2 3d ea 38 4f 3d 0c 4a 00 bd
       0.06351474 0.10254987 0.050591387 -0.031320617
0001e0 bc a7 4f 3d 67 bc 51 bc 49 aa e6 3c 1d ff 89 3c
       0.050697073 -0.012801266 0.02815737 0.01684528
0001f0 fe 7a 9e 3c 4a c6 ae bd b2 cb 29 3d 69 b0 8f 3c
       0.019345757 -0.085339144 0.041454025 0.017540174
000200 ec e7 e8 3c a4 1e 3d bd fe 8f 10 3d 98 3b 38 bd
       0.028430901 -0.0461718 0.03529357 -0.044978708
000210 b6 fa 52 3d 6a 75 a0 ba 59 1f bb bd 0f 6e 4e 3d
       0.051508628 -0.0012242023 -0.091368385 0.05039793
000220 98 b0 00 bd d4 30 8c 3d 40 0b ac 3c 04 4c bf bd
       -0.031418413 0.06845251 0.021001458 -0.09340671
000230 47 a6 5d 3d 45 ad 95 bc 5c 44 20 bd 9a a1 96 bd
       0.054113653 -0.018271098 -0.039127693 -0.07355042
000240 1f af ac 3d eb 95 46 bd c8 12 a3 3d bc a1 36 3d
       0.08431839 -0.048482817 0.079625666 0.044587836
000250 84 f1 b9 bc d5 f3 e6 bd a5 3a 4c bd 9f 63 56 bd
       -0.022698171 -0.11276976 -0.049860615 -0.0523411
000260 a5 33 1b bd fa 95 87 bd 68 ad df 3c ae 99 ae 3c
       -0.03789105 -0.06620403 0.027304366 0.021313515
000270 51 13 ea 3d a0 68 41 bd cb 80 9b bd 04 bc 68 3d
       0.114294656 -0.04721892 -0.07592925 0.05681993
000280 a1 09 2c bd cb 2e 13 bd 9d 43 e0 3d 96 f1 8e bc
       -0.04200137 -0.035933297 0.10950396 -0.017449182
000290 b5 ef 18 bd 9b 5f de bd 00 d0 b4 3c 50 f2 b5 bc
       -0.037337977 -0.10858079 0.022071838 -0.02221027
0002a0 d6 bd cf bc 1b d5 91 3d e1 2f 02 bc 92 ae 26 3d
       -0.025359076 0.07120725 -0.0079459855 0.040693827
0002b0 3a 05 67 3c f9 83 56 bc 4a 70 bf bd a0 1b 70 bc
       0.014100367 -0.013092988 -0.09347589 -0.014655024
0002c0 a5 0b 9b 3d 0d 7d 5e bd 21 eb 8e bc bc c4 b7 3d
       0.075705804 -0.054318476 -0.017446103 0.08973071
0002d0 03 90 65 bd c7 24 74 3d 18 f2 da 3b 62 86 01 3d
       -0.056045543 0.059605386 0.006681692 0.031622298
0002e0 d7 97 d7 bd 1a 37 45 bc a7 d2 0b 3e ea 0e ae bd
       -0.10527008 -0.012037063 0.13654576 -0.084989384
0002f0 57 40 b2 3c af 0a 90 bd 43 1f 79 bd a7 00 93 3c
       0.021759195 -0.07033288 -0.06082083 0.017944647
000300 cf c0 9f 3d c0 8e ab 3d 22 de aa 3c b3 5e 98 bc
       0.07800447 0.08376837 0.020857874 -0.018599844
000310 2e 6d 34 bc 91 7c af 3c 82 5f a2 3d bb ba 81 3c
       -0.011012359 0.021421703 0.07928373 0.01583611
000320 26 11 75 3d 6c 94 d7 bd 8c 76 d4 3d b3 59 b1 3c
       0.059830807 -0.10526356 0.103741735 0.021649217
000330 9c 18 67 3d f2 00 d5 3d 0b 9e a8 3b ee 73 85 bd
       0.056419954 0.10400571 0.0051457933 -0.065162525
000340 e6 62 e7 3d 96 e7 2d bc 31 9b 13 bd 72 2b eb 3d
       0.1129816 -0.010614296 -0.036036674 0.11482896
000350 6b 97 bf bd d0 df 6d bd e7 af 2a 3c 90 f6 c4 bc
       -0.093550526 -0.058074772 0.010417915 -0.024043351
000360 d6 ec 19 bb 17 c2 12 bd 7e c7 08 bb 56 32 e1 3b
       -0.0023487112 -0.03582963 -0.002087086 0.0068724556
000370 41 d6 04 bd bc f8 73 3d 2f ab d8 bd 04 f8 2d bc
       -0.03243089 0.059563383 -0.10579526 -0.010618214
000380 c1 89 09 3a 9e f7 91 3d 38 6e cf bd 0d 7b e6 3c
       0.0005246662 0.07127307 -0.101284444 0.028134847
000390 86 55 99 bd 15 5a a1 bd ca 7c c7 3c 0b fb 63 bc
       -0.074870154 -0.0787851 0.024351496 -0.013914834
0003a0 32 5a a5 3d 35 59 8c 3d 1f e5 b7 3d d8 59 e0 bc
       0.08073844 0.068529524 0.08979248 -0.02738659
0003b0 96 45 91 bd 8e 3b 07 3e 74 37 86 bc 88 1c 2d bd
       -0.070933506 0.13206312 -0.016383864 -0.042263538
0003c0 a2 ca 00 bc 1d a0 82 bb 20 09 ab bb d2 22 54 3d
       -0.007860811 -0.003986372 -0.0052195936 0.05179102
0003d0 d0 12 c5 3d 09 dd 8c 3c 6d 22 da 3d c5 35 fc 3c
       0.09622729 0.017195242 0.106510974 0.030787358
0003e0 96 21 82 3d a7 e8 f6 3d 55 c2 1e be b0 06 18 bd
       0.06354062 0.12056094 -0.1550382 -0.037115753
0003f0 38 bd 84 3d a3 da bf 3c 9a a8 89 bd e4 64 b6 bc
       0.06481403 0.023419684 -0.06721611 -0.022264905

network_body.vector_processors.0.normalizer.running_mean f4 [91]
000000 7f 1b 7a 3f 78 9c a7 3a 78 9c a7 39 62 d9 ac 3c
       0.97698206 0.001278772 0.000319693 0.02109975
000010 eb bb 53 3e 56 49 70 3f 7b 9c a7 39 00 00 00 00
       0.20677154 0.938619 0.0003196931 0.0
000020 47 cc 78 3d b8 b3 d1 3e 8e 98 71 3f 0e 22 d4 3c
       0.06074169 0.40957427 0.94373405 0.025895145
000030 78 9c a7 39 63 8f f3 3c 20 b0 c5 3e b6 46 6c 3f
       0.000319693 0.029731458 0.38610935 0.92295396
000040 00 00 00 00 00 00 00 00 b3 22 9d 3d b1 71 80 3e
       0.0 0.0 0.07672634 0.2508674
000050 1f e7 69 3f b8 6a 7b 3a 78 9c a7 39 fa 80 ad 3d
       0.9136829 0.00095907925 0.000319693 0.08471866
000060 4e 7f da 3e 3a aa 64 3f 0e 22 d4 3c 00 00 00 00
       0.4267525 0.89322245 0.025895145 0.0
000070 0a fe a4 3d f4 3e d5 3e 17 9f 6b 3f 7a 9c a7 3a
       0.080562666 0.41649592 0.92039627 0.0012787723
000080 00 00 00 00 25 c1 9f 3d 0e 8f 53 3e 8a 74 62 3f
       0.0 0.07800511 0.2066004 0.88459074
000090 b3 90 05 3d 00 00 00 00 b4 eb a8 3d 50 55 e5 3e
       0.0326087 0.0 0.08248082 0.4479165
0000a0 29 77 66 3f 33 77 66 3b 00 00 00 00 62 6b c4 3d
       0.90025574 0.0035166263 0.0 0.09590794
0000b0 3f 8d ed 3e 13 20 79 3f ea a8 12 3b 78 9c a7 39
       0.46396825 0.97314566 0.0022378513 0.000319693
0000c0 60 6b c4 3c f5 7c 26 3e ac b6 6f 3f ea df 06 3d
       0.023976982 0.16258605 0.9363811 0.032928385
0000d0 78 9c a7 39 db 2d f6 3c 5b 76 d6 3e 67 7c 6e 3f
       0.000319693 0.030051162 0.41887173 0.9315857
0000e0 b4 6a 7b 3a 00 00 00 00 5e 7e 89 3d 45 2b e6 3e
       0.000959079 0.0 0.06713556 0.44954887
0000f0 c9 d4 4d 3f 9c 4c 5d 3d b4 6a 7b 3a 7b 0a 10 3e
       0.8040281 0.05402814 0.000959079 0.14066498
000100 ca 5e 08 3f aa b6 4f 3f 3b e1 18 3e 52 da 09 3f
       0.53269637 0.811381 0.14929669 0.53848755
000110 ff 72 ae 3a 78 95 00 3c ba f2 98 3c 35 7d 7c 3f
       0.0013309418 0.007848136 0.018670429 0.9862855
000120 e3 2b 80 3c da a9 7b ba 2a 55 7e 3f 1e d4 ef bc
       0.015645927 -0.00096002 0.993487 -0.02927595
000130 72 20 7d bd 6c 6d 94 3b 5a 25 29 42 d3 13 05 3f
       -0.06179852 0.0045296457 42.286476 0.51983374
000140 fa 16 dc 3f 63 0b ba 42 a1 4a 07 3f 32 36 cf c2
       1.7194512 93.02224 0.5284825 -103.60585
000150 70 c4 10 ba 3d 82 c0 ba 65 de 91 3c 52 93 69 3f
       -0.00055224355 -0.0014687252 0.017806241 0.9124042
000160 37 bd 69 3f b2 90 65 3f 03 7f 72 3f
       0.91304344 0.8967391 0.94725055
