Assets/ML-Agents/mla-1.0.6/results/carchase02/CarAgent/CarAgent-99972.onnx (onnx, 362126 bytes, 9 tensors)

53 f4 [91]
0	0x3ee2376a	0.44182903
1	0x3d31ed6b	0.04343931
2	0x3c730582	0.014832856
3	0x3ee1a4af	0.44070956
4	0x3eb7aeab	0.3587545
5	0x3ee7b5e4	0.4525596
6	0x3dfe3a69	0.124134846
7	0x3d27451e	0.0408374
8	0x3ee35260	0.44398785
9	0x3e90a841	0.28253368
10	0x3ee8bfac	0.45458734
11	0x3e04e390	0.12977433
12	0x3cc0181c	0.023448996
13	0x3ee46102	0.4460526
14	0x3e9157bc	0.2838725
15	0x3ee97835	0.45599523
16	0x3d394a7b	0.045237046
17	0x3c3ad24a	0.011402676
18	0x3ee8f761	0.45501235
19	0x3ebbf3d3	0.3670946
20	0x3eee74fa	0.4657362
21	0x3deef438	0.11667675
22	0x3c81879c	0.015811734
23	0x3eeb82ba	0.45998174
24	0x3e92fb1e	0.28707212
25	0x3ef03455	0.46914926
26	0x3dfe6352	0.124212876
27	0x3d05ee6d	0.032698084
28	0x3eecdc9e	0.46262068
29	0x3e93f7ba	0.28899938
30	0x3ebcf373	0.36904487
31	0x3d130a67	0.035898592
32	0x3ca3d4b8	0.019998893
33	0x3ebc292d	0.36750165
34	0x3ea297d3	0.31756458
35	0x3ef034d7	0.46915314
36	0x3e45b503	0.19307332
37	0x3cabd2f3	0.020974612
38	0x3ee7d230	0.45277548
39	0x3e8e615b	0.2780865
40	0x3ee9f6c9	0.45696095
41	0x3e507201	0.20355989
42	0x3cca4b8b	0.024694225
43	0x3ede9f5c	0.43480957
44	0x3e8a3080	0.26990128
45	0x3ec5c72c	0.3862852
46	0x3d07cb3c	0.033152804
47	0x3c5bd39f	0.013417154
48	0x3ec53dd6	0.3852374
49	0x3eaa5358	0.3326671
50	0x3eea5dea	0.45774776
51	0x3e47b9d2	0.19504479
52	0x3c903bc9	0.017606633
53	0x3ee04371	0.43801454
54	0x3e89dd82	0.2692681
55	0x3eeed221	0.4664469
56	0x3e465dd6	0.19371733
57	0x3c891430	0.016733259
58	0x3ee606fd	0.44927207
59	0x3e8c5dd5	0.27415338
60	0x3ef85e97	0.48509666
61	0x3e0d8aaf	0.13822435
62	0x3db2d01f	0.08731102
63	0x3efb72ca	0.49111015
64	0x3e87cfb7	0.2652566
65	0x3efdf2fe	0.4959945
66	0x3efef2c1	0.49794582
67	0x3e880192	0.26563698
68	0x3e11ec70	0.1425035
69	0x3eb6bae0	0.3568945
70	0x3e4ea542	0.20180228
71	0x3e6d55e2	0.23177293
72	0x3f1afed8	0.6054511
73	0x3e289ced	0.16466112
74	0x3eaa3bdd	0.33248797
75	0x3f67b12d	0.90504724
76	0x40393496	2.8938346
77	0x40176d4d	2.3660462
78	0x3e090884	0.13382155
79	0x3b699e4a	0.0035647326
80	0x3bce3070	0.0062923953
81	0x423e38e7	47.55557
82	0x4018ca13	2.3873336
83	0x42fa557f	125.166985
84	0x3eb0e2df	0.3454809
85	0x3e0c0f2c	0.13677663
86	0x3f028f30	0.50999737
87	0x3efa101c	0.48840415
88	0x3eecc9bc	0.4624766
89	0x3efa22c4	0.4885465
90	0x3eedb53a	0.46427327

54 f4 [1, 2]
0	0xbd88726d	-0.0666245
1	0xbd656c8b	-0.056011718

distribution.mu.bias f4 [2]
0	0xbabee8f7	-0.0014565279
1	0x3cc4236e	0.023942675

distribution.mu.weight f4 [2, 256]
0	0xbb6d738d	-0.0036232204
1	0x3d06f0b2	0.03294439
2	0x3cb2c9bc	0.02182471
3	0x3d53b23a	0.051683642
4	0x3c96125e	0.018319305
5	0x3d2ac37c	0.041690335
6	0xbc83e8fe	-0.01610231
7	0xbc8129d2	-0.015767012
8	0x3c90c538	0.017672166
9	0x3be394ad	0.006945214
10	0x3cbb089e	0.022831257
11	0x3bbcac7c	0.0057578664
12	0x3d21e4ca	0.03952483
13	0xbd045c69	-0.03231469
14	0x3c59173e	0.01325017
15	0x3d429e7a	0.047514416
16	0xbc97b33b	-0.018518081
17	0x3d2f6ab1	0.04282636
18	0xbc834ced	-0.016027892
19	0x3be3b5e9	0.0069491756
20	0xbced0a96	-0.028935712
21	0x3d0eec9c	0.034893617
22	0x3c6ee506	0.014580971
23	0xbce97df7	-0.028502448
24	0x3bfc2e93	0.0076959818
25	0x3cb817c7	0.022472275
26	0x3ccb0825	0.024784157
27	0x3d537fe0	0.051635623
28	0x3b598e04	0.003319622
29	0xbbdb2e98	-0.006688904
30	0x3cfe126f	0.03101465
31	0x3d7f49b7	0.06232616
32	0x3c9f8509	0.019472616
33	0x3c5a0067	0.01330576
34	0xbc7987e8	-0.0152301565
35	0x3cad44f4	0.021151043
36	0x3c8d0460	0.017214
37	0xbbcb6971	-0.006207638
38	0x3c250acf	0.010073378
39	0xbc8707e6	-0.016483258
40	0x3c95c875	0.018284062
41	0x3cf983d2	0.030458365
42	0xbc6bba72	-0.014387714
43	0x3d2976c7	0.04137304
44	0xbb7e5a12	-0.003881101
45	0xbc5c6f02	-0.013454201
46	0xbcc15c72	-0.023603652
47	0xbc097524	-0.008389745
48	0xbc133739	-0.008985334
49	0xbcfe85f1	-0.031069728
50	0x3cfad2b1	0.030618044
51	0x3cb499c3	0.022045976
52	0x3c3b3592	0.011426346
53	0x3c698260	0.014252275
54	0xbcd1a001	-0.025588991
55	0x3c152c08	0.009104736
56	0x3cb5b90e	0.022182968
57	0xbc2f6ccb	-0.010707091
58	0xbcab0ee0	-0.020881116
59	0xbd3d34ef	-0.04619306
60	0xbcf13f6a	-0.029449183
61	0xbb62edc1	-0.0034626576
62	0x3c781cde	0.015143601
63	0xbb34ec6f	-0.0027606746
64	0x3d0ea3b3	0.034824084
65	0x3ca4da52	0.020123634
66	0x3bccb3dc	0.006247027
67	0x3bae0692	0.005310842
68	0xbca5f37d	-0.020257706
69	0xbd22626a	-0.039644636
70	0xbc88a6b9	-0.016681062
71	0x3b8b1106	0.0042439727
72	0xbc2be7c3	-0.010492268
73	0x3c310840	0.01080519
74	0xbc94126e	-0.018075194
75	0xbcc1c2fc	-0.023652546
76	0x3a94b309	0.001134486
77	0xbcc7ac22	-0.024374072
78	0xbbabe5e8	-0.005245913
79	0x3cab5049	0.020912306
80	0x3b22a534	0.0024817707
81	0x3c7a22df	0.015267103
82	0xbb6d8c07	-0.0036246793
83	0x3d831409	0.06400306
84	0x3a2801bc	0.000640895
85	0xbd1bc8a0	-0.038033128
86	0x3b14eca4	0.0022724057
87	0xba15a940	-0.0005709119
88	0x3bb8c997	0.0056392658
89	0xbcb86d6e	-0.022513118
90	0xbc9e2651	-0.01930538
91	0x3cd6ce48	0.02622141
92	0x3bd26873	0.0064211427
93	0xbb9e20b6	-0.004825677
94	0x3cbdf2c7	0.023187054
95	0x3a531c2a	0.0008053208
96	0xbcc2876e	-0.023746219
97	0x3bd94310	0.006630309
98	0x3c43521c	0.011921432
99	0xbc3f157d	-0.011662838
100	0x3c80a82d	0.015705192
101	0x3b4863df	0.0030577106
102	0x3cef7e42	0.02923501
103	0x3ca6317b	0.020287266
104	0xbc26c5a5	-0.010178958
105	0x3bdfeaf8	0.0068334304
106	0xbd2d8c4b	-0.042370122
107	0x3855a16b	5.093349e-05
108	0xbd391241	-0.045183424
109	0x3b85b39d	0.0040802495
110	0x3c13f511	0.009030596
111	0xbd0af827	-0.033928063
112	0x3c538ad7	0.01291152
113	0xbce6ba3f	-0.028164981
114	0x3b9e9034	0.0048389677
115	0xbaa5f87b	-0.0012662554
116	0x3c88da22	0.016705576
117	0x3c429cf9	0.0118782455
118	0xbcf14a2d	-0.029454315
119	0x3d1f3b61	0.038874988
120	0x3cab7dd6	0.020934027
121	0x3cea6739	0.028613674
122	0xbbb8d72e	-0.005640886
123	0xbd1dcc32	-0.038524814
124	0xbc664530	-0.0140545815
125	0x3c224ef8	0.009906523
126	0xbd03d983	-0.032189857
127	0xbc2a572b	-0.010396759
128	0x3ac5fa55	0.0015104512
129	0xbca499d2	-0.020092878
130	0x3d35fa1f	0.044427987
131	0x3d09710d	0.03355508
132	0x3dbdacb9	0.0926146
133	0x3c8cf5f6	0.017207127
134	0xbc811c1b	-0.015760472
135	0xbd4641be	-0.04840254
136	0xbcf3c802	-0.029758457
137	0x3d262646	0.040563844
138	0xbbcac681	-0.0061882143
139	0x3ccad74b	0.024760863
140	0x3cf05b98	0.02934055
141	0x3c9896e0	0.01862663
142	0x3d03e2b7	0.032198634
143	0x3c70d81a	0.01469996
144	0x3c901e11	0.017592462
145	0x3d0659c5	0.032800455
146	0xbc69b445	-0.014264171
147	0xbc219f81	-0.009864689
148	0x3cc821da	0.024430204
149	0xbc8552d4	-0.016274847
150	0x3d08e0ae	0.033417396
151	0xbc9e98b4	-0.019359924
152	0xbce0b797	-0.027431292
153	0xbd2a1159	-0.04152045
154	0xbced04eb	-0.02893301
155	0xbbe215b9	-0.006899562
156	0xbc02aae9	-0.0079753185
157	0xbc2c1e91	-0.0105053345
158	0xbb627290	-0.0034553148
159	0x3d019284	0.03163387
160	0xbd05c7e7	-0.032661345
161	0x3c6e23d7	0.014534912
162	0xbb57b22a	-0.003291259
163	0xbc99a030	-0.018753141
164	0x3cafd70c	0.021464847
165	0xbbe2894d	-0.00691334
166	0x3b140ff5	0.002259252
167	0x3d27a7c7	0.04093149
168	0xbc0a806c	-0.00845347
169	0x3b9892ed	0.004656187
170	0x3c2e59c3	0.010641518
171	0xbd257857	-0.04039797
172	0x3bbcdd83	0.005763711
173	0x3cb0e93f	0.021595595
174	0xbbb49db3	-0.0055119633
175	0xbcb15b63	-0.021650022
176	0x3c6da501	0.014504672
177	0xbd4d520c	-0.050127074
178	0x3cec42f5	0.028840521
179	0xbc09ed78	-0.008418433
180	0xbd14aca5	-0.03629746
181	0xbb917495	-0.0044389465
182	0x3d276891	0.040871207
183	0x3cceaff5	0.025230387
184	0xbd95d090	-0.07315171
185	0xbcc2fd70	-0.023802489
186	0x3d20a269	0.039217386
187	0x3b06e9fe	0.0020586248
188	0x3d6d460a	0.057928123
189	0xbc8599e5	-0.016308734
190	0xbc9723e6	-0.018449735
191	0xbbc01d12	-0.0058628405
192	0x3c0407f2	0.008058535
193	0x3bf83275	0.0075743743
194	0x3be375f1	0.00694155
195	0xbc1f4b4d	-0.009722543
196	0xbbb33fca	-0.0054702507
197	0xbce75999	-0.028240966
198	0x3c887ec4	0.016662009
199	0x3cf27301	0.029595854
200	0x3cda2b05	0.026631841
201	0x3cbc9ea7	0.02302487
202	0x3ac0f093	0.0014720134
203	0x3c77fd48	0.015136071
204	0xbafd44a3	-0.0019322824
205	0x3c95b1a0	0.018273175
206	0x3c6a106b	0.014286141
207	0x3bf09632	0.0073421234
208	0xbcf19a0e	-0.029492404
209	0xbce3ec59	-0.02782266
210	0xbc0c77c4	-0.008573476
211	0x3bd55a97	0.0065110433
212	0xbcb86c7c	-0.022512667
213	0x3cb06043	0.021530276
214	0xbc410736	-0.011781504
215	0xbcc6ba2d	-0.024258697
216	0xbc9650c0	-0.018349051
217	0x3d0734a5	0.03300919
218	0xbc8def57	-0.01732604
219	0xbbe5e778	-0.0070161186
220	0x3b775e57	0.003774544
221	0x3d028718	0.031867117
222	0x3ce8e4c8	0.028429404
223	0xbb872a24	-0.0041248966
224	0xbc8bddf9	-0.017073618
225	0x3cbb6012	0.022872958
226	0x3ce3b9de	0.02779859
227	0x3d0c33dc	0.034229144
228	0x3c993abe	0.018704768
229	0xbcb76baa	-0.022390205
230	0x3d065a96	0.032801233
231	0x3cba3e6c	0.022734843
232	0xbc91f26d	-0.017815793
233	0x3d2b2584	0.041783825
234	0x3c8d0978	0.01721643
235	0x3d20afc7	0.039230134
236	0xbd752fa3	-0.059859883
237	0xbc52033e	-0.012818156
238	0x3caed9d2	0.0213441
239	0xbc8043e5	-0.015657375
240	0xbcc69dfc	-0.024245255
241	0x3bf8e050	0.0075950995
242	0xbc86c60b	-0.016451856
243	0xbb8c3f17	-0.004279982
244	0x3c7975ad	0.01522581
245	0xbcc8ad28	-0.02449663
246	0xbc154d09	-0.009112605
247	0xbc803e2e	-0.01565465
248	0xbbfeb23d	-0.0077727125
249	0x3be126e2	0.0068710903
250	0x3c851158	0.016243622
251	0x3c5fca3f	0.013659059
252	0xbcbe7e40	-0.02325356
253	0xbc29ce85	-0.0103641795
254	0xbb8408b2	-0.004029357
255	0xbc941349	-0.018075602

network_body.linear_encoder.seq_layers.0.bias f4 [256]
0	0xbd0fdeae	-0.035124473
1	0xbba329e1	-0.0049793576
2	0xbbefbdab	-0.0073163114
3	0x3b98cdea	0.0046632187
4	0xb8a58702	-7.89296e-05
5	0x3c6bfbc5	0.014403288
6	0xb970f433	-0.00022979155
7	0x3cdcc31a	0.0269485
8	0x3c2d015a	0.010559404
9	0x3c0fdfff	0.008781432
10	0xbba2fcb2	-0.0049739713
11	0x3c1877d9	0.009305918
12	0x3cbdeb62	0.023183528
13	0xbc967f9e	-0.0183714
14	0x39c71d9c	0.00037978298
15	0x3c645fec	0.013938885
16	0xbcc01762	-0.02344865
17	0x3bf63f9b	0.0075149066
18	0xbc848e0a	-0.01618101
19	0xbc8e533b	-0.017373672
20	0xbc17b9bc	-0.009260591
21	0x3cc4c714	0.02402071
22	0xbb8b61c3	-0.0042535975
23	0xba882e33	-0.0010389745
24	0x38d3a43d	0.00010091856
25	0x3bbde1c8	0.0057947375
26	0xbc62c545	-0.013840978
27	0x3a569e01	0.00081869966
28	0xbc8ef721	-0.017451825
29	0x3bc87fb5	0.0061187395
30	0xbcf52578	-0.029925093
31	0x3bf5bd71	0.00749939
32	0xbbd61d99	-0.00653429
33	0x3c548335	0.012970735
34	0x3c818abf	0.01581323
35	0xbc891bc6	-0.016736876
36	0x3cb12fff	0.021629332
37	0xbc7c66c6	-0.0154053625
38	0x3bbfc319	0.005852115
39	0x3c02fd22	0.007994922
40	0xbcf5d19b	-0.030007174
41	0xbc109643	-0.008824888
42	0xbc9bb038	-0.019004926
43	0x3cdf9b60	0.027295768
44	0xbc8e7a6c	-0.01739236
45	0xbcb89113	-0.022530114
46	0x3cfcdbae	0.03086647
47	0x3b9f7aaa	0.0048669176
48	0xbc9f9680	-0.019480944
49	0x3c371d17	0.011176369
50	0xba0b5be8	-0.00053161243
51	0xbbf28a37	-0.0074017304
52	0xbbc02380	-0.005863607
53	0x3a6b170a	0.00089679717
54	0xbbc716f9	-0.0060757366
55	0x3cb783d2	0.022401724
56	0xba91b668	-0.0011116983
57	0x3c93cf56	0.018043201
58	0x3cc7e4a7	0.024401022
59	0x3ca5fae1	0.02026123
60	0xbce79f3d	-0.028274173
61	0xbc68d64e	-0.0142112505
62	0x3ce24e1c	0.027625136
63	0xbbdfb1e9	-0.0068266285
64	0xbc62ad28	-0.013835229
65	0xbb919f43	-0.0044440343
66	0xb9f8c039	-0.00047445463
67	0x3c0779a3	0.008268747
68	0xbc04b924	-0.008100782
69	0x3cca3b20	0.024686396
70	0x3ce21520	0.027597964
71	0x3b7ed725	0.003888556
72	0x3ccfae16	0.025351565
73	0x3cb204ce	0.021730807
74	0xbca03db0	-0.019560665
75	0x3d17185a	0.036888458
76	0xbc9d8f5e	-0.019233402
77	0x3d236ebc	0.039900526
78	0x3c5a3979	0.013319367
79	0xbbf75438	-0.0075478815
80	0xb99c4ea2	-0.00029813225
81	0x3bb7d834	0.00561049
82	0x3d0e8f7a	0.0348048
83	0x3ca0629f	0.019578276
84	0x3ccd2bc1	0.025045278
85	0x3ca5901d	0.02021032
86	0xbae8c18e	-0.0017757879
87	0xba694ae2	-0.0008899403
88	0x3cb5e44e	0.02220359
89	0xbabdcc27	-0.0014480398
90	0x3bc90ada	0.006135327
91	0xbcd00af7	-0.025395853
92	0x3b0bb032	0.0021314737
93	0xbc1f8a5b	-0.009737576
94	0x3cc3b69b	0.023890784
95	0x3a98734d	0.0011631042
96	0x3c938052	0.018005524
97	0x3c3d54db	0.011555876
98	0xbcc4f54c	-0.024042748
99	0x3cd63ea5	0.026152918
100	0xbc676378	-0.014122836
101	0xb98c5f4d	-0.00026773885
102	0x3d246b28	0.040141255
103	0xbcbfbb0c	-0.02340462
104	0x3abbe564	0.0014335332
105	0x3cfa1804	0.03052903
106	0x3cb8b280	0.022546053
107	0x3c36663f	0.011132776
108	0x3d02b753	0.031913113
109	0x3c1f24ed	0.009713394
110	0x3bc2cf88	0.00594515
111	0xbb45a8c6	-0.0030160411
112	0x3afa586e	0.001909984
113	0x3caae7a9	0.020862417
114	0x3b4737ed	0.0030398325
115	0xbbf7c4a7	-0.0075612846
116	0xb9bf1877	-0.00036448587
117	0x3ab34c53	0.0013679363
118	0x3cb6c40d	0.022310281
119	0xbca29300	-0.019845486
120	0xbc58556d	-0.013203961
121	0xbc2c7682	-0.010526301
122	0x3ce0314d	0.027367258
123	0x3ce214e9	0.027597861
124	0xbc92a1bd	-0.017899388
125	0x3c64b83a	0.013959939
126	0x3c64470f	0.013932957
127	0xbd1affcd	-0.037841607
128	0xbc993edb	-0.01870673
129	0xbb45db18	-0.0030190405
130	0x3c814fa2	0.015785042
131	0x3b9b6649	0.004742418
132	0x3c4ff178	0.012691848
133	0x3b26b996	0.0025440208
134	0x3be8aca1	0.007100657
135	0xbca8ff4f	-0.020629553
136	0x3b462443	0.0030234016
137	0xbc0bc957	-0.00853189
138	0x3bcecc25	0.006310957
139	0xbcbe4961	-0.02322835
140	0xbabd4861	-0.0014441126
141	0xbca28e13	-0.019843137
142	0xb92cf457	-0.00016494222
143	0x3cabf072	0.020988677
144	0xbc3a8f95	-0.011386772
145	0x3b99a273	0.004688555
146	0x389ee37f	7.5764015e-05
147	0x3cbc5c4a	0.022993226
148	0xbc288af9	-0.01028704
149	0xbc56449e	-0.013077883
150	0xbb9ac66b	-0.0047233603
151	0x3c17ef9e	0.009273438
152	0x3b907088	0.004407946
153	0xbc4286ad	-0.0118729295
154	0xbc532135	-0.012886335
155	0xbd2a58eb	-0.041588705
156	0x3b82ff1a	0.0039976956
157	0x3cad048c	0.021120332
158	0xbcaef033	-0.02135477
159	0xbc6ecdda	-0.014575446
160	0xbbd73f25	-0.0065688067
161	0x3bfa9932	0.007647657
162	0x3b93a9a7	0.004506308
163	0xbb84683a	-0.004040745
164	0xb9c50167	-0.00037575813
165	0x3cc7f054	0.02440659
166	0xbba5725a	-0.005049032
167	0xbb97c2b2	-0.004631364
168	0x3bdc0e19	0.0067155478
169	0xbc454a39	-0.012041622
170	0xbb16bf4e	-0.002300221
171	0xbcb0e820	-0.02159506
172	0xbc9ad0a4	-0.018898316
173	0x3cc19085	0.023628483
174	0x3cd9cdeb	0.026587447
175	0xbc5e2b3d	-0.0135601135
176	0x3bc07629	0.005873461
177	0xbb8f54cb	-0.004374122
178	0x3c2bef3d	0.010494051
179	0xbc2cf4a3	-0.010556373
180	0xbb92b15b	-0.004476709
181	0x3c3577d5	0.011075933
182	0x3ca64a82	0.0202992
183	0xbccb563b	-0.024821391
184	0xbc553b54	-0.013014633
185	0x3bbce991	0.005765148
186	0x3cac7df5	0.021056155
187	0xbbcdf981	-0.0062858467
188	0x3bc93baf	0.006141148
189	0x38c9fbf9	9.6313604e-05
190	0x3c91a347	0.017778052
191	0x3bbe8a5a	0.0058148326
192	0xbc9e7725	-0.019343922
193	0x3b9575db	0.0045611686
194	0x3d0950e8	0.033524424
195	0x3a4a0217	0.0007706
196	0x3c097bef	0.0083913645
197	0x3c63b540	0.013898194
198	0x3abfb6e0	0.0014626645
199	0x3cee1586	0.029062998
200	0x3b08a14e	0.0020848098
201	0x3b84c328	0.0040515848
202	0xbb2691e9	-0.002541656
203	0xbb997854	-0.0046835337
204	0xbcb84d21	-0.022497715
205	0x3be30eef	0.0069292705
206	0xbc1edb74	-0.009695876
207	0x3bb5ce49	0.0055482727
208	0x3cb7f2e9	0.022454696
209	0x3b530f69	0.003220523
210	0x3d001ad9	0.031275604
211	0x3c72fac1	0.014830292
212	0xbbdee9e6	-0.006802785
213	0x3c54fac2	0.012999238
214	0x3c860379	0.016359078
215	0x3ac49945	0.0014999291
216	0x3c2b30fd	0.010448691
217	0x3c4ced8c	0.012507807
218	0x3b355bc2	0.00276731
219	0xbcaacbb7	-0.020849092
220	0x3c6ceea8	0.014461197
221	0x3befa8ca	0.0073138224
222	0x3c52b02b	0.0128593845
223	0x3c0d79b8	0.008634977
224	0x3c644b2a	0.013933936
225	0xbbbb1bd3	-0.005710104
226	0xbcd891c5	-0.026436696
227	0xbcb6cc52	-0.022314224
228	0xbba7ecd1	-0.0051246663
229	0x3c8859d6	0.0166444
230	0x3a101322	0.0005496015
231	0xbc8124a2	-0.015764538
232	0x3c23042b	0.009949724
233	0x3ba23cce	0.004951096
234	0xbc83da26	-0.016095232
235	0x3d060599	0.032720182
236	0xbbe749d1	-0.00705836
237	0xbb84d65d	-0.0040538744
238	0x3ce66c53	0.028127825
239	0xba65ca79	-0.00087658275
240	0xbbeff0ef	-0.0073224227
241	0x3c1e1d61	0.009650559
242	0xbccf4d37	-0.025305374
243	0x3c8126a0	0.015765488
244	0x3bbdf02d	0.0057964534
245	0xbc838366	-0.016053867
246	0x3a99c68d	0.0011732146
247	0xba411711	-0.0007365803
248	0xbae8f1ae	-0.0017772221
249	0x3c97a6db	0.01851218
250	0x3cc9d6be	0.02463853
251	0x3c408872	0.011751281
252	0x3beee13c	0.0072900336
253	0xbb5a554b	-0.0033314999
254	0xbc5c9170	-0.013462409
255	0x3befcff2	0.00731849

network_body.linear_encoder.seq_layers.0.weight f4 [256, 91]
0	0xbbc91b76	-0.006137307
1	0x3c7f8d13	0.0155976
2	0x3d8a85f0	0.06763828
3	0x3d0da998	0.034585565
4	0x3e07aa19	0.13248481
5	0x3d2eaec7	0.04264715
6	0xbde00466	-0.10938339
7	0xbd9eb7bd	-0.07749889
8	0xbcc64219	-0.02420144
9	0xbd859444	-0.0652242
10	0xbc562db7	-0.013072423
11	0xbd022651	-0.031774823
12	0x3d7825e3	0.060583007
13	0x3cdae034	0.026718237
14	0xbde6f429	-0.112770386
15	0x3dd8016b	0.105471455
16	0xbe5f3378	-0.21796978
17	0xbce943af	-0.028474657
18	0x3ba36437	0.004986312
19	0xbd619b19	-0.055079553
20	0x3dd2d259	0.10294027
21	0xbd9c989c	-0.076462954
22	0xbd12d1c5	-0.035844583
23	0xbd304f28	-0.04304424
24	0xbd836fb3	-0.06417789
25	0x3df88626	0.12134962
26	0xbe2b81d5	-0.16748746
27	0x3d7d373e	0.06182026
28	0xbe4accac	-0.19804639
29	0x3cc56adc	0.024098806
30	0xbd89ad7f	-0.06722545
31	0x3dd607ca	0.104507044
32	0xbe74e3af	-0.2391498
33	0x3d9c4395	0.07630078
34	0x3e104721	0.14089634
35	0x3c5bef94	0.013423819
36	0xbe861944	-0.2619115
37	0x3e0c528f	0.13703369
38	0xbc375878	-0.011190526
39	0x3cc1deb3	0.023665762
40	0x3deb5df6	0.11492531
41	0x3dca1547	0.098673396
42	0xbe0f0cc8	-0.1396972
43	0xbd33012f	-0.0437023
44	0x3cfff0f1	0.03124282
45	0x3c071a49	0.008246013
46	0x3bed5769	0.007243086
47	0x3ce7744b	0.028253695
48	0x3e54718c	0.2074644
49	0x3df909bc	0.1216006
50	0xbd4cf044	-0.050033823
51	0xbd6af3ca	-0.0573614
52	0x3cdf0d4d	0.027228022
53	0xbe2ade03	-0.16686253
54	0x3e0f2ce0	0.13981962
55	0xbcc7d801	-0.02439499
56	0x3dc79638	0.09745449
57	0x3d80592d	0.06267009
58	0xbe31b016	-0.17352328
59	0xbc306bf0	-0.010767922
60	0xbd162e39	-0.036665175
61	0x3d0259ad	0.031823803
62	0xbe00240c	-0.12513751
63	0x3d4b78da	0.0496758
64	0x3e052c50	0.13005185
65	0xbdbdce58	-0.092678726
66	0x3dee50c5	0.11636499
67	0x3df720de	0.12066816
68	0xbda7fbe4	-0.08202341
69	0xbd1a1bd2	-0.037624188
70	0xbcdb4635	-0.026766876
71	0xbd81c2f9	-0.06336016
72	0xbd9c0e39	-0.076199
73	0xbd82b0c3	-0.06381371
74	0xbd2d1cf5	-0.042263944
75	0xbd196c62	-0.037456878
76	0x3ca52c65	0.02016277
77	0x3d218b85	0.039439697
78	0xbdce5c4e	-0.100761995
79	0xbdefdb55	-0.11711756
80	0x3d8e6405	0.06952671
81	0xbc886dd1	-0.016653927
82	0xbd466948	-0.048440248
83	0x3e2d06a7	0.16897069
84	0xbce136e4	-0.027491994
85	0x3e27d440	0.1638956
86	0xbe597de1	-0.21239425
87	0xbcea9900	-0.02863741
88	0x3bd345ff	0.006447553
89	0x3e43b30c	0.1911127
90	0x3d3e6577	0.046483483
91	0x3e03abb4	0.12858468
92	0x3cf49f5b	0.029861143
93	0x3e8ab8d0	0.27094126
94	0x3cf2e378	0.029649481
95	0x3e19011b	0.14941828
96	0x3cc10d99	0.023566054
97	0xbd05e1c1	-0.032686
98	0x3e457fda	0.19287053
99	0xbcc45795	-0.023967544
100	0x3dd914f2	0.10599698
101	0xbe6779ae	-0.22605011
102	0x3c7373ee	0.014859183
103	0xbd6ea9a8	-0.058267266
104	0xbe068d46	-0.13139829
105	0xbdcffb16	-0.10155313
106	0xbe0c58d2	-0.13705757
107	0xbdb75e27	-0.08953505
108	0xbca4ab6c	-0.020101272
109	0x3e11a586	0.14223298
110	0xbd2fac88	-0.042889148
111	0xbd54d88a	-0.05196432
112	0xbe13984a	-0.14413562
113	0x3de2387b	0.11045929
114	0xbd0acab9	-0.033884738
115	0x3d0f5069	0.034988794
116	0x3d195f5b	0.037444454
117	0xbde4828d	-0.11157713
118	0xbd8c5df2	-0.06853856
119	0xbe1d7c89	-0.15379538
120	0xbd500966	-0.050790213
121	0xbd7b2650	-0.061315835
122	0x3a5ae5aa	0.00083502627
123	0xbc2ec29e	-0.010666518
124	0xbde0e34e	-0.10980855
125	0xbb6881df	-0.00354778
126	0xbd63fb81	-0.055659775
127	0xbdde3bd3	-0.10851254
128	0xbd795239	-0.06086943
129	0xbe019325	-0.12653787
130	0x3d082c0e	0.03324514
131	0xbe188643	-0.14894967
132	0x3e39b0c1	0.18133833
133	0x3db5451f	0.088510744
134	0xbe1df24a	-0.15424457
135	0xbdc4a733	-0.09602203
136	0x3d1f53f2	0.038898416
137	0xbd11c0fa	-0.035584427
138	0x3d142c7c	0.036175236
139	0xbd2c37dc	-0.04204546
140	0x3d23b8c3	0.039971124
141	0x3db306eb	0.08741554
142	0xbe041850	-0.128999
143	0x3c91a1f5	0.017777422
144	0x3d5b1f43	0.05349661
145	0x3da46937	0.08027881
146	0x3e0cdb8c	0.13755625
147	0x3d3c820a	0.046022452
148	0x3e650367	0.22364579
149	0xbd9e832f	-0.07739865
150	0xbe1dcb1a	-0.15409508
151	0x3c593455	0.013257106
152	0xbe21e55e	-0.15810153
153	0xbd45bd2b	-0.048276108
154	0xbdfd454b	-0.12366732
155	0x3dbdbbb8	0.0926432
156	0x3e7597dd	0.23983712
157	0xbde67486	-0.11252694
158	0x3e43ed9e	0.19133613
159	0x3d2cbe6d	0.04217379
160	0x3d88bd4d	0.06676731
161	0x3cf131e3	0.029442733
162	0x3dfce691	0.123486646
163	0xbcffaedf	-0.031211315
164	0xbe0cf0a4	-0.13763672
165	0xbbd14c47	-0.006387267
166	0x3db82ad0	0.08992541
167	0x3ded873b	0.11598059
168	0xbe4a109a	-0.19732895
169	0xbd29ff31	-0.041503135
170	0xbc22d671	-0.009938822
171	0xbd42360c	-0.047414824
172	0x3e73a4f7	0.23793398
173	0xbd61a061	-0.05508459
174	0xbad946f5	-0.0016576933
175	0xbdafbb88	-0.085806906
176	0x3d60d1f3	0.054887723
177	0x3b97440e	0.004616267
178	0x3ca94698	0.020663545
179	0xbd1fa5de	-0.038976543
180	0xbdbe00e6	-0.09277515
181	0x3d10034b	0.03515939
182	0x3e270815	0.16311677
183	0xbd8346d9	-0.064099975
184	0xbe2a65ba	-0.16640368
185	0x3e07492e	0.1321151
186	0x3e00d4a4	0.12581116
187	0xbc8b01a5	-0.016968558
188	0x3a274ebd	0.00063822774
189	0x3dd2ddd2	0.10296215
190	0x3cfe445f	0.031038461
191	0xbc1a3269	-0.009411433
192	0x3e9b4d13	0.3033224
193	0xbda8e636	-0.08247034
194	0x3bc5efdb	0.006040556
195	0x3db58a59	0.08864278
196	0x3e591cc1	0.21202375
197	0xbc1a78fe	-0.009428261
198	0xbdca6272	-0.09882058
199	0xbd17af8b	-0.037032645
200	0xbe2f3540	-0.17110157
201	0xbcf52f64	-0.029929824
202	0x3e2ee9f1	0.17081429
203	0x3d9a17c5	0.07524065
204	0xbde48a84	-0.11159232
205	0x3d58d175	0.05293413
206	0xbdac0780	-0.08399868
207	0x3d4224bf	0.047398325
208	0x3d248de4	0.04017438
209	0xbcd59880	-0.026073694
210	0x3e16db1a	0.14732018
211	0xbd1d3128	-0.038376957
212	0x3dac231e	0.084051356
213	0x3aa7ef0e	0.0012812333
214	0x3c91ab7e	0.01778197
215	0xbd84fc00	-0.06493378
216	0x3c809076	0.015693884
217	0xbd1be014	-0.038055494
218	0x3cf42a2f	0.029805271
219	0xbd9dd6c8	-0.07706982
220	0x3df5529f	0.11978649
221	0x3db7b717	0.089704685
222	0x3db6de90	0.08929169
223	0x3d5986f7	0.053107228
224	0xbe19f895	-0.15036233
225	0xbd3a0137	-0.045411315
226	0xbd9e04e8	-0.077157795
227	0x3da1c41b	0.07898732
228	0x3cdb1560	0.02674359
229	0x3dd9da03	0.106372856
230	0xbdbb54c8	-0.0914703
231	0x3c8994bf	0.01679456
232	0x3e055727	0.13021527
233	0x3e0312ab	0.1280009
234	0xbd0e3ec2	-0.03472782
235	0xbdc12912	-0.09431662
236	0x3e17b2d8	0.14814317
237	0xbd8b71c6	-0.0680881
238	0xbd5bf31c	-0.053698644
239	0x3e15fc9f	0.14647149
240	0xbdcc776f	-0.09983718
241	0x3e4efde1	0.20214035
242	0xbc9e79f9	-0.01934527
243	0x3daaead8	0.08345574
244	0xbda0122a	-0.078159645
245	0xbcabf540	-0.020990968
246	0x3dcde617	0.10053652
247	0xbd4ab554	-0.049489334
248	0x3dbecf3e	0.09316872
249	0xbdf5004e	-0.11962949
250	0xbcb13be1	-0.021634998
251	0xbc864591	-0.016390594
252	0xbbde83e7	-0.0067906263
253	0xbe1435b6	-0.14473614
254	0xbdc7e7ee	-0.09761034
255	0xbd75b647	-0.059988286

network_body.linear_encoder.seq_layers.2.bias f4 [256]
0	0x3cfd011f	0.030884324
1	0x3c97e1f6	0.018540364
2	0xbbdd42d0	-0.0067523494
3	0xbbee9c4f	-0.007281817
4	0xbcb16f39	-0.02165948
5	0xbc06a797	-0.0082186675
6	0xbbfbf084	-0.007688584
7	0x3b3f3bd9	0.002917996
8	0xbca73772	-0.02041218
9	0xbbe9a13a	-0.0071298154
10	0xbc7e2133	-0.015510845
11	0x3b66f5e3	0.0035241775
12	0xbc8a7961	-0.016903581
13	0xbbf0e7c5	-0.007351848
14	0xbce0b96d	-0.027432168
15	0xbb8b8c3d	-0.004258661
16	0x3bfe1638	0.0077541135
17	0xbba0a93d	-0.0049029873
18	0xbc4b7350	-0.012417629
19	0xbb267ea2	-0.002540507
20	0xbc82ec00	-0.015981674
21	0xbc260eb9	-0.010135346
22	0x3c35da10	0.011099353
23	0x3c271967	0.0101989275
24	0x3a3d081e	0.00072109874
25	0xbc3ffdee	-0.011718256
26	0x3b8a3870	0.0042181537
27	0x3c49d86f	0.012319668
28	0x3c6c3d20	0.01441887
29	0x3c03ebcb	0.008051823
30	0xbc24c026	-0.010055577
31	0x3c77d45e	0.015126316
32	0xbc5e5b75	-0.01357161
33	0x3bd1ad69	0.006398846
34	0xbca58c8f	-0.020208625
35	0x3c9cf3cc	0.01915922
36	0xbcb60032	-0.02221689
37	0x3ba69d80	0.0050846934
38	0x3a81a1c3	0.0009890128
39	0xbc9bf0ba	-0.019035686
40	0xbc0a951d	-0.008458403
41	0x3c4c2419	0.012459778
42	0xbbe6609e	-0.0070305606
43	0xba663709	-0.00087820046
44	0x3c5bd73b	0.013418014
45	0x3c656bd0	0.014002755
46	0x3ad84944	0.0016501327
47	0x3c801f0d	0.015639806
48	0xbc1b90b7	-0.009494952
49	0x3cb77e13	0.022398984
50	0xbc889a6a	-0.016675193
51	0x3cc18701	0.023623945
52	0xbcd068e8	-0.025440648
53	0x3cb790fd	0.022408003
54	0x3bf4ae73	0.007467085
55	0x3cec70d4	0.028862394
56	0x3c7d0593	0.0154432235
57	0x3cd10986	0.025517236
58	0x3c3ee1c3	0.0116505055
59	0xba8077ef	-0.0009801368
60	0xbca6f110	-0.02037862
61	0x3c8b8984	0.017033346
62	0xbc6f084c	-0.0145893805
63	0xbcdb82ba	-0.026795734
64	0x3c984ca1	0.018591227
65	0xbcb2697c	-0.021778814
66	0xbcdd6d9d	-0.027029807
67	0x3cd22f4a	0.025657315
68	0x3be39144	0.0069448072
69	0x3bfa9b59	0.0076479134
70	0x3c06aa4a	0.008219311
71	0xbc0860d8	-0.008323871
72	0xbbf51816	-0.007479678
73	0xbce08113	-0.027405297
74	0xbc5b6e1a	-0.0133929495
75	0xbc135d95	-0.00899448
76	0x3c2402bc	0.010010418
77	0x3b4fb4d3	0.0031693473
78	0xbcc8246b	-0.024431428
79	0x3876e967	5.8868343e-05
80	0xbcb46c85	-0.022024402
81	0x3c515981	0.012777687
82	0xbcec8fe2	-0.028877202
83	0x3c713adb	0.014723505
84	0xbd179973	-0.037011575
85	0xbc222738	-0.009897046
86	0xbca17050	-0.019706875
87	0xbb6214c0	-0.0034497231
88	0xbc354f76	-0.011066308
89	0xbca95a6a	-0.020672996
90	0x3c07a8c9	0.008279988
91	0x3cbdc977	0.023167355
92	0x3c8da9f9	0.017292963
93	0x3c6fe235	0.014641334
94	0x3cc65659	0.024211096
95	0x3b253699	0.0025209545
96	0x3bf8103e	0.0075702956
97	0xbca71afc	-0.02039861
98	0x3c8e5dec	0.01737877
99	0x3b5706f2	0.0032810536
100	0x3ced8823	0.02899558
101	0x3c8ccaf8	0.017186627
102	0xbc04df52	-0.008109884
103	0x3c992db5	0.018698553
104	0xbb71c609	-0.003689172
105	0xbc17464c	-0.009233069
106	0xbaf9ad28	-0.0019048797
107	0x3ca041c0	0.019562602
108	0xbc24ef84	-0.010066871
109	0xbcea076f	-0.028567998
110	0xbd0a19a6	-0.033715867
111	0x3cbaf14a	0.022820134
112	0x3bb3e974	0.0054904763
113	0xbb932324	-0.004490273
114	0x3c084c06	0.008318907
115	0x3a4a84de	0.0007725487
116	0xbc95b69f	-0.018275557
117	0x3c7b92c5	0.015354817
118	0x3cdcb737	0.026942832
119	0xbc40d48a	-0.011769423
120	0x3c61295b	0.01374277
121	0x3c9e6159	0.019333528
122	0xbc830ebe	-0.01599824
123	0xbba88108	-0.005142335
124	0x3c8e328d	0.017358089
125	0xbab9d5a2	-0.0014178047
126	0xbc5a0a0f	-0.013308062
127	0x3c43fe8a	0.011962542
128	0x3cdcacfe	0.026937958
129	0x3c1b3ff7	0.0094757
130	0xbbeef369	-0.0072922003
131	0x3c4a5d20	0.012351304
132	0x3c9e03f2	0.01928899
133	0x3c28ae36	0.010295441
134	0xbc5c6223	-0.013451132
135	0xbb8a26d9	-0.004216057
136	0xbc2cba80	-0.010542512
137	0xbc409310	-0.011753812
138	0xbc8e08bd	-0.017338151
139	0x3cd08f02	0.025458816
140	0x3bb1c9c5	0.005425664
141	0xbc56faec	-0.013121348
142	0x3ac44b49	0.001497605
143	0xba863e09	-0.0010241877
144	0xba323582	-0.00067981344
145	0x3c812aa9	0.015767412
146	0xbcb2c75b	-0.021823576
147	0x3b8983c7	0.0041966173
148	0xbc250148	-0.010071106
149	0xbca63f11	-0.020293744
150	0xbc8f9891	-0.017528804
151	0xbc59f037	-0.013301901
152	0xbb09e628	-0.0021041725
153	0x3c97c680	0.01852727
154	0xbc1d2cb3	-0.009593177
155	0xbc6d0066	-0.014465427
156	0x3b99f333	0.004698181
157	0x3c77fea7	0.015136397
158	0x3c9003dd	0.017579967
159	0xbbbe1f75	-0.00580209
160	0x3c7e6793	0.015527624
161	0xbc8208ea	-0.015873391
162	0x3c4d3784	0.012525443
163	0xbc91b504	-0.01778651
164	0x3ca0e17c	0.01963877
165	0xbc520910	-0.0128195435
166	0xbb892dfd	-0.0041863904
167	0x3b8c0b36	0.0042737974
168	0xbc78850f	-0.015168442
169	0xbcb67d85	-0.02227665
170	0xbc803c09	-0.015653627
171	0xbbb11f1c	-0.00540532
172	0xba9b1809	-0.0011832725
173	0x3c86d4d8	0.016458914
174	0x3c622b57	0.013804278
175	0xbbeae7bb	-0.0071687377
176	0x3cc79f29	0.024367886
177	0x3c4a2165	0.012337063
178	0x3b640bc0	0.0034797043
179	0x3c934597	0.017977519
180	0x3c31df44	0.010856453
181	0xbcca00e0	-0.02465862
182	0x3b1f761c	0.0024331873
183	0xbb960793	-0.0045785396
184	0xbb9dc3bc	-0.004814593
185	0xbc310b56	-0.010805925
186	0x3bfea6e6	0.0077713607
187	0xbcab5e21	-0.020918908
188	0x3c172612	0.009225385
189	0x3d1fe945	0.039040823
190	0xbc00c605	-0.007859712
191	0x3c63f87b	0.013914223
192	0xbcb76ac1	-0.022389771
193	0x3cbe969a	0.023265172
194	0x3c22b282	0.009930255
195	0xbcaf88f9	-0.021427618
196	0xbc891598	-0.01673393
197	0xbc44604d	-0.0119858505
198	0x3cdd48c0	0.027012229
199	0xbc4c97f4	-0.0124874
200	0x3b87d723	0.0041455193
201	0x3c958731	0.01825294
202	0x3c58a22c	0.013222259
203	0x3b8c07d3	0.0042733937
204	0x3ccff011	0.025383027
205	0x3caa0519	0.020754384
206	0xbcc32073	-0.023819184
207	0xbbf74796	-0.0075463755
208	0x3bf3a380	0.007435262
209	0xbc8c81b7	-0.017151697
210	0x3b6912da	0.0035564215
211	0x3b2cef95	0.002638792
212	0x3bc615e5	0.0060450905
213	0x3c8018bb	0.015636792
214	0xbca0fb6b	-0.019651135
215	0xbca47de9	-0.02007957
216	0xbc7f3280	-0.015576005
217	0xbb97f027	-0.0046367827
218	0xbcc3dcca	-0.023908991
219	0xbcac8a0a	-0.021061916
220	0x3ce4a323	0.02790982
221	0xbc6a330b	-0.014294396
222	0xba13e865	-0.00056422345
223	0xbcc755c7	-0.024332894
224	0x3b9db85f	0.0048132385
225	0xbc6b538d	-0.014363182
226	0x3be69b7f	0.0070375795
227	0x3a410038	0.00073623983
228	0xbcac1d9b	-0.02101021
229	0x3c98330e	0.018579032
230	0xbbd44a07	-0.0064785513
231	0xbb6d60de	-0.0036221067
232	0x3c15e60b	0.009149085
233	0xbc5ddacd	-0.013540936
234	0x3c701bc1	0.014655055
235	0x3ca49f48	0.020095482
236	0xbc08f56a	-0.0083592925
237	0x3c7630a3	0.015026244
238	0xbcf0c6e9	-0.029391723
239	0xbc644f96	-0.01393499
240	0xbcc0307e	-0.023460623
241	0xbc65a9ac	-0.014017504
242	0xbb7de148	-0.0038739014
243	0x3c65c0f7	0.014023057
244	0xb9961541	-0.00028626065
245	0xbc531196	-0.012882611
246	0xbc59d17c	-0.013294574
247	0x3c59e3ac	0.01329891
248	0x3caa2d4b	0.02077355
249	0xbc29bf55	-0.0103605585
250	0xbc75a412	-0.014992731
251	0x3a9b7a8f	0.0011862087
252	0xbc074a3e	-0.008257447
253	0xbb42dedf	-0.0029734892
254	0x3baffb77	0.005370553
255	0xbce27577	-0.027643902

network_body.linear_encoder.seq_layers.2.weight f4 [256, 256]
0	0xbcf91fb3	-0.030410623
1	0x3cbc0c2b	0.02295502
2	0xbde1d640	-0.11027193
3	0xbce88577	-0.028383953
4	0xbd8fd45e	-0.07022928
5	0x3c9aa79f	0.018878756
6	0x3d964a66	0.07338409
7	0xbb8d5d05	-0.0043140673
8	0xbcd28f28	-0.025703028
9	0x3db58ba6	0.088645265
10	0xb97aba5f	-0.00023911287
11	0x3d9a44cb	0.075326525
12	0x3d7669c7	0.06015947
13	0x3c3be957	0.011469207
14	0xbd1c072a	-0.03809277
15	0xbd8d27f7	-0.06892388
16	0xbc559fc1	-0.013038577
17	0x3ca6d1eb	0.020363769
18	0x3df30503	0.1186619
19	0xbcb9c4f8	-0.02267693
20	0xbd106363	-0.035251033
21	0xbbdfefae	-0.006833992
22	0xbda4cf87	-0.08047395
23	0x3d37f9cb	0.044915956
24	0xbc0673b8	-0.0082063
25	0x3d96f9ad	0.073718406
26	0xbd5b740e	-0.053577475
27	0x3dca012a	0.09863503
28	0xbda159f7	-0.078784876
29	0x3d493bc8	0.049129277
30	0xbce4f056	-0.027946632
31	0xbd1c1c6a	-0.038113035
32	0xbb7aa422	-0.0038244803
33	0x3d793ad3	0.060847115
34	0x3b8ca6e3	0.0042923554
35	0x3c46b84d	0.012128902
36	0xbc55d140	-0.013050377
37	0x3da7d979	0.081957765
38	0xbc35df96	-0.01110067
39	0x3d85cef0	0.06533611
40	0xbca584d4	-0.020204939
41	0x3d820737	0.06349032
42	0xbda18834	-0.07887307
43	0xbd87ede1	-0.06637169
44	0x3c81ec50	0.015859753
45	0xbc66ae04	-0.0140795745
46	0x3db6bc40	0.089226246
47	0x3e3f0150	0.18652844
48	0xbd1f0560	-0.038823485
49	0xbd9406d6	-0.07227866
50	0x3d00d699	0.031454656
51	0x3c8d1d4e	0.017225888
52	0xbd9eceb0	-0.07754266
53	0x3bc58466	0.006027746
54	0xbba35fa4	-0.0049857665
55	0x3d0cc589	0.03436807
56	0xbddfa91c	-0.10920927
57	0xbd853d6e	-0.065058574
58	0xbd03997d	-0.0321288
59	0x3c0f4c39	0.0087462
60	0x3c1f8a4c	0.009737562
61	0xbd65da5d	-0.05611645
62	0x3d3e62f1	0.046481077
63	0x3dbe650f	0.09296619
64	0xbd2ce4c4	-0.042210355
65	0x3ae2dcfe	0.0017308292
66	0x3e07558d	0.13216229
67	0x3cf6a19a	0.030106355
68	0x3d617d73	0.05505128
69	0x3c2f9a59	0.010717952
70	0x3d11d542	0.03560377
71	0xbd5f64f4	-0.054539636
72	0x3dbbea6a	0.0917557
73	0x3de01bc5	0.109427966
74	0xbdcc98e6	-0.099901006
75	0xbd42d0d6	-0.047562443
76	0x3d88f852	0.06687988
77	0x3de2bede	0.11071561
78	0x3d640dc2	0.055677183
79	0xbe13aa4f	-0.14420436
80	0xbd6c0c4f	-0.057628926
81	0xbdc65864	-0.09684828
82	0xbb6e9b1b	-0.0036408368
83	0xba1fbc91	-0.0006093467
84	0xbca6ab56	-0.020345371
85	0xbd3e9b43	-0.046534788
86	0x3d68309b	0.05668698
87	0x3dd159b9	0.10222191
88	0x3d04de03	0.03243829
89	0xbbb42f62	-0.0054988125
90	0xbd51648d	-0.051121283
91	0xbd1d3879	-0.038383935
92	0xbd72863d	-0.05921005
93	0x3ddf93f0	0.10916889
94	0x3db84ccf	0.08999025
95	0xbba348f8	-0.004983064
96	0x3e6295e4	0.22127491
97	0xbd108ca4	-0.035290375
98	0x3ce2eda1	0.0277012
99	0x3d260c79	0.04053924
100	0xbbdea506	-0.0067945747
101	0xbcfb7d4a	-0.03069939
102	0x3cb1fc70	0.021726817
103	0x3b263dc7	0.0025366412
104	0x3d709b49	0.05874184
105	0xbe12f873	-0.14352588
106	0xbc9c1d0d	-0.019056821
107	0x3b900f23	0.0043963357
108	0xbda3d240	-0.079990864
109	0x3da050ce	0.07827912
110	0x3d97d69f	0.074139826
111	0xbcd01a88	-0.025403276
112	0x3c9dc42e	0.019258585
113	0xbbe726ec	-0.0070542004
114	0xbb539322	-0.0032283743
115	0xbd506532	-0.050877757
116	0x3e00bd6c	0.12572259
117	0x3cc935f8	0.024561867
118	0x3d3c1621	0.04591954
119	0xbd50f638	-0.051016062
120	0xbc37c41b	-0.011216189
121	0xbdaec39a	-0.08533402
122	0xbd040e0f	-0.03223997
123	0x3df2a110	0.118471265
124	0xbd8d51ee	-0.069003925
125	0xbcac65ee	-0.021044698
126	0x3dbc959f	0.092082255
127	0x3daec244	0.08533147
128	0xbda47745	-0.08030561
129	0x3d986515	0.07441155
130	0xbd0580b4	-0.032593444
131	0xbdca09de	-0.09865163
132	0xbc34a003	-0.011024478
133	0x3c8e1f29	0.017348843
134	0xbc67a641	-0.014138759
135	0x3d8652fe	0.06558798
136	0xbe0e9074	-0.13922292
137	0x3dd806e1	0.10548187
138	0x3ca79e3c	0.020461194
139	0xbd38d4cf	-0.045124825
140	0xbe16caf2	-0.14725855
141	0x3c9568a4	0.018238373
142	0x3bdf053d	0.0068060444
143	0xbde6ff95	-0.11279217
144	0xbc77555b	-0.015096034
145	0x3d756bbd	0.0599172
146	0x3e2ffe2b	0.17186801
147	0xbd7de3fb	-0.061984997
148	0xbde4e2ca	-0.11176069
149	0xbd7ae7db	-0.06125627
150	0xbdd5d6d6	-0.10441367
151	0x3cb7d2aa	0.02243932
152	0xbdf001d6	-0.117191
153	0x3cf34886	0.029697668
154	0x3c82ed4b	0.01598229
155	0xb905a3ce	-0.0001274489
156	0xbc6fa9f3	-0.014627921
157	0xbda2f0e1	-0.079561
158	0x3ce34d6a	0.027746875
159	0x3d608a01	0.05481911
160	0x3d801c71	0.06255425
161	0x3c8a70b3	0.016899442
162	0xbd87aceb	-0.06624778
163	0xbdbdddc0	-0.09270811
164	0x3b7f5bc6	0.0038964613
165	0x3e2045f7	0.1565169
166	0xbda21867	-0.07914811
167	0x3d7ecebc	0.062208876
168	0xbcb8c7f1	-0.022556277
169	0xbc677536	-0.014127066
170	0x3db19bcf	0.08672296
171	0xbcb0c56d	-0.021578515
172	0xbd55835c	-0.052127227
173	0xbdeffac9	-0.11717755
174	0x3d3e5064	0.046463385
175	0xbe37802d	-0.17919989
176	0x3950e5be	0.00019922011
177	0xbb4839d5	-0.0030552049
178	0xbd879353	-0.06619897
179	0xbd3996d2	-0.04530985
180	0xbcd7236f	-0.026262013
181	0x3d1aa83d	0.0377581
182	0x3dbc5c48	0.09197289
183	0x3d20f383	0.03929473
184	0x3d93d0bd	0.07217548
185	0xbd9168d6	-0.07100074
186	0x3d7ebda4	0.062192574
187	0xbd0ec5ea	-0.034856714
188	0x3d31c432	0.043399997
189	0xbd4fd333	-0.050738525
190	0x3e0b7b07	0.1362115
191	0xbdf87ee9	-0.12133581
192	0xbdd3ca87	-0.103413634
193	0x3aaf40ce	0.0013370754
194	0xbc8fd5ba	-0.017557967
195	0xbd7d6470	-0.061863363
196	0xbc351adb	-0.011053766
197	0x3bc2a8ab	0.005940517
198	0xbd7b243f	-0.061313864
199	0x3d0e3bfb	0.03472517
200	0xbc50cc67	-0.012744046
201	0xbcd4d5d8	-0.025980875
202	0xbd958669	-0.07301027
203	0xbdf66cb3	-0.120324515
204	0x3c8b05d7	0.016970558
205	0x3dc449fd	0.09584425
206	0xbde6a5cf	-0.11262094
207	0xbcc1304b	-0.023582598
208	0x3b0b5f25	0.0021266427
209	0x3df9361f	0.12168526
210	0x3e1b63c5	0.15174778
211	0xbd736c3b	-0.05942939
212	0x3de5b7c3	0.112166904
213	0x3e0a2dfb	0.13494103
214	0xbdd47603	-0.103740714
215	0x3d93daf9	0.072195
216	0xbdbee09d	-0.09320185
217	0xbd98caf2	-0.07460584
218	0x3d7372b7	0.059435572
219	0xbdea61e8	-0.114444554
220	0xbdfb991b	-0.12285062
221	0x3d0c2a5d	0.03422009
222	0xbde7d51e	-0.11319946
223	0x3d9b0fcf	0.075713746
224	0xbd156981	-0.03647757
225	0xbdd7c966	-0.105364606
226	0xbce4cfb5	-0.027931074
227	0x3d3e7388	0.046496898
228	0xbdf9a8e9	-0.1219042
229	0x3cf285aa	0.029604752
230	0xbdad2c42	-0.08455707
231	0xbdd2b385	-0.10288147
232	0xba1a237d	-0.0005879922
233	0xbb17788e	-0.0023112628
234	0xbc09c871	-0.008409605
235	0xbb90278d	-0.004399246
236	0xbe3e0dae	-0.18559906
237	0x3c14f5f5	0.009091844
238	0x3daf0bbb	0.08547159
239	0xbd56665c	-0.05234371
240	0xbca7f0a0	-0.020500481
241	0x3ba702ea	0.005096783
242	0xbda0d088	-0.07852274
243	0xbd521cef	-0.051297124
244	0x3c880eb6	0.016608577
245	0x3c6fab50	0.014628246
246	0xbd3acb48	-0.04560402
247	0x3d92c9ef	0.07167422
248	0x3cee958e	0.029124048
249	0xbd1bdc51	-0.038051907
250	0xbca6a419	-0.02034192
251	0xbd98fb30	-0.07469785
252	0xbc5f2448	-0.01361949
253	0xbda4d70e	-0.08048831
254	0xbd1c1c43	-0.03811289
255	0x3cefcf7c	0.029273741

network_body.vector_processors.0.normalizer.running_mean f4 [91]
0	0x3f3bed35	0.73408824
1	0x3af67b47	0.001880505
2	0x395c42b1	0.0002100568
3	0x3e871247	0.26381132
4	0x3ece61f9	0.40309122
5	0x3f366d15	0.71260196
6	0x3c80284a	0.015644211
7	0x3ad9a364	0.001660448
8	0x3e8a41c6	0.27003306
9	0x3f0af3a0	0.5427799
10	0x3f354ea9	0.7082315
11	0x3c8c48ea	0.017124612
12	0x3a0d9890	0.0005401457
13	0x3e8c521a	0.2740639
14	0x3f0b699c	0.5445802
15	0x3f348366	0.70513
16	0x3b05bac7	0.0020405517
17	0x38fbb9e5	0.00012003238
18	0x3e95dca0	0.29269886
19	0x3edd3cd5	0.43210474
20	0x3f2e9335	0.6819337
21	0x3c61ff0e	0.01379372
22	0x397bb9e8	0.00024006481
23	0x3e9ba23a	0.30397207
24	0x3f129c4e	0.5726975
25	0x3f2c45da	0.67294085
26	0x3c805252	0.015664253
27	0x3a8af958	0.0010602875
28	0x3e9edd82	0.31028372
29	0x3f13cb7f	0.57732385
30	0x3f565da2	0.8373662
31	0x3aa7d13c	0.0012803446
32	0x39cc8706	0.00039010512
33	0x3e24d0f8	0.1609534
34	0x3e8e386a	0.27777416
35	0x3f2c454c	0.6729324
36	0x3d1ecdcb	0.03877048
37	0x39e18136	0.00043011614
38	0x3e93621d	0.28785792
39	0x3f13bea2	0.5771276
40	0x3f33f5d2	0.7029697
41	0x3d315d26	0.043301724
42	0x3a1d543c	0.00060016266
43	0x3e8198c1	0.25311854
44	0x3f0cfa0d	0.5506905
45	0x3f514670	0.81748104
46	0x3a8ee83b	0.001090295
47	0x39324e55	0.00017004584
48	0x3e399957	0.18124901
49	0x3e96ef19	0.29479292
50	0x3f338123	0.7011892
51	0x3d223454	0.039600685
52	0x399d5434	0.0003000811
53	0x3e8487f1	0.25884965
54	0x3f0e0b36	0.55485857
55	0x3f2e1b43	0.6801035
56	0x3d1fe8fb	0.039040547
57	0x398d989a	0.00027007313
58	0x3e8fa264	0.28053582
59	0x3f129944	0.57265115
60	0x3ec1f108	0.37879205
61	0x3c9f8a8a	0.01947524
62	0x3bfb65f5	0.0076720663
63	0x3f180b33	0.5939209
64	0x3f48750d	0.78303605
65	0x3edf9ec0	0.43675804
66	0x3f0b9e88	0.54538774
67	0x3f428988	0.75991106
68	0x3c8e7cc1	0.017393472
69	0x3b746883	0.003729374
70	0xbccd6b74	-0.025075652
71	0x3f5eba96	0.8700346
72	0x3b7eaf84	0.003886194
73	0xbc29f8bf	-0.010374247
74	0x3f343b98	0.7040343
75	0x3e17fd8c	0.14842814
76	0xbf5f767a	-0.87290156
77	0x3fae8587	1.3634499
78	0x42293215	42.29891
79	0x3f051db8	0.5199847
80	0x3fdc27b8	1.7199621
81	0x429a766d	77.2313
82	0xbd9b4639	-0.07581753
83	0xc2a27f1f	-81.24828
84	0x3d6a5c48	0.057216913
85	0x3c221fe8	0.009895302
86	0xbd937140	-0.07199335
87	0x3f1b6b30	0.6071043
88	0x3f30a82d	0.69006616
89	0x3f1b40a1	0.6064549
90	0x3f2f85b9	0.6856342
