Assets/ML-Agents/mla-1.0.6/results/carchase02/CarAgent/CarAgent-7368.onnx (onnx, 362126 bytes, 9 tensors)

53 f4 [91]
00000000: c91c d63e 3df4 863c 3ef4 863c c2f9 d53e
00000010: 2588 ae3e a1ac cd3e cb92 9f3d 3df4 863c
00000020: d343 cb3e 69d4 803e 9ec4 b03e 98b6 da3d
00000030: 3ef4 863c 1b35 aa3e 2f27 5b3e d395 d13e
00000040: 0be7 063d 6146 a53c 8618 d13e 797f aa3e
00000050: 5055 ae3e c627 1e3d 6146 a53c 3e5b ad3e
00000060: 1815 5d3e 4e4e c43e db6c 133e 3df4 863c
00000070: 98a0 ba3e 6fcc 703e 9082 d73e 8c57 d53c
00000080: 3ef4 863c ee3d d73e a251 b93e 20e2 dc3e
00000090: b33d dd3d 3ef4 863c 832e d93e e137 823e
000000a0: d37d e13e 9f7f 963d 3edc 3e3c 40f9 df3e
000000b0: 15d2 853e 048e da3e 3df4 863c 6146 a53c
000000c0: 8562 da3e baf6 bb3e 4356 e53e 8c27 d83d
000000d0: 3edc 3e3c fa28 e23e 5897 883e da3b e23e
000000e0: 2d35 e23d 6146 a53c 9087 de3e 555a 853e
000000f0: c6d5 f23e be5f 713e 93be 4f3d 7beb e53e
00000100: f65f 7d3e eb7f fa3e ed57 f43e 8cc7 863e
00000110: ea6f 483d e222 bc3d 3204 9b3e 7336 0b3e
00000120: 969a 323e 61ee 853d 80b3 b33d 2b60 af3e
00000130: 27cb 593f d265 5f3f bd58 fc3e 9d1e 573c
00000140: 32db bd3c 7135 1742 e0a4 2c3f 9e0c ba42
00000150: 6e76 b13d bd0f d93d 6541 ef3e 44b3 d93e
00000160: 5d42 e63e 2ea3 e23e d199 e23e
0.41818836 0.016473884 0.016473886 0.41792113 0.34088245 0.40170768 0.077916704 0.016473884
0.39700183 0.25162056 0.34525007 0.10679358 0.016473886 0.3324364 0.21401666 0.4093462
0.032935183 0.02017516 0.40839022 0.3330038 0.34049463 0.03861215 0.02017516 0.33858675
0.21590078 0.38340992 0.14396994 0.016473884 0.36450648 0.23515485 0.420918 0.026042722
0.016473886 0.42039436 0.36195093 0.4314127 0.10802784 0.016473886 0.42418298 0.25433257
0.4404131 0.073485605 0.0116491895 0.4374485 0.26136842 0.42686474 0.016473884 0.02017516
0.4265329 0.36711675 0.44792375 0.10554418 0.0116491895 0.44171888 0.26677966 0.44186288
0.11045299 0.02017516 0.434628 0.2604548 0.4742872 0.23571679 0.050718855 0.4490622
0.24743637 0.4892572 0.47723332 0.26324117 0.048934855 0.09186341 0.30276638 0.1359499
0.17441782 0.06539608 0.08774471 0.34253058 0.8507561 0.8726474 0.49286452 0.013129857
0.02317581 37.80219 0.6743908 93.02464 0.08665167 0.10598705 0.4672958 0.4251958
0.44972506 0.4426512 0.44257978

54 f4 [1, 2]
00000000: 53d3 9e3a 2d54 b8bc
0.0012117423 -0.022501076

distribution.mu.bias f4 [2]
00000000: 22dc a23a 2f74 ddba
0.0012425224 -0.0016895587

distribution.mu.weight f4 [2, 256]
00000000: dd97 c63c 8883 34bb 9d1f f2ba 7a23 eabc
00000010: 8169 993c aae6 4a3c 8907 9bbc c2ca 93bc
00000020: 75f7 9d3b 0805 023c 3a25 673c ac0e adba
00000030: 5781 ef39 ffe0 ab3c 253f debc 7c0b 34bc
00000040: 6382 76bb 1ae7 2fbb c4c1 acbc 2da0 4c3b
00000050: 73e4 ed3c a578 833c 741a a4bb 4de7 8bbc
00000060: cb74 a03c 71a4 3ebc 9743 cb3c d87b a7bb
00000070: bdfa 143b b6c0 dc3c 2c22 343b fd34 f93b
00000080: 6081 a4bb 9d1d 073c 272a 9b3c 4488 8cbb
00000090: d9c5 603c 99ee 363c 4dcd 4d3b 938c 0cbb
000000a0: eb02 67ba a21f 6fbc 5b1e b13b 357b 9d3c
000000b0: 164d 603c 1c87 ec3c e4c3 fcbc 21da ccb9
000000c0: f7eb 593c 1dcf 883c 7212 f73a bf86 163c
000000d0: adc0 0cbc deb1 6cbb 1c4d d83b b9e8 25bb
000000e0: c42e 3b39 e462 03bc e757 423b f4d8 c33c
000000f0: 266f 1a3c c6bd 31bc 608c 3f3b a3aa a13b
00000100: 8a02 8e3c c11f 82bb 6da6 1ebc bccb b7b9
00000110: fd58 30bc 89e3 1fbc a962 0e3d 2db4 b03b
00000120: c11e 6c39 c280 923b 93a7 71bc 95fa b1bc
00000130: ca62 69bc 0fc0 81bc f225 a63b aae3 253c
00000140: d8cf 58bb 9861 babb 3792 edbc 9022 8bbc
00000150: f6e5 7c3c 3efb abbc 4c50 98bb c1ba 533c
00000160: 427a b43c 33b4 0abc 1b09 ba3c 6b4f 8abc
00000170: e80a 1ebc fa56 13bc 241f 393c ee85 8b3a
00000180: 9879 abbb 46ad 5ebc 1236 073c 7661 463b
00000190: 41d2 85bc 450c 61bc 9c0b adbb bf43 09bc
000001a0: 42ff d3bb ba87 283b 8d8f 9e3c f274 93bc
000001b0: f550 3abb 7252 c9ba 56df e03b 07fc 013c
000001c0: d7f5 78ba a3f0 a9bb 2548 cbbb 291d 8abb
000001d0: 4c03 d53b 2dae 1f3c 5c9b 3c3b 1d6e bbbc
000001e0: 420f 9e3c b53e 85bc 9bb6 c33c 9fb0 32bb
000001f0: 9385 733a a3cb 51bb 7764 2fbc d9b7 77ba
00000200: d794 b1bc a590 bf3b abca bd3b 273b 80bb
00000210: bbd8 66bb 3c2b dabb 45fb 45bc 9b82 c539
00000220: 2d7b 18bc 89af 183b 7dba e6bb d91a 9dbc
00000230: 018f c3bb 37ad 1ebc 1464 1dbc 4246 a6bc
00000240: eebc 3dbc 1b6a 353a 7457 dd3c 63b1 4a3c
00000250: 34da 0dba 4bca 92bb f26c ffb9 487f 693c
00000260: 8394 0bbc 6652 a83c 1d6d 2e3c a439 273c
00000270: 11f3 db3a 3bfe 81bc 6027 ccbc d21c 313c
00000280: 260b 8e3c b0c3 b8bb cb3f 58bb 1cbc 8c3c
00000290: 2a3a 993c d98e bf3c dfcd 5cbc 0083 813b
000002a0: c306 673c a3a1 143c 5e3b 283c 1d6e c33a
000002b0: 388b 833a 4547 9c3c 3483 23bc 618b ee3c
000002c0: 2c2f 333c 8f46 f7bb 401d 29bc 3e7a 7dbc
000002d0: d339 2ab9 ea36 bd3c 5f9d 9abb e429 3bbc
000002e0: dce0 c2bc 6596 89bc ece0 033c f69a 3b3c
000002f0: d79b 0d3d 2efa dc3b 1d2e d63c 9af1 20bb
00000300: 125c 4dbc abbe 683c 8289 cc3b e918 53bc
00000310: 7a7f 833c 4f9d 8cbb 011a 893c 0ed2 9d3b
00000320: 7972 813b 15ef ba3b bba8 443b 239a 023c
00000330: be88 7abc 6c02 3a3c 8457 26bc 2e7d 3d3c
00000340: 8ef6 8a3b c6ab e83c a95c 53bc 01bd 09bd
00000350: fbf5 c739 1da9 f4bb 0019 eb3b 8aab 8dbc
00000360: 94a6 18bc b7bc 683c ed81 303c ddc9 8ab9
00000370: af95 94bb d82c 033c 999e 853c 136a 2dbc
00000380: 0956 a43a 6aec b03c 799a adba 2039 273b
00000390: 36d0 0abc 3784 efbc 6d13 5ebc e1ed 943c
000003a0: 64c5 ccbb a4ab 533b 7cac 9ebb 9466 5f3c
000003b0: b3be 4fbb 8596 bc3c cefa 963b 0184 d13c
000003c0: 6f6f 46bc 937c 95bb a444 7aba e844 ab3b
000003d0: 6401 70bb 0117 183c 9a99 86bb 3d9a afbb
000003e0: 5817 17bb 1235 5b3c c1fa 523c 4d9e b2bb
000003f0: 9182 0f39 cb63 01ba d6a9 833c bb0d 7a3c
0.024242336 -0.002754422 -0.0018472556 -0.02858137 0.018727066 0.012384096 -0.018924491 -0.018041018
0.004820759 0.00793577 0.014107997 -0.0013203225 0.00045681998 0.02098131 -0.027129719 -0.010989066
-0.0037614338 -0.0026840628 -0.021088488 0.0031223402 0.029039597 0.016048739 -0.0050080363 -0.017078066
0.019586941 -0.011635886 0.024812503 -0.005111199 0.002273246 0.02694736 0.0027486188 0.0076051936
-0.0050203055 0.008246806 0.018940998 -0.004288705 0.013719046 0.011165285 0.0031402886 -0.0021446093
-0.00088123855 -0.014594944 0.00540523 0.019223789 0.013690254 0.028873019 -0.030855127 -0.0003907243
0.013300887 0.016700322 0.0018850102 0.009187399 -0.008590859 -0.003611676 0.006600989 -0.0025315715
0.00017851131 -0.008019183 0.0029654445 0.023907162 0.009425914 -0.010848468 0.0029227957 0.0049336716
0.017335195 -0.0039710705 -0.009683234 -0.00035056274 -0.010763404 -0.009758838 0.03476206 0.0053925724
0.0002251817 0.0044709155 -0.014749425 -0.021725932 -0.014244745 -0.015838651 0.0050704414 0.01012508
-0.003308287 -0.0056879036 -0.029000385 -0.016984254 0.015435686 -0.020993825 -0.004648244 0.012922944
0.022030953 -0.008465814 0.02270942 -0.016883573 -0.009646155 -0.008992905 0.011298928 0.0010644773
-0.005233001 -0.013591116 0.008252637 0.0030270494 -0.016335608 -0.013735835 -0.005280925 -0.008377968
-0.006469638 0.0025715665 0.01935556 -0.0180001 -0.0028429602 -0.0015359654 0.006862561 0.007933623
-0.0009497082 -0.005186157 -0.0062036687 -0.004214902 0.006500637 0.009746117 0.0028779125 -0.022879655
0.019294385 -0.016265253 0.023890784 -0.002726592 0.00092896185 -0.0032012246 -0.010705105 -0.00094496977
-0.021677418 0.0058461004 0.005791982 -0.0039133015 -0.0035224396 -0.006657986 -0.012083833 0.00037672077
-0.009306711 0.0023297986 -0.007041274 -0.019177841 -0.005967975 -0.009684852 -0.00960638 -0.020297173
-0.011580689 0.0006920413 0.02701924 0.012371394 -0.0005411238 -0.0044796816 -0.0004871856 0.014251538
-0.008519295 0.020547103 0.010646132 0.010206614 0.0016780813 -0.015868297 -0.02492112 0.010810094
0.0173393 -0.005638562 -0.0032997008 0.017179541 0.018704493 0.023383545 -0.013476818 0.003952384
0.014100733 0.00907174 0.0102680605 0.0014910136 0.0010035997 0.019076953 -0.009980012 0.029119195
0.01093654 -0.007546253 -0.010321915 -0.015471039 -0.00016234005 0.023097474 -0.004718467 -0.011423562
-0.023788862 -0.016795347 0.008049231 0.01145052 0.03457245 0.006743691 0.026145035 -0.0024558068
-0.012534158 0.014205615 0.006241978 -0.012884357 0.016051996 -0.0042912136 0.016736032 0.0048163002
0.003950414 0.0057047703 0.0030007798 0.007971319 -0.015291391 0.0113531165 -0.010152701 0.01156549
0.0042408174 0.02840222 -0.01290051 -0.033627514 0.00038139508 -0.007466449 0.007174611 -0.01729371
-0.009317059 0.014205149 0.010773164 -0.0002647181 -0.0045344452 0.008006297 0.016310977 -0.010584372
0.0012537848 0.021597106 -0.0013244889 0.0025516227 -0.008472493 -0.02923785 -0.013554436 0.018179836
-0.0062491167 0.003229835 -0.004842339 0.013635296 -0.003169936 0.023020992 0.004607535 0.02557564
-0.012111529 -0.0045619695 -0.00095469714 0.00522672 -0.0036621923 0.009282828 -0.004107666 -0.005358963
-0.0023054685 0.013379352 0.012877167 -0.005451 0.00013686183 -0.000493583 0.016072195 0.015262063

network_body.linear_encoder.seq_layers.0.bias f4 [256]
00000000: 9c27 92bb d0db 443b bad6 c5ba 089a a2bb
00000010: 2a39 1e3b 29a1 6fbb 2aae c339 e750 c139
00000020: c8e6 9439 4cb3 7dbb 77ee 94bb 8a24 6d3b
00000030: e851 26bb 15d5 47ba 62c1 40bb 83a8 a1ba
00000040: 0ebe 7aba cc16 f83a 1242 553a 1caa 68bb
00000050: 2ae1 0e3a 50a5 e4ba 9074 713b 373f 08ba
00000060: 761a 9c3a f975 583b f205 5fbb e4bc 3b38
00000070: e269 ee3a 6597 4f3a fff5 d339 e538 733a
00000080: 2a90 613a f48b 5aba 7d40 67ba e331 ac3a
00000090: f973 bebb 4b9a 5abb a6bd 4c3b 8b43 40b8
000000a0: f339 6cbb fdc2 35bb 024b ce3a a97f f1ba
000000b0: 0e8a aa3b 6d5b 703b 7b41 973b f9c7 60ba
000000c0: 43be 063b 100a 8cbb 1ee2 e4ba ccb0 27b9
000000d0: 5303 723b fc4b 013c 1521 33bb 48e0 663b
000000e0: 5384 90bb 31c8 d8ba 650b 113b df19 683b
000000f0: beb1 d7ba 3baa 343b ccdd a7ba d4f5 bcba
00000100: befd 82bb 2146 c73b 75f8 773b 2892 9dba
00000110: e827 e2ba 38a4 7abb d376 0c3b 293e 2fbb
00000120: fd56 1abb 9145 863a 4acc 9cba f5cd 8ebb
00000130: 270c 3fbb 91c4 5a38 b136 a13b bb6a dabb
00000140: 0d33 a03b 4cd7 abbb f449 353b fdbd 773b
00000150: 1ccd 1f3b 63e1 60bb d2f9 9f3b 8f08 243b
00000160: 8649 e83a fa36 80ba 77bf 123a 7007 1f3b
00000170: 153c 56ba 758c e8ba 18f0 303b 8272 e63a
00000180: 6d21 6dbb f2a7 7aba c24c a53a 9ed3 17bb
00000190: 0b01 c83a 1cfc 493b 60db f738 60c1 81ba
000001a0: bbe0 073b 7d72 bb3a 5d02 4eb8 26c5 9cba
000001b0: 44c4 953b ede4 3b3b 32d6 7d3a 3cb1 29bc
000001c0: 82a2 8fbb 6b0c cab8 a62c 65bb acea 3dba
000001d0: bb19 0dbb e3f5 33ba 3ebb 073a a77c 853b
000001e0: 98c9 17bb 2c3e 373b a661 0ebb 31e4 b4bb
000001f0: 2745 a73b 1a31 31ba 2165 823b 7f9b 04ba
00000200: a691 7dba f6fe 28bb cb3d 9a3b 66ee 0a3b
00000210: d4df 67bb ba3d 86ba 5969 423b 4904 5cb9
00000220: 09e3 d6b9 fcb5 fe3a 80fa 87b8 36ce efba
00000230: c015 223b db85 473a d9d8 913b 948b f33a
00000240: ad3d 44ba 3f9c ae3a 3060 573a 7aec 97bb
00000250: a015 36ba 7352 753b fb26 6bbb 719e 413b
00000260: c499 abbb dfae fb3b 149f 3bba 6c86 b4b9
00000270: 6626 d238 bce9 053b 7dda 7dbb e309 2bba
00000280: f60b 78bb e0cf 1c3a 5773 c8bb cd33 0bbb
00000290: f005 223c 3727 6cb9 ae12 ea3a 6322 b4ba
000002a0: 9aa4 a3ba 7825 91ba 4caf 1a3a 2409 de3b
000002b0: 21c3 90ba 128c 373a d1f2 e33b 0e95 bd3a
000002c0: f9eb 9e3b cd73 ca3a fd42 4ebb be0a 053b
000002d0: bd07 6a3a b3d6 1f3a 0d51 2cbb 255c 063a
000002e0: 4261 89b9 bd28 b53a 14ca 6a3b 6d3f 593b
000002f0: 4c03 57bb e92e f4ba 5fd4 19bb 63c4 633b
00000300: 69c7 cb3b 79ea b03b 7fc3 9e3a ed10 1c3a
00000310: e598 a23b e7ff bbb9 46d0 b33a 250e 1c3b
00000320: 2979 8939 ba6d 613b 04a3 47ba 1693 7739
00000330: 8f61 f7b9 8965 b7bb d1a4 5ebb 8111 043a
00000340: 5f5c caba 7f1c 9a38 57c0 06bb 589c afba
00000350: 7fde 6e3b 2c33 11bc 5f43 acba aa39 38bb
00000360: c631 9aba e133 84ba 86db 7d3a 3b62 7c3a
00000370: 052b 6e3b a3f1 cd3a 0285 ba3b 4dfc bbba
00000380: a795 cb39 1ced 313b 43f8 7dba 138a 5a3b
00000390: 356f acba f6ca 693b 568a 4cba fbd8 11bb
000003a0: a199 583b 002e ee3a 8c80 03ba 25b2 28bb
000003b0: c0d2 fdba c216 b1bb 150b ea3b 8631 9bba
000003c0: 25ea 2cba 7231 35ba 0d5a b73a 750c 68bb
000003d0: 93c8 0e39 2525 65bb 8622 563a 7262 443b
000003e0: eb20 feba 3521 babb 67d0 25bb b464 8b3a
000003f0: a3ed 423b 88c9 b539 6037 dbb9 5568 fbb9
-0.004460288 0.0030038245 -0.0015093901 -0.0049622096 0.002414296 -0.0036564565 0.0003732306 0.00036872106
0.00028400705 -0.0038711606 -0.004545029 0.003618511 -0.002537841 -0.0007622999 -0.002941214 -0.0012333546
-0.00095650635 0.0018927692 0.00081351504 -0.0035501784 0.0005450422 -0.0017444286 0.0036843158 -0.0005197408
0.0011909741 0.0033029302 -0.0034030643 4.4760192e-05 0.0018189515 0.0007918983 0.00040428338 0.00092781923
0.0008604551 -0.00083368947 -0.000882156 0.0013137426 -0.005812165 -0.0033356126 0.003124097 -4.583927e-05
-0.0036045283 -0.002773463 0.0015738907 -0.0018424887 0.0052044457 0.0036675588 0.00461596 -0.000857472
0.0020560182 -0.0042736605 -0.0017462408 -0.00015992223 0.003692825 0.007891651 -0.002733295 0.0035228897
-0.0044103055 -0.0016539154 0.0022132036 0.003541581 -0.001645617 0.0027567286 -0.001280719 -0.0014416524
-0.0039975336 0.006081358 0.00378373 -0.0012021707 -0.0017254325 -0.0038244855 0.002143313 -0.0026739931
-0.0023550384 0.0010244121 -0.0011962738 -0.004358048 -0.002915153 5.2158317e-05 0.00491985 -0.0066655553
0.004888898 -0.0052441712 0.0027662488 0.003780245 0.002438373 -0.0034314028 0.004882076 0.0025029515
0.0017722107 -0.0009782009 0.00055979885 0.0024265908 -0.0008172405 -0.0017742055 0.0026998576 0.0017581733
-0.0036183253 -0.0009561769 0.0012611377 -0.0023166905 0.00152591 0.0030820435 0.000118187396 -0.0009899549
0.0020733315 0.0014301088 -4.911643e-05 -0.001196061 0.004570516 0.0028670386 0.00096831017 -0.010357197
-0.004383386 -9.6344236e-05 -0.003496924 -0.00072447467 -0.002153023 -0.0006864948 0.00051777426 0.0040736976
-0.002316093 0.0027960641 -0.0021725683 -0.0055203666 0.005104679 -0.0006759331 0.0039793407 -0.0005058571
-0.00096728874 -0.0025786734 0.0047070733 0.0021199225 -0.0035381215 -0.0010241785 0.0029664843 -0.00020982431
-0.00040986415 0.0019432898 -6.483961e-05 -0.0018295709 0.0024732202 0.00076111936 0.004450899 0.0018581026
-0.0007485997 0.0013321711 0.0008215932 -0.0046363445 -0.00069459714 0.0037433177 -0.0035881388 0.0029543901
-0.005236836 0.0076807584 -0.00071571884 -0.00034432427 0.000100207326 0.0020433506 -0.0038734965 -0.00065246056
-0.0037848926 0.00059819035 -0.006117265 -0.0021240592 0.009889111 -0.00022521323 0.001785835 -0.0013743158
-0.0012484968 -0.0011073789 0.0005900755 0.006775992 -0.0011044481 0.0007001768 0.006956436 0.0014463977
0.0048499075 0.0015445888 -0.0031473034 0.0020300592 0.00089275447 0.00060973613 -0.0026293427 0.0005125425
-0.0002620314 0.0013821345 0.0035826014 0.0033149377 -0.0032808362 -0.0018629703 -0.002347253 0.0034754507
0.00621884 0.005399045 0.0012112706 0.000595345 0.004962074 -0.00035858082 0.0013718687 0.0023812142
0.00026220948 0.0034397678 -0.0007615539 0.0002361055 -0.00047184198 -0.0055968207 -0.003397275 0.00050380087
-0.0015438906 7.3486e-05 -0.002056142 -0.0013398034 0.0036448536 -0.008862298 -0.0013142637 -0.0028110542
-0.0011764101 -0.0010086262 0.00096838956 0.00096276746 0.003634156 0.0015712272 0.0056921253 -0.0014342159
0.00038830677 0.0027149385 -0.0009688178 0.0033346459 -0.0013155701 0.0035673953 -0.0007802596 -0.0022254575
0.0033050554 0.0018171668 -0.00050164084 -0.0025740948 -0.0019365177 -0.0054043243 0.0071424344 -0.0011840321
-0.00065961696 -0.000691197 0.0013988629 -0.0035407816 0.00013616895 -0.0034964767 0.00081685965 0.0029965905
-0.0019388472 -0.005680228 -0.002530122 0.001063487 0.0029743693 0.00034673163 -0.00041812193 -0.00047952184

network_body.linear_encoder.seq_layers.0.weight f4 [256, 91]
00000000: 99f2 d23a 8097 c0bc 8bf0 d03c 7b69 8cbd
00000010: 75ec 833e 221c f23b 708a 263d b9d3 ddbc
00000020: 418a 143e e29d 123c 6860 09be 024a 6fbd
00000030: 6fb2 8cbb 5038 443d d7f1 8f3d 92d1 91bd
00000040: 9f55 e13d 114c 033d 332d b7bd e153 563c
00000050: bfe9 a8bb dbab 28bd 981a 3fbd 6d8f ccbd
00000060: e553 9ebd 0278 7f3e bab5 633d 5c6e 453c
00000070: 149e 793e d424 343b 0cab 6f3b a241 093d
00000080: 3125 9ebc 3bc1 583e a83b afbd da78 433e
00000090: 808b 07be 9f44 9cbd bdf4 42bc 7f0a db3c
000000a0: 4eb3 43bc a166 20be a3e4 213d e2a0 7a3c
000000b0: e5b9 8f3d 2e25 55bd 6ad0 85bd 67cb e23c
000000c0: efdf 8a3d c0c7 023e 6708 843d 7398 45be
000000d0: 2547 12bd 2401 803c 853a 9f3d 0214 4dbd
000000e0: fc8c 40be c087 d9bd 5456 bb3c 9249 24bd
000000f0: 1d0d 6bbe 2ec1 37bd 0636 2dbe 4792 7a3c
00000100: 1da6 203e bd71 b23d 29f4 1dbe e80a e2bc
00000110: c8eb a2bd b8d2 4fbe 5778 743c 6ad6 6b3e
00000120: 2a2a 44be 2fc3 803d c56b 0bbd 8ae7 97bc
00000130: 1434 d93d b31d ccbd 2f46 39bd 195c de3d
00000140: c7ae a7bc 748f fbbd 3dd4 973d dfdc 5a3d
00000150: 9ba7 3bbd c5f5 f8bb 46cc ff3b 5976 b83b
00000160: 013c 403e 690d f43d ef64 013d 71a4 203e
00000170: 865d 573d aa53 7b3c 5ab8 173e c038 ef3c
00000180: cf16 313e 6660 adbd da3d 7cbc aee0 c2bd
00000190: 4068 543e 3375 b13c 3493 873d 2919 53bc
000001a0: be65 6fbb a67d e13d c26f 093c 9131 953d
000001b0: 4d5a e73d 4382 38bd 1c68 d73d 9cdd 10be
000001c0: 660b 563c 50ee 853e dbb0 8d3a 9610 89bd
000001d0: cf28 863d bc4b 993d d258 a23c 41c0 a33d
000001e0: 7a9f 973d 4bd1 84bc 3f97 b4bd a2cb f3bd
000001f0: 4518 7b3d 72e0 b7bc c8c5 2abc bdbe 7b3d
00000200: 7fe1 4fbd 641d 9e3d 5c07 1fbd 7de9 303e
00000210: 70e9 9a3c c742 88bd 93fb 86bc 9eff f43d
00000220: defd 143e 6f98 613e 8073 b53b d277 5cbc
00000230: 6b57 1b3e 04e3 2b3e 64f4 6abd 610d 89bb
00000240: 5a52 afbd b7df db3d 277a bc3d 2b02 aabc
00000250: 6f58 7c3d 05e8 36bd 7acb 4cbe 6e99 89bd
00000260: 504f 403d 4283 a63d db13 713d 6ac5 b23d
00000270: 426c 343d 37fa c3bc b9e0 1d3b e9d3 ef3d
00000280: 95fb 08be 1ee3 8dbd 4bf2 23bc 9214 98bd
00000290: 30d8 d4bc 67a5 303d c5fc 7e3d 7a96 a5bd
000002a0: 1320 13be 8efd db3d ba1c fd3d b97b 3d3d
000002b0: 396a 7dbd c9bb fb3c f319 cebd b5ea 9b3d
000002c0: 85c4 e93d 3b0b 75bc 8672 8dbd 74ea 4a3e
000002d0: 0ea1 273d 0143 e53c 8dcf c5bc db4e cfbd
000002e0: f000 b7bd 498f 31be 0a1c 1b3e 8c3a fc3d
000002f0: cbf6 fabd 59df f63b d34d 9a3d 38cb ae3c
00000300: cb65 16bc da2b 43be d12d 2dbd 45b2 a6bd
00000310: de95 3d3d dba1 49bb 363d aabc eeba 173c
00000320: 9ed1 6a3e 8a49 fd3d deb8 833e 542f 0f3e
00000330: d357 4c3b 8f38 263e 158c a13d 3a33 3d3d
00000340: a699 c03c 0e7d c13d 7621 0f3e e11e acbd
00000350: 41ed 023e c51b 5fbc f92d 373d de6e dbbb
00000360: acaa da3d 015c 5ebe 1e72 07be 3ca5 083d
00000370: a68c 36be 6945 9bbd c382 073e cccf cbbd
00000380: 134e fa3c a857 2d3d d35b 4bbe bec1 063e
00000390: 2ce0 cc3c fe4b 0c3e 92fc 82bc 3caf 2a3c
000003a0: 65da 2ebc 9ffa 233e 3e04 b53d 0e74 f7bd
000003b0: adb3 893d 93d1 2e3e e6db 053e e884 263e
000003c0: 0362 6bbc 338a 9dbd fc74 e1bc 7e87 adbd
000003d0: d606 c9bd 7841 2dbd 90dc 5bbd 2a81 0abe
000003e0: 0296 46be 9d95 02bd 2564 013e afb3 613e
000003f0: ab5f 47be d73b 443c a930 ae3d b151 2bbd
0.0016094028 -0.02350974 0.025505325 -0.06856056 0.2576634 0.0073886076 0.040659368 -0.027078496
0.14505865 0.008948775 -0.13415682 -0.05842019 -0.004293732 0.047905266 0.07028549 -0.071200505
0.11002659 0.032054964 -0.08944168 0.013081522 -0.005154818 -0.04117952 -0.04665622 -0.09988294
-0.07730845 0.24948123 0.05559323 0.0120502375 0.24376708 0.0027487772 0.0036570458 0.033509858
-0.019304844 0.21167462 -0.085563004 0.1908907 -0.13236809 -0.07630276 -0.0118991705 0.026738403
-0.011944605 -0.1566415 0.039524686 0.0152971465 0.070178784 -0.05203741 -0.065338925 0.02768488
0.06780993 0.12771511 0.06446915 -0.19296436 -0.03571238 0.015625544 0.077748336 -0.05006791
-0.18803781 -0.106215954 0.022868313 -0.040109225 -0.22954221 -0.044861965 -0.1691514 0.015293664
0.15688367 0.087131 -0.15425171 -0.027593091 -0.07955128 -0.20295227 0.014921269 0.23031011
-0.1915671 0.06287228 -0.034038324 -0.018543024 0.10605636 -0.09966602 -0.045232948 0.1085741
-0.020469083 -0.12283221 0.07413528 0.053433295 -0.045814138 -0.0075976574 0.0078063337 0.0056293425
0.1877289 0.1191662 0.0315904 0.1568773 0.052579425 0.015339771 0.14816418 0.029201865
0.17293857 -0.08465652 -0.015395606 -0.095155105 0.20742893 0.02166233 0.06619874 -0.012884417
-0.003652915 0.11010294 0.008388462 0.07284845 0.112965204 -0.045046102 0.10517904 -0.14147037
0.013064241 0.2615838 0.0010810153 -0.06692617 0.06550752 0.07485148 0.019817743 0.07995654
0.074034646 -0.01621308 -0.088179104 -0.11904074 0.061302442 -0.022445891 -0.010423131 0.0614612
-0.05075216 0.077204496 -0.038825378 0.17276569 0.01891014 -0.06653362 -0.016477382 0.119628176
0.14549968 0.22030805 0.0055374503 -0.013456302 0.15170066 0.16785818 -0.057361975 -0.004182503
-0.08560629 0.107360296 0.09202986 -0.020752987 0.061607774 -0.044654865 -0.19999495 -0.067187175
0.04695064 0.08130504 0.058856826 0.0872906 0.044048555 -0.023923023 0.0024090244 0.117103405
-0.13377221 -0.06928085 -0.010006498 -0.074257985 -0.025981992 0.04312649 0.06225278 -0.08085342
-0.14367704 0.10741721 0.12358995 0.04626057 -0.06186888 0.030729191 -0.10063543 0.07613126
0.11414436 -0.014956291 -0.06906609 0.19816 0.040925078 0.027986052 -0.02414682 -0.10122462
-0.08935726 -0.17339815 0.15147415 0.123158544 -0.12254103 0.0075339493 0.07534375 0.021337137
-0.009179543 -0.19059697 -0.042280022 -0.08139471 0.046285503 -0.003076664 -0.02078114 0.009260876
0.22931525 0.12367542 0.2572698 0.13982898 0.0031180277 0.16232513 0.07888047 0.04619143
0.023510765 0.094476804 0.13977608 -0.08404327 0.12785818 -0.013617461 0.044721577 -0.006696566
0.10677084 -0.21714784 -0.13227126 0.033360705 -0.1782709 -0.07581598 0.13233475 -0.099517435
0.030554807 0.042319924 -0.19859247 0.13159844 0.025009237 0.13700864 -0.015989576 0.010417756
-0.0106721865 0.16013573 0.088387 -0.120826825 0.067237236 0.17072134 0.13072166 0.16261637
-0.0143666295 -0.07692375 -0.027521603 -0.08473109 -0.09815757 -0.042298764 -0.05367714 -0.13525835
-0.19393161 -0.031880964 0.12635858 0.220412 -0.19470088 0.011977158 0.08505375 -0.041825954

network_body.linear_encoder.seq_layers.2.bias f4 [256]
00000000: 4dd2 aa3a 68ec 85bb 8763 35ba 41fc 32bb
00000010: 3dad 633b b231 1b3b d64a af38 846c 753a
00000020: 5137 543b 0297 233a c7eb 0b3b 743d b2b8
00000030: 385a bdba 69d0 ad3a 5759 08bb 3222 a0ba
00000040: 3b7e ab3a cca3 0dba 5045 7138 3353 e83a
00000050: fde0 ac3a 40ad 2b3b 9d08 0c3a 1c0d 05bb
00000060: f092 243b 92af 9bb9 8167 043b 2c71 a7ba
00000070: 1e25 cd3a f9d3 9eb8 1b3a 40bb 0dfd 8c3a
00000080: 96f9 4abb fd2a 2d3b 7af6 81ba 92b3 32bb
00000090: 9464 923a e846 b73a 7a4d ce39 8c64 58bb
000000a0: c40c 493a 7616 3e3b 6ad5 f0b9 92a4 8e38
000000b0: 25a3 803a 02fe f33a 17c9 71b9 930c 453b
000000c0: 081a 433b 3bea d939 d086 15bb 1b98 e43a
000000d0: ca46 9f3a 864d 873b 6396 d738 a3ac 073b
000000e0: 03ab 27bb 87e2 91ba bdcc 2038 f840 8a3a
000000f0: 0d2a f23a f872 99b9 88d9 dbb9 f65f 523a
00000100: ec8c dd38 07b5 9cba a5c3 2238 34e0 c3ba
00000110: e1d0 e7ba ebe5 0ebb cb35 843a f4b7 2c3a
00000120: a1d9 7c3b f264 47ba 278e 62b8 2a14 ea39
00000130: 2003 d63a 7198 8eba 1fd2 ef3a b47f 1b3b
00000140: 06d1 753b 0009 4c3a ecea 2c3a 2f55 05bb
00000150: fc89 dd3a a21b e838 98ac 63ba c557 0c3b
00000160: 57d6 513b 0011 71bb 46e7 d73a aeb8 fab8
00000170: 0026 01bb 2872 b838 503b d23a 6a9f 913b
00000180: 03c2 55ba f8be 0abb 49b8 0cba d11d 8e3b
00000190: 6938 193b c0c2 09bb 6bee 12bb fb62 ec3a
000001a0: 1937 1e3b 8755 0e3a 25a0 08b9 0e7e deba
000001b0: 9308 3ebb ace2 7039 5b8b 3c3a f31a 353b
000001c0: 551c 8e3a e274 f2ba 960e daba 2b01 25bb
000001d0: e3bb 3a3a 99ee 7139 b8ac b2ba b0d8 ec3a
000001e0: d5a5 fc3a 7fad 6a39 15ab 4e3b 9633 f5ba
000001f0: 62e7 40bb 3683 38b9 021a 13bb c9f3 9538
00000200: a34e 08ba 920c 663b aba5 683a 628b 88ba
00000210: 27a2 5e39 3280 9dba 9a98 2abb fac0 d8ba
00000220: ad58 f0b9 25a2 fc39 780e 4aba 583c f4ba
00000230: 344c 7a3a 82b6 133a efee 0bba f338 bdba
00000240: 04bb 86bb 502a 6aba 00ea 2f3b 861e 9a39
00000250: f413 38bb 6e1d 5dba ced9 43bb d13b 12bb
00000260: 568f 513b c292 ee3a 53bf 1e3a f150 723a
00000270: 3868 30bb a6ab 43bb e7d5 6f3b bf9c 233b
00000280: 52c5 333a 520e 8bba d244 a6ba 36be 9039
00000290: 180b 333b a92e 153b 841d 06bb a2fb b0b9
000002a0: 740c 883a 3e98 4b3b 7e1e a23a adc9 c73a
000002b0: 5b5f 223b 6995 733b 5171 11bb 610d 533b
000002c0: 4b6d 7b3a 7869 0cbb 0397 daba 2213 b13a
000002d0: f506 633b 6c13 a83a 7323 33bb cfa7 3db9
000002e0: 36e9 4dba 1917 8bba d9ee 3039 f2a8 0f3b
000002f0: 7061 6f3a 94f2 383b 192e 5c3a bd30 cd3a
00000300: fb7f 21ba 0db9 d53a 7701 0b3b a4ee 963a
00000310: 4fc9 de3a 955e eaba 5149 883a babe 8dba
00000320: bc17 173b 14f7 19bb 4a27 133b c74d dbb8
00000330: 2e69 97ba 7e44 d839 dfca ffba bdc6 613a
00000340: 44da 8c3a b6df 8d3a 482a 1cbb b372 d23a
00000350: a5a0 553a 204c 9fba b684 033b 6e97 d9ba
00000360: c0e0 28bb 4f35 b539 44ad 9fba 10f7 29bb
00000370: cbfb 7eba 79c2 053b 87eb 193b 2e79 05bb
00000380: 3b50 9cba 413f 423a 9f66 3c3b 87e0 a0b7
00000390: 5df0 03bb 4e87 2dba b0b5 80b9 6390 bfba
000003a0: f1a6 383a b43e b0ba 63fb 933a 85e6 8b3a
000003b0: c746 c13a 59aa d23a b5fb 91b8 9388 193b
000003c0: 9f0b 103a 965b bdba fa41 1f3b 3047 36bb
000003d0: b94b 13bb 5a7e 8a3a b117 55bb cdc0 413a
000003e0: 5da3 03bb f5bc 753a 02d7 683b fd5d bd38
000003f0: d33b 4e3b a985 3d3b 5502 5bb9 84d5 1e3b
0.0013032645 -0.0040870197 -0.0006919433 -0.0027311 0.003474071 0.0023680744 8.3585895e-05 0.00093621784
0.0032381604 0.00062404585 0.002135025 -8.499148e-05 -0.0014446443 0.0013260964 -0.0020805204 -0.0012217222
0.0013083884 -0.0005403131 5.752343e-05 0.0017724991 0.001318961 0.0026195794 0.00053418597 -0.0020302003
0.0025111996 -0.00029694714 0.0020203295 -0.0012774817 0.001565132 -7.57351e-05 -0.0029331509 0.0010756567
-0.0030971519 0.0026423328 -0.0009915375 -0.0027267677 0.0011168891 0.0013982924 0.00039349106 -0.0033018915
0.0007669444 0.0029005087 -0.00045935373 6.801741e-05 0.0009814246 0.0018615129 -0.00023058463 0.003006731
0.0029770155 0.0004156398 -0.002281595 0.001744035 0.0012151834 0.0041291146 0.000102800106 0.0020702265
-0.0025584109 -0.0011130132 3.833765e-05 0.0010547927 0.0018475667 -0.00029268092 -0.00041933008 0.00080251636
0.0001056435 -0.0011955806 3.8806018e-05 -0.0014944137 -0.0017686152 -0.0021804522 0.0010086832 0.00065886904
0.0038581865 -0.00076062896 -5.401499e-05 0.0004464698 0.0016327836 -0.0010879171 0.0018296874 0.002372724
0.003750862 0.00077833235 0.00065962854 -0.0020344963 0.0016902084 0.00011067769 -0.0008685081 0.002141462
0.0032018626 -0.0036783814 0.0016472123 -0.00011955328 -0.0019706488 8.795067e-05 0.0016039405 0.0044440525
-0.0008154215 -0.0021170955 -0.0005368037 0.0043370505 0.002337957 -0.002102062 -0.002241994 0.001803487
0.0024141727 0.00054296147 -0.00013029629 -0.0016974823 -0.002899681 0.00022972625 0.00071923964 0.0027634471
0.0010842184 -0.0018497969 -0.0016636427 -0.0025177698 0.0007123334 0.00023072436 -0.0013631796 0.0018069949
0.0019275496 0.00022380611 0.0031535078 -0.001870739 -0.002943479 -0.00017596487 -0.0022445922 7.150282e-05
-0.0005199706 0.0035102707 0.0008874784 -0.0010417516 0.00021231976 -0.0012016355 -0.00260309 -0.0016537004
-0.00045842436 0.00048185993 -0.00077078445 -0.0018633706 0.00095480983 0.0005634801 -0.0005338033 -0.0014436528
-0.0041116495 -0.00089326967 0.0026842356 0.0002939591 -0.0028088065 -0.00084348663 -0.002988446 -0.0022313485
0.0031976304 0.0018201696 0.0006055731 0.00092436286 -0.0026917588 -0.002985695 0.0036596002 0.0024965254
0.0006857711 -0.0010609126 -0.0012685305 0.00027607539 0.0027319845 0.0022763407 -0.002046437 -0.00033756817
0.0010379688 0.0031066085 0.0012368707 0.0015242599 0.0024776075 0.0037167913 -0.0022192786 0.003220402
0.0009591176 -0.002142517 -0.0016677085 0.001350973 0.0034641598 0.0012823171 -0.0027334362 -0.00018086958
-0.00078548805 -0.0010611742 0.00016873646 0.0021920768 0.0009131646 0.002822076 0.0008399203 0.0015654784
-0.0006160733 0.001630576 0.002121059 0.0011515212 0.001699725 -0.0017880971 0.0010397827 -0.0010814287
0.0023054918 -0.0023493217 0.0022453838 -0.00010457221 -0.0011551732 0.0004124976 -0.0019515416 0.0008612683
0.00107462 0.0010824117 -0.0023828913 0.0016055912 0.0008149243 -0.0012153424 0.0020068116 -0.0016600916
-0.0025768727 0.00034562728 -0.0012182374 -0.0025934614 -0.0009726851 0.0020410104 0.0023486333 -0.0020366418
-0.0011925766 0.0007409938 0.002874769 -1.917804e-05 -0.0020132281 -0.0006619588 -0.0002454943 -0.0014615174
0.0007043919 -0.0013446421 0.0011290129 0.0010673559 0.0014745825 0.0016072496 -6.961023e-05 0.0023427352
0.0005494896 -0.001444685 0.00243008 -0.0027813427 -0.0022475554 0.001056622 -0.0032515342 0.0007391095
-0.0020086386 0.0009374165 0.0035528545 9.029729e-05 0.0031468763 0.002891878 -0.00020886336 0.0024236152

network_body.linear_encoder.seq_layers.2.weight f4 [256, 256]
00000000: bff8 1f3d ea69 913d 5954 833d 6847 4fbc
00000010: be45 283c c14d c5bd cf13 8c3d 45fc 17be
00000020: 2c0c 8e3d c8a7 bebd d7e6 06bd 8056 90bc
00000030: 4934 8bbc fc21 9c3c 1e1d c03c 1dd7 91bd
00000040: 8377 843d 8d1c c7bc 9260 f0bc 90f1 fd3c
00000050: c9eb 003c afac 293d 58de 3abc 15d7 9a3d
00000060: 7f68 64bd bd62 953d cf84 803c f749 39bd
00000070: 61e2 0fb9 337f 3abd c1df ed3c 5367 793d
00000080: 4c0b ccbc e4e0 13bd 8d62 b03d d4a4 5bbc
00000090: 34cb d1bd ece1 babd 7c8b e93b 543d ddbd
000000a0: fe2f 7c3d c188 80bd 520b 1c3d 23dc 98bd
000000b0: 8d0e 253d 9f82 8a3d f961 1b3d 9617 ba3c
000000c0: b710 04bd f4ad 35bc 8937 44be f733 9c3c
000000d0: f06a 233d d7cb 93bd 02a2 463d 7d80 bfbc
000000e0: 67c2 bdbc 6f62 82bd 2301 13be ea80 d9bc
000000f0: d138 253d 6636 853d f2d0 24bd b2f9 b3bd
00000100: 2959 21bc 4c10 f0bb 6f6b 683d ec5c 703c
00000110: 0739 eabc 0346 243d 2a10 c8bb dd2d 98bd
00000120: 984f d73b 0ccf 48bc 7688 0ebd 51ec 2f3d
00000130: 3989 f43c ddad a6bd cad1 64bd 87a1 cbbc
00000140: 3d5f 54bd 6b98 9ebc d1a9 aabd e679 6cbb
00000150: 0365 f63d da4a a0bb 789b 573d 6a82 03bb
00000160: 60d6 21bd 00b2 a53c c08e 97bc f885 523d
00000170: ba10 60bd 7126 ebbd c2a4 2c3d 2779 89bd
00000180: b53e 94bd 1c23 b53c 80d3 0e3d 7a01 833d
00000190: 8c6e e13c 2e9f fc3c 43ee 59bd fdb8 c63b
000001a0: 4967 b3bd 5e1f 01bc e80c 96bc 3c64 463d
000001b0: 30ec 6f3d f7d9 5f3c dfb2 cbbc ce2a 0e3d
000001c0: 7ddf 953d 97dc 9b3c 8d35 063d d0e5 c6bc
000001d0: 9c2a 75bd 16e8 e7bb b4de 1e3d 8d07 91bd
000001e0: 6366 31bd 46f5 d23c 7823 c23d 06f8 b93d
000001f0: 4b23 ffbd d395 73bd e2b0 77b9 9e09 0dbd
00000200: 8ab1 333c d9bc e23c 9138 923d c992 acbd
00000210: 22f1 893d f7bf 123c da4c 603c 046a 0cbd
00000220: bc69 05bd a224 893b 83e6 d43c ae51 39bd
00000230: 12ad 083d 6c12 023d 72ab bbbd 4b69 8ebd
00000240: 01bc 16bd 6eb4 f5bc b6ee 5c3d 5ea7 4fbd
00000250: 2a3d 4f3d 26d9 3e3d 113a afbc 3da0 c43c
00000260: a1ab 50bd 5dbf 2e3a 09a6 853c 5b06 97bd
00000270: 5c35 58bb 9b03 83bc 776a 003d 8734 0fbc
00000280: b38f 86bd d9b2 aa3c 9d79 d83c c5f2 1b3d
00000290: d6a2 91bb 2255 f9bc 9319 4d3d e842 9ebd
000002a0: dec5 e4bd e478 2d3d 9739 0e3d fea5 11bd
000002b0: beec db3d 53a5 bfbd 9ca2 6dbc bf6b 4fbc
000002c0: bd1d b7bc 4b88 ff3c 526c c8bd a0bc c73b
000002d0: 65a0 d8bc 7966 c2bb f7e0 713c 41a2 a7bd
000002e0: 8b52 9bbd a7e2 1fbc 980e 01be 9c5d eebc
000002f0: a8bc 753d baa4 413d 59f3 83bc 7c99 99bc
00000300: ea8f 1d3e e4ac 163e cec9 123e e8b8 cbbc
00000310: e01b 6d3d 390f cc3d d55b a6bd fd8a 96bc
00000320: 16fe 063d e239 1d3e 996e 463b aabc 623d
00000330: ad3d e8bc 3ef0 b53c fd8b 84bc a4f9 273d
00000340: cbc8 82bb 78a5 65bd bcc8 02be 47c7 443d
00000350: e33b 24bd 4894 98bb 511f e53d 5584 52bd
00000360: 215d 8a3d fc99 c3bd bf9b 573c 2da4 f0ba
00000370: c8eb 63bc 6054 abbd 790c 643c 9e0d f93d
00000380: a44e abbd 1f3c 913c faf1 7cbd 74bd 92bd
00000390: 99e4 843c e77a 183d f6d5 93bc 881b b53d
000003a0: 7900 2a3e 216d 59bb 4f2a bebc 6c45 9f3d
000003b0: 6ca8 063d f3d2 483d 31e3 af3c 5eb4 023d
000003c0: 8479 1bbb d85b 9f3c d068 ea3c cc5e 4ebc
000003d0: c769 a9bc d5b4 57bc 0632 e4bd a937 d1bb
000003e0: fb2d 0bbc a5a1 9dbc 346f 393d c6ed 8f3d
000003f0: 2e35 863d 0d34 87bd 86b0 883d 2221 c8bc
0.039055582 0.0710028 0.064125724 -0.012651302 0.010270534 -0.09633971 0.06839716 -0.14842327
0.06935915 -0.093093455 -0.03293499 -0.017619371 -0.016992705 0.019059174 0.023451384 -0.07121108
0.064681076 -0.024305606 -0.029342923 0.030998975 0.007868716 0.04142445 -0.01140555 0.07560555
-0.055763718 0.072942235 0.015688328 -0.045236554 -0.00013721875 -0.045531463 0.029037358 0.060889553
-0.02490773 -0.036103144 0.08612547 -0.013405997 -0.10243836 -0.091251224 0.0071272235 -0.10802713
0.061569206 -0.06276084 0.038096733 -0.07463863 0.04029708 0.06763195 0.03793523 0.022716325
-0.032242503 -0.011088837 -0.1916181 0.019067748 0.039896905 -0.07216614 0.048494346 -0.023376698
-0.023163987 -0.06366431 -0.14355902 -0.026550729 0.040337387 0.06504516 -0.04023833 -0.0878786
-0.009847918 -0.0073261615 0.05674308 0.014670592 -0.028591646 0.04010583 -0.0061054425 -0.07430623
0.0065707676 -0.012256395 -0.034798108 0.04294998 0.02985059 -0.081386305 -0.055864133 -0.024857296
-0.05184864 -0.019359788 -0.08333171 -0.00360834 0.12030985 -0.0048917355 0.0526385 -0.0020066747
-0.039511085 0.020226479 -0.018500686 0.051397294 -0.05470345 -0.114819415 0.042149313 -0.06712561
-0.07238523 0.022111468 0.03486967 0.06396766 0.027518533 0.030837622 -0.05320574 0.006064533
-0.087599345 -0.007881014 -0.018316701 0.048435435 0.058574855 0.013662807 -0.024865566 0.03470879
0.07318018 0.019026084 0.032765914 -0.024279505 -0.05985509 -0.0070772273 0.038786605 -0.07081518
-0.043310534 0.025751721 0.094794214 0.0908051 -0.124579035 -0.059469055 -0.0002362165 -0.034433
0.010967622 0.02767794 0.071396954 -0.084264345 0.067354456 0.008956901 0.013690198 -0.034280792
-0.03257154 0.004185275 0.025988823 -0.04524391 0.033368178 0.03175585 -0.0916356 -0.06953677
-0.03680039 -0.029993262 0.05393859 -0.050696723 0.05059544 0.046593808 -0.021389993 0.024002189
-0.050944928 0.00066660886 0.016314523 -0.07374259 -0.003299079 -0.01599293 0.031351533 -0.008740551
-0.06570377 0.020837234 0.026425177 0.03807332 -0.0044444604 -0.030436102 0.050073218 -0.07727605
-0.11170553 0.04235162 0.03472289 -0.035558693 0.10738514 -0.09357705 -0.014504101 -0.012659966
-0.022353048 0.03119292 -0.097862855 0.006095484 -0.02644367 -0.005932626 0.014763108 -0.08185244
-0.07584103 -0.009758628 -0.12603223 -0.02909737 0.05999437 0.047276236 -0.016107248 -0.018749945
0.1538693 0.1471439 0.14334795 -0.024868444 0.05788791 0.09963841 -0.08122984 -0.018376822
0.03295716 0.15354112 0.0030278324 0.055355705 -0.028349722 0.022209283 -0.016180033 0.04100956
-0.0039912215 -0.056066006 -0.12771887 0.04804161 -0.040096175 -0.0046563484 0.11187614 -0.051395733
0.06756044 -0.095508546 0.013159691 -0.0018359475 -0.013911195 -0.08365703 0.013918989 0.121608004
-0.08364609 0.017728863 -0.061754204 -0.071650416 0.016222285 0.037226584 -0.01804636 0.08843142
0.16601743 -0.0033176618 -0.023213534 0.07776913 0.032875463 0.0490293 0.021470638 0.031910293
-0.0023723552 0.019452974 0.028614432 -0.0125958435 -0.020680321 -0.013165672 -0.11142354 -0.006384809
-0.008494849 -0.019242117 0.045272067 0.070277736 0.06553112 -0.06601725 0.06674294 -0.024429861

network_body.vector_processors.0.normalizer.running_mean f4 [91]
00000000: 253a 463f ad4b 0e39 ad4b 0e39 a6ac 663e
00000010: cca2 bd3e 9e45 4c3f 07a8 c33b aa4b 0e39
00000020: 2185 483e 7657 fc3e 72a2 5c3f 53c3 3a3c
00000030: ad4b 0e39 4b5f 013e 48fb e23e f08f 493f
00000040: 6504 793a ad4b 8e39 8a5c 583e c060 b93e
00000050: ebc7 5d3f 91de b13a ad4b 8e39 d211 073e
00000060: c521 e83e 6936 523f 9c4f ac3c aa4b 0e39
00000070: 4c55 213e 6d3e ee3e 7426 453f ad4b 0e3a
00000080: ad4b 0e39 b990 6a3e ac1b ad3e e1c5 403f
00000090: aa35 3f3c ad4b 0e39 f7ad 703e 4cc1 0b3f
000000a0: 74ac 3c3f 346c ad3b 0000 0000 a1df 833e
000000b0: a93e 0f3f ebb7 423f ad4b 0e39 ad4b 8e39
000000c0: 0d92 743e 5746 b13e dbf4 383f f250 363c
000000d0: 0000 0000 45e7 873e ddab 0f3f 94fa 3b3f
000000e0: 671a 483c ad4b 8e39 804d 813e 79b1 0e3f
000000f0: eda0 283f 493c 713d 1d15 203b af44 8f3e
00000100: d192 1b3f 0f8f 1a3f e465 b33e 9115 253f
00000110: 9d78 bcbb d689 b63a 3db0 30bd d0cf 6f3f
00000120: 85e0 b63b e19d e23b 1e8a 7a3f 2abd ca3c
00000130: 8888 95bd 6441 25bd 4f2d 2942 171a 053f
00000140: 5921 dc3f d4b4 6842 3b96 123f 1234 8bc2
00000150: 6802 91bb ffd8 483a f6c0 1bbb c869 433f
00000160: bc04 383f c098 3b3f a6a1 3b3f
0.7743247 0.00013570367 0.00013570367 0.22526798 0.37038267 0.7979373 0.005970958 0.00013570362
0.19582035 0.49285477 0.8618537 0.011399108 0.00013570367 0.12634008 0.44332337 0.78735256
0.0009499251 0.00027140733 0.21129051 0.36206627 0.86633176 0.0013570358 0.00027140733 0.13190392
0.45338264 0.82114273 0.021034054 0.00013570362 0.15755194 0.46532002 0.770118 0.00054281467
0.00013570367 0.2290677 0.33810174 0.7530194 0.011670509 0.00013570367 0.23503862 0.5459182
0.7370064 0.00529244 0.0 0.25756553 0.55954987 0.76061887 0.00013570367 0.00027140733
0.23883839 0.34623978 0.7224862 0.011127697 0.0 0.26543632 0.5612162 0.73429227
0.012213326 0.00027140733 0.2525444 0.5573955 0.65870553 0.058895383 0.0024426647 0.2798209
0.607709 0.6037454 0.35038674 0.6448603 -0.005751683 0.0013926576 -0.043136824 0.9367647
0.005580964 0.0069157933 0.97867 0.024748404 -0.07301432 -0.040345564 42.294247 0.51992935
1.7197677 58.17659 0.57260484 -69.6017 -0.0044253357 0.00076617295 -0.0023766137 0.76333284
0.71882224 0.73279953 0.7329353
