Assets/ML-Agents/mla-1.0.6/results/carchase02/CarAgent/CarAgent-199985.onnx (onnx, 368434 bytes, 8 tensors)

distribution.branches.0.bias f4 [3]
0	0xbc99d087	-0.018776191
1	0x3b726e84	0.0036992142
2	0x3b945f0f	0.0045279334

distribution.branches.0.weight f4 [3, 256]
0	0xbb3d21d6	-0.002885928
1	0x39bd552d	0.0003611235
2	0xbc8914af	-0.016733496
3	0xbae515a9	-0.0017477769
4	0xbb394cd7	-0.002827456
5	0xbc3d47a9	-0.01155273
6	0x3c24875f	0.010042041
7	0x3b8d72e8	0.0043166764
8	0xbc4afa64	-0.012388799
9	0x3c9f86fc	0.019473545
10	0x3ad76e1a	0.0016436011
11	0x3cb67b80	0.022275686
12	0xbbae1e01	-0.0053136353
13	0xbc1f722d	-0.0097318115
14	0xbc0fcc69	-0.0087767625
15	0xbc314766	-0.010820245
16	0x3ac5fafb	0.0015104705
17	0x3c0aebf0	0.008479103
18	0x3af66b8b	0.0018800361
19	0xbbd69a30	-0.0065491423
20	0x3b78aed7	0.003794601
21	0xbb4c5bb3	-0.0031182587
22	0x3b5ac16c	0.0033379449
23	0x3bd4ad2c	0.0064903703
24	0xbbbe689d	-0.0058108107
25	0x3c40f0b2	0.011776136
26	0xbb10bbb9	-0.0022084548
27	0xb9d618cb	-0.00040835733
28	0x3d143af9	0.036189053
29	0x38f57837	0.00011704902
30	0x391fdbff	0.00015245377
31	0xbc75934f	-0.014988734
32	0xbc11e086	-0.008903628
33	0x3b27b9a6	0.0025592833
34	0xbc3007e6	-0.010744071
35	0x3b6eeca3	0.0036456964
36	0x3b9843e9	0.0046467674
37	0xbab46596	-0.0013763185
38	0xbccfee76	-0.025382262
39	0x3c113df9	0.008864873
40	0xbccf091b	-0.025272897
41	0xbb982a5a	-0.0046437206
42	0x3c2df521	0.010617525
43	0xbc15ec0a	-0.009150514
44	0xbc18aa9b	-0.009318019
45	0x3b391fdb	0.0028247747
46	0xbbcc2535	-0.0062300214
47	0x3b96424f	0.0045855413
48	0xbac7871c	-0.0015222761
49	0xbaff59a7	-0.0019481675
50	0x39b15827	0.0003382575
51	0x3c4e14d5	0.012578209
52	0xbbfe2bc6	-0.007756683
53	0xbc61dadf	-0.013785093
54	0x3b887eb5	0.0041654953
55	0x3b405d2a	0.0029352405
56	0xbd3ed5e7	-0.046590712
57	0x3be3da8b	0.0069535426
58	0xbb90d336	-0.0044197096
59	0xbbf389a3	-0.007432179
60	0xbcfb8978	-0.030705199
61	0xbc0c5d38	-0.008567147
62	0xbb160ec5	-0.0022896987
63	0x3bf8fd39	0.007598546
64	0xbb05ed93	-0.0020435795
65	0xba6f8485	-0.00091368734
66	0xbb7305f9	-0.0037082417
67	0x3b1f78b5	0.0024333422
68	0xbbc0d4af	-0.005884729
69	0xbb730b9f	-0.0037085784
70	0xbc56381e	-0.013074903
71	0xba92a75c	-0.0011188793
72	0x39b2c004	0.00034093868
73	0x3badd765	0.005305218
74	0xbc2267e3	-0.009912464
75	0xba1cbc48	-0.0005978984
76	0x3adbdf5c	0.001677494
77	0xbbc64ef5	-0.006051893
78	0xba8d607f	-0.0010786204
79	0x3b4ea37a	0.0031530545
80	0x3ab6a4aa	0.0013934572
81	0xbb6783bd	-0.0035326325
82	0xbcd51f8e	-0.026016023
83	0xbc3953f8	-0.011311524
84	0xbbea89d6	-0.0071575446
85	0xbc8baefd	-0.017051214
86	0xbb986825	-0.004651087
87	0x3c552282	0.013008716
88	0xbd0d5029	-0.034500275
89	0x3c570eff	0.013126134
90	0x3bfecc6e	0.0077758348
91	0xbcab3d7c	-0.020903341
92	0xbc54b69d	-0.0129829915
93	0x3ab5e23a	0.0013876625
94	0x3bcbfc0b	0.006225114
95	0x3c0296d9	0.007970535
96	0x3c5e96bc	0.013585743
97	0xba28dc1b	-0.00064414897
98	0x3bf8c145	0.007591399
99	0xbca3a1af	-0.019974558
100	0xbbaacfc1	-0.0052127545
101	0xbc598f99	-0.013278865
102	0x3b9ce331	0.0047878255
103	0xbc7767d7	-0.015100441
104	0xbb1db96a	-0.0024066814
105	0x3c31c7db	0.010850872
106	0xbc9179ab	-0.017758211
107	0xbcce7e58	-0.02520673
108	0xbb889e24	-0.0041692425
109	0x3c0bc5be	0.008531032
110	0x3c1cf5fb	0.009580131
111	0x3b243b30	0.0025059693
112	0x3be6f20c	0.007047897
113	0x3c4be040	0.012443602
114	0xbc4d2054	-0.012519915
115	0xbb0ebaed	-0.0021778897
116	0x3bfbf483	0.00768906
117	0x3bdfb969	0.0068275225
118	0x3c01deb0	0.007926628
119	0xbcb8fe33	-0.02258215
120	0xbc1e0042	-0.009643616
121	0x3a26abbe	0.0006357989
122	0x39878866	0.0002585083
123	0x3a64d196	0.00087287405
124	0xbb2be45c	-0.0026228642
125	0xbc4aa686	-0.012368804
126	0x3ac55af6	0.0015057016
127	0xbca9dbdd	-0.020734722
128	0x3c2f0188	0.010681517
129	0xbd36c7aa	-0.04462401
130	0xbc7f76bd	-0.015592274
131	0xbc07ac95	-0.008280893
132	0x3c21979a	0.009862805
133	0x3bc900d2	0.006134131
134	0x3a92cb1e	0.001119945
135	0x3bb5373b	0.0055302656
136	0x3ce7b5b5	0.028284887
137	0x39b31f6d	0.00034164955
138	0xbceaad59	-0.028647112
139	0xbbe13d47	-0.00687376
140	0xbacfc3e4	-0.0015851227
141	0xbbf85adf	-0.007579192
142	0x3bb66a00	0.0055668354
143	0x3c570d82	0.013125779
144	0xbc18d240	-0.009327471
145	0x3bf59814	0.0074949358
146	0x3b3f3055	0.0029173095
147	0x3c395cb5	0.011313607
148	0x3abd7155	0.0014453331
149	0x3c663a96	0.014052054
150	0xbca1dea7	-0.01975949
151	0xbcb067d5	-0.021533886
152	0xbca12f6f	-0.019675938
153	0xbc5d0c1e	-0.0134916585
154	0xbc22961f	-0.009923487
155	0x3b7b4a42	0.0038343822
156	0xbbcd316a	-0.006261994
157	0xbc318494	-0.010834832
158	0x3b8614ea	0.0040918486
159	0x3a2f4579	0.00066860724
160	0x3bbee633	0.0058257817
161	0x3bbff0b5	0.005857552
162	0xbadefd1b	-0.0017012687
163	0xbbcd03ec	-0.006256571
164	0x3bf788a0	0.0075541288
165	0x3b63c356	0.003475388
166	0x3c616b7d	0.013758537
167	0xbc338081	-0.010955931
168	0xbc1c966a	-0.009557346
169	0xbbbba0cb	-0.005725955
170	0x3c5048b3	0.012712645
171	0x3ae83ed9	0.0017718925
172	0xbb18a8b2	-0.002329391
173	0xbd008823	-0.03137983
174	0xbcf2a932	-0.029621694
175	0xb9652cdb	-0.00021855852
176	0xbbb6ad8f	-0.005574889
177	0x3b913d2c	0.004432341
178	0xbc2dd657	-0.010610185
179	0xbabc5f54	-0.0014371672
180	0xbd0e53ac	-0.034747764
181	0x3c5864af	0.013207599
182	0xbb86841b	-0.0041051037
183	0x3b2998b5	0.0025878374
184	0xb9608602	-0.00021412226
185	0x3be369bf	0.006940096
186	0x3bab1f24	0.005222218
187	0x3ba5209e	0.0050392887
188	0xbb6ab27e	-0.0035811956
189	0xbc1488d1	-0.009065823
190	0x3a254225	0.0006304107
191	0xbca4b7a4	-0.020107098
192	0x3c8597ae	0.016307678
193	0xbbf8c98a	-0.0075923847
194	0xba848ada	-0.0010112182
195	0xbc5af16b	-0.013363223
196	0x3c290359	0.01031574
197	0x3be5e489	0.007015769
198	0x3b7cdd30	0.0038583986
199	0xbcb20c4f	-0.021734385
200	0x3ac82b15	0.0015271629
201	0x3c9d7e08	0.019225135
202	0x3c1176b3	0.008878398
203	0x39c9053d	0.0003834161
204	0xbcb4bb9b	-0.022062114
205	0xbc100059	-0.008789145
206	0xbc2c5c0e	-0.010519994
207	0x39b59444	0.00034633477
208	0xba961463	-0.0011450168
209	0x3bc61f84	0.0060462374
210	0x3c8d07c6	0.01721562
211	0xbcfdfa7a	-0.031003226
212	0x3b5ced4d	0.0033710778
213	0x3bbf4fce	0.005838371
214	0xb8e00d49	-0.00010683627
215	0xbc0873b8	-0.008328371
216	0xbbce8c22	-0.006303326
217	0xbc2038dd	-0.009779182
218	0x3bb81c81	0.0056186323
219	0x3c39196b	0.011297564
220	0xbb14df74	-0.0022716196
221	0xbb3ebfc9	-0.0029106012
222	0xbbb79ab0	-0.005603157
223	0xbbf6b293	-0.007528612
224	0xbaf18a7b	-0.0018428111
225	0xbb980cbd	-0.0046401904
226	0x3b305ac5	0.0026909572
227	0x3a59c36c	0.0008307013
228	0x3b1c0a8b	0.0023809995
229	0xba5ee036	-0.0008502038
230	0xbaa41ec3	-0.0012521375
231	0x3c43e5e3	0.011956665
232	0x3ba85d45	0.0051380717
233	0xbb6b266f	-0.0035881063
234	0xbac5ea52	-0.001509974
235	0xbbfd9a12	-0.007739314
236	0x3b8fc73e	0.004387765
237	0x3cae7aff	0.021298883
238	0x398458d0	0.00025243172
239	0xba8245ea	-0.0009939049
240	0x3c04ed14	0.008113164
241	0xba8bc331	-0.001066303
242	0x3c0e86fc	0.008699175
243	0xbceba5ea	-0.028765637
244	0x396d67d1	0.00022640756
245	0xbc0342d9	-0.008011543
246	0xba3a64b1	-0.0007110341
247	0xb9e4c687	-0.00043635463
248	0x3b795c71	0.0038049484
249	0x3a9e5099	0.0012078463
250	0xbbbb7dec	-0.005721798
251	0x3b788799	0.003792262
252	0xb9b58757	-0.00034623846
253	0xbc87cb8f	-0.016576556
254	0xbb7351da	-0.0037127645
255	0xbd245a6a	-0.040125288

distribution.branches.1.bias f4 [3]
0	0xbb9bdf7e	-0.004756867
1	0xbca5b8a3	-0.020229643
2	0x3c92321c	0.01784616

distribution.branches.1.weight f4 [3, 256]
0	0xbc2e5595	-0.0106405215
1	0xbb5ee2b4	-0.0034009637
2	0xbcbd1215	-0.023079911
3	0x3ac5e12b	0.0015097013
4	0xbbbddd83	-0.0057942285
5	0xbbc27f6b	-0.0059355996
6	0xbbb7dfa2	-0.005611376
7	0x3bf621b8	0.007511344
8	0xba687f44	-0.0008869062
9	0xbb34f70e	-0.0027613076
10	0x3c9d884a	0.019230027
11	0x3ba65705	0.0050762915
12	0xbb6e9f08	-0.0036410708
13	0xbbaef8e1	-0.0053397273
14	0x3ba3ce1a	0.0049989345
15	0x38dc1eac	0.000104961306
16	0xbab9f55f	-0.0014187506
17	0x3b1a323d	0.002352848
18	0xbb488990	-0.0030599572
19	0xbbcf2de8	-0.006322611
20	0x3b982bf9	0.004643914
21	0xbb14324d	-0.002261299
22	0x3ba23e5e	0.0049512824
23	0x3b43d3f6	0.0029880977
24	0xbc3986d7	-0.011323652
25	0xba26b889	-0.00063598953
26	0xb9868a82	-0.00025661668
27	0x39016241	0.00012339001
28	0x3c935d20	0.017988741
29	0xbb6bd032	-0.0035982248
30	0xbb96ce52	-0.004602232
31	0xbca92b87	-0.020650638
32	0xbc7269d5	-0.01479574
33	0x3b92083c	0.004456548
34	0xb9aab498	-0.0003255948
35	0x3b4605ae	0.0030215788
36	0x3b117332	0.0022193906
37	0xba88cf00	-0.0010437667
38	0x3a284cbc	0.0006420126
39	0x3c326aa8	0.010889687
40	0xbbfaa39f	-0.0076488997
41	0x3c02afed	0.007976514
42	0x3c07b662	0.00828323
43	0xbb941b12	-0.0045198286
44	0x3bb11ede	0.005405291
45	0x387ebc0b	6.0733448e-05
46	0x3b022291	0.001985703
47	0xbbd78922	-0.006577627
48	0xb99042e1	-0.0002751565
49	0x3a583e00	0.0008248985
50	0xbbdf9c24	-0.0068240333
51	0x3bf6a4aa	0.0075269537
52	0x3b90d92f	0.0044204216
53	0x3c99d0de	0.018776353
54	0xbc63da4b	-0.013907026
55	0xbb57a580	-0.0032905042
56	0xbba33c60	-0.0049815625
57	0x3c9f2c9c	0.019430451
58	0xbc969c21	-0.018384995
59	0x3b6eba38	0.0036426913
60	0xbcdd1f1b	-0.026992371
61	0xbb553f02	-0.0032538776
62	0xbb794d16	-0.0038040332
63	0xbc02d64e	-0.0079856645
64	0xbc778a3d	-0.015108642
65	0xbbb49261	-0.005510614
66	0xbba3b218	-0.0049955957
67	0x3a74298f	0.0009314054
68	0x3c08df03	0.008353951
69	0x3b78c8e4	0.0037961537
70	0xbc7ebcfd	-0.015547988
71	0xbc11cd85	-0.008899097
72	0x3a1c9e60	0.00059745274
73	0xbc79688e	-0.015222682
74	0x3b9d8df9	0.004808184
75	0x3bfbb91f	0.0076819803
76	0xbb49aa55	-0.0030771692
77	0xbb89b06a	-0.0042019384
78	0xbbd18384	-0.0063938517
79	0x3babb7db	0.005240423
80	0xbb187eab	-0.002326886
81	0xbc6c86b7	-0.014436415
82	0xbce59b77	-0.028028233
83	0xbb4be654	-0.0031112628
84	0xba908ab2	-0.0011027663
85	0xbbb27cb8	-0.0054469965
86	0x3a1fba33	0.00060931145
87	0x3b9b2d03	0.0047355904
88	0xbd059c3e	-0.032619707
89	0x3c552e2e	0.013011498
90	0xbb3a4165	-0.0028420326
91	0xbcd80af7	-0.026372416
92	0xbc9acf73	-0.018897748
93	0xbb9a68b0	-0.0047121868
94	0xbb86849e	-0.0041051647
95	0x3bbb8401	0.005722523
96	0xbb1a376a	-0.0023531565
97	0xb8cce370	-9.7698416e-05
98	0x3bcbdcfa	0.006221411
99	0xbd8ab79f	-0.06773304
100	0xbb81eec7	-0.003965232
101	0x3b957f0f	0.0045622657
102	0x3c5e1699	0.013555192
103	0xbcae69af	-0.021290628
104	0x3a160310	0.0005722502
105	0x3c6f5bec	0.014609318
106	0xbc2813cd	-0.010258627
107	0xbd3a50e5	-0.045487303
108	0x3c4b4051	0.012405471
109	0xbb212e3f	-0.0024594215
110	0xbd230df7	-0.03980824
111	0xbb9b30c9	-0.0047360403
112	0xbc00f04e	-0.007869793
113	0xbc20e255	-0.009819587
114	0xbce38d4d	-0.027777338
115	0x3c788a33	0.015169668
116	0xbc19243f	-0.009347021
117	0xbb8e6e65	-0.004346656
118	0xbbc4ed17	-0.0060097086
119	0xbcf7d077	-0.030250771
120	0xbcb3b2e5	-0.02193589
121	0x3b748e63	0.0037316314
122	0x3c95fb3d	0.018308276
123	0x3bc4a289	0.006000821
124	0x3b0ed08e	0.0021791789
125	0x3bcb4597	0.006203364
126	0x3a21e29d	0.00061754306
127	0xbb4583f1	-0.0030138458
128	0x3bc51fce	0.0060157543
129	0xbd71a1d1	-0.05899221
130	0xbc32f166	-0.010921812
131	0xbbe71c24	-0.007052915
132	0xbadcf5fa	-0.0016857975
133	0x3bcfaa8f	0.006337471
134	0xbad419cd	-0.0016182006
135	0x3b1e70a1	0.0024176019
136	0x3cbac521	0.022799077
137	0xbc178686	-0.0092483815
138	0xbd37c098	-0.044861406
139	0xbb82d93a	-0.0039931806
140	0xb9e08f5c	-0.0004283142
141	0xbb7df57f	-0.0038751063
142	0x3b37ef6f	0.0028066298
143	0xbc29c584	-0.010362033
144	0x3bcde19c	0.0062829982
145	0x3bdbc667	0.006707001
146	0xba6caf8b	-0.00090288435
147	0x3bfdf8ee	0.007750622
148	0x3c0c7797	0.008573434
149	0xbc54d679	-0.012990587
150	0x399f940a	0.0003043714
151	0x3b5413da	0.0032360465
152	0xbc0f9b44	-0.008765046
153	0x3bb91828	0.0056486316
154	0xbb7692f9	-0.0037624224
155	0x3b638013	0.003471379
156	0x3b34f1ea	0.0027610012
157	0x3bbbf03a	0.0057354243
158	0xbb75aefa	-0.0037488327
159	0x3b0f8a50	0.002190251
160	0x3bbce8e6	0.0057650683
161	0xbbc1a996	-0.005910109
162	0xbc0b0a49	-0.008486339
163	0xbc329a67	-0.01090107
164	0xbb36706d	-0.0027838007
165	0xbbad2fed	-0.005285254
166	0x3b997b2d	0.004683873
167	0xbc116287	-0.008873588
168	0x3bb2cea0	0.0054567605
169	0x3c0a9e9c	0.008460667
170	0xbba6bd80	-0.005088508
171	0xbc1c5b0e	-0.0095431935
172	0x3bca3660	0.006171033
173	0xbc84acf5	-0.016195754
174	0xbd1f6527	-0.038914826
175	0x3bb3d82a	0.0054884152
176	0xbc55f0fc	-0.013057943
177	0xbbf16696	-0.0073669655
178	0xbc613e1d	-0.013747719
179	0x3a693eec	0.0008897621
180	0x3c3454e9	0.011006572
181	0x3b3251fa	0.0027209506
182	0x3b96212d	0.0045815916
183	0xb97182aa	-0.00023032227
184	0xbbe5bbd2	-0.0070109153
185	0x3c0a1752	0.008428412
186	0x3bdecc44	0.0067992527
187	0x3c345e2f	0.011008783
188	0x3b79a1e6	0.0038090884
189	0x3b2e4d64	0.0026596421
190	0x3b4d01e6	0.003128165
191	0xbb0ad513	-0.002118413
192	0x3b95e37b	0.004574237
193	0x3b92656e	0.004467658
194	0xbbeb7346	-0.0071853725
195	0xba03c792	-0.0005026992
196	0x3b9f77cd	0.0048665763
197	0xbae07dff	-0.0017127394
198	0x3c409ba3	0.011755857
199	0xbc55a795	-0.013040443
200	0xbc30095a	-0.010744417
201	0x3c22112b	0.0098917885
202	0xbb83815c	-0.0040132236
203	0x3a8c1398	0.0010686992
204	0xbd09638a	-0.033542193
205	0xbafcdf96	-0.0019292708
206	0xbbfa1898	-0.0076323263
207	0xba435ea4	-0.0007452762
208	0x3bc2e479	0.005947646
209	0x3c04dff1	0.008110032
210	0x3c811ec4	0.01576174
211	0xbd0f151c	-0.03493224
212	0x3c4f8eda	0.012668336
213	0x3c41fe1d	0.0118403705
214	0x3bacc0a8	0.00527199
215	0xbb8e6bd7	-0.0043463516
216	0x3b373d45	0.0027960103
217	0xbba90be2	-0.0051588872
218	0xbcc9d440	-0.024637341
219	0x3c512871	0.01276599
220	0xbb76398b	-0.003757092
221	0x3b27a099	0.0025577901
222	0x3b4cfb3e	0.0031277682
223	0xbc046033	-0.008079576
224	0xbc276a89	-0.010218271
225	0x39b0c802	0.00033718353
226	0x3bbe83a9	0.005814035
227	0x39c46c74	0.00037464837
228	0x3c5544b4	0.013016868
229	0xbb64a001	-0.0034885409
230	0x3c1e6306	0.009667164
231	0x3a608510	0.000856475
232	0xbbf2a344	-0.0074047167
233	0x3a4913de	0.0007670502
234	0x3bc4ff36	0.006011869
235	0xbb44f3ac	-0.0030052466
236	0xb9a33a6f	-0.0003113332
237	0x3b87a80e	0.0041399067
238	0x3a45e2d8	0.0007548756
239	0xbbc19267	-0.005907345
240	0x3b17f07b	0.002318411
241	0x3c02d4aa	0.007985273
242	0x3c8afc22	0.01696593
243	0xbd0bfda4	-0.034177437
244	0xbc42682b	-0.011865656
245	0xbd044791	-0.032294814
246	0xbbc46658	-0.0059936456
247	0x3a271a92	0.0006374504
248	0x3b680c36	0.003540767
249	0x3c4e0cad	0.012576264
250	0xbb8224c2	-0.003971667
251	0x3c06c9c7	0.008226818
252	0x3c57e2ea	0.013176659
253	0xbc2d5b1e	-0.010580806
254	0xbbcdbaa0	-0.006278351
255	0xbd833569	-0.064066716

network_body.linear_encoder.seq_layers.0.bias f4 [256]
0	0x36abdd0c	5.1219304e-06
1	0x3d5a8c83	0.05335666
2	0xa5216f1f	-1.4002173e-16
3	0x3c5b4b2d	0.0133846225
4	0xaa36638d	-1.6199386e-13
5	0x3c471e7b	0.012153263
6	0xbcb74b75	-0.022374848
7	0xbc54fd4a	-0.012999842
8	0x3c82fae7	0.01598878
9	0xbc79cd10	-0.015246645
10	0x3cb159e4	0.021649309
11	0xb54f539a	-7.7235165e-07
12	0xbb3c71e0	-0.0028754398
13	0xbc0034c3	-0.007825079
14	0xb80d5898	-3.369953e-05
15	0xbbdc7042	-0.0067272494
16	0x36e73b75	6.891258e-06
17	0x3ca4f708	0.020137325
18	0x3d1c429d	0.038149465
19	0x1f6500f8	4.8493438e-20
20	0xbcb2d578	-0.021830305
21	0xba452e5d	-0.0007521862
22	0x36cc7d75	6.094279e-06
23	0xac1311cd	-2.0899838e-12
24	0xbc784dac	-0.015155237
25	0x3cec4bb9	0.028844701
26	0xbc7dd284	-0.015492085
27	0xbc8039d4	-0.015652575
28	0x325d89b4	1.2895203e-08
29	0x3cb9f0e2	0.02269787
30	0xbd133433	-0.035938453
31	0xbd2f6a54	-0.04282601
32	0xbcbc826f	-0.023011414
33	0x3cdf1e51	0.027236136
34	0xbcd1c8b2	-0.025608394
35	0x3c49a75b	0.012307967
36	0xbc871038	-0.016487226
37	0xbb503501	-0.0031769874
38	0xbcd8fa53	-0.026486551
39	0xbc15b4e5	-0.009137367
40	0x3c934c15	0.017980615
41	0x3cfaa65f	0.03059691
42	0x27078f91	1.881284e-15
43	0x3c3588dc	0.011079993
44	0xbb1f811c	-0.002433843
45	0xbd0dfee6	-0.03466692
46	0xbbd84dc3	-0.006601067
47	0xb760932b	-1.3385706e-05
48	0x3d15d6f5	0.036581952
49	0x3a868b25	0.0010264857
50	0xbc64afb2	-0.013957905
51	0xbc98590c	-0.018597148
52	0xbcb00fc8	-0.0214919
53	0xbc86f737	-0.016475303
54	0xb380fca2	-6.006418e-08
55	0x3c563a7c	0.013075467
56	0xbca57459	-0.02019708
57	0xb198a853	-4.4429185e-09
58	0x3b3d0f94	0.0028848397
59	0x3cc17b4a	0.02361836
60	0xb16d540f	-3.453582e-09
61	0x3c0a0362	0.008423658
62	0xbc0abc55	-0.008467753
63	0xbc6557bc	-0.013997968
64	0xbc9d3bf5	-0.019193629
65	0xbc923eed	-0.017852271
66	0xbc8a856d	-0.016909325
67	0xb4119515	-1.3558413e-07
68	0xbc4ca01f	-0.012489348
69	0x3c8ac627	0.01694019
70	0x321cb42f	9.121364e-09
71	0xb57f359b	-9.507291e-07
72	0x3d037732	0.032096095
73	0xbc601a12	-0.013678091
74	0xb808cb89	-3.2614484e-05
75	0x3cd65e71	0.02616808
76	0xbcbdc42f	-0.023164837
77	0x3d0e17de	0.03469073
78	0x3d0130ed	0.0315408
79	0x35fc9d13	1.8821178e-06
80	0x3d0db043	0.034591924
81	0xb5bfaeb9	-1.428146e-06
82	0x3b40c62c	0.0029414995
83	0xbc31159c	-0.010808375
84	0xbcb7bd74	-0.022429205
85	0x3ca97d1f	0.020689545
86	0xb20e14fc	-8.270259e-09
87	0x3286a12a	1.5672942e-08
88	0xbc799e46	-0.015235489
89	0xbc44ed07	-0.012019402
90	0xbceb1823	-0.028698033
91	0x3c722b2a	0.014780799
92	0x3b62ff4b	0.003463703
93	0xbbd3e851	-0.0064669033
94	0x3acaed62	0.0015482123
95	0xbbaaae43	-0.005208762
96	0x34022ab6	1.2122732e-07
97	0xbcd6e8a0	-0.026233971
98	0xbc4945f2	-0.012284743
99	0xbc349463	-0.011021706
100	0xbc96d1ef	-0.018410651
101	0x3c8d15f7	0.017222388
102	0x3a86af5a	0.0010275648
103	0xba1b8a42	-0.0005933383
104	0xbc2480e5	-0.0100404965
105	0xbd20aad5	-0.039225418
106	0x3b65c2fd	0.003505885
107	0xbbe72bf0	-0.0070547983
108	0xbc932833	-0.017963504
109	0x3ca64ffd	0.020301813
110	0xbc86a85e	-0.016437706
111	0x31767058	3.5861571e-09
112	0xbc8656d1	-0.01639882
113	0x3c6f9fd4	0.014625508
114	0x3c6c2353	0.014412719
115	0xa39d9569	-1.7085252e-17
116	0x246deac8	5.159005e-17
117	0x3cb97371	0.022638055
118	0xbcd0260f	-0.025408773
119	0xbcb365f5	-0.021899203
120	0xbc7866cf	-0.01516123
121	0x3c00a799	0.007852458
122	0xbbe6955e	-0.007036849
123	0xac63d57f	-3.2377154e-12
124	0xbc0a02c6	-0.008423513
125	0xad6ac6f3	-1.3345536e-11
126	0xb205f057	-7.796266e-09
127	0xbc42a4da	-0.011880124
128	0x3be0d83c	0.0068617146
129	0x3d24daba	0.040247656
130	0x3ceb667e	0.028735396
131	0x3bc0b818	0.0058813207
132	0xbc84f0e3	-0.016228145
133	0x3c2fc282	0.010727527
134	0xbbc679d1	-0.006057002
135	0x28071e8a	7.5006275e-15
136	0xbcec769c	-0.028865151
137	0xb101e69d	-1.890306e-09
138	0xbb72b811	-0.0037035982
139	0xbcb08ee1	-0.021552505
140	0xbce5e3aa	-0.02806266
141	0xbb119a25	-0.0022217121
142	0x3c127e59	0.008941256
143	0xbce7523c	-0.028237455
144	0x3ce8acf9	0.028402792
145	0x34a17346	3.007246e-07
146	0xbcbe814b	-0.023255011
147	0xbbe4f087	-0.006986681
148	0xbc2dfca0	-0.0106193125
149	0x37547041	1.2662321e-05
150	0x3c41838b	0.011811147
151	0x9d629515	-2.9987925e-21
152	0xbca31d59	-0.019911455
153	0xbcfa7e4f	-0.030577807
154	0x3c363304	0.0111205615
155	0xbceff357	-0.029290838
156	0x3cc50fa4	0.02405531
157	0xba9985d0	-0.0011712853
158	0x3d0701f6	0.032960854
159	0xbc9c01d3	-0.019043839
160	0xbc2d3c92	-0.010573523
161	0x3d08220c	0.033235595
162	0xb64a8407	-3.0177196e-06
163	0xbc5624e9	-0.0130703235
164	0x3ca8a2dd	0.020585472
165	0xbceff492	-0.029291425
166	0xbc9f6c92	-0.01946095
167	0xbc450267	-0.012024499
168	0x393b8395	0.00017882728
169	0x2c91cb35	4.1437084e-12
170	0x3c463594	0.012097735
171	0x3b7666a5	0.0037597802
172	0xb8e59fbf	-0.00010949326
173	0xbb30b8ce	-0.002696562
174	0xb454b00b	-1.9808083e-07
175	0x3cfbb759	0.030727075
176	0x3cca53b7	0.024698121
177	0x3d0b2bbd	0.03397726
178	0x2b903ba0	1.0248365e-12
179	0xbc1c42eb	-0.009537439
180	0x3c654fe8	0.013996102
181	0xbce36f02	-0.027762894
182	0xbc52e9ae	-0.012873096
183	0xbbf3aeb6	-0.0074365987
184	0xbc39c57a	-0.011338586
185	0xbd28e2ea	-0.041232027
186	0xbbe0e3d8	-0.0068630986
187	0x32429377	1.1325816e-08
188	0x24a4ce15	7.147278e-17
189	0x3c979bf4	0.018506981
190	0xbca8973a	-0.020579923
191	0xbd27cf89	-0.040969405
192	0xbbfeb037	-0.0077724713
193	0x1b9c9418	2.5903738e-22
194	0xb25180c0	-1.21946755e-08
195	0x36387426	2.7485744e-06
196	0x2be8bd8e	1.6537203e-12
197	0xbc5edce6	-0.013602471
198	0x3c369127	0.011143005
199	0xbc68d823	-0.014211687
200	0x3c4d0fc2	0.012515964
201	0xbbe5f572	-0.0070177848
202	0x30e2e71e	1.6509352e-09
203	0x25092429	1.1895107e-16
204	0x32091241	7.9786e-09
205	0xbd1b3a64	-0.037897483
206	0xbbfb6fa8	-0.0076732226
207	0x3b935418	0.0044961087
208	0x3a027c13	0.0004977595
209	0x3c9b38da	0.018948007
210	0xb725a396	-9.872854e-06
211	0xb198f055	-4.451105e-09
212	0x318f9c87	4.179643e-09
213	0xbc790d8b	-0.015200983
214	0x3ac40749	0.0014955784
215	0xbbc98193	-0.0061494797
216	0xbb49d311	-0.0030795971
217	0x33e0993f	1.0458688e-07
218	0xbc620037	-0.013793997
219	0xae5c6fd9	-5.012155e-11
220	0xbc411aea	-0.011786202
221	0xbd31a65e	-0.04337155
222	0xbcfed016	-0.031105082
223	0xbd444ed6	-0.047926746
224	0x3c7becea	0.015376309
225	0x3af9b372	0.0019050671
226	0xbc303cde	-0.010756699
227	0x3bfc74a7	0.0077043357
228	0xbc4cd585	-0.012502079
229	0x34e0f71a	4.190304e-07
230	0x3c50a562	0.012734743
231	0xbd1ee9a7	-0.038797047
232	0x3b5af4db	0.0033410105
233	0xb29efee9	-1.850954e-08
234	0x3504bcc8	4.9448545e-07
235	0xbc18e4db	-0.009331907
236	0x3cf5075c	0.029910736
237	0xb49cbe65	-2.9195795e-07
238	0xbd309a7f	-0.04311609
239	0x3cacce1b	0.021094372
240	0xbccb8e5a	-0.024848152
241	0xbcdb4f2e	-0.026771154
242	0x3b1018d9	0.0021987467
243	0xb6ad072c	-5.1566367e-06
244	0x283d22f8	1.049919e-14
245	0xb722107e	-9.659792e-06
246	0x3c873a09	0.016507166
247	0xbc21bc95	-0.009871622
248	0xbc536215	-0.012901803
249	0xbbb57b21	-0.0055383598
250	0xbd2904b2	-0.041264243
251	0x3c139f76	0.009010186
252	0x3c43594e	0.011923147
253	0xb9a5be2f	-0.0003161295
254	0x3c046e62	0.008082958
255	0x3a342d9b	0.0006873251

network_body.linear_encoder.seq_layers.0.weight f4 [256, 93]
0	0x3ca6ba41	0.020352485
1	0xbd81e47a	-0.063424066
2	0xbe185c44	-0.14878947
3	0x3e102df3	0.14080028
4	0xbc7d0649	-0.015443393
5	0xbcb8864a	-0.022524972
6	0xbc308719	-0.010774397
7	0xbd66e6f5	-0.0563726
8	0x3cc3750f	0.023859529
9	0x3d3e4eb2	0.04646177
10	0xbdb5da74	-0.08879557
11	0xbe160106	-0.14648828
12	0xbe0c2350	-0.13685346
13	0x3cad4114	0.021149196
14	0xbd96ae6f	-0.07357489
15	0x3e6e64eb	0.23280685
16	0x3e86c5c3	0.26322755
17	0x3c28ac40	0.010294974
18	0xbdb5868d	-0.08863554
19	0xbba45dc9	-0.005016063
20	0xbc0b876b	-0.008516173
21	0xbe06a4d6	-0.13148817
22	0xbd28b118	-0.041184515
23	0xbd47a080	-0.04873705
24	0xbe890508	-0.2676165
25	0xbe218408	-0.15773022
26	0x3db5d8ce	0.08879243
27	0xbdadfe08	-0.08495718
28	0x3da9f326	0.0829833
29	0x3c8d73a0	0.017267048
30	0x3daf7f26	0.085691735
31	0xbd97d7fd	-0.07414243
32	0xbe08eb60	-0.13371038
33	0x3e369064	0.17828518
34	0xbd6955ca	-0.05696658
35	0x3e1aec9e	0.15129325
36	0xbe5494b4	-0.2075985
37	0x3ab9034c	0.0014115362
38	0x3da10e8b	0.07864102
39	0x3e34e5e1	0.17665817
40	0x3d750070	0.05981487
41	0x3bbdb4e5	0.0057893866
42	0xbe07391e	-0.13205382
43	0xbd49c3a1	-0.049258832
44	0x3d6a897f	0.057260033
45	0xbd95b3e1	-0.073097
46	0x3d0b1c51	0.03396255
47	0x3d10ad6a	0.03532163
48	0xbe1cfd2a	-0.1533095
49	0x3d047fe7	0.03234854
50	0x3d2f6e25	0.04282965
51	0x3d054e42	0.032545336
52	0xb9cd3281	-0.00039138275
53	0xbdf10a48	-0.11769539
54	0xbde5989b	-0.11210748
55	0xbdd5b6c7	-0.10435253
56	0x3e6de881	0.23233224
57	0xbd8b9d72	-0.0681714
58	0x3cb220d3	0.021744167
59	0x3dde41b7	0.10852378
60	0xbe03cd93	-0.12871389
61	0x3dd4483c	0.1036534
62	0x3dfb4b95	0.122702755
63	0xbd354cb7	-0.044262614
64	0xbd0c097f	-0.034188744
65	0x3b5cf9e5	0.0033718285
66	0xbd2c098c	-0.042001292
67	0xbc0d73af	-0.008633538
68	0xbe5ef9e8	-0.21775019
69	0xbe0cb65d	-0.13741441
70	0x3dc291f3	0.09500494
71	0xbc5cbb55	-0.013472398
72	0xbd1407d6	-0.036140285
73	0x3c99fd02	0.018797401
74	0xbd98e5f7	-0.07465737
75	0xbdb755e7	-0.089519314
76	0xbe7359fa	-0.23764792
77	0x3d760430	0.060062587
78	0x3e5ab20a	0.21356979
79	0xbd38abd9	-0.04508576
80	0xbde7c3c0	-0.11316633
81	0xbdbf8824	-0.09352139
82	0xbcff9602	-0.031199459
83	0x3e84e025	0.2595226
84	0x3dd65815	0.10466019
85	0x3d6f5368	0.05842915
86	0xbd9f3f2b	-0.0777572
87	0xbde45fc4	-0.11151078
88	0xba421dd3	-0.0007404957
89	0xbd48cbc5	-0.049022455
90	0x3d915507	0.07096296
91	0xbc9f4f2e	-0.019446936
92	0xbe57f527	-0.21089612
93	0x3cfaace4	0.030600019
94	0x3c8f4336	0.017488103
95	0x3c90099e	0.01758271
96	0x3e123287	0.14277087
97	0x3e04a287	0.12952624
98	0xbdb057cb	-0.08610495
99	0x3e5a40fc	0.21313852
100	0xbdeeea04	-0.11665729
101	0x3cfcc483	0.030855423
102	0x3d780b87	0.06055787
103	0x3da2e598	0.07953948
104	0x3de9ac46	0.11409812
105	0x3d4c0830	0.049812496
106	0xbe0920f4	-0.13391477
107	0xbd3dc271	-0.046328012
108	0xbe8aaa80	-0.27083206
109	0x3df7e80f	0.121048085
110	0xbb609a7a	-0.0034271763
111	0x3e964a3e	0.29353517
112	0x3e036d8b	0.12834756
113	0xbdd0deb5	-0.10198728
114	0xbe51e161	-0.20496131
115	0x3cecdfda	0.028915334
116	0x3cefde89	0.029280918
117	0xbcd1e0ce	-0.02561989
118	0xbe353baf	-0.17698549
119	0xbd36b993	-0.04461057
120	0x3c1ae3fb	0.009453769
121	0x3dc2325b	0.09482261
122	0x3e0e7e47	0.13915358
123	0xbea31fc6	-0.3186018
124	0xbe394510	-0.18092752
125	0xbdc12327	-0.09430533
126	0x3df8c10f	0.12146198
127	0xbe192928	-0.14957106
128	0x3e7d218a	0.24719825
129	0xbcffcbd6	-0.031225126
130	0x3e000525	0.12501962
131	0x3e4bf387	0.19917117
132	0xbd421373	-0.04738183
133	0xbcfe9dea	-0.031081159
134	0x3e264bd2	0.1623986
135	0x3d0a6436	0.033786975
136	0x3e3339ed	0.17502566
137	0x3e77d275	0.24201377
138	0xbc5801df	-0.01318404
139	0x3c8dcf96	0.017310899
140	0xbe03f7d0	-0.12887502
141	0x3d9ee08d	0.077576734
142	0x3e0fd76f	0.14047025
143	0x3dc4ad94	0.0960342
144	0x3e216c40	0.1576395
145	0xbd340a06	-0.04395487
146	0x3ddd687e	0.10810946
147	0x3e626b19	0.22111167
148	0xbe0f4870	-0.13992476
149	0x3dc47b15	0.095937885
150	0x3d9ec98f	0.07753288
151	0x3dc8f5de	0.098125204
152	0x3e1c5768	0.15267718
153	0xbe834339	-0.25637224
154	0xbdd3e97a	-0.103472665
155	0x3e139983	0.14414029
156	0x3e28ac45	0.16471966
157	0x3dff5f63	0.124693654
158	0xbe9a11eb	-0.30091795
159	0x3d148c8c	0.03626685
160	0x3cfe81cd	0.031067753
161	0x3e2c8065	0.16845854
162	0x3dd820aa	0.10553105
163	0xbe1b2fc9	-0.15154947
164	0x3e7ee9b7	0.24893843
165	0xbe1a7ec8	-0.15087426
166	0x3da6df35	0.08148042
167	0x3dfded25	0.12398747
168	0x3dcb55ea	0.09928496
169	0x3ce15cf4	0.027510144
170	0x3e2cf14b	0.16888921
171	0x3cac0360	0.020997703
172	0xbd8ba8b8	-0.0681929
173	0x3edb1ec2	0.42796904
174	0xb841d007	-4.6208526e-05
175	0xbe84787f	-0.2587318
176	0xbbfbd6be	-0.0076855114
177	0x3bb8cf70	0.005639963
178	0xbc7bce26	-0.015368974
179	0x3df1ec0c	0.118126005
180	0xbe5f4684	-0.21804243
181	0x3e99ef65	0.30065456
182	0xbcf65e11	-0.030074151
183	0x3cdaf460	0.026727855
184	0xbe8438aa	-0.2582448
185	0x3e1b5d54	0.1517232
186	0x3da6cfe1	0.081451185
187	0xbd853c66	-0.06505661
188	0x3ce947d8	0.02847664
189	0xbe386216	-0.18006167
190	0xbda629d1	-0.081134446
191	0x3d169830	0.03676623
192	0xbe0bbc0e	-0.13645956
193	0xbe281c61	-0.16417076
194	0xbe4d557b	-0.2005214
195	0x3e128f75	0.14312537
196	0xbc842400	-0.016130447
197	0xbdf4b65b	-0.11948844
198	0xbdb30675	-0.08741466
199	0x3d0fdd18	0.03512296
200	0xbd7442f9	-0.059634183
201	0x3d9ea78c	0.07746801
202	0xbd40505b	-0.046951633
203	0x3d1a9c32	0.037746616
204	0x3da43691	0.0801822
205	0xbe23d4f4	-0.15999204
206	0x3d3c2247	0.045931127
207	0x3e19d710	0.15023446
208	0xbd7f0979	-0.062264893
209	0x3d5d5780	0.054038525
210	0xbe36e0a0	-0.17859125
211	0xbda165d3	-0.078807496
212	0x3d8ef6aa	0.06980641
213	0xbd07349d	-0.03300916
214	0xbe141ac6	-0.14463338
215	0xbd3202cd	-0.043459702
216	0x3dcfa506	0.101388976
217	0xbe0986eb	-0.13430373
218	0x3da9a0b3	0.08282604
219	0x3e2fcdf6	0.17168412
220	0xbd2314f5	-0.039814908
221	0xbd815272	-0.06314553
222	0xbdb82d30	-0.08992994
223	0x3d411bb6	0.047145568
224	0x3e26a5a7	0.16274129
225	0x3df40e38	0.119167745
226	0x3d6d01f1	0.05786318
227	0xbe0432e9	-0.12910046
228	0xbe1dc3a0	-0.15406656
229	0x3d9c36ec	0.07627663
230	0xbe25b928	-0.16183913
231	0x3d9842ea	0.07434638
232	0x3d197c60	0.03747213
233	0x3c944ae9	0.018102126
234	0xbd7eb4b0	-0.062184036
235	0xbda6f280	-0.08151722
236	0x3e01c91f	0.12674378
237	0xbcac651c	-0.021044306
238	0xbce2e6d2	-0.027697954
239	0xbdc575e8	-0.096416295
240	0xbcfc7f44	-0.030822404
241	0x3deb2edc	0.11483547
242	0x3df68a3a	0.120380834
243	0xbc3e5e18	-0.011619113
244	0x3e053925	0.1301008
245	0xbe408e9d	-0.18804403
246	0xbc297504	-0.01034284
247	0xbc66215c	-0.014046039
248	0xbdc5cb35	-0.09657899
249	0x3d23d2b5	0.039995868
250	0xbc088670	-0.008332834
251	0x3ce3c8b8	0.027805671
252	0x3d1f0316	0.038821302
253	0x3dd9cc54	0.106346756
254	0x3cce65ef	0.02519509
255	0x3d980fdf	0.07424902

network_body.linear_encoder.seq_layers.2.bias f4 [256]
0	0xbc4cb5e0	-0.012494534
1	0xbb31aec3	-0.0027112223
2	0xbbfd276a	-0.007725646
3	0xbbba9f5a	-0.0056952657
4	0xb05ef528	-8.111152e-10
5	0xbc0a918b	-0.008457552
6	0xbb9ab91f	-0.004721775
7	0xbb6783ef	-0.0035326441
8	0xbb8c3e13	-0.0042798608
9	0xbbf525fb	-0.0074813343
10	0xba5767b3	-0.00082170515
11	0xbb92ef55	-0.004484097
12	0xbc10b701	-0.008832694
13	0xbbf621c9	-0.0075113517
14	0xbb9f8823	-0.0048685237
15	0xbbbb202d	-0.0057106228
16	0xbb6c88df	-0.0036092324
17	0xbb145477	-0.0022633353
18	0xbb801b6d	-0.0039095194
19	0xbc378c5d	-0.011202899
20	0xbc307f7f	-0.010772585
21	0xbb5e4bc8	-0.003391968
22	0xbb8c5476	-0.0042825295
23	0xbb99eed4	-0.00469766
24	0xbc526fea	-0.012844065
25	0xba8191ba	-0.0009885349
26	0xbc6332b0	-0.013867065
27	0xbbe20cb8	-0.006898489
28	0xbb99da04	-0.004695179
29	0xbc072cd7	-0.008250437
30	0xb90a5ee9	-0.00013196062
31	0xbb4567e9	-0.003012175
32	0xbbc3d6fd	-0.0059765563
33	0xbc43d107	-0.0119516915
34	0xbba8e3db	-0.0051541156
35	0xbbd77eb7	-0.006576385
36	0xbc51153b	-0.012761409
37	0xbb5d0c0b	-0.0033729102
38	0xba8d55cf	-0.0010783019
39	0xbb810320	-0.00393714
40	0xbb15b1af	-0.0022841503
41	0xbc0cae25	-0.008586441
42	0xb7ba0dda	-2.2179378e-05
43	0xbaeb52a2	-0.0017953704
44	0xbb84858b	-0.00404424
45	0x3656fbdb	3.2035084e-06
46	0xbbddb5dc	-0.006766064
47	0xbbd645b3	-0.0065390705
48	0xbbe3c21b	-0.0069506294
49	0xbb2fe85c	-0.0026841378
50	0xbc1f0885	-0.009706621
51	0xbc1175e4	-0.008878205
52	0xbba4c17c	-0.005027948
53	0x3ad9357f	0.0016571729
54	0xbb62855a	-0.0034564347
55	0xb88c500b	-6.6906294e-05
56	0xbb52c06a	-0.0032158145
57	0xbb89d410	-0.004206188
58	0xba8327c7	-0.0010006361
59	0xb05b527f	-7.978897e-10
60	0xba9e5ed1	-0.0012082701
61	0xbc04e085	-0.00811017
62	0x350905bb	5.1044816e-07
63	0xbb651f31	-0.0034961218
64	0xbc05e9a0	-0.008173376
65	0xbb1db725	-0.0024065461
66	0xbbdd333c	-0.0067504924
67	0xbc2e91f6	-0.010654917
68	0xbc1e63d9	-0.00966736
69	0xbbfc9bf6	-0.0077090217
70	0xbbbcf9d7	-0.005767088
71	0xbbae2597	-0.0053145397
72	0xbb677e48	-0.0035323072
73	0xbb1a0e8e	-0.002350721
74	0xbb9c9a04	-0.0047791023
75	0xbb89f6ae	-0.0042103147
76	0xbb92ebf5	-0.0044836947
77	0xbc3c6f41	-0.011501134
78	0xb004b363	-4.8276244e-10
79	0xb85614c9	-5.1040934e-05
80	0xbb960f86	-0.0045794873
81	0xbbef08c6	-0.007294747
82	0xbc16fb50	-0.009215191
83	0xbc14c4cc	-0.009080123
84	0xbc1a4e0f	-0.009418025
85	0xbba9bb3f	-0.005179792
86	0xbba7f43e	-0.0051255515
87	0xbb97535a	-0.0046180906
88	0xbb51b560	-0.0031998977
89	0xbc1fcb03	-0.009752992
90	0xbc09df3a	-0.008415038
91	0xbbfc9da2	-0.007709221
92	0xbbf5408f	-0.0074845026
93	0xbb94f85b	-0.004546208
94	0xaeaae401	-7.7712066e-11
95	0xbbab44b8	-0.005226698
96	0xbb37ff52	-0.0028075767
97	0xbc00c861	-0.007860274
98	0xbb7aa12b	-0.0038243036
99	0xba799735	-0.0009521128
100	0xb47a0b93	-2.3287275e-07
101	0xbb9e7d4f	-0.0048367153
102	0xbc0d4a61	-0.00862369
103	0xba5bb456	-0.0008381059
104	0xbc97a942	-0.018513326
105	0xba659fb3	-0.0008759454
106	0xaeeeb02d	-1.0854282e-10
107	0xbba97b6b	-0.0051721833
108	0xbb97d436	-0.004633452
109	0xbbdba3ff	-0.0067028995
110	0xbb80d046	-0.003931078
111	0xbb89a226	-0.004200238
112	0xbc0b8361	-0.00851521
113	0xbb96c032	-0.004600548
114	0xbb7041a3	-0.0036660216
115	0xba70bddb	-0.0009183564
116	0xbb154942	-0.002277926
117	0xba50e0fb	-0.0007968095
118	0xbb32b7d2	-0.002727021
119	0xbb57d155	-0.0032931168
120	0xbb9edc85	-0.0048480653
121	0xbc01e03d	-0.007926998
122	0xbb2af072	-0.0026083258
123	0xbc27ea2e	-0.010248704
124	0xbb4f4bc7	-0.003163086
125	0xbbfe20b4	-0.0077553634
126	0xbc84fb80	-0.016233206
127	0xbc2fffb3	-0.010742116
128	0xbbe753b0	-0.007059537
129	0xbb039472	-0.0020077494
130	0xbbc799ba	-0.0060913237
131	0xbb981b87	-0.0046419534
132	0xb99e2e69	-0.00030170687
133	0xbba7bbf2	-0.0051188404
134	0xbc3780df	-0.011200159
135	0xbc1ca9b4	-0.009561945
136	0xbb79e013	-0.0038127943
137	0xb8f1f2d3	-0.00011537005
138	0xbbe78319	-0.0070651886
139	0xb23b3fc3	-1.089933e-08
140	0xbc357245	-0.011074607
141	0xbbc4ed07	-0.006009701
142	0xbb9b2476	-0.004734571
143	0xbb55b6e9	-0.0032610244
144	0xb15a863e	-3.1799483e-09
145	0xbb38a011	-0.002817158
146	0xb7e9c083	-2.786541e-05
147	0xba633615	-0.00086674216
148	0xbc0bb6f6	-0.008527508
149	0xbb67752b	-0.003531764
150	0xbc58f456	-0.013241848
151	0xbbb9f8b1	-0.0056753983
152	0xbaf37983	-0.0018575642
153	0x34ca81f4	3.7719985e-07
154	0xb9323aa2	-0.00016997245
155	0xbb99d2a6	-0.0046943007
156	0xb7edd701	-2.835272e-05
157	0xbbd0fa12	-0.006377467
158	0xbb466ee7	-0.0030278505
159	0xb79eab79	-1.8914916e-05
160	0xbbf54734	-0.0074852947
161	0xbb40fe83	-0.0029448576
162	0xbc68fc0e	-0.014220251
163	0xbb13415b	-0.0022469375
164	0xbbf60644	-0.007508071
165	0xbc690415	-0.014222165
166	0xbbdff333	-0.0068344115
167	0xbbfe2f08	-0.0077570714
168	0x31250cad	2.4017865e-09
169	0xbb8f7ddb	-0.004379017
170	0xbbaaa425	-0.005207556
171	0xbbeb7126	-0.007185119
172	0xbb9668bf	-0.0045901234
173	0xbb966eb6	-0.0045908345
174	0xbab06cc6	-0.0013460151
175	0xbbf8892b	-0.007584711
176	0xbc375dd1	-0.011191801
177	0xbb836e4c	-0.004010951
178	0x39b81e2d	0.00035117698
179	0xbbea24d1	-0.007145502
180	0x3bce6853	0.0062990575
181	0xbb1d6d04	-0.0024021277
182	0xb8e969b4	-0.000111299945
183	0xbb98adfc	-0.0046594124
184	0xbbbc3d21	-0.005744592
185	0xb99233ec	-0.00027885975
186	0xbba11e7d	-0.0049169646
187	0xb9ea2ef2	-0.00044666935
188	0xb0834a37	-9.552598e-10
189	0xbb414c8c	-0.0029495088
190	0xb746eed6	-1.1857328e-05
191	0xbbaf9b8e	-0.0053591197
192	0xbba7bbcc	-0.0051188227
193	0x32786cd2	1.4460243e-08
194	0xbbdcb718	-0.0067356937
195	0xbbbfdd59	-0.005855244
196	0xbb9d9857	-0.00480942
197	0xb7b8b09e	-2.2016753e-05
198	0xbc171bb2	-0.009222912
199	0xbc1afd0e	-0.009459747
200	0xbab3995b	-0.001370232
201	0xbb88be75	-0.004173095
202	0xbc0173fb	-0.007901187
203	0xbc263ba0	-0.010146052
204	0xbad1665b	-0.0015975939
205	0xbba6f43f	-0.0050950344
206	0xbb727d68	-0.0037001017
207	0xbb484693	-0.0030559644
208	0xb0b6b0d0	-1.3292496e-09
209	0xbc21d564	-0.009877536
210	0xbb967c97	-0.004592489
211	0xb9e3714e	-0.00043381233
212	0xbb560c6c	-0.0032661213
213	0xbb83b394	-0.00401921
214	0xbbf1220e	-0.007358796
215	0xbacae5e4	-0.001547989
216	0xbb5b0127	-0.0033417435
217	0xbc33a092	-0.010963576
218	0xbbc2fbee	-0.0059504425
219	0xbb5a6492	-0.0033324105
220	0xbbe81e26	-0.007083672
221	0xbb83ad0d	-0.004018432
222	0xbc364228	-0.011124171
223	0xbb9d709b	-0.0048046834
224	0xbbffe7c5	-0.0078096115
225	0xbc39bb3c	-0.011336144
226	0x3184ab94	3.861212e-09
227	0x2f223533	1.4752714e-10
228	0xbbbbaf60	-0.0057276934
229	0xbc21a047	-0.009864873
230	0xbb8e7adc	-0.004348142
231	0x2711246b	2.0142535e-15
232	0xbc0e70e1	-0.008693905
233	0xbbd48996	-0.006486128
234	0x3a75a6de	0.00093708734
235	0xbbce2911	-0.0062915166
236	0xb6ff84aa	-7.6150363e-06
237	0xbbcb7fe4	-0.006210314
238	0xbb9a9574	-0.004717523
239	0xad066f25	-7.641697e-12
240	0xbaae62fe	-0.0013304648
241	0xbbc2e5de	-0.0059478125
242	0xbbaec502	-0.0053335438
243	0xbbc57c32	-0.006026768
244	0xb4602aac	-2.087715e-07
245	0xbbbba212	-0.0057261074
246	0x3091aa69	1.0598572e-09
247	0xae084e84	-3.0992556e-11
248	0xbb11579f	-0.002217747
249	0xb9126333	-0.000139606
250	0xadf4d225	-2.7832911e-11
251	0xbb1729fe	-0.00230658
252	0xbb8879e6	-0.004164922
253	0xbb690a32	-0.0035559055
254	0xbc2aea6e	-0.010431869
255	0xbb4ede77	-0.0031565705

network_body.linear_encoder.seq_layers.2.weight f4 [256, 256]
0	0xbca03147	-0.019554747
1	0x3dd47479	0.10373778
2	0x3d1cf7a0	0.03832209
3	0xbe4bfe0c	-0.1992113
4	0xbd40b7ea	-0.047050394
5	0xbdd7fe93	-0.10546603
6	0xbd0e61f9	-0.034761403
7	0xbd1907cd	-0.037360955
8	0x3e28be56	0.16478857
9	0xbdd4c1f5	-0.10388557
10	0xbdaecd9f	-0.08535313
11	0xbbe3ad97	-0.0069481838
12	0x3dcd6860	0.100296736
13	0x3d024b26	0.03180995
14	0x3d921421	0.071327455
15	0x3d87200c	0.06597909
16	0x3d64447b	0.05572937
17	0x3e64ddf0	0.22350287
18	0x3e3d658d	0.1849577
19	0xbd894f21	-0.06704546
20	0xbd8128eb	-0.063066326
21	0x3d95a8d6	0.073075935
22	0xbddebc15	-0.108757176
23	0x3da81596	0.08207242
24	0x3dbb480a	0.091446
25	0x3b8ee2b0	0.0043605193
26	0xbcaf8656	-0.021426361
27	0x3d86545b	0.06559058
28	0x3d48820e	0.048952155
29	0x3c9e17ad	0.019298399
30	0xbb857b86	-0.004073563
31	0x3d45788b	0.04821066
32	0xbd5b059e	-0.053472154
33	0x3d249e31	0.040189926
34	0xbd7d075e	-0.061774604
35	0xbe18a914	-0.14908248
36	0x3d93b3df	0.07212042
37	0xbcf8476c	-0.030307494
38	0xbd4e0d8b	-0.050305884
39	0x3cf5f091	0.030021938
40	0xbd1939d2	-0.037408657
41	0xbd565054	-0.0523227
42	0x3d99e320	0.07514024
43	0xbb16cf31	-0.002301168
44	0xbdd4ed8b	-0.1039687
45	0xbb6c07ac	-0.0036015315
46	0xbd071eca	-0.032988347
47	0xbc0c4626	-0.008561647
48	0xbe0f9a55	-0.14023717
49	0xbd9e0fb2	-0.077178374
50	0xbd7cf180	-0.06175375
51	0xbe0d15f2	-0.13777903
52	0x3cfe59bb	0.031048646
53	0xbd23fc1d	-0.040035356
54	0x3dd24ef9	0.10268969
55	0x3d99bbab	0.07506498
56	0x3d8b5435	0.068031706
57	0x3dae79ec	0.085193485
58	0xbd47d254	-0.04878457
59	0x3d8bf082	0.068329826
60	0x3d0002ed	0.03125279
61	0xbdaad758	-0.08341855
62	0xbdcf1c45	-0.10112814
63	0x3ccf40d2	0.025299463
64	0xbdda5263	-0.10660245
65	0x3d3563a4	0.044284478
66	0x3df49495	0.11942402
67	0xbcb5f63d	-0.022212142
68	0xbda13d71	-0.07873047
69	0xbbda8b95	-0.0066694715
70	0x3d28172f	0.041037735
71	0xbcecd7d2	-0.028911505
72	0x3c3edad0	0.011648849
73	0x3d3c61c4	0.045991674
74	0xbcf3400b	-0.029693624
75	0x3dbeacfe	0.093103394
76	0x3d74f706	0.059805892
77	0xbc532f5e	-0.012889711
78	0xbd41a21a	-0.047273733
79	0xbdb0d767	-0.08634835
80	0x3e0ea62d	0.13930579
81	0x3d00630c	0.03134446
82	0xbcb5cc4e	-0.022192147
83	0xbce6aa28	-0.028157309
84	0xbd367876	-0.044548474
85	0xbcf8451e	-0.030306395
86	0x3c39c2c6	0.0113379415
87	0x3e02f808	0.12789929
88	0xbb724d39	-0.0036972298
89	0xbd987831	-0.074448
90	0x3cd9df5b	0.026595762
91	0x3d5fed5f	0.054669734
92	0x3c8ee7ba	0.01744448
93	0xbd4eb173	-0.050462198
94	0xbde3d28a	-0.111241415
95	0xbd11b74d	-0.0355752
96	0x3a8c8037	0.0010719363
97	0x3c82ee2c	0.01598271
98	0x3d6e67db	0.058204513
99	0xbd2a1fe7	-0.04153433
100	0xbc519cff	-0.012793778
101	0xbe2cea23	-0.16886191
102	0x3d712d96	0.058881365
103	0xbd3b45f6	-0.045721017
104	0x3c12d93b	0.008962925
105	0xbda64939	-0.08119435
106	0xbd6bfa20	-0.057611585
107	0x3d9dd8f1	0.07707394
108	0xba68f621	-0.0008886774
109	0x3dd59283	0.104283355
110	0x3d80e846	0.06294303
111	0x3a1199cd	0.0005554229
112	0x3dce78d4	0.1008164
113	0xbbb16e60	-0.005414769
114	0x3cf58f7d	0.029975647
115	0x3d4147d2	0.047187634
116	0x3b04b77b	0.0020250964
117	0x3c991c85	0.018690357
118	0x3c839188	0.016060606
119	0x3d51e9ef	0.051248487
120	0xbd7413f2	-0.059589334
121	0x3d665180	0.05623007
122	0xbd62d281	-0.055376533
123	0xbe05178f	-0.12997268
124	0xbcf27f63	-0.029601758
125	0xbc19d121	-0.009388239
126	0xbd136aea	-0.035990633
127	0x3d4f9d1e	0.050686948
128	0x3e00e331	0.12586667
129	0x3dbba7bc	0.09162852
130	0xbdd03a25	-0.1016734
131	0xbd8554b4	-0.065102965
132	0x3c094888	0.008379109
133	0x3d6535c3	0.055959474
134	0xbd4f8c51	-0.050670926
135	0xbd290ca9	-0.04127184
136	0x3d1c3b33	0.038142394
137	0xbce5e95e	-0.02806538
138	0xbcef70f3	-0.029228663
139	0xbd3de4e6	-0.046360873
140	0xbbe67d6b	-0.007033994
141	0x3dd88691	0.105725415
142	0xbd75c17a	-0.059998967
143	0x3d6b174a	0.057395257
144	0x3e46ca54	0.1941312
145	0x3cd17168	0.025566772
146	0x3df4514f	0.11929571
147	0xbd31e35a	-0.04342971
148	0xbd33213c	-0.043732867
149	0x3cb120c2	0.021622065
150	0xbda87172	-0.08224763
151	0x3d61da61	0.055139903
152	0xbce82c2b	-0.028341373
153	0xbd9802a0	-0.07422376
154	0x3e20e63e	0.1571283
155	0x3d184660	0.03717649
156	0x3d9a44f0	0.0753268
157	0x3d36de7e	0.04464578
158	0x3dac3912	0.08409323
159	0x3d10b68f	0.03533035
160	0x3c7e6000	0.015525818
161	0x3b3eb3da	0.00290989
162	0xbb9f42ff	-0.0048602815
163	0xbc62f87e	-0.0138531905
164	0x3deadd7f	0.11468028
165	0x3cc12ede	0.023581918
166	0xbdb7ee84	-0.0898104
167	0x3cf8ccad	0.030371035
168	0x3d20d217	0.039262857
169	0x3daad07c	0.083405465
170	0x3cfe5ba4	0.031049557
171	0x3d8174c5	0.063211
172	0x3acbc33c	0.0015545855
173	0x3d0226ea	0.031775393
174	0x3dbee55e	0.09321092
175	0x3e7eb73b	0.24874584
176	0xbe2aae60	-0.16668081
177	0x3ccff1db	0.02538388
178	0x3d3b6520	0.045750737
179	0x3c38ba0a	0.011274824
180	0x3ddeb654	0.1087462
181	0x3d313da9	0.043271694
182	0xbd5be194	-0.053681925
183	0x3e028042	0.12744239
184	0x3e240cc9	0.16020502
185	0x3ac34594	0.0014898055
186	0xbc5c4f20	-0.013446599
187	0x3c91b119	0.017784642
188	0xbd92d223	-0.07168987
189	0xbd0d1448	-0.03444317
190	0xbd722f97	-0.059127416
191	0x3d7b0540	0.061284304
192	0xbd124802	-0.035713203
193	0xbcdc09b6	-0.0268601
194	0xbd07fbe2	-0.0331992
195	0x3d46074d	0.048346806
196	0x3c8c2b1b	0.017110398
197	0xbd2d77a9	-0.042350445
198	0x3d4d594a	0.05013398
199	0xbddc24ca	-0.107492045
200	0xbb1cc059	-0.002391836
201	0xbba920fb	-0.0051614023
202	0x3c95858b	0.018252155
203	0x3d9885e9	0.07447416
204	0x3dbbb62f	0.09165608
205	0xbd19e4c2	-0.037571676
206	0xbca53f07	-0.020171655
207	0xbd921cef	-0.07134425
208	0x3caf7889	0.02141978
209	0xbc8709b2	-0.016484115
210	0x3e023050	0.12713742
211	0xbcb3c545	-0.021944651
212	0xbd9e629d	-0.07733653
213	0x3d2e355a	0.04253135
214	0xbcbfa589	-0.023394363
215	0xbc19287f	-0.009348034
216	0xbd388916	-0.04505261
217	0xbdab5a79	-0.08366866
218	0x3db41cbe	0.08794545
219	0x3c3d6c6f	0.011561497
220	0x3b19a7a3	0.0023445867
221	0xbdbc3601	-0.09189988
222	0xbcf3c545	-0.029757151
223	0xbb754107	-0.0037422793
224	0x3dc3cf29	0.09560997
225	0xbd69fcb5	-0.057125766
226	0xbd1e0ab9	-0.038584445
227	0x3cce3467	0.025171472
228	0xbd610377	-0.054934945
229	0xbdf53616	-0.11973207
230	0xbc14ae25	-0.009074722
231	0xbda349a8	-0.07973033
232	0x3dbdb0c7	0.09262233
233	0x3ba13d9f	0.004920676
234	0x3ba91031	0.005159401
235	0xbd8eb3c7	-0.069678836
236	0xbdade448	-0.08490807
237	0x3cf970e7	0.030449344
238	0x3dd182ab	0.10230001
239	0x3c4a4037	0.012344412
240	0x3dd5a2bf	0.10431432
241	0x3df85da1	0.12127233
242	0x3e08681d	0.13320966
243	0xbc5eb872	-0.01359378
244	0xbd9dd63c	-0.077068776
245	0xbd19d1ec	-0.037553713
246	0x3dcc4373	0.099738024
247	0x3df904d3	0.12159123
248	0xbdca54e3	-0.09879472
249	0x3e24b120	0.16083193
250	0x3b0e3b5d	0.0021702864
251	0xbc992570	-0.01869461
252	0xbd6cbc5b	-0.057796817
253	0xbd6d606a	-0.057953276
254	0x3d9b8283	0.075932525
255	0xbaf14ad3	-0.001840914
