Assets/ML-Agents/mla-1.0.6/results/carchase02/CarAgent/CarAgent-65850.onnx (onnx, 362126 bytes, 9 tensors)

53 f4 [91]
0	0x3e0e4a5f	0.13895558
1	0x3bff61f4	0.0077936593
2	0x3c49e361	0.012322278
3	0x3e0d9702	0.13827136
4	0x3de8c87f	0.113663666
5	0x3e63aa39	0.22232904
6	0x3dc8c3e5	0.09802989
7	0x3caed076	0.021339636
8	0x3e4d6a77	0.20060144
9	0x3e054c30	0.13017344
10	0x3e745675	0.23861106
11	0x3dcb15a3	0.09916236
12	0x3c95b609	0.018275278
13	0x3e5fee31	0.21868207
14	0x3e112597	0.14174496
15	0x3e785539	0.2425126
16	0x3c1c6324	0.009545121
17	0x3c3493d3	0.011021572
18	0x3e77f7ce	0.24215624
19	0x3e4a3b90	0.19749284
20	0x3eb372ea	0.3504861
21	0x3dddb666	0.10825805
22	0x3c7f5c16	0.01558592
23	0x3eace46c	0.33768022
24	0x3e5cbd20	0.2155652
25	0x3e81d726	0.25359458
26	0x3dcc9d97	0.099909954
27	0x3c99131b	0.018685868
28	0x3e7075f2	0.23482493
29	0x3e1a8a85	0.15091904
30	0x3e522d98	0.20525205
31	0x3c0ec322	0.0087135155
32	0x3c7f5c0e	0.015585912
33	0x3e517c68	0.20457613
34	0x3e34a590	0.17641282
35	0x3e816aae	0.25276703
36	0x3dcceb9c	0.100058764
37	0x3c1c631d	0.009545115
38	0x3e6fd10b	0.23419587
39	0x3e11d1a9	0.14240135
40	0x3e7bf187	0.24603854
41	0x3debb16d	0.11508451
42	0x3c7740b5	0.015091111
43	0x3e5f9c4d	0.21836968
44	0x3e097e49	0.1342708
45	0x3ea76087	0.32690832
46	0x3c1c6323	0.00954512
47	0x3c49e36e	0.01232229
48	0x3ea73df5	0.32664457
49	0x3e8ffc6b	0.28122267
50	0x3ea4e378	0.32204795
51	0x3dcdfbbf	0.100577824
52	0x3c1c6316	0.009545108
53	0x3e9e6587	0.30936834
54	0x3e3ede11	0.18639399
55	0x3ec281df	0.3798971
56	0x3dec9c94	0.115533024
57	0x3c0ec32a	0.008713523
58	0x3ebc50ba	0.3678034
59	0x3e62a12c	0.22131795
60	0x3ea1ab0b	0.31575808
61	0x3e541a1d	0.20713086
62	0x3ceca79d	0.028888518
63	0x3e7f4549	0.24928774
64	0x3e0d4c34	0.137986
65	0x3ed6daee	0.41963905
66	0x3ec684c5	0.3877317
67	0x3e59d342	0.21271995
68	0x3d235935	0.039879996
69	0x3d92cca6	0.0716794
70	0x3dce8e66	0.10085754
71	0x3df0d711	0.11759771
72	0x3e0f6b95	0.14005883
73	0x3d5d6fd8	0.05406174
74	0x3d82bb18	0.063833416
75	0x3f0aad0e	0.5417031
76	0x3fa908e7	1.3205842
77	0x4031efee	2.7802691
78	0x3e28d797	0.16488491
79	0x3b8fecd2	0.004392245
80	0x3bfe0df3	0.0077531277
81	0x4230da53	44.213207
82	0x3f8a943d	1.0826489
83	0x430d9d72	141.61502
84	0x3db72811	0.08943189
85	0x3e339c18	0.17540014
86	0x3e955868	0.2916901
87	0x3e76ecfe	0.24113843
88	0x3e84c16c	0.2592882
89	0x3ea06b46	0.31331843
90	0x3e881ea6	0.26585883

54 f4 [1, 2]
0	0x3d51a6d8	0.051184505
1	0x3dffa7bb	0.12483164

distribution.mu.bias f4 [2]
0	0xbbd63ed5	-0.006538252
1	0x3caa7123	0.0208059

distribution.mu.weight f4 [2, 256]
0	0x3d476b81	0.048686508
1	0x3d1a0d67	0.037610438
2	0xbbc13df7	-0.0058972794
3	0x3d467751	0.048453633
4	0x3b5d1da6	0.0033739596
5	0x3d629ac0	0.055323362
6	0x3c636b5b	0.013880576
7	0xbc9ec8aa	-0.019382793
8	0xbd010313	-0.031497072
9	0x3c59ff61	0.013305516
10	0x3c438df5	0.011935701
11	0x3b8e165d	0.004336162
12	0xbc9592ea	-0.01825853
13	0xbc9d850e	-0.019228484
14	0x3c224f45	0.009906595
15	0x3be7e583	0.0070769205
16	0x3d4665b1	0.048436824
17	0xbc8202cb	-0.015870472
18	0xbc0e2dd3	-0.0086779175
19	0xbc4b3b82	-0.0124043245
20	0x3d3c4d70	0.045972288
21	0xbaeee8a3	-0.001822729
22	0x3c9770c5	0.01848639
23	0x3d0f56cb	0.03499488
24	0xbbdfc9e6	-0.006829488
25	0xbc47791b	-0.01217487
26	0x3c0f607c	0.008751031
27	0xbcd0f6f4	-0.025508381
28	0xbb7420d9	-0.0037251024
29	0xbc8a59e8	-0.016888574
30	0xbbbf52f2	-0.0058387453
31	0x3b8e4655	0.0043418803
32	0xbd21849c	-0.039433107
33	0xbc636a8f	-0.013880386
34	0xbbe415a9	-0.00696059
35	0xbb82251e	-0.00397171
36	0xbc5d35bf	-0.013501584
37	0xbc5660ea	-0.01308463
38	0x3d6b8fa6	0.05751004
39	0xbae9ef1d	-0.001784775
40	0xbca8b681	-0.020594837
41	0xbb0e5a7f	-0.002172142
42	0x3b95fdeb	0.0045773885
43	0xbaa0ff59	-0.0012283131
44	0x3b0ab797	0.0021166557
45	0x3d38be1f	0.04510319
46	0xbb98c78f	-0.004662461
47	0xbcb36cfc	-0.021902554
48	0xbbe8a1fa	-0.0070993872
49	0xbb1d27c7	-0.0023980008
50	0x3ba70e0a	0.005098109
51	0xbc490140	-0.012268364
52	0x3d00ff3b	0.031493407
53	0x3c952428	0.018205717
54	0x3c15ac00	0.009135246
55	0xbacc3b6d	-0.0015581675
56	0x3b4966a1	0.0030731338
57	0x3c2e12ba	0.010624582
58	0x3c292638	0.0103240535
59	0xbbf972d9	-0.007612568
60	0xbce7472c	-0.02823218
61	0x3c4e38a8	0.01258675
62	0xbd070f10	-0.03297335
63	0x3c00ac70	0.007853612
64	0x3c437564	0.011929844
65	0xbc82e96f	-0.01598045
66	0x3d44914c	0.04799013
67	0xbc2eb441	-0.010663093
68	0x3cb8ae01	0.022543909
69	0x3b1e5ddc	0.0024164831
70	0x3c472927	0.012155808
71	0x3b509ade	0.003183059
72	0xbbdd1d49	-0.006747876
73	0x3cf415b8	0.029795513
74	0xbbc225c8	-0.005924914
75	0x3c2ae771	0.0104311565
76	0xbb9b3709	-0.0047367853
77	0x3c9283e1	0.01788515
78	0x3c1b8ecf	0.009494497
79	0xbcc5d4aa	-0.024149258
80	0xbb08b7f3	-0.0020861595
81	0x3d0595eb	0.032613676
82	0x3b9466fb	0.004528878
83	0xbc529f72	-0.012855398
84	0x3a921370	0.0011144709
85	0xb8e6e900	-0.00011010654
86	0x3a47b24d	0.00076178164
87	0xbc9d8d5d	-0.019232446
88	0xbc675a0d	-0.014120591
89	0xbc894268	-0.016755298
90	0xbd6cab9f	-0.057780858
91	0x3cc3a0ac	0.023880325
92	0xbce34c21	-0.027746262
93	0xbb9a8a74	-0.004716212
94	0x3bfcf7a3	0.0077199503
95	0xbc5e4f9d	-0.013568786
96	0xbb9e833c	-0.0048374217
97	0x3b9eb3c8	0.004843209
98	0x3b6258df	0.0034537835
99	0x3d1b37e7	0.03789511
100	0xbb9db968	-0.004813362
101	0xbcba0511	-0.022707494
102	0x3d358810	0.044319212
103	0xbc00a72f	-0.00785236
104	0xbb955435	-0.0045571574
105	0xbc426ac9	-0.01186628
106	0xbceb547b	-0.028726807
107	0xbd1eb6cb	-0.038748544
108	0x3d25e432	0.040500827
109	0xbca3c297	-0.019990249
110	0x3c7631d5	0.015026529
111	0x3c660f08	0.01404167
112	0xba022f25	-0.00049661315
113	0xbbd2147b	-0.006411133
114	0x3bd243ee	0.0064167893
115	0xbd2297ac	-0.039695427
116	0x3d01a50f	0.031651553
117	0x3be5c909	0.0070124906
118	0x3ca46c2c	0.020071112
119	0x3d3e9e6f	0.046537813
120	0xbc71ef31	-0.0147665
121	0x3c21b68f	0.0098701855
122	0x3c322672	0.010873424
123	0x3ca656ec	0.02030512
124	0xba369a2f	-0.0006965724
125	0xbbe481ca	-0.00697348
126	0xbb6c854c	-0.0036090193
127	0x3c81926a	0.015816886
128	0x3c02ca6d	0.007982832
129	0xbc4b5105	-0.012409453
130	0x3a99af8d	0.0011725292
131	0xbc9e6c4e	-0.019338753
132	0xbcc9df4f	-0.024642615
133	0xbb9e5039	-0.0048313406
134	0xbaca04d9	-0.0015412822
135	0x3cae39ca	0.02126779
136	0xbc412c87	-0.011790401
137	0xbd184b45	-0.037181158
138	0x3b8bb461	0.004263446
139	0x3d3f7835	0.046745498
140	0x3a2e52d3	0.0006649915
141	0x3c67a89e	0.014139323
142	0x3d3df499	0.046375845
143	0x3ca9e1c1	0.02073753
144	0xbce2cae6	-0.02768464
145	0x3c12934a	0.008946249
146	0x3d069e6d	0.03286593
147	0xbbf77acf	-0.0075524817
148	0x3c504238	0.0127111
149	0xbcbf3973	-0.023342824
150	0x3c5e933e	0.01358491
151	0x3bb8e350	0.005642332
152	0x3c7bdf33	0.015373039
153	0xbcd00c03	-0.025396353
154	0xbca69ff7	-0.020339949
155	0x3cd35210	0.025795966
156	0x3c855048	0.016273633
157	0x3d2333d9	0.039844368
158	0x3ab8f8b3	0.0014112204
159	0xbd60d0c4	-0.054886594
160	0x373be67f	1.1199735e-05
161	0xbcbd0cba	-0.023077358
162	0x3c977295	0.018487254
163	0x3c096fba	0.008388454
164	0xbc0c0693	-0.008546489
165	0x3c0fd4eb	0.008778791
166	0xbcacaf97	-0.021079822
167	0xbc000690	-0.007814065
168	0xbaa284c8	-0.0012399191
169	0xbc5b5b76	-0.013388505
170	0x3ca3c828	0.019992903
171	0xbd02887e	-0.03186845
172	0x3ccb8447	0.024843348
173	0x3d55e81c	0.05222331
174	0x399c4f71	0.00029813827
175	0x3b0c6bc5	0.002142654
176	0x3ba082e6	0.004898417
177	0xbb547d59	-0.0032423346
178	0xbcfaa230	-0.030594915
179	0xbc4c3d76	-0.012465825
180	0xbbad9d19	-0.0052982685
181	0x3cc1a128	0.023636416
182	0x3cfbb3b0	0.03072533
183	0x3d061f5e	0.032744758
184	0x3d10f2b8	0.035387725
185	0x3c5facab	0.013652007
186	0x3cd553d9	0.026040958
187	0x3c8dae43	0.017295009
188	0xbcb33bbc	-0.02187907
189	0x3a6bf0f0	0.0009000441
190	0xba80893e	-0.0009806526
191	0x3c0d860e	0.008637918
192	0x3ca9593a	0.02067243
193	0x3c234ed0	0.009967521
194	0x3b432fb2	0.0029783067
195	0x3c861dfa	0.016371716
196	0x3cded51f	0.027201233
197	0xbc5a8fb3	-0.013339925
198	0x3c1e7b4d	0.009672952
199	0xbb5b21a7	-0.0033436806
200	0xbc9332c7	-0.017968548
201	0xbbbd6862	-0.0057802657
202	0x3c8ffedf	0.017577587
203	0xbb98c674	-0.0046623293
204	0x3c3f28c8	0.011667438
205	0x3c2b9401	0.010472299
206	0xbd3ce891	-0.04612023
207	0x3b4aaef6	0.0030927039
208	0x3ae7af67	0.0017676175
209	0x3c73ef5f	0.0148886135
210	0xbc689eca	-0.0141980145
211	0x3cb39aa7	0.02192433
212	0x3c1f91b6	0.00973933
213	0x3a0d5a72	0.00053922005
214	0xbbfc4934	-0.007699156
215	0x38d7fa66	0.00010298639
216	0xbceb6ea3	-0.02873928
217	0x3cf2e7e4	0.02965159
218	0xbce171c0	-0.02752006
219	0x3c8df3e4	0.01732821
220	0x3c03b711	0.008039252
221	0xbb1c3b72	-0.0023839143
222	0xbd1bb1d9	-0.038011406
223	0x3ba6dd10	0.0050922707
224	0xba0dbc60	-0.0005406793
225	0xbbcef695	-0.006316016
226	0xbcf09d78	-0.029371962
227	0x3ca8165e	0.020518478
228	0xbc1008bc	-0.008791145
229	0xbc78cffa	-0.015186304
230	0x3c0e80a1	0.00869766
231	0xbc6f5c84	-0.01460946
232	0xbd6f81a8	-0.05847326
233	0x3d373105	0.044724483
234	0x3cd8a01d	0.026443535
235	0xbd2c451c	-0.042058095
236	0x3c053954	0.008131344
237	0x3ce52941	0.027973773
238	0xbc827376	-0.015924197
239	0xbc6cf626	-0.014462983
240	0xbbc39cf9	-0.0059696403
241	0x3d883400	0.06650543
242	0x3c716017	0.014732382
243	0x3aaaaa63	0.001302075
244	0x3ce0bfd2	0.027435217
245	0x3c8e1250	0.017342716
246	0xbc6fbe61	-0.014632792
247	0xbc84aa7f	-0.01619458
248	0xbb0919a0	-0.0020919815
249	0xbb51ced1	-0.0032014141
250	0xbd29ce0f	-0.04145628
251	0xbc463494	-0.012097497
252	0x3d088f92	0.033340044
253	0xbc90c7cc	-0.017673396
254	0x3be6cff9	0.0070438352
255	0x3cba7570	0.022761077

network_body.linear_encoder.seq_layers.0.bias f4 [256]
0	0xbc1d3c35	-0.009596874
1	0x3c0550da	0.008136952
2	0x3a258a5a	0.00063148665
3	0xbaea228e	-0.0017863081
4	0x3b6b0e75	0.0035866771
5	0x3cb2e563	0.021837896
6	0x3cb9ad47	0.022665633
7	0xbac743fe	-0.0015202758
8	0xbc226038	-0.009910636
9	0x3c3e15f6	0.011601916
10	0x3cd1a8eb	0.025593242
11	0x3bfaaac7	0.007649753
12	0xbbd63470	-0.0065370128
13	0xbca94834	-0.020664312
14	0x3cd279d2	0.025692854
15	0xbbf44e8a	-0.0074556516
16	0x3ca36852	0.019947205
17	0x3c181203	0.009281638
18	0xbbb53eb0	-0.0055311546
19	0xbc1a8d06	-0.009433037
20	0x3d0b5c37	0.03402349
21	0x3c0441aa	0.008072296
22	0xbb001135	-0.0019541506
23	0xbcccbc86	-0.024992239
24	0xbb84f6b6	-0.0040577305
25	0xbce10529	-0.02746828
26	0x3cd7bf3f	0.02633631
27	0x3be94c24	0.0071196724
28	0x3c620a32	0.013796376
29	0xbc9ca14f	-0.019119887
30	0xbc806644	-0.015673764
31	0xbb44eed3	-0.0030049577
32	0x3cd0fb01	0.025510313
33	0xbb67c921	-0.0035367685
34	0x3d0cfd14	0.03442104
35	0x3cac54cf	0.021036534
36	0xbc965193	-0.018349444
37	0xbc8114c3	-0.01575697
38	0x3cec7d4e	0.028868344
39	0x3c4320ea	0.011909703
40	0x3cce7e2e	0.025206652
41	0xbae5cb1b	-0.0017531844
42	0x3cd3e90a	0.025867958
43	0x39943169	0.00028265573
44	0xbc2f18bf	-0.010687052
45	0xbc2efbed	-0.010680181
46	0x3d1e2cb3	0.038616847
47	0x3caf691d	0.021412427
48	0xbc8f67e3	-0.017505592
49	0xbc0ca5e8	-0.008584477
50	0xbc3492bc	-0.011021312
51	0x3c851194	0.016243733
52	0x3b886f58	0.004163664
53	0x3ce212ef	0.027596919
54	0xbcc4ece5	-0.024038741
55	0xbc7d08bd	-0.015443978
56	0xbb8d5dab	-0.0043141446
57	0x3c6d4d78	0.014483802
58	0xbac8af20	-0.001531098
59	0xbc65afb2	-0.01401894
60	0xbc51f4b1	-0.012814687
61	0xbcbc436d	-0.02298137
62	0x3bfba8f5	0.0076800534
63	0xbc6e439d	-0.014542487
64	0xbc8117ba	-0.015758384
65	0xbc754f34	-0.014972497
66	0x3ce27eb9	0.027648317
67	0x3b5ae57e	0.0033400948
68	0xbcf372d3	-0.029717838
69	0xbc9e32b2	-0.019311283
70	0xbb4810fe	-0.0030527706
71	0xbc3bc522	-0.011460574
72	0xbc05a4f9	-0.008157008
73	0x3bc8cde4	0.0061280597
74	0x3cd0306c	0.025413714
75	0x3c089691	0.008336679
76	0xbc20b951	-0.009809808
77	0xbb9df10b	-0.0048199943
78	0x3bf89a84	0.007586779
79	0xbbe80720	-0.0070809275
80	0x3bc6bb25	0.00606479
81	0xbc319dc9	-0.010840842
82	0x3c23db42	0.010001006
83	0xbcb04cfc	-0.021521084
84	0x3b9cbe33	0.0047834157
85	0x3cf07eb3	0.02935729
86	0xbc216779	-0.00985133
87	0x3ba37c7e	0.004989206
88	0x3b81cebc	0.0039614122
89	0x3ce6c92c	0.028172098
90	0xbcb3613c	-0.02189695
91	0xbc07a253	-0.008278447
92	0x3c534772	0.012895452
93	0xbbc6c4c1	-0.0060659354
94	0xbbbd1335	-0.005770112
95	0x3c9b5177	0.018959744
96	0x3b0cabfa	0.002146481
97	0xbccbe992	-0.024891648
98	0x3b214fb5	0.002461416
99	0x3cb30a05	0.021855364
100	0x3cc16be3	0.023611015
101	0xbc96a3ae	-0.018388595
102	0xbc97eba0	-0.018544972
103	0x3c327de0	0.010894269
104	0x3c16af23	0.009197029
105	0xbc9c7ce7	-0.019102527
106	0x3c9230a9	0.017845469
107	0x3ba0d567	0.004908252
108	0xbc5a7bfd	-0.013335225
109	0xbb2483a6	-0.0025102883
110	0xbbe7f10d	-0.007078296
111	0xbbdb566a	-0.006693651
112	0x3cd384ba	0.025820125
113	0x3ca6e71c	0.020373873
114	0x3c9e2e7e	0.019309279
115	0x3c8534ed	0.016260589
116	0xbb404846	-0.0029339953
117	0x3d3402ea	0.04394809
118	0xbcf1efc6	-0.029533278
119	0xbc95c8e7	-0.018284274
120	0x3c674473	0.014115441
121	0xbabb1b83	-0.0014275167
122	0xbbdd2795	-0.0067491033
123	0xbcae1253	-0.021248972
124	0xbcfab6cf	-0.030604748
125	0xbc4caee5	-0.01249287
126	0x3d374155	0.04474004
127	0xbb4c4d5e	-0.0031174044
128	0x3c55c251	0.013046817
129	0x3c3d88b7	0.01156824
130	0x3bb16452	0.0054135704
131	0x3c667da0	0.014068037
132	0xbcbfb749	-0.023402827
133	0x3cdb2350	0.026750237
134	0x3d5ce72f	0.05393141
135	0x3ca8c4a1	0.020601572
136	0xbbf398b6	-0.007433976
137	0xbc3b4b19	-0.011431479
138	0x3c118b14	0.008883256
139	0x3c9beef5	0.019034842
140	0x3bfac126	0.0076524196
141	0x3c605e5e	0.013694374
142	0xbcae3af9	-0.021268355
143	0x3d150f20	0.036391377
144	0x3c1642d8	0.00917121
145	0x3d01d3ea	0.031696238
146	0x3c844029	0.016143875
147	0x3c604ec6	0.013690656
148	0x3ca44e54	0.020056881
149	0xba9f80de	-0.0012169143
150	0x3c970d27	0.018438889
151	0xbcb40af0	-0.021977872
152	0xbc8c1c5d	-0.017103368
153	0xbc60e66a	-0.01372681
154	0x3c9806a3	0.018557852
155	0x3d0ce935	0.03440209
156	0xbc898ae8	-0.016789868
157	0x3c6e1119	0.014530444
158	0x3cce5315	0.025186101
159	0x3b3e9aa1	0.0029083865
160	0xbc294f10	-0.010333791
161	0xbc37c400	-0.011216164
162	0x3bc54dd4	0.0060212407
163	0x3ca1b6c5	0.019740472
164	0xbc81b8aa	-0.015835125
165	0xb9f1494b	-0.0004602171
166	0xbc7153aa	-0.01472942
167	0xbc705981	-0.014669777
168	0x3cef6106	0.029221069
169	0x3ca00ee8	0.019538358
170	0xbbfe4801	-0.0077600484
171	0xbb761ad6	-0.0037552617
172	0x3cd6240f	0.026140241
173	0xbc4d05df	-0.012513607
174	0x3c8ab9e2	0.016934339
175	0x3c2e8361	0.01065144
176	0x3ca749ec	0.02042099
177	0xbc1caef0	-0.009563193
178	0x3b8d9ee0	0.004321918
179	0xbc03f48a	-0.008053908
180	0xbbe467e4	-0.0069703925
181	0xbce39af5	-0.02778385
182	0xbcb127b5	-0.02162538
183	0xbcb33b68	-0.021878913
184	0xba086729	-0.00052033603
185	0x3bc5a61f	0.006031766
186	0xbbfb1af7	-0.0076631266
187	0xbc9ea27b	-0.019364586
188	0x3cbfb047	0.023399485
189	0x3d101c45	0.03518321
190	0x3c01eb3c	0.007929619
191	0xbc87da88	-0.016583696
192	0x3d1e38d2	0.038628407
193	0x3cbd6988	0.02312161
194	0xbc665af0	-0.014059767
195	0xbc70c97f	-0.014696478
196	0x3c25208a	0.010078559
197	0xbcb34d86	-0.021887552
198	0x3cd50812	0.026004825
199	0xbc56c9d3	-0.013109642
200	0x3c62b651	0.013837413
201	0xbc8da280	-0.0172894
202	0xbcaa6106	-0.020798218
203	0x3c647352	0.01394351
204	0x39fe4578	0.00048498414
205	0x3bdbb7eb	0.0067052743
206	0xbc85a892	-0.016315732
207	0xbc2c697b	-0.010523195
208	0xbc386489	-0.011254438
209	0xbb09c8bc	-0.0021024188
210	0xbca565cf	-0.020190148
211	0xbcdb8dc3	-0.026800996
212	0xbc7bd0be	-0.015369592
213	0x3b9bee53	0.004758635
214	0xbb7468ac	-0.0037293835
215	0x3c00bbcd	0.007857275
216	0x3c63e467	0.013909436
217	0xba3681a9	-0.000696207
218	0xbc8b813e	-0.0170294
219	0xbbb39dd9	-0.0054814634
220	0x3b9d8f7a	0.0048083635
221	0x3c54bfcc	0.012985181
222	0x3d17c1e1	0.03705013
223	0x3a381b6b	0.00070231286
224	0xbc57c737	-0.013170055
225	0x3d0ab2b8	0.033861846
226	0xbbeba62a	-0.007191439
227	0xbc0f9756	-0.008764109
228	0xbc9b84bd	-0.018984193
229	0x3c875882	0.016521696
230	0x3a90d041	0.0011048393
231	0x3c19b652	0.009381847
232	0x3c5f175a	0.013616407
233	0x3afa78c3	0.0019109476
234	0x3b28dfae	0.002576809
235	0x3bfa1df6	0.007632966
236	0xbc9999d1	-0.018750103
237	0xbbb31880	-0.005465567
238	0xbb4de36b	-0.003141607
239	0x3d12ad18	0.035809606
240	0x3c0d60e0	0.008629054
241	0x3ce6a2b6	0.028153758
242	0xbbe3342a	-0.0069337087
243	0xbbdfed54	-0.0068337116
244	0xbb5f63df	-0.0034086627
245	0xbc8b3e93	-0.016997611
246	0x3cbc7147	0.023003234
247	0xbc1c7560	-0.009549469
248	0xbba4721b	-0.0050184852
249	0x3cefc7db	0.029270103
250	0x3d1022ce	0.035189442
251	0xbc3b9a9f	-0.011450439
252	0x3abd4a4b	0.0014441697
253	0x3cab17ec	0.02088543
254	0x3cc12759	0.023578333
255	0x3a159013	0.00057053677

network_body.linear_encoder.seq_layers.0.weight f4 [256, 91]
0	0xbe7e25db	-0.24819128
1	0xbe133a4e	-0.1437771
2	0xbdfe31be	-0.12411831
3	0xbe056b05	-0.13029106
4	0xbde3fa20	-0.11131692
5	0xbd6ea648	-0.058264047
6	0x3d22e79e	0.03977167
7	0x3db04827	0.08607512
8	0xbcad56fc	-0.021159641
9	0xb9ae424f	-0.0003323727
10	0x3d989b83	0.074515365
11	0x3d5dc764	0.05414523
12	0xbd11476d	-0.035468508
13	0xbe1bf5a7	-0.15230428
14	0xbd04a428	-0.032383114
15	0xbca4c7f7	-0.020114882
16	0xbd696f09	-0.056990657
17	0xbc93409d	-0.017975146
18	0x3ccf7eab	0.025328955
19	0xbd43ffde	-0.047851436
20	0xbe18e7c3	-0.1493216
21	0x3dddf939	0.10838551
22	0xbcd3726f	-0.025811402
23	0xbe225a56	-0.15854773
24	0x3ddda124	0.10821751
25	0xbd701ad0	-0.05861932
26	0x3cbada73	0.022809243
27	0xbccdac05	-0.02510644
28	0xbd771451	-0.06032211
29	0xbd413405	-0.04716875
30	0x3da97d70	0.082758784
31	0xbd629c64	-0.055324927
32	0xbd852275	-0.06500713
33	0xbe413ead	-0.18871565
34	0xbd123805	-0.035697956
35	0xbd33aeea	-0.043867983
36	0xbe03b298	-0.12861097
37	0x3d834dda	0.064113334
38	0x3dd3a681	0.103344925
39	0xbe24a7d8	-0.16079652
40	0x3d24066f	0.040045198
41	0xbde0c50a	-0.10975082
42	0x3d267c51	0.0406459
43	0xbca7f00c	-0.020500205
44	0xbdfcf5cd	-0.1235157
45	0xbdae8e19	-0.08523197
46	0xbd9dc14c	-0.07702884
47	0xbd68801e	-0.056762807
48	0xbc1c0696	-0.009523055
49	0x3de3f268	0.1113022
50	0x3dccbd34	0.09997025
51	0x3e1d7e98	0.15380323
52	0x3e250283	0.1611424
53	0xbb08eec9	-0.002089428
54	0x3d483d2d	0.048886467
55	0xbd1734b9	-0.036915515
56	0x3e15cf97	0.1462997
57	0x3d3b4ddf	0.04572856
58	0x3e08bd60	0.13353491
59	0xbd8a29c0	-0.067462444
60	0xbdb71514	-0.08939567
61	0x3de94ab5	0.11391202
62	0xbd05994a	-0.03261689
63	0x3db2a50b	0.08722886
64	0x3c33c644	0.010972563
65	0xbe2eda57	-0.17075478
66	0xbd3b07c0	-0.045661688
67	0x3de3be6b	0.11120304
68	0x3e1b3468	0.1515671
69	0x3d562f76	0.052291356
70	0x3ccc0177	0.024903042
71	0x3c062244	0.0081868805
72	0x3e1cce61	0.15313102
73	0x3e4dfae8	0.20115244
74	0x3e2708d2	0.16311958
75	0x3e429bee	0.19004795
76	0xbd79d050	-0.060989678
77	0x3dc809d8	0.097675025
78	0x3de6f667	0.11277466
79	0xbd2d233c	-0.04226993
80	0x3d8abec4	0.06774667
81	0xbb85a5cd	-0.004078603
82	0x3ceaeb45	0.028676638
83	0x3c9ab09b	0.01888304
84	0x3db29d4e	0.0872141
85	0xbe03101e	-0.12799117
86	0x3c5967a0	0.013269335
87	0x3b80396f	0.0039130966
88	0xbc66a3be	-0.014077125
89	0xbd8dbfaf	-0.06921326
90	0xbe7c0788	-0.24612248
91	0xbde65483	-0.11246588
92	0x3cc692fb	0.024240008
93	0xbe2f86b8	-0.17141235
94	0x3da427fd	0.0801544
95	0x3dde68fd	0.10859869
96	0xbde71a36	-0.11284296
97	0xbda939db	-0.08262988
98	0x3dab54aa	0.08365758
99	0x3dfc932c	0.12332758
100	0x3c9c881f	0.019107876
101	0x3d0e7f6c	0.034789488
102	0xbdea20cf	-0.11432039
103	0x3e2b8bf5	0.16752608
104	0xbe09de96	-0.13463816
105	0xbc9e419f	-0.0193184
106	0xbd6f13b3	-0.058368396
107	0x3e108a03	0.14115147
108	0xbe4e0a92	-0.2012122
109	0x3d4983c8	0.049197942
110	0x3c9cec42	0.019155625
111	0x3d668453	0.056278538
112	0x3d950aca	0.072774485
113	0xbdb22885	-0.08699135
114	0xbdd6ed98	-0.10494536
115	0xbd170519	-0.036870096
116	0x3e6a121a	0.22858468
117	0xbd867b19	-0.06566448
118	0xbd99c893	-0.075089596
119	0x3d284d4f	0.041089352
120	0x3b533177	0.0032225528
121	0xbcd27715	-0.025691548
122	0x3dd2f6da	0.103009894
123	0xbdeb2ffb	-0.11483761
124	0x3ced4def	0.028967826
125	0xbe031b3a	-0.12803355
126	0xbdc3166a	-0.095257595
127	0x3d994a5e	0.074848875
128	0x3de98234	0.114017874
129	0xbdad0f78	-0.08450216
130	0xbdb09d92	-0.08623804
131	0xbd1461a2	-0.036225922
132	0xbd979ca1	-0.074029215
133	0x3d5960ff	0.05307102
134	0xbcc28f18	-0.023749873
135	0x3e3e34fb	0.18574898
136	0x3d754aaf	0.059885677
137	0x3dc3102c	0.09524569
138	0x3c154d15	0.009112616
139	0xbcd0966c	-0.025462352
140	0xbdf3f364	-0.119116575
141	0x3e14c6b3	0.14528923
142	0x3cbad4ed	0.022806609
143	0x3bc00b8e	0.0058607524
144	0x3e172ad3	0.1476243
145	0x3c9e5872	0.019329283
146	0xbdcd075d	-0.1001117
147	0x3e0b50e4	0.13605076
148	0x3d67f044	0.05662562
149	0x3ca0cbf7	0.019628508
150	0xbd816968	-0.06318933
151	0xbdc83cb2	-0.09777202
152	0x3e191f80	0.14953423
153	0xbdc79ca1	-0.097466715
154	0xbca50df1	-0.02014825
155	0xbdfead0d	-0.124353506
156	0x3b381975	0.0028091345
157	0xbd9666bb	-0.07343813
158	0xbdc787f8	-0.09742731
159	0x3dbf3938	0.093370855
160	0x3c56b1a2	0.013103874
161	0x3b8132ee	0.003942839
162	0xbe1ca58c	-0.15297526
163	0x3dac2724	0.08405903
164	0xbd68063a	-0.056646563
165	0xbe38f117	-0.18060718
166	0x3c28183e	0.010259686
167	0x3e0959d3	0.13413171
168	0x3e0ce016	0.13757357
169	0xbe3b0ca4	-0.18266541
170	0xbd8295eb	-0.06376251
171	0xbd5496eb	-0.05190174
172	0xbdea5870	-0.11442649
173	0x3d15368b	0.03642897
174	0x3db6c928	0.08925086
175	0x3ccacd92	0.024756227
176	0xbe22b2cb	-0.15888517
177	0xbcf6028d	-0.030030513
178	0xbc9f6770	-0.019458503
179	0x3de8987e	0.113572106
180	0x3d477c8d	0.048702765
181	0xbe1a6adb	-0.15079825
182	0xbb054552	-0.0020335508
183	0xbba00f1d	-0.004884614
184	0x3e42388a	0.1896688
185	0x3e44b857	0.19210945
186	0xbdc7805d	-0.0974128
187	0xbe2fd003	-0.17169194
188	0xbe150b1c	-0.14555019
189	0xbc89ff1a	-0.016845275
190	0x3dde6fad	0.10861144
191	0x3da5ec34	0.08101693
192	0x3e96d489	0.29459026
193	0xbdd81a2f	-0.10551869
194	0xbdd38a92	-0.103291646
195	0xbe0f4c74	-0.13994008
196	0x3db16b69	0.08663065
197	0xbd7eebfa	-0.062236764
198	0xbd725090	-0.05915886
199	0x3e0ed607	0.13948832
200	0x3de32d19	0.11092586
201	0x3d1d4e7b	0.038404923
202	0x3d71bb06	0.05901625
203	0x3e15428a	0.14576164
204	0xbdc8744b	-0.09787806
205	0x3b0b7a63	0.0021282665
206	0xbe559287	-0.20856677
207	0xbe6fe629	-0.23427643
208	0x3d5c455a	0.053777076
209	0x3d1b7727	0.03795543
210	0xbdfa1b95	-0.12212292
211	0xbdbcfc8a	-0.092278555
212	0xbe125eff	-0.1429405
213	0x3c3dbf4d	0.011581254
214	0xbb827006	-0.0039806394
215	0xbe873646	-0.26408595
216	0x3dab3cc9	0.08361203
217	0xbcc2b937	-0.023769958
218	0x3d106cf8	0.03526017
219	0xbdd509e2	-0.104022756
220	0x3e74faba	0.2392377
221	0xbcd196ba	-0.025584567
222	0x3d7c7a44	0.06164004
223	0xbdde1310	-0.1084348
224	0xbb8e2786	-0.0043382077
225	0xbd63cebd	-0.055617083
226	0x3e5d3bfe	0.21604916
227	0x3e367b43	0.17820458
228	0xbe2537a2	-0.16134503
229	0xbc14338b	-0.009045492
230	0x3de312c2	0.11087562
231	0xbdf71520	-0.12064576
232	0x3e2df78d	0.16988964
233	0xbd6ed5b0	-0.058309257
234	0x3c01b6d1	0.007917122
235	0x3e4229cf	0.18961261
236	0xbdb2681d	-0.08711264
237	0xbe72f263	-0.23725276
238	0xbe0b3455	-0.13594182
239	0x3d174b02	0.036936767
240	0xb99134fb	-0.0002769603
241	0xbdbf59bd	-0.09343288
242	0xbe35b96d	-0.17746516
243	0xbd1c7bd9	-0.038204048
244	0xbd3fc9a4	-0.04682316
245	0x3d451c62	0.04812277
246	0xbe3ae233	-0.1825035
247	0x3d8ebad9	0.06969232
248	0x3db460f3	0.08807554
249	0x3d178f2c	0.037001774
250	0x3de1cbf6	0.110252306
251	0xbd8fc3b0	-0.07019746
252	0xbd69cc53	-0.057079624
253	0x3de3d0dc	0.11123821
254	0xbc62019e	-0.013794331
255	0xbd57c9db	-0.05268274

network_body.linear_encoder.seq_layers.2.bias f4 [256]
0	0x3c56edcc	0.013118219
1	0x3afeade2	0.0019430483
2	0x3c3a39c4	0.011366311
3	0x3d14acc3	0.03629757
4	0xbcdd8928	-0.02704294
5	0x3bd3fe49	0.006469522
6	0xbae47356	-0.0017429392
7	0xbc4a9973	-0.012365687
8	0x3cd21215	0.025643388
9	0xbb892b84	-0.0041860957
10	0xbc3113bc	-0.010807928
11	0x3bb24255	0.0054400363
12	0xbc23cf57	-0.009998164
13	0x3c680340	0.014160931
14	0x3cb33794	0.021877088
15	0x3b96b595	0.004599283
16	0x3b828a22	0.003983752
17	0x3c2fec26	0.0107374545
18	0x3c8142e9	0.015778976
19	0xbc44c605	-0.012010102
20	0xbc071ecd	-0.00824709
21	0xbcadf44a	-0.02123465
22	0xbc27f955	-0.0102523165
23	0xbb8b2da2	-0.004247383
24	0xbc90bf51	-0.017669352
25	0x3bed6203	0.00724435
26	0xbcaf9aa3	-0.021436041
27	0xbc655c20	-0.013999015
28	0xbc55b907	-0.013044602
29	0xbc207a31	-0.009794758
30	0x3d2b23c0	0.04178214
31	0xbc90f8d2	-0.017696772
32	0xbbef7ed0	-0.0073088184
33	0x3b9a9afa	0.0047181817
34	0x3c16e011	0.009208695
35	0xb9f18a6f	-0.00046070243
36	0x3ca84a93	0.020543372
37	0xbc52b467	-0.012860394
38	0x3b300678	0.0026859324
39	0xbba2eeee	-0.0049723303
40	0x3cb1b5b1	0.021693083
41	0x3c542bb2	0.012949871
42	0xbc1fa50b	-0.009743939
43	0x3cc7ffad	0.024413908
44	0xbc478572	-0.012177812
45	0xbb9c14a0	-0.004763201
46	0x3c0423f3	0.008065212
47	0x3cc879d8	0.024472162
48	0xbc617895	-0.013761659
49	0xbbb40550	-0.0054937974
50	0x3cb96afe	0.022634026
51	0xbc65b2c6	-0.014019674
52	0xbc873253	-0.016503489
53	0xbc9a71f0	-0.018853158
54	0x3b414e14	0.0029496
55	0x3cd92bec	0.026510201
56	0xbcdfa701	-0.027301313
57	0x3c95b38f	0.018274097
58	0xbc6a4915	-0.014299651
59	0x3bd3f1d1	0.0064680357
60	0xb98106df	-0.00024609917
61	0x3a97ddaa	0.0011586447
62	0x3bf8f00c	0.007596975
63	0xbcce2d7f	-0.025168179
64	0xbcc919d9	-0.024548458
65	0x3cca4b59	0.024694132
66	0xbbbc3d7c	-0.005744634
67	0x3cb2432d	0.021760548
68	0xbc977e3f	-0.018492816
69	0x3cd69660	0.026194751
70	0x3cd93dd9	0.02651875
71	0x3c1650b8	0.009174518
72	0xbc4c3ae1	-0.01246521
73	0x3c0f846b	0.008759598
74	0x3c4940f5	0.012283553
75	0xbca5dfd6	-0.020248335
76	0x3c2761e6	0.010216212
77	0x3cfc8827	0.030826641
78	0x3be5f2a3	0.00701745
79	0xbc1a6530	-0.009423539
80	0x3c734f18	0.0148504
81	0x3cdeb213	0.027184522
82	0x3c46ad7a	0.012126321
83	0xbbc70ef5	-0.006074781
84	0x3c42ce36	0.011889985
85	0xbc582b30	-0.01319389
86	0xbcd808c5	-0.02637137
87	0x3c3c1a8a	0.011480937
88	0xbcae1103	-0.021248346
89	0xbc84e298	-0.01622133
90	0x3c5131c4	0.012768213
91	0x3af4203d	0.001862533
92	0x3c0be855	0.008539279
93	0x3c825eaa	0.01591428
94	0xbc6c9adc	-0.014441218
95	0xbc54f08b	-0.012996803
96	0xbc8148f8	-0.015781865
97	0x3c5b1cc9	0.013373562
98	0xbc929b77	-0.017896397
99	0x3cd51066	0.026008796
100	0xbc93e815	-0.018055001
101	0x3c6ee9ad	0.01458208
102	0x3cf78c06	0.030218136
103	0x3c90d511	0.017679723
104	0xbc9c797b	-0.019100895
105	0xbca4f84f	-0.020137934
106	0x3cc99ff3	0.024612403
107	0x3cfc7ada	0.030820299
108	0xbbf8ab59	-0.0075887856
109	0x3bc844d0	0.0061117187
110	0xbc518ee5	-0.012790416
111	0xbc99ce16	-0.018775027
112	0x3bb5ce32	0.005548262
113	0xbc86a267	-0.016434861
114	0x3cbf98d8	0.023388311
115	0xba5265ef	-0.00080260535
116	0xbc5d42a6	-0.01350466
117	0xbc9b0837	-0.018924816
118	0xbb865331	-0.0040992727
119	0xbbaccd8f	-0.005273528
120	0x3cd890d8	0.026436254
121	0xbc8ae9d5	-0.016957203
122	0xbccdb0b2	-0.025108669
123	0xbc82f7c3	-0.015987283
124	0x3bec9cda	0.0072208466
125	0xbb923780	-0.0044621825
126	0x3b3c77c0	0.00287579
127	0xbc9744b1	-0.018465372
128	0x3c82c179	0.015961396
129	0x3c200ee8	0.009769179
130	0xbc8e68b1	-0.017383905
131	0x3a3b8f4c	0.0007154837
132	0xbc7669c5	-0.015039866
133	0x3c5ec634	0.01359706
134	0xbc3fc69b	-0.011705066
135	0x3c96fa1f	0.018429814
136	0x39ad9e8c	0.00033115258
137	0x3c8020d5	0.015640656
138	0x3be04d17	0.0068451273
139	0xbc7ebbc1	-0.015547694
140	0x3c0b12f1	0.008488403
141	0xbca1f0ec	-0.0197682
142	0xbb576fa4	-0.003287294
143	0xbcc3c266	-0.023896407
144	0xbbea8ba7	-0.007157761
145	0xbc9ece5c	-0.01938551
146	0xbc473ced	-0.012160522
147	0x3ce34e7a	0.027747381
148	0xbc53dd8c	-0.012931239
149	0x3c1d24c0	0.009591281
150	0x3bc7acfe	0.0060936203
151	0xbc4f1b1f	-0.0126407435
152	0xb95a892e	-0.00020841204
153	0x3c75de50	0.015006617
154	0x3c100c50	0.008791998
155	0xbbb3c69d	-0.005486323
156	0x3c54bf17	0.0129850125
157	0x3d0e1b49	0.03469399
158	0xbc13ad82	-0.009013535
159	0x3cc6759c	0.024226002
160	0x3c537cc5	0.012908165
161	0xbc01c2b8	-0.00791996
162	0x3c0ffc86	0.008788234
163	0x3b2334c3	0.0024903275
164	0x3c1de929	0.009638109
165	0x3ceee88e	0.029163625
166	0x3c518b85	0.012789612
167	0xbc984f50	-0.018592507
168	0x3bb62280	0.005558312
169	0x3ca43223	0.020043438
170	0xbb85438b	-0.0040668896
171	0x3c9ae0e5	0.018906066
172	0xba97fb9e	-0.0011595374
173	0xb991823f	-0.00027753596
174	0xbc3fa317	-0.0116965985
175	0x3cb72bc5	0.022359738
176	0xbaf10f1c	-0.0018391344
177	0x3c3da209	0.011574277
178	0x3bee2735	0.0072678574
179	0x3c84a85e	0.016193565
180	0xbbf3c40f	-0.0074391435
181	0x3aba1b0e	0.0014198737
182	0xbc5c8e9e	-0.013461737
183	0xbc57409c	-0.013137963
184	0xbb1e8211	-0.0024186412
185	0x3cf61981	0.030041458
186	0xbc450660	-0.012025446
187	0xbcbe1fcb	-0.02320852
188	0x3c97215b	0.018448522
189	0x3c865249	0.016396658
190	0xbc5109ae	-0.0127586555
191	0x3c0c9fa4	0.008582983
192	0xbc96e3ef	-0.018419234
193	0x3c09f6db	0.008420671
194	0xbca39f42	-0.019973401
195	0xbcb0a0fb	-0.021561136
196	0xbc3ecb3f	-0.011645137
197	0xbc9525e1	-0.018206539
198	0x3b8bd2e1	0.004267082
199	0xbca21916	-0.019787353
200	0xbc8578a2	-0.016292874
201	0xbcdf855e	-0.027285274
202	0x3b3050b0	0.0026903562
203	0xbb268c30	-0.0025413148
204	0xbbda0d7c	-0.0066544395
205	0x3c15e6c9	0.009149262
206	0x3b2865af	0.0025695374
207	0xba739f8f	-0.00092934904
208	0xbcfab78d	-0.030605102
209	0xbc846f42	-0.016166333
210	0x3c82a029	0.015945511
211	0xbc928ade	-0.017888483
212	0xbc8c50ff	-0.017128466
213	0x3c3293b0	0.010899469
214	0x3c5c8d25	0.013461386
215	0x3c81bf68	0.01583834
216	0x3c9c84bd	0.019106263
217	0xbc825ea3	-0.015914267
218	0x3c74afc3	0.014934483
219	0x3b684aad	0.00354449
220	0xbbdc4550	-0.00672213
221	0x3d0a0f82	0.033706196
222	0x3c8925cd	0.016741658
223	0x3cec927c	0.028878443
224	0x3c505706	0.0127160605
225	0xbca223b2	-0.019792411
226	0xbc53e3f6	-0.012932768
227	0xbc3c6bdc	-0.011500325
228	0x3c3f966e	0.01169358
229	0xbc878fab	-0.016547998
230	0xbcd07d05	-0.025450239
231	0x3cbc1a83	0.02296186
232	0x3b243fd6	0.0025062463
233	0x3ca37694	0.019954003
234	0xbbbdd345	-0.0057930076
235	0x38bb4b9f	8.9309404e-05
236	0x3d16b307	0.036791828
237	0x3cea66b2	0.028613422
238	0x3cd72fc4	0.026267894
239	0xbc39c8be	-0.011339365
240	0x3affe8da	0.0019524351
241	0x3bd67751	0.0065449853
242	0x3ba3e10b	0.0050011924
243	0xbc83bdfa	-0.016081799
244	0xbc6b1ebc	-0.014350589
245	0xbacebfcb	-0.0015773711
246	0x3b94f580	0.0045458674
247	0xbb73e976	-0.003721801
248	0xbc93fc9b	-0.018064788
249	0xbc6f5e46	-0.014609879
250	0x3cb267ea	0.021778066
251	0x3b207a12	0.0024486822
252	0x3c717f74	0.01473986
253	0xbb4b90ed	-0.0031061724
254	0xbc28383a	-0.010267312
255	0xbb9ac38d	-0.0047230185

network_body.linear_encoder.seq_layers.2.weight f4 [256, 256]
0	0xbd8968e9	-0.06709463
1	0xbd5c0666	-0.05371704
2	0x3c93bd53	0.018034613
3	0x3a888f67	0.0010418714
4	0xbd5baf63	-0.05363406
5	0x3d622d40	0.055218935
6	0x3d38b601	0.045095447
7	0xbe398617	-0.18117557
8	0xbd66d5ac	-0.056356117
9	0xbcf06e4b	-0.029349467
10	0xbcf01b79	-0.029309975
11	0x3d838fbf	0.06423902
12	0xbdc19e30	-0.09454
13	0xbe2155f0	-0.15755439
14	0xbc197df6	-0.00936841
15	0x3c9504e3	0.018190807
16	0x3d0869d1	0.03330404
17	0xbe06c937	-0.13162695
18	0x3d1741ac	0.036927864
19	0x3dadfbf7	0.08495324
20	0xbdf2ddee	-0.11858736
21	0xbdd6c1ed	-0.10486207
22	0xbdd4e9a7	-0.10396128
23	0xbcbe63e6	-0.023240995
24	0xbc714c5f	-0.014727681
25	0x3cf877fa	0.030330647
26	0x3d9114c5	0.070840396
27	0xbc272b5e	-0.010203211
28	0xbda81d21	-0.08208681
29	0x3dfc4831	0.12318457
30	0xbc9862ef	-0.018601863
31	0xbd8a4d40	-0.067530155
32	0xbbde82db	-0.0067905015
33	0xbc4edd1c	-0.012625959
34	0xbd8a6f65	-0.06759528
35	0xbdcd6939	-0.10029835
36	0xbca423f5	-0.020036677
37	0xbcbfa3ad	-0.023393476
38	0x3db3f83b	0.087875806
39	0xbe257f80	-0.16161919
40	0xbcdff3f9	-0.027338015
41	0xbd1d3862	-0.03838385
42	0x3dc51453	0.09623017
43	0x3e1005e5	0.14064749
44	0xbc4a7ba0	-0.012358576
45	0xbdf3a974	-0.11897555
46	0x3db759cb	0.089526735
47	0x3c54e8fd	0.012995002
48	0xbd666952	-0.056252785
49	0x3c658c34	0.014010478
50	0x3c42e9bb	0.011896546
51	0x3c86e616	0.016467135
52	0xbe173118	-0.14764822
53	0x3c8d4972	0.017246936
54	0xbca00a3d	-0.019536132
55	0x3d498201	0.049196247
56	0xbdb28d15	-0.087183155
57	0xbde484a0	-0.11158109
58	0xbcca2eab	-0.024680456
59	0xbcb1c5f1	-0.021700831
60	0xbc9f87f0	-0.019474
61	0x3d08efa3	0.03343166
62	0x3caeb1e0	0.021325052
63	0x3d1b4701	0.03790951
64	0x3bb0aa81	0.0053914194
65	0x3d25c507	0.040471103
66	0x3db1887a	0.08668609
67	0xbbcfee80	-0.00634557
68	0xbc43458a	-0.011918435
69	0xbd1d00e7	-0.03833094
70	0xbe073ad8	-0.13206041
71	0xbde16b6e	-0.11006819
72	0xbd128e24	-0.035780087
73	0x3cf4c004	0.029876716
74	0xbd43cba6	-0.047801636
75	0x3e49776c	0.19674462
76	0xb7f641f5	-2.9356199e-05
77	0xbda12384	-0.07868102
78	0xbc7249dd	-0.014788118
79	0x3d8e094d	0.06935368
80	0xbe35aa0d	-0.1774065
81	0xbdebfa1d	-0.11522315
82	0xbdeee419	-0.116646
83	0x3b8bb1f2	0.004263156
84	0x3b768f77	0.0037622133
85	0x3d82b0e3	0.06381395
86	0xbc57b355	-0.013165315
87	0xbacc7225	-0.0015597983
88	0xbd03b8c7	-0.03215864
89	0x3b759770	0.0037474297
90	0x3d19cda1	0.03754962
91	0xbdbbe13c	-0.091738194
92	0xbdc163ca	-0.094428614
93	0xbd0accaa	-0.03388659
94	0xbc5a917e	-0.013340352
95	0x3badeeef	0.005308024
96	0x3d848f62	0.064726606
97	0x3d2ee67c	0.042700276
98	0x3da6dc9a	0.08147545
99	0xbdad0f5f	-0.084501974
100	0x3db3d959	0.0878169
101	0xbcf60809	-0.030033128
102	0x3d54dba7	0.05196729
103	0xbcdef490	-0.027216226
104	0x3db3e1ed	0.08783326
105	0xbdb6e420	-0.0893023
106	0xbdbd84f8	-0.092538774
107	0xbd82d71c	-0.06388685
108	0xbd268ba3	-0.04066051
109	0xbd93d3e6	-0.07218151
110	0xbd846a32	-0.06465568
111	0xbbb34c1c	-0.0054717194
112	0xbcb54720	-0.022128642
113	0x3d97af9a	0.0740654
114	0xbc821ce5	-0.015882919
115	0xbd9f4813	-0.07777419
116	0xbcaa6f85	-0.02080513
117	0x3bfb31c0	0.007665843
118	0x3c57bbfd	0.0131673785
119	0xbd904e1c	-0.07046148
120	0x3e22f934	0.15915376
121	0x3dab806f	0.08374106
122	0x3d2e45cb	0.04254703
123	0xbd7cac17	-0.061687555
124	0x3d3628e2	0.044472583
125	0x3d948a49	0.07252938
126	0xbdbde569	-0.09272272
127	0xbd131897	-0.035912123
128	0xbd4528bf	-0.04813456
129	0x3c56dd40	0.013114274
130	0x3d62c9fe	0.055368416
131	0x3dad89e5	0.08473567
132	0xbd6c2649	-0.0576537
133	0x3e02caa7	0.12772618
134	0xbdc4a950	-0.09602606
135	0x3d87f6ba	0.06638856
136	0x3c0565ee	0.008141978
137	0xbcd748a1	-0.02627975
138	0xbdd4fa0f	-0.103992574
139	0xbd424e73	-0.047438096
140	0x3d163c00	0.036678314
141	0xbdbe66c6	-0.09296946
142	0x3cba96fe	0.022777077
143	0xbb5e0f4d	-0.0033883632
144	0x3da1c5d4	0.07899061
145	0x3cfd4606	0.030917179
146	0x3db01343	0.08597424
147	0x3b347e59	0.002754113
148	0x3d533407	0.05156329
149	0x3de834c2	0.11338188
150	0x3d3edf13	0.04659946
151	0xbcff8829	-0.031192856
152	0x3d587f1b	0.052855592
153	0xbdb214fe	-0.0869541
154	0x3cda08f8	0.026615605
155	0xbd57709a	-0.05259762
156	0x3d7fcdf3	0.062452268
157	0xbdf993b9	-0.12186379
158	0xbd8ae7d1	-0.06782497
159	0x3bd0aacd	0.0063680173
160	0xbd827859	-0.06370611
161	0x3d2a3a33	0.04155941
162	0x3cea95c2	0.028635863
163	0x3d0d3825	0.03447737
164	0xbb06f744	-0.002059416
165	0x3d5d15d4	0.053975895
166	0x3c86e810	0.016468078
167	0xbca785b8	-0.020449504
168	0xbdc3ac90	-0.09554398
169	0x3d636b10	0.055522025
170	0xbe1cf84e	-0.15329096
171	0x3daece82	0.08535482
172	0xbdf633d2	-0.12021603
173	0xbd255f6b	-0.0403742
174	0x3b7b7e32	0.0038374779
175	0xb9ad267b	-0.00033025802
176	0x3cf61fcd	0.03004446
177	0xbca35f92	-0.019943032
178	0x3c399ace	0.011328412
179	0xbda93cf4	-0.08263579
180	0x3da07c01	0.07836152
181	0xbc991ed0	-0.01869145
182	0xbcb3cbcf	-0.02194777
183	0x3c860d6c	0.016363822
184	0x3d127bf3	0.03576274
185	0x3dad34ba	0.084573224
186	0x3d556cb5	0.052105624
187	0xbda3355d	-0.079691626
188	0xbd803e22	-0.06261851
189	0x3d66b194	0.056321695
190	0x3d21d0bc	0.039505705
191	0xbc1390f5	-0.009006728
192	0x3cae0da0	0.021246731
193	0xbd6aa6fe	-0.057288162
194	0xbe0a5eb0	-0.13512683
195	0xbd4b28df	-0.049599525
196	0xbd045435	-0.03230687
197	0xbd338964	-0.043832198
198	0xbe0376b3	-0.12838249
199	0x3d66a6ca	0.056311406
200	0x3e20d2b2	0.15705374
201	0x3de94694	0.11390415
202	0x3cd12bb2	0.02553353
203	0xbd0dc134	-0.03460808
204	0xbced7bfa	-0.02898978
205	0x3d5ccb56	0.053904854
206	0x3d14a6f3	0.036292028
207	0xbe013d25	-0.12620981
208	0xbcfc6d5f	-0.030813871
209	0x3d8ac88f	0.06776535
210	0xbccc347c	-0.02492737
211	0x3d9dcda2	0.07705237
212	0x3e09b71a	0.13448754
213	0x3e7fd96a	0.2498528
214	0x3d37dd4b	0.044888776
215	0xbcf8c390	-0.030366689
216	0xbdbb41d4	-0.09143415
217	0x3d120591	0.03564984
218	0x3d6c065e	0.05762326
219	0xbd91cca3	-0.071191095
220	0xbb749992	-0.003732298
221	0x3d530ffa	0.05152891
222	0x3e1a8bad	0.15092345
223	0x3c2a17d7	0.01038166
224	0xbcd5f0e9	-0.026115851
225	0xbc8b3ab5	-0.016995767
226	0xbd8d96c3	-0.06913521
227	0xbdb4b659	-0.088238426
228	0x3aeb3c96	0.0017947133
229	0xbc64336d	-0.0139282765
230	0x3d94dd9e	0.072688326
231	0xbc6bf805	-0.014402394
232	0xbc8a2317	-0.016862435
233	0x3b4023a1	0.0029318111
234	0xbd9ce308	-0.0766049
235	0xbb90d858	-0.0044203214
236	0xbddb2528	-0.10700446
237	0x3d8a2d79	0.067469545
238	0xbd86ffa4	-0.06591728
239	0xbe099836	-0.1343697
240	0xbd4b9ac0	-0.049708128
241	0xbc89ac9e	-0.016805943
242	0x3d93d1b6	0.072177336
243	0xbd13d1cd	-0.036088753
244	0xbddc2fa9	-0.10751278
245	0xbd187558	-0.037221283
246	0x3d16c6a3	0.03681053
247	0xbdca1036	-0.09866373
248	0x3dfabe7b	0.122433625
249	0x3a776579	0.0009437423
250	0xbcb8f622	-0.022578303
251	0x3d9ff33b	0.078100644
252	0x3bb37fbd	0.005477874
253	0x3e4c74d1	0.19966437
254	0x3d8d9318	0.069128215
255	0x3d9a18b9	0.07524247

network_body.vector_processors.0.normalizer.running_mean f4 [91]
0	0x3f7af635	0.9803193
1	0x383f14e3	4.55574e-05
2	0x390f4fa5	0.00013667213
3	0x3c9f9b99	0.019483374
4	0x3e4e40ce	0.20141909
5	0x3f72a770	0.9478674
6	0x3c1ebcae	0.009688539
7	0x39e6e3eb	0.0004403883
8	0x3d2bfc62	0.041988738
9	0x3ecbad77	0.3978078
10	0x3f707d13	0.9394085
11	0x3c227812	0.009916322
12	0x39a73244	0.00031890173
13	0x3d4e324c	0.050340936
14	0x3ecd1ba9	0.40060166
15	0x3f6ff0c6	0.93726766
16	0x389f3c12	7.5929e-05
17	0x38deedb1	0.000106300584
18	0x3d801265	0.062535085
19	0x3e71c450	0.23610044
20	0x3f5b4b2a	0.85661566
21	0x3c421139	0.0118449265
22	0x396eda21	0.00022778708
23	0x3e0662a3	0.13123564
24	0x3ee76bd5	0.45199457
25	0x3f6e51ca	0.9309355
26	0x3c24f507	0.010068185
27	0x39af2878	0.00033408753
28	0x3d6fd8dd	0.058556426
29	0x3ecfd527	0.4059231
30	0x3f74b8e4	0.9559462
31	0x387ec67d	6.0743176e-05
32	0x396eda1e	0.00022778704
33	0x3d33337b	0.043750267
34	0x3e359f4c	0.17736548
35	0x3f6e719f	0.9314212
36	0x3c257465	0.010098551
37	0x389f3c0e	7.592897e-05
38	0x3d6e7a96	0.058222376
39	0x3ee15ff4	0.4401852
40	0x3f6f6f5e	0.9352931
41	0x3c5bb19e	0.013409046
42	0x395eedba	0.0002126013
43	0x3d4d9308	0.050189048
44	0x3edf743e	0.43643373
45	0x3f60db55	0.87834674
46	0x389f3c0f	7.5928976e-05
47	0x390f4fa9	0.00013667218
48	0x3df8adf8	0.12142557
49	0x3e79cd99	0.24394836
50	0x3f61eb0c	0.8824928
51	0x3c273247	0.010204858
52	0x389f3c0e	7.592897e-05
53	0x3ddb81de	0.107181296
54	0x3ef05996	0.4694335
55	0x3f533a1c	0.8251054
56	0x3c5d6f8d	0.013515365
57	0x387ec67b	6.074317e-05
58	0x3e2524c7	0.1612731
59	0x3f0049ab	0.5011241
60	0x3f634069	0.8877016
61	0x3d37eda6	0.044904374
62	0x3a56f77b	0.00082003296
63	0x3d88503f	0.06655931
64	0x3efc8f16	0.49327916
65	0x3f4599dc	0.77187896
66	0x3e3cb3cd	0.18427964
67	0x3f0e6ac7	0.5563168
68	0x3b5632af	0.0032684018
69	0x3cb7a612	0.022418056
70	0xbaaff43f	-0.0013424231
71	0x3f7bf99b	0.9842774
72	0x3d3a2c15	0.045452196
73	0xbb88f854	-0.0041799936
74	0x3f7c4dce	0.9855622
75	0x3cae7eba	0.021300662
76	0xbe2d5f9e	-0.16931006
77	0x4000a3d5	2.0099995
78	0x42293216	42.298912
79	0x3f051dbb	0.5199849
80	0x3fdc27bd	1.7199627
81	0x42aa7cd5	85.24381
82	0x3edd80a1	0.432622
83	0xc197329a	-18.899708
84	0x3abf4f06	0.0014595694
85	0x3a067d92	0.0005130406
86	0xbb07bece	-0.0020713094
87	0x3f702285	0.9380267
88	0x3f6d72d8	0.9275336
89	0x3f63c1be	0.889675
90	0x3f6c6922	0.9234792
