Assets/ML-Agents/mla-1.0.6/results/carchase02/CarAgent/CarAgent-2499953.onnx (onnx, 362126 bytes, 9 tensors)

53 f4 [91]
00000000: 2638 c43e b1db f63c 73d9 af3b 70cf c33e
00000010: e5b9 9f3e 217a f33e 8969 2b3e 91c4 1b3c
00000020: 9326 ee3e d58f 983e 36ae c03e b784 4a3e
00000030: b6ec c83b e929 ac3e 8405 633e 37dc ca3e
00000040: 0a70 d93c fcfd c93b db90 ca3e f176 a43e
00000050: 2062 e53e cf2c 433e 76b1 c53b 07bb da3e
00000060: 4568 8d3e 6283 d33e d44f 323e 80f6 313c
00000070: e998 c73e 4906 813e 4ae3 553e c50c 083d
00000080: 33d5 013c 593f 533e 41c5 363e c958 c23e
00000090: 1e3a 853e 652b 123c 8692 9a3e 262b 513e
000000a0: 640d d43e 3a28 8a3e 2276 ea3b 2f0f b23e
000000b0: 8be5 693e 1367 923e b01b 1c3d b12f c03b
000000c0: 4e4d 913e 9587 7a3e 489b c43e ae29 8a3e
000000d0: 6b68 c23b 5d03 9a3e 705c 4d3e d1e6 e03e
000000e0: a154 8d3e 4d0d cb3b e0d3 c33e eb88 7d3e
000000f0: 3d71 e73e 51a4 a43e 37dc 533d b87a fb3e
00000100: 059c c83e 582b eb3e 035b f63e 687e 9c3e
00000110: 9669 4b3d 5fc3 c43e 927e 873d 43c3 f33d
00000120: d428 213f 3043 7a3d 26df a73e d2d9 213f
00000130: ab4e 753f 318f 683f e980 db3c efde 3a3a
00000140: 52ee a43a aaf0 4342 72b6 443f 6e7f dc42
00000150: 4684 ce3d 4bf4 813d 2114 253e 058f c13e
00000160: 9837 bd3e 4b22 d63e d655 a53e
0.38324088 0.030134054 0.005366498 0.382442 0.31196514 0.47554114 0.16739477 0.009507314
0.46513805 0.29797235 0.37632912 0.19777189 0.006131734 0.33625725 0.22170073 0.39621136
0.026542682 0.0061643105 0.3956364 0.32121995 0.44801426 0.19060062 0.006033118 0.42720816
0.27618614 0.41311175 0.17413265 0.010861993 0.3898385 0.25200108 0.20887485 0.033215303
0.007924366 0.20629634 0.17848684 0.37958363 0.26020902 0.008921479 0.30189914 0.20426616
0.41416466 0.26983815 0.007155196 0.3477721 0.2284147 0.28594264 0.038112342 0.0058650603
0.2837929 0.24465783 0.3839972 0.26984924 0.0059328577 0.3008069 0.20054793 0.439261
0.2760363 0.006196654 0.38247585 0.24759261 0.4520358 0.32156613 0.051723685 0.49117064
0.39181533 0.45931506 0.4811631 0.3056519 0.04966124 0.38430306 0.06615938 0.119024776
0.62952924 0.06109923 0.32787436 0.6322299 0.9582316 0.9084349 0.026794868 0.00071285566
0.0012583232 48.985023 0.7684089 110.248886 0.10083823 0.06345423 0.1612096 0.37804428
0.36956477 0.41823038 0.3229205

54 f4 [1, 2]
00000000: 8a78 2abf 0a74 a9bf
-0.6659018 -1.3238537

distribution.mu.bias f4 [2]
00000000: 5280 85bc 4958 273d
-0.01629654 0.04085568

distribution.mu.weight f4 [2, 256]
00000000: af17 863d b64f 213d 9e83 19bd 649a 05bc
00000010: 40ab 0ebd 0fbc 283d 9819 3dbc c103 d0bc
00000020: d008 10bb 3bd9 053d f32a 35bd 9cc2 9a3c
00000030: 8be3 093d a347 37bb 4628 d9bc 6075 0e3b
00000040: e5be 2abd f2cc 5b3c 632f f4bc 5990 c6bb
00000050: 5a45 823b 14f6 ae3c e532 a0bc 1aa7 483c
00000060: cd3b 4ebc 83f5 713c 138e d1bb 400c fd3b
00000070: a1c8 113b a4c4 a9bc b9d9 5b3c 58a8 92bc
00000080: a9c0 17bc ae6a 0cbc 262f a2bc 4138 87bc
00000090: 2e83 58b9 b701 19bd 85c0 bdbc 173c 013c
000000a0: fc60 3bbc 506a 8b3c 07f9 f73c d8a3 cd3c
000000b0: e08f 5fbb 44cf 223b a1ba 50bd b19e 3bbc
000000c0: 96fc 623d e80f eeba 432c 6ebc a63c e13b
000000d0: 5c90 07bd 8e3a 293c a1be 65bc ff9c 2fbd
000000e0: 9aad e7bc 1c77 713c 2b2a 1d3d 21f1 26bc
000000f0: b253 ed3c 7f1e 58bd 2e7f e9bb 0a16 5c3c
00000100: 26f0 e13c 4da3 073d 2257 d4bc 099c 25bc
00000110: b274 f5bb 6b7d e2bc b595 eabc 624e 02bd
00000120: c75b ec3c 1f38 5ebd 3e72 4b3d 0ee4 a23c
00000130: ffca a7bc 18b8 cbbc 2909 05bd d039 39bc
00000140: b10f 803c e235 2dbd ed08 083d b09a 403b
00000150: 7034 d33c d8e5 1d3a c18e 43bd 3dbf 883c
00000160: 7ecf 3dbd 85dd efbc 896e 19bd a0e7 d1bc
00000170: 181d cabb eff0 893c ae4f 8ebc 8698 90bc
00000180: 592b 31bd 3d0b d63a e36d 61bd c37c 05bc
00000190: 8404 10bb 1ce0 f23c ade3 a43c 318d 0cbd
000001a0: 9dda af3a d906 01bd 04dc f73c 31ea 35bc
000001b0: bda7 9ebb e26e 14bd 993a 01bd fb44 f7ba
000001c0: 7835 9abb 087b b0bc 4356 31bc f026 093b
000001d0: 870e 603c 6565 7b3d e8cb f73b 0edf c13c
000001e0: fba3 923c a8e0 d8bc 9caf 24bc e896 43bc
000001f0: 82db 9ebb b879 27bc 908f 913b 26f0 cbbc
00000200: 386f 893c c09c efbc 313c 153c 68ee 2f3d
00000210: 1081 193d f8ee f7bb 8bb5 d43c 8cdb 85bc
00000220: e12a f4bb 245a 88bc e294 d83c 3b7d 19bc
00000230: fb57 2a3d 3e48 67bd 4319 5c3a fbba e93b
00000240: 89c1 1b3d 284c 863c a620 b0bc 1abd 6cbd
00000250: ba9d 68bc 2d2d 33bd b829 23bd c4c1 013c
00000260: 0417 6c3b b381 cdbc 2b61 55bd 4ca1 45bd
00000270: 33bf 4cbd de4c 8abc 9dbb 66bd ad7f 573b
00000280: e93f f33b 389c eebc 05d9 11bb 553b 313c
00000290: b31a 1bbd 8a9f abbc 7857 a4bc 00a6 ebbc
000002a0: 3479 893c d887 57bc 6c17 903c 8cb9 24bd
000002b0: f9c3 c03b d197 3abc 3603 a2bc 0ce8 613c
000002c0: 1bc2 0bbc 0056 12bd 2de8 a23c 5f43 83bc
000002d0: 9cdb 0ebd 494d 8d3a 1871 37bc 9026 18bd
000002e0: 217d 13bd 960e 2fbc 0920 29bd 273a dcba
000002f0: f0e4 0bbd ab58 0fb8 af56 5cbd e612 d5bc
00000300: decf 243d 7db2 46bd 8750 d7bc e28d 023d
00000310: c51f a2bc 9ba8 e93c 30fe 0ebd b704 83bc
00000320: b615 35ba 44ef fabc 8e83 36bc c077 3b3c
00000330: 5420 153d 74d3 203d 3844 b3ba 41fa 053d
00000340: 14b9 8abb 6327 c7bc 7a78 12bd 1771 0cbc
00000350: 636d ac3c 5593 83bc 6ada eebc e7fb f6bb
00000360: 7970 12bb cc0c c2bc 2ab5 9ebc 684d d33c
00000370: e56e 1e3d 7bea dcbb a057 1d3d 55e7 c338
00000380: 010d 663d 9b80 d3bc 46f6 933c bdb4 d43c
00000390: 7c97 8c3c d077 1bbd 6f17 4dbb b989 cb3b
000003a0: 4972 93bb 3de3 33bd 0147 5bbc 0293 453c
000003b0: 0333 ee3c 80ba 6bbc 5312 3bbb 985c 9e3c
000003c0: 8d3c 593d 1f5b 113d d223 42bd 6af8 79bc
000003d0: 2aeb 1d3c 5488 debc 7c61 a43b dca7 43bc
000003e0: 653e cbbc 032a 8bbc 6a2e f63a d490 5bbd
000003f0: 3a9a 64bc 235d 923c ffe0 1bbc 7982 2bbd
0.06547486 0.03938266 -0.037479036 -0.008154485 -0.034831285 0.04119497 -0.011541747 -0.025392415
-0.002197791 0.03267787 -0.044230413 0.018891625 0.033664268 -0.0027966283 -0.026508462 0.0021737441
-0.041685957 0.013415562 -0.029807752 -0.006059688 0.0039755525 0.021357574 -0.019555518 0.012246871
-0.0125875 0.014768007 -0.0063951104 0.0077224076 0.0022244828 -0.020723648 0.013418608 -0.017902538
-0.009262242 -0.008570356 -0.019797873 -0.016506316 -0.00020648233 -0.03735515 -0.02316309 0.007887862
-0.011436697 0.017018467 0.030270113 0.02510254 -0.0034112856 0.0024842778 -0.050959233 -0.011451409
0.055416666 -0.0018162699 -0.01453692 0.006873685 -0.033096656 0.010328902 -0.0140225 -0.042874333
-0.028281022 0.014737871 0.038370293 -0.010189326 0.028970573 -0.05276346 -0.0071257567 0.013432989
0.027580332 0.03311472 -0.025920454 -0.010108002 -0.007490718 -0.027647695 -0.028635839 -0.031813033
0.028852357 -0.05425274 0.049669497 0.019884136 -0.020482538 -0.024868056 -0.03247944 -0.0113052875
0.015632482 -0.042287715 0.033211637 0.0029389076 0.02578184 0.0006023324 -0.047743563 0.016692752
-0.046340458 -0.029280433 -0.03745893 -0.025623143 -0.006168019 0.016838519 -0.017371979 -0.017650854
-0.04325423 0.0016330254 -0.055036437 -0.008147421 -0.0021975348 0.02964788 0.020128096 -0.034314338
0.0013416592 -0.03150067 0.030256279 -0.011103199 -0.0048417733 -0.03623856 -0.031550024 -0.0018865162
-0.004706081 -0.02154304 -0.010823789 0.002092775 0.013675339 0.061375994 0.0075621493 0.023665931
0.017900458 -0.026474312 -0.010051634 -0.011937834 -0.0048479447 -0.010221891 0.004442163 -0.024894785
0.016776666 -0.029249549 0.009108589 0.04295197 0.0374766 -0.007566329 0.025965473 -0.01634004
-0.0074514006 -0.016644545 0.02643818 -0.009368236 0.04158781 -0.05646538 0.0008396098 0.0071328855
0.038026366 0.016393736 -0.021499943 -0.05779753 -0.014197761 -0.043744255 -0.039834708 0.0079197325
0.003602446 -0.02508626 -0.05209462 -0.048249528 -0.04998703 -0.016882356 -0.056331266 0.0032882497
0.00742339 -0.029127225 -0.0022254598 0.0108173685 -0.03786726 -0.020950098 -0.02006124 -0.028765678
0.016781427 -0.013154946 0.017589293 -0.040216014 0.0058827368 -0.011388735 -0.019776922 0.013788234
-0.008530165 -0.035726547 0.0198861 -0.016023336 -0.034877405 0.0010780479 -0.011196397 -0.03714615
-0.036008004 -0.01068463 -0.041290317 -0.0016801999 -0.03415388 -3.4176435e-05 -0.053793605 -0.026009988
0.0402373 -0.048510063 -0.026283516 0.03187359 -0.01979054 0.02852278 -0.03491038 -0.01599346
-0.0006907837 -0.030631669 -0.0111397635 0.011442125 0.036407784 0.039264157 -0.0013676947 0.032709364
-0.004233489 -0.024310773 -0.035759427 -0.008571885 0.021048253 -0.016061464 -0.029156882 -0.0075373533
-0.002234487 -0.023687743 -0.019373495 0.025793746 0.038679976 -0.0067418194 0.038413644 9.3414135e-05
0.056164745 -0.02581816 0.018061768 0.025965089 0.017162077 -0.03795606 -0.0031294485 0.006211486
-0.004499708 -0.043917883 -0.013383628 0.012058975 0.029077059 -0.014387727 -0.0028544858 0.019331262
0.05303626 0.03548729 -0.047397442 -0.01525698 0.009638587 -0.027164616 0.005016504 -0.011941876
-0.024810025 -0.016987806 0.0018782143 -0.053604916 -0.013952786 0.017866677 -0.0095140925 -0.041872475

network_body.linear_encoder.seq_layers.0.bias f4 [256]
00000000: f296 29bd 0487 e8bd f458 083c 4fe2 b7bd
00000010: 8e12 edbc 8fa9 adbc 5bf8 f3bc 3883 703d
00000020: d94f 0fbc 1ecc 4e3d 8698 4d3d 5e76 a7bd
00000030: e108 48bc 834f 553d dde3 13bd 4ec5 053d
00000040: 935c 69bd 71f4 69bd 7c96 89bd c945 76bd
00000050: a558 c53d 82b8 aebd 07ad 6d3d 44ac 603c
00000060: 0454 02bd c68d a4bb dd9f 3b3d b8b0 c2bd
00000070: ff65 2cbd 4305 7c3d 47bd cbbd 6cd4 f4bd
00000080: 6d73 8e3c 9008 4abd 99a4 3b3d 96b2 603d
00000090: a6e6 95bd 12e3 183d 3237 513b c1cf 60bc
000000a0: 1770 17bd 1331 fabc 4ee7 8fbc 1c02 30bd
000000b0: 6bbe e93d 9867 763c 00fc 5abd 7399 1abd
000000c0: 6f9e 86bd fff7 f1bc 3b53 c43c 2ef5 7c3b
000000d0: da89 873d 287f 23bd d51b 80bd 1b39 09be
000000e0: d87c e3bc eceb ab3d 2af9 9c3c 7d13 69bd
000000f0: c8e1 52bd a3aa bdbd fca3 9e3c aee4 4dbd
00000100: 419d 263d 67f2 b73c 2786 8ebc fa2a 1cbc
00000110: 57b8 19bd 7803 c6bc 86b1 b63d 4888 da3c
00000120: c927 b83d f774 a1bd c943 073c 0fd9 0dbd
00000130: d53a be3b 7c6a 04bc a380 b3bd 8476 243d
00000140: 6699 fa3c 3d2b 1ebb 51aa 8a3d 7f68 e5bb
00000150: 73b8 46bd 9432 80bd f5ef c4bd 135d 5cbd
00000160: f7a1 a93c d645 0abc 90b0 263d a0db 13be
00000170: 668b 72bd bfd1 9ebc 3dd6 36bc 211f 49bb
00000180: 7203 543d 8251 453c 135f 7a3d 776a e33d
00000190: 7d75 1e3c 62ce e4bd 5e58 a9bc da65 f6bc
000001a0: f660 233d 7f20 513c 9b89 9a3d e799 35bd
000001b0: e4e4 683d 2ba9 f6bd 7215 c3bd 2d21 773d
000001c0: a371 5cbd bfc4 4dbd 0d74 fabd fd62 28be
000001d0: 3ad4 06bd e525 dd3c 48d9 ed3c 4f33 40bd
000001e0: ac07 27bc 53ba 1bbd 99e9 f23c 3478 83bd
000001f0: e60a e83c 3952 40bc c9d8 30be bf31 29bd
00000200: 8aac c6bc 4cfc abbd d6b6 94bd 9b61 7d3b
00000210: b750 c43c a30d b73c 6611 d93d 7f45 c2bc
00000220: dbec 32bc c158 743d bde6 1abd 1e20 a2bd
00000230: 4e80 a7bc f276 5c3a e6b8 e03d 62f0 283d
00000240: 3d62 3abc a25b abbc 8de0 683d 1edc 27bc
00000250: 1e6d 8cbd bb42 c4bc 1d41 aa3c d665 5c3d
00000260: f2a6 b23c 6a8d 1d3d d02f debd 8338 93bd
00000270: 679f cebd 098f 14be 5a51 673d 2091 d0bb
00000280: af77 c6bd c074 f6ba 5b73 37bc 452e a3bc
00000290: ae20 b5bc ea29 0abd acf6 99bc deb8 9e3d
000002a0: 3529 1ebd 7bc5 47bc 57d7 9c3d 00fe 473c
000002b0: df1b a7bd 28c6 a53c 07c3 85bc 87f9 a83d
000002c0: 14af 2f3c a143 cdbc 19b3 45bd cff2 bd3c
000002d0: 6f05 53bc ef0d 9b3d 74e9 9d3c c166 5f3c
000002e0: d926 c4bc 23b8 853b cf4c c9bd 6321 09bc
000002f0: 8e9a 963c 4bf6 2cbc f935 d43c df47 7abd
00000300: aaee fbbd ec28 b8bc 508b 16bd 921e acbc
00000310: fd17 8abd cee6 5b3c 9b68 ff3b d923 843d
00000320: 2b18 753d e8d5 4ebc 9c0a cf3b 221c 12bd
00000330: 65ab bbbd e263 99bd f016 bb3b 0f94 953d
00000340: 55fd e2bc 4b16 c6bd 579c 22bd 23b7 9b3a
00000350: 6be3 54bd 5ed3 2c3c 4a46 56bd 1a2b e6b8
00000360: fe51 d13c 17b0 86b9 8d04 993c 9410 053d
00000370: 9a05 2a3d 1efe 8b3c 076f 00bd 606b 0a3c
00000380: 377f 96bd e3b1 1e3c 91c4 823a dce8 97bd
00000390: 77aa 9bbd 4cfa 3fbc 2d3b 2fbd 245e 6b3d
000003a0: 3640 17bc 5d1c 68bc c073 67bb 6216 e2bc
000003b0: 629c aabd 72cd da3b 559c 95bd 4935 88bd
000003c0: f7f4 86bd 99fc 3abd 2cf4 0cbd 84ab 8dbd
000003d0: 25a9 4ebc 3223 72bb 2661 bd3c b217 05bd
000003e0: 0057 6bbd b8e8 afbc 314b 1abc cc8d 2b3d
000003f0: 0f39 1bbd 2858 07bd 87b4 b03d a49a 56bd
-0.04140372 -0.11353877 0.008321989 -0.08978712 -0.028939512 -0.021199016 -0.029781511 0.05871889
-0.0087470645 0.05048763 0.050194286 -0.081768736 -0.012209148 0.05207778 -0.03610598 0.032658868
-0.05697305 -0.057117883 -0.06718156 -0.060125146 0.09636048 -0.08531286 0.05802634 0.013712946
-0.031818405 -0.0050217835 0.045806754 -0.09506363 -0.04208946 0.061528455 -0.09948211 -0.11954579
0.017389024 -0.049324572 0.04581127 0.054857813 -0.07319383 0.037325926 0.0031923768 -0.013721407
-0.03697213 -0.030540979 -0.01756635 -0.04297076 0.114132725 0.015039347 -0.053462982 -0.037743997
-0.065731876 -0.029537199 0.023965469 0.0038598287 0.0661809 -0.039916188 -0.062553085 -0.1340069
-0.027769491 0.08394608 0.01916178 -0.05690335 -0.051484853 -0.09261062 0.019365303 -0.050266914
0.040677313 0.022454454 -0.017397953 -0.009531731 -0.037529316 -0.024171576 0.08920579 0.026676312
0.089919634 -0.078836374 0.008255907 -0.03463083 0.005805353 -0.0080820285 -0.0876477 0.040152088
0.030590724 -0.0024134659 0.067707665 -0.0070009823 -0.04851575 -0.06259647 -0.09616081 -0.0537997
0.020707114 -0.008439502 0.040695727 -0.14439249 -0.059214972 -0.019387124 -0.011159477 -0.003068872
0.0517611 0.012043359 0.061125826 0.11104291 0.009671566 -0.11172177 -0.02067202 -0.030077863
0.03988739 0.012764095 0.075457774 -0.044336226 0.056858912 -0.12043985 -0.09525575 0.060334373
-0.05381931 -0.05023646 -0.12229166 -0.16444011 -0.03291724 0.026995609 0.029034272 -0.04692393
-0.0101947 -0.03801949 0.029652404 -0.06419411 0.02832551 -0.011738353 -0.17270197 -0.041307207
-0.024252195 -0.08397731 -0.07261436 0.0038662914 0.02396427 0.02234537 0.105990216 -0.023714779
-0.010920729 0.059654955 -0.037817705 -0.07916282 -0.020446923 0.0008410058 0.109727666 0.041244872
-0.011375961 -0.020917717 0.056854773 -0.010245351 -0.0685675 -0.0239576 0.020783002 0.053808056
0.021808121 0.03846494 -0.10848963 -0.07188513 -0.10088997 -0.14507689 0.056474067 -0.0063649565
-0.096907966 -0.0018803105 -0.0111969365 -0.019919524 -0.02211031 -0.03373138 -0.01879438 0.07750104
-0.038613517 -0.012193079 0.0765826 0.012206554 -0.08159613 0.02023609 -0.016328348 0.082507186
0.010722894 -0.025056662 -0.048266504 0.02318707 -0.012879713 0.07571017 0.019276358 0.013635338
-0.023944305 0.0040807887 -0.09829103 -0.008369776 0.018384244 -0.010556768 0.025904642 -0.061103698
-0.12301381 -0.02248045 -0.036753953 -0.02101067 -0.06742857 0.013421727 0.0077944524 0.0645215
0.0598375 -0.012624241 0.0063184034 -0.03567136 -0.0916355 -0.07489754 0.0057095215 0.073036306
-0.027708689 -0.09672221 -0.03969988 0.001188014 -0.051974695 0.010548441 -0.052313127 -0.00010975283
0.025551792 -0.0002568967 0.018678928 0.032486513 0.04150925 0.017088946 -0.031355884 0.008448452
-0.07348483 0.009685966 0.0009976794 -0.07417461 -0.07600873 -0.01171739 -0.042781044 0.057462826
-0.009231618 -0.014166919 -0.0035316795 -0.027598564 -0.08330609 0.006677323 -0.073052086 -0.06650788
-0.06589692 -0.045651052 -0.034412548 -0.0691748 -0.012613569 -0.0036947248 0.023117613 -0.0324933
-0.057456017 -0.021473274 -0.009417341 0.041883275 -0.037896212 -0.033043057 0.08628183 -0.05239357

network_body.linear_encoder.seq_layers.0.weight f4 [256, 91]
00000000: 6f31 99bb 4a29 4cbe b8ad 193e b6b8 25be
00000010: a254 e43c 12a2 023e 806c 9bbc 4884 883d
00000020: 9c2c 26bd f03e 5c3d 0493 4bbe 22fe fbbb
00000030: 3422 513e 0ab4 ffbd c4b4 2abe b03a e0bd
00000040: 8fdd dc3d c269 3dbd 5b34 603d 6eca c8bc
00000050: 7d44 493e a878 6bb9 d21e e1bd 8050 f9bd
00000060: 33d9 abbd 3bf8 d1bd 9abe 793c 18b4 713c
00000070: fdef 8abe 5b58 c3bd fb78 74be a019 923e
00000080: 8d12 d13d 944f 7c3d c5f9 38bd 8a1d 20be
00000090: 1891 a93d 602a 4c3d d246 223e a838 16be
000000a0: 752d 48bd dd3e 9b3d d436 5f3e 078f 893c
000000b0: 67e7 b13d 141f f03d 57ce f7bd c6c2 43be
000000c0: c195 263e 3bcb a53d 8f72 b83d 5b52 143e
000000d0: 6d4f c83d 7cc1 ea39 64d4 403e 8f5b dbbd
000000e0: 7bc3 b8bd ef84 093d ed9c 6fbd 1210 113e
000000f0: 707b a7bd fad2 90bd 3cca 083e 9538 aa3c
00000100: 1b92 1a3d 522d ab3d c405 afbd b583 41be
00000110: 9812 e5bd 2cd5 683d 93bc 3f3a f461 c4bd
00000120: 6ca3 473e 74af 0cbd bf9d 153c 1147 16be
00000130: 55f9 403e e212 223d 4239 b2bd 008a 3e3d
00000140: c275 5e3d d5dc 74be 4607 423e 6f9a 11bd
00000150: c12e b6be b579 5abe f4de e2bd 78cb 25be
00000160: 3a90 e23d 1255 82bd 4ddc 4ebd c186 043e
00000170: 1187 823d 9204 f9bd 885a 04be 4175 8e3a
00000180: 64ae 4e3e 78ef 6bbd 0571 0ebe 3f10 0dbe
00000190: af1d 5b3e 93eb d03c a531 05be bf50 a9bc
000001a0: 6b02 b2bc 3c3e db3d 3282 22be 5634 c13d
000001b0: 0fb2 c13d 1d3e 69bc 7cf3 32be ba0f 963d
000001c0: a9be 2e3d 9af5 d63e 832e a73c 2c3e 823e
000001d0: 2f7a 0ebd 002e adbd 0c32 8e3d da6b 1dbd
000001e0: 7a9a 16be e376 02be 4559 0fbd e545 fb3d
000001f0: f586 f8bd 62f2 5abd 5967 82bd bda3 f63d
00000200: dba6 843d 6628 243e 53a7 07be e937 30bd
00000210: 23ae 703c 0df7 703e 69d5 4fbd 50f7 aabd
00000220: c1bc 89bc d433 aa3d 694a 7b3d 9507 e53c
00000230: f7ef b83c d09a 9f3d d4c8 76bd d2ef 5bbd
00000240: 6b7a c9bb 8590 9a3d 58ab 02be 41c1 62bd
00000250: eff3 f2bb 3bf5 063d 14b8 18be dff2 c9bd
00000260: 0d22 aabd e990 f93c b7c4 933d 1510 d8b9
00000270: 8577 01bd f1d2 1d3d c0ef 6abe 81d2 07be
00000280: 51a0 23bd a331 e73c 96f4 45be 9ca5 d93d
00000290: 4f24 883d 836b 133e 6653 52be adcc 613d
000002a0: fbfd bb3d 4405 2dbe 3e30 86bd f948 49bd
000002b0: cf30 87bd d8f7 15be 4e4f 033e 6999 f5be
000002c0: 4ab7 09be e343 d4bc 5b4f 7e3d 28d3 073e
000002d0: f733 873d 455a bbbb c34f 8ebd 6768 353e
000002e0: 2db7 bd3c b565 a33d b304 3ebe 04a3 893d
000002f0: 710a a63a 2214 9bbc a4b8 943e 2d8b cb3d
00000300: 32b1 82bd 2bd9 273d 79c1 d1bc dc12 893d
00000310: bd37 cf3d 0698 193e d4a5 f2bd 9c6d 90bd
00000320: cb60 d3bc 84b2 c23d 324b 043e 4b7f 143e
00000330: 7201 473c 93da 92bd 2f47 e3bd c817 a3bb
00000340: fb7c 0bbd 3351 503d c382 d93d b560 a3bd
00000350: 4e80 67be c2db 6c3e 1a1f 853c 5c15 7b3c
00000360: 1e90 fc3c f6b5 e93b d67c 6cbe 223a 303e
00000370: 6ba9 0abe 4194 efbd 3e96 563d 0589 8c3d
00000380: 3453 44bd 1a1b 5f3d 68a2 80be 8274 2cbe
00000390: ea85 dd3d 2d93 54bc 24e7 ec3d 78a2 9a3d
000003a0: e6d6 09be 9180 843d 675e 8cbe 6efa 08bd
000003b0: 2f60 1fbe ce8a b7bd 0d9c 32be afa7 cbbd
000003c0: e44e 0fbe 6b59 8abe 06ee dc3d bf83 c23e
000003d0: 0deb 7bbc c3f4 113d d7ac 143d 546f 3f3e
000003e0: 4ee6 3fbc 0cb5 b73c b0a5 08bd 6a5f 3ebe
000003f0: fb1e f1bd 9858 66bd bd09 52bd bf64 efbd
-0.0046750824 -0.19937626 0.15007675 -0.16183743 0.027872387 0.12757137 -0.018972635 0.06665856
-0.040569887 0.05377096 -0.19880301 -0.007690207 0.20423204 -0.124855116 -0.16670519 -0.10948694
0.107844464 -0.046243437 0.05473743 -0.024510588 0.19655032 -0.00022456294 -0.10992207 -0.12173557
-0.08391037 -0.10252424 0.015243197 0.01475241 -0.27136222 -0.09538337 -0.23874275 0.28535175
0.102086164 0.06159933 -0.045160074 -0.15636268 0.082796276 0.0498451 0.15847328 -0.1467005
-0.048871476 0.075803496 0.21798259 0.016791834 0.086867146 0.11724678 -0.12099903 -0.19117269
0.16268064 0.08095404 0.09006225 0.14484541 0.09780774 0.00044776115 0.1883102 -0.10710823
-0.0902166 0.03357404 -0.058499265 0.14166287 -0.08177841 -0.070714906 0.13358396 0.020778934
0.037736993 0.083582535 -0.085460216 -0.18897898 -0.11185187 0.05684392 0.00073141715 -0.095889956
0.19495934 -0.034347013 0.009131848 -0.14675547 0.18845113 0.03956879 -0.08702327 0.046518326
0.05431152 -0.23912366 0.18948087 -0.03554767 -0.35582545 -0.2133549 -0.11077681 -0.16190898
0.11062665 -0.06363882 -0.050503064 0.1294203 0.06373418 -0.12159075 -0.1292516 0.0010868685
0.20183712 -0.057601422 -0.13910301 -0.13775729 0.21398042 0.025502956 -0.13007219 -0.020668386
-0.021729669 0.1070523 -0.15869978 0.094338104 0.0945779 -0.014236 -0.17475694 0.07327218
0.042662296 0.41984254 0.02040792 0.25438058 -0.034784492 -0.084560394 0.069431394 -0.038432933
-0.14707366 -0.12740664 -0.034997243 0.12269191 -0.12135116 -0.05345381 -0.06367368 0.12042949
0.06477138 0.16031036 -0.13247423 -0.04302207 0.014689955 0.23531742 -0.050740633 -0.08347952
-0.016813638 0.08310667 0.06135026 0.027957717 0.022575362 0.077932 -0.06025012 -0.053695507
-0.0061486266 0.07547096 -0.12760675 -0.055360083 -0.007414333 0.032948714 -0.1491397 -0.09860777
-0.08307276 0.030464606 0.07215255 -0.00041210713 -0.031608123 0.038531248 -0.2294302 -0.13263895
-0.03994781 0.02822191 -0.19331583 0.106272906 0.0664755 0.14396481 -0.20539626 0.055126835
0.09179302 -0.1689654 -0.0655217 -0.049141858 -0.066011064 -0.14645326 0.12823221 -0.47968605
-0.13448825 -0.025911277 0.062087398 0.13264143 0.066017084 -0.005717548 -0.06948807 0.17715608
0.023158634 0.079783835 -0.1855648 0.06720546 0.0012667907 -0.018930499 0.2904712 0.09938655
-0.063814536 0.040978592 -0.02560495 0.0669305 0.10118053 0.14999399 -0.118480355 -0.07052156
-0.02580299 0.095067054 0.1291931 0.14501683 0.012146341 -0.07170596 -0.110975616 -0.0049772
-0.034054738 0.050858688 0.10620644 -0.0797743 -0.22607538 0.23130706 0.016250182 0.015324917
0.03083044 0.007132287 -0.23094496 0.17209676 -0.1354119 -0.11698199 0.052389376 0.06862072
-0.04793091 0.054469205 -0.25123906 -0.16841319 0.10816558 -0.012974543 0.11567524 0.0755052
-0.13460883 0.064698346 -0.27415773 -0.033441953 -0.15564035 -0.08962022 -0.17442341 -0.099440925
-0.13994938 -0.27021345 0.10787587 0.3799114 -0.015375865 0.035633814 0.036297645 0.18694812
-0.011712624 0.022425197 -0.033361137 -0.18591085 -0.11773487 -0.056236833 -0.05127882 -0.11689138

network_body.linear_encoder.seq_layers.2.bias f4 [256]
00000000: 5ecf 9bbc 1f10 96bd c89b 82bd 98fd b0bd
00000010: 68e3 b0bd 6959 6dbd 2103 c3bd 183f 5dbd
00000020: 2d84 55bc ab90 cfbd 6b75 6fbd 986d a9bd
00000030: ef57 49bd 43d1 15bd 7aa0 85bd 73f3 85bd
00000040: b817 89bd 7105 15bd 589d 9bbd 02a1 69bd
00000050: c0ad 26bd 9ef6 afbd 3dba a4bd e1b1 e1bc
00000060: f94d 72bd e872 12bd 2c82 a3bd 49c8 87bd
00000070: ed9a adbd c9f2 89bd 8587 95bd 31e4 7abd
00000080: 1694 f0bb c7b2 c7bd 2ae7 a8bd 2760 6fbd
00000090: 9507 b6bd 5318 2cbd b2d7 3ebd 1b57 d3bd
000000a0: 1454 9bbd 6370 bcbd e66c 80bd 6dea fcbb
000000b0: a533 aabd ce5d 59bd 67e7 59bd 62fb ffbd
000000c0: f2b4 25bd 3ea7 0ebd c748 4fbd 7bb2 6dbd
000000d0: 1f44 8dbc 64e0 61bd 2f2a 88bd 9a4f a2bd
000000e0: 7b24 8bbd 3bdb 8abd ddc9 01be 021a 1cbd
000000f0: 7f3f 8bbd fc43 45bd 5f6b b9bd 6237 78bd
00000100: 30ff 5bbd 06de a7bd 6a03 9cbd 6ade 33bd
00000110: 3d4e 93bc bc2a 09bd 6c01 a8bd b84e 39bd
00000120: 88a5 75bd 241e 8abd 0352 bdbd f270 41bd
00000130: 09cf 96bd 56e0 87bd c0f8 70bd 98c0 4ebd
00000140: b181 f4bd de58 d0bc 1445 52bd 609e a5bd
00000150: 5db0 9bbd 761a f8bd fd1f a5bd 1fa1 7ebd
00000160: e049 b5bd d966 55bc 8dce 00bd df07 a8bd
00000170: 54ae a8bd 552b b4bd ebe1 eabd f16f 95bd
00000180: de29 d5bd 126f c2bd ae0a a4bd 0c42 7ebd
00000190: 1f30 72bd 6909 75bd d8cc 52bd c884 9abd
000001a0: 82ee d4bd 32a5 84bd 5108 d8bd fd2d a4bd
000001b0: 0472 5dbb 0b94 50bd 21e3 63bd acee d3bd
000001c0: 43c9 a0bd 3d1d 68bd 4f7b 5abd f119 97bd
000001d0: f2db 8dbd df63 8cbd bcf1 aabd 43f1 febd
000001e0: 13da 38bd 1d75 92bd 4b0e 84bd 2930 5fbd
000001f0: 1cb9 7dbd 5e0c a1bd 3013 09bd 3ee6 45bd
00000200: 56ee f4bc 3fed 28bd 879b 6abd 8f68 3ebc
00000210: bfa6 d9bc f9a6 59bd 8ca4 76bd 2248 91bd
00000220: 1a73 8bbd e759 a6bd daac 0ebd 3f71 aabd
00000230: d3ef 82bd 6155 cfbd a41f b4bd 583d c0bd
00000240: c770 d2bc 75ec c2bd d729 94bd 5ba3 8dbd
00000250: bf78 babd af01 f5bc c834 7abd 6c9c 85bd
00000260: 8f83 d8bd 5767 d2bd 3a80 b0bd 2877 5abd
00000270: f717 dbbc d157 a4bd d101 013d 65bf dabd
00000280: 6440 ebbd f4a1 a4bd 303c cbbd 0a38 46bd
00000290: acfb 9cbd a86f acbd be4f 9bbd fe5b 87bd
000002a0: 2639 5cbd eb9c 50bd b40a 8fbc 309f e3bc
000002b0: d730 a3bd d3e7 43bd 6848 38bd 1585 d8bd
000002c0: ada7 eebd 4b53 9cbd cbf0 90bd e7c8 07bd
000002d0: cf66 b9bd de8a dabd e305 05bd 5201 2dbd
000002e0: d90d b6bd cc15 8ebd 39c6 8bbd 56f0 73bd
000002f0: b487 7fbd ce9d dbbd cb41 47bd fce1 37bd
00000300: 269f 38bd aa1e 67bd 5abf 80bd be4a 96bd
00000310: 3004 bcbd 6bf1 c0bc c377 aebd 98c1 8dbd
00000320: e064 e5bd c83f 80bd a9c6 93bd 44c3 93bd
00000330: d4da 8bbd fb26 95bd d037 4abd d225 5bbd
00000340: 5376 d6bd d4ef babd d28d 8fbd ffe7 b7bc
00000350: f383 14bd c829 d1bd 5819 66bd e133 7fbd
00000360: 66e9 8abd 9735 80bd 52a8 8cbd 8af0 a0bd
00000370: 258c 82bd 806a 81bd 1f5f b6bd bd6f d6bd
00000380: 7ba2 1bbd 8c37 eebd aa55 b9bd dfbd c3bd
00000390: a17f 9abd 0778 cebd e150 08be c734 c1bd
000003a0: 476f f7bd 2164 b0bd 6161 d2bd bf9e dabd
000003b0: 5fa9 9ebd 0aa5 80bd 2ba0 97bd a197 4ebc
000003c0: 8a75 02bd 1961 12bd 4a2e 4f3c 904b 90bd
000003d0: 13f0 dabd 0088 c1bd af31 02be 2256 a1bd
000003e0: 3580 b6bd 9068 a6bd f42f 4cbd 689c babd
000003f0: b494 d7bc 7711 18bd a2fd 99bd 7b00 2ebd
-0.019019779 -0.073272936 -0.06377369 -0.08642119 -0.08637124 -0.057946596 -0.09522081 -0.05401525
-0.013032001 -0.10135015 -0.058461588 -0.082728565 -0.049156126 -0.03657652 -0.06524749 -0.06540575
-0.06693977 -0.036382142 -0.0759837 -0.057038315 -0.040693045 -0.0859196 -0.08043335 -0.02755064
-0.05915639 -0.035754114 -0.07983813 -0.06629998 -0.084768154 -0.06735761 -0.07301239 -0.061252777
-0.007341872 -0.09750896 -0.08247216 -0.058441307 -0.08888165 -0.042015385 -0.04659242 -0.103193484
-0.07584396 -0.092011236 -0.06270771 -0.0077183754 -0.08310632 -0.053067975 -0.053199198 -0.12499119
-0.040455766 -0.034827463 -0.050606515 -0.05803154 -0.017244397 -0.055145636 -0.06648671 -0.07925339
-0.067940675 -0.06780096 -0.12674661 -0.03811074 -0.0679922 -0.048160538 -0.090536825 -0.060599692
-0.053710163 -0.081966445 -0.07617839 -0.043913282 -0.017981643 -0.03348802 -0.08203396 -0.045241088
-0.059972316 -0.0674403 -0.09244158 -0.047226854 -0.073637076 -0.066345856 -0.058830976 -0.05047664
-0.11938799 -0.025433 -0.05133541 -0.08086848 -0.07601998 -0.12114422 -0.08062742 -0.062165376
-0.08851981 -0.013025009 -0.031446982 -0.08204626 -0.082363755 -0.087973274 -0.11468872 -0.07296742
-0.10408376 -0.09493841 -0.080098495 -0.062074706 -0.059127923 -0.059823427 -0.051464885 -0.07544857
-0.10397054 -0.06476821 -0.10548461 -0.08016584 -0.0033789882 -0.050922435 -0.05563653 -0.103482574
-0.078508876 -0.05666851 -0.053340252 -0.07377995 -0.06926717 -0.068549864 -0.083468884 -0.12448361
-0.045129847 -0.07151244 -0.06448039 -0.05448929 -0.061944112 -0.07863687 -0.033465564 -0.04831528
-0.029898804 -0.04124188 -0.05727723 -0.011621608 -0.026568769 -0.053137753 -0.060215518 -0.07093836
-0.06809063 -0.08122616 -0.034832813 -0.08322381 -0.06393399 -0.101237066 -0.087950975 -0.093867004
-0.025688542 -0.09517757 -0.07234543 -0.06915923 -0.09105062 -0.02990803 -0.061085492 -0.06523976
-0.10571968 -0.10273617 -0.08618207 -0.053336293 -0.026744826 -0.08024562 0.031495873 -0.10681037
-0.11486891 -0.080387026 -0.09923589 -0.048393287 -0.0766519 -0.08419734 -0.07583569 -0.06609343
-0.05376544 -0.0509309 -0.017461158 -0.027785867 -0.079683 -0.047828507 -0.044990927 -0.105722584
-0.11653075 -0.076330744 -0.070771776 -0.03315058 -0.09052812 -0.10671018 -0.032476317 -0.042237587
-0.0888936 -0.06937751 -0.06824917 -0.059555374 -0.062385276 -0.10723458 -0.04864673 -0.04489325
-0.04507365 -0.056425728 -0.062864974 -0.07338475 -0.09180486 -0.023552617 -0.085189365 -0.06921691
-0.11200881 -0.06262165 -0.07215626 -0.07214978 -0.068288475 -0.072828256 -0.049369633 -0.053502865
-0.10471787 -0.09127775 -0.07009472 -0.022449492 -0.03625865 -0.10213047 -0.056176513 -0.062305335
-0.067827985 -0.062602215 -0.06868042 -0.07858379 -0.06374387 -0.063191414 -0.08904862 -0.10470531
-0.03799675 -0.116316885 -0.09049542 -0.095576994 -0.075438745 -0.10081487 -0.13312103 -0.094338946
-0.12081771 -0.08612848 -0.1027248 -0.1067481 -0.07747149 -0.06281479 -0.074035965 -0.012609393
-0.031850375 -0.03573713 0.0126453135 -0.070456624 -0.10690322 -0.09449768 -0.12714265 -0.07877757
-0.08911172 -0.081254125 -0.04985042 -0.091118634 -0.026316024 -0.03712603 -0.0751908 -0.042480927

network_body.linear_encoder.seq_layers.2.weight f4 [256, 256]
00000000: 5b9e c2bc abff 6d3c 66a8 37bd e2a8 f6bd
00000010: c829 02bc 559c 463d 71b5 1c3e 4ba5 c0bd
00000020: fc5a cbbd 8afc 07bd 179e 01bd acf9 1bbe
00000030: 2622 a3bc 9991 0dbe 9cbd 813d ff10 43bc
00000040: fd17 40bd c886 19bd 47d3 e6bd dfcd 323d
00000050: a556 90bd 4187 a0bc e43f 8f3d 28c3 d9bd
00000060: cfdd a1bb 1931 c93d 9ca1 08be 2a69 983b
00000070: af94 74bd 46ea 39bd bd85 36bd 747d f9bd
00000080: 635a 7e3d 9f47 36bd 3f28 88bd b8e8 c9bc
00000090: 3151 d1bc c6d6 d0bc 6f35 033c 69b6 04be
000000a0: b41c aa3c 48ac 423d a774 d8bd e1d0 123e
000000b0: 2e92 77bc 1a5d 233e 705c 073e d93d f3bc
000000c0: 696b ed3d 3e5f f6bd a539 ae3d 8333 32be
000000d0: c1f3 3dbc 436a 21bd 5cec 113d 568a e83c
000000e0: 2c19 073e 5d62 80bd 27ca 07be 04f3 cd3d
000000f0: 4a21 dfbc 5f66 2dbe c2fa 87bd d312 0fbc
00000100: 1fc8 33be 2d0f a43b c885 aa3d 4425 1bbd
00000110: c3eb 073e 6e4b 033d a8ef 6dbe b3a4 583d
00000120: bd39 483d b2ab cdbd 0add 74be 7653 633e
00000130: fdf0 90bb b2ae c33d 7c3a bb3d 98ea 47be
00000140: db7a 8b3d 126f 0f3d 8caf 64bd 0d68 24be
00000150: beaf 8b3c 96f5 c6bd 6750 6d3d 0aef 22bd
00000160: 08df 3cbe 5d7d c6bc 9193 a03c 8c6a 003d
00000170: 3147 d23d 2066 48be 5772 afbd b606 5fbe
00000180: 6e21 d6bd d48d f03d 5356 b0bd aacb 603d
00000190: 4b6b 45be 612f e73d 6ea2 d63d c176 443d
000001a0: 51df 553c b68f 98bd b4a1 4bbc d3c6 57bb
000001b0: c304 3dbe d9c3 cabd bb80 06be b974 473d
000001c0: 13c0 103d 0ca9 9abd 28ab 96bd b6a4 153c
000001d0: a3ca 94bd 057a 7bbd e827 213d f6cb f3bd
000001e0: d4b9 a93b 815d 053e 0e60 a83d 91ec 9c3c
000001f0: ff12 45bb 3c82 87bc 944a 70bc 59c8 113e
00000200: eb91 ba3d b7ad e2bb 26a1 97bc 66b1 993c
00000210: 009c 1abd 6ff8 a63d 03e3 b6bc 09ff 173d
00000220: 56f5 bb3d 1883 453c 1496 42bc 92a5 85bd
00000230: 86d3 fdbd b65b 5e3d d279 22be 1271 073e
00000240: b254 96bd e32e 40be a7fa 76be caa7 933d
00000250: 80db 563e 8523 173e d265 ac3d ffbc 61bd
00000260: cf61 79bd 5ef9 2dbd 0e1e a43c f23c 31be
00000270: 8991 0abd 1dde 1ebd e19e 6fbe 8f19 9d3d
00000280: d849 8dbd 97f4 f9bc 42f1 3abd 24f1 15be
00000290: 1f23 2abe ff7e a33c 7fbe b13a 7d74 b43c
000002a0: cc26 3a3d 8291 b0bc 653f e2bd 646b 853d
000002b0: 4e14 ba3d d6db 0bbc 53a6 173e e817 1bbd
000002c0: 510f 743d 42fc 893c ba2c 5a3d 3d28 ee3b
000002d0: cc05 c1bd c159 4e3d 3c01 39be df5b b2bd
000002e0: dfd3 b8bd aa0a 05bd 73ee 77bc eec9 3bbd
000002f0: 2b4c 60bd 9e9e ba3d 9ff5 503c b410 83bc
00000300: e5d5 513d 90d5 053e d2b3 e03d 026d f13d
00000310: a839 503e 59da 953d 4f02 063e 025b 8d3d
00000320: 171b c9bc ade3 2fba 1701 df3d 3e9f 83bd
00000330: 3bfc 163e b7f3 3d3d c477 a8bd 9d6c 0ebe
00000340: a9d2 033e 1121 c3bd 42d1 b6bd 8238 dabc
00000350: 11d2 aabd 4576 19bd 193d 32be 1ade 1ebe
00000360: 396c b13d 5319 adbc 6495 e5bc 0fbc 923d
00000370: f5f1 f83c 5ed8 2dbe 29ad 733d 68b9 96bd
00000380: 072a fdbd c1cc ddbd e372 5abd b308 a73d
00000390: e38f debb 2bab b4bc c407 32bd b30e 223c
000003a0: e040 b2bc 46b0 31bd 276b 743d 211d 073c
000003b0: dc9a b43d f840 f63d 8c96 a33d c4b5 11bd
000003c0: 06c6 eabc 6aad 833d a771 513d 6917 aabd
000003d0: d464 87bb 84dc bd3d 200f 67bd e581 5d3d
000003e0: 0297 bbbd c9dc d13c a9a5 e8bb 0cf6 c43b
000003f0: 2ded 2d3d 5261 41bc a683 c7bc 56c5 0bbe
-0.02375715 0.014526288 -0.04483833 -0.120439306 -0.007944532 0.048488934 0.1530359 -0.09406527
-0.09929463 -0.033199824 -0.031644907 -0.15231961 -0.019913744 -0.13825072 0.06334993 -0.011905908
-0.046897877 -0.037482053 -0.11270767 0.043653365 -0.07047776 -0.019595744 0.06994608 -0.10632926
-0.0049397717 0.09823818 -0.13342899 0.0046512084 -0.05971211 -0.045389436 -0.044561137 -0.121821314
0.06209792 -0.044501897 -0.06648301 -0.024647102 -0.02555141 -0.025493037 0.008008345 -0.12960209
0.02076564 0.04752758 -0.10569125 0.14337493 -0.015110536 0.15953484 0.13218856 -0.029692577
0.115927525 -0.12029885 0.085070886 -0.17402463 -0.01159376 -0.03940798 0.0356258 0.028386276
0.13193196 -0.06268761 -0.13260709 0.10056117 -0.027237553 -0.16933583 -0.06639625 -0.008732515
-0.17556809 0.005006692 0.08326298 -0.037877336 0.1327353 0.032054357 -0.23235953 0.052891444
0.04888319 -0.10042514 -0.23912445 0.22199807 -0.0044232593 0.09554805 0.091420144 -0.19523084
0.06810542 0.035018034 -0.055831477 -0.16055317 0.017051574 -0.097148106 0.057938006 -0.039778747
-0.18444455 -0.0242297 0.019601615 0.03135161 0.10267485 -0.19570208 -0.085667305 -0.21779904
-0.10455595 0.117458016 -0.08610215 0.05488173 -0.1927921 0.11288334 0.104802 0.047964815
0.013053731 -0.07449286 -0.01242869 -0.0032924905 -0.18458848 -0.09900636 -0.13135044 0.0486953
0.035339426 -0.075517744 -0.07356864 0.009133508 -0.072652124 -0.061395664 0.0393447 -0.11904137
0.005179623 0.1302395 0.08221446 0.019155772 -0.0030071137 -0.016541593 -0.014666218 0.14236583
0.09109863 -0.006917681 -0.018509459 0.018761348 -0.03774643 0.08152854 -0.022325044 0.037108455
0.091776535 0.012055181 -0.011876602 -0.06525721 -0.123938605 0.05428668 -0.15866783 0.13226727
-0.07340373 -0.18767886 -0.24119054 0.072097376 0.2098217 0.14759643 0.08417858 -0.05511188
-0.060884293 -0.042474143 0.020033862 -0.17308405 -0.0338302 -0.038786042 -0.23400451 0.076708905
-0.0689885 -0.030512137 -0.045640238 -0.14642769 -0.1661496 0.019958017 0.00135608 0.022028202
0.045447156 -0.021553759 -0.11047248 0.06514624 0.09085904 -0.0085363 0.14809541 -0.037864596
0.05958492 0.016843919 0.05326531 0.0072679804 -0.09424934 0.050378565 -0.18066877 -0.08708929
-0.09024786 -0.032480873 -0.015132534 -0.045846872 -0.05476014 0.09112285 0.012753873 -0.015999176
0.051229376 0.13069749 0.10971798 0.1178837 0.20334494 0.07317037 0.13086818 0.06902124
-0.02454905 -0.00067096466 0.1088888 -0.064268574 0.14744656 0.046375003 -0.082259685 -0.1390862
0.12873329 -0.09527791 -0.089266315 -0.026638273 -0.08340848 -0.037466306 -0.1740612 -0.15514413
0.0866322 -0.02113024 -0.028025337 0.071647756 0.030388812 -0.16977069 0.05949131 -0.07359582
-0.12361532 -0.10830069 -0.05333222 0.08155956 -0.006792055 -0.022054275 -0.043464437 0.0098912
-0.02175945 -0.043380998 0.0596725 0.008246691 0.088185996 0.120241106 0.07987699 -0.035573736
-0.028658878 0.064295605 0.051133778 -0.083052464 -0.0041318927 0.09270576 -0.05641091 0.054078955
-0.09159662 0.025617974 -0.0070998264 0.0060107764 0.042462517 -0.011802988 -0.024354767 -0.13649496

network_body.vector_processors.0.normalizer.running_mean f4 [91]
00000000: fd35 523f ad3d 6e3a bc3d ee37 6a30 363e
00000010: f00d a93e ca8a 273f 0662 ec3c 3bbf bc38
00000020: f315 a23e 7e28 113f 1246 543f 7f02 273d
00000030: f307 1c38 eb13 053e 11eb e23e 8b13 4e3f
00000040: 42c3 383a 77b5 1d38 3fef 463e 63b0 b13e
00000050: 19d5 383f f9a1 1a3d 67ff 1638 0afa 753e
00000060: 6822 053f f51b 483f c433 003d 30a1 f638
00000070: ed64 3f3e 0c0d f93e 574c 743f 33c2 903a
00000080: 5add 8238 e671 363d 3091 343e 2e50 533f
00000090: a499 953d 0219 a638 45ba cf3d 4215 e53e
000000a0: 0ab6 473f 89ec a13d 3213 5538 cc21 103e
000000b0: c784 f13e 4e00 693f 8c87 be3a f39b 0e38
000000c0: 7eee b43d c547 5c3e d6f8 513f bdee a13d
000000d0: e6f6 1138 e108 ce3d 60d2 e43e 6c25 3d3f
000000e0: 9330 aa3d f262 1f38 6e3a 363e e739 fe3e
000000f0: f296 923e 92dd ef3d 1dcc 2f3b 81f2 173f
00000100: 42d1 2e3f c2d8 9a3e 15cd 223f 59ef 483f
00000110: 1e77 d3b9 4564 0f3e b1e6 10bb 97a3 663f
00000120: cad2 723e 8851 063b 7f14 293f ba70 ef3c
00000130: 51e1 babd c735 6dbc 1832 2942 be1d 053f
00000140: bf27 dc3f 7d58 aa42 42da f83e 6a70 afc2
00000150: 34ab 103b b511 d43a dfd9 d0bb f4c5 533f
00000160: 7437 563f 9326 463f e2b9 613f
0.8211363 0.000908817 2.8400558e-05 0.17791906 0.33018446 0.6544615 0.028855335 9.000158e-05
0.3165737 0.5670241 0.8291942 0.040773865 3.72007e-05 0.1299588 0.44319966 0.8049857
0.00070481387 3.760072e-05 0.19427203 0.34704885 0.7220016 0.037752125 3.600065e-05 0.24021164
0.52005625 0.7816766 0.031299368 0.000117602176 0.18690844 0.48642766 0.95428985 0.0011044204
6.240113e-05 0.044542216 0.1763351 0.8254422 0.07304695 7.920155e-05 0.1014295 0.4474278
0.78012145 0.079064436 5.0801034e-05 0.14075392 0.47171614 0.9101609 0.0014536246 3.4000677e-05
0.08834551 0.21511753 0.8202032 0.07906864 3.4800636e-05 0.10060287 0.44691753 0.73885226
0.08310046 3.8000704e-05 0.17795727 0.4965355 0.28630787 0.11712183 0.0026824542 0.59354407
0.6828805 0.30243498 0.6359418 0.78490216 -0.00040333805 0.14003094 -0.002211016 0.9009337
0.23713222 0.0020495374 0.660469 0.029228557 -0.09125007 -0.014478154 42.29892 0.5199851
1.719963 85.17283 0.48604017 -87.71956 0.0022074701 0.0016179594 -0.0063736285 0.8272393
0.83678365 0.7740261 0.8817426
