Assets/ML-Agents/mla-1.0.6/results/carchase02/CarAgent/CarAgent-2599988.onnx (onnx, 362126 bytes, 9 tensors)

53 f4 [91]
0	0x3ec3d056	0.38244885
1	0x3cf2b351	0.02962652
2	0x3bac6eed	0.005262247
3	0x3ec36a60	0.38167095
4	0x3e9f6aa3	0.31136045
5	0x3ef331be	0.47498888
6	0x3e2c10e2	0.16803315
7	0x3c18bdea	0.009322623
8	0x3eedc2c1	0.46437648
9	0x3e986d74	0.29771006
10	0x3ec0f3d8	0.37686038
11	0x3e4877d3	0.1957696
12	0x3bc5057d	0.006012617
13	0x3eacfc3b	0.33786187
14	0x3e63da28	0.22251189
15	0x3ec97d22	0.3935328
16	0x3cda3b5f	0.026639638
17	0x3bc61174	0.006044561
18	0x3ec93020	0.3929453
19	0x3ea35700	0.31902313
20	0x3ee429d4	0.44563162
21	0x3e4243ae	0.1897113
22	0x3bc1da4e	0.0059159165
23	0x3ed95a39	0.42451647
24	0x3e8c7f70	0.27440977
25	0x3ed2a9ce	0.41145176
26	0x3e331fe8	0.1749264
27	0x3c2e8178	0.010650985
28	0x3ec67947	0.38764402
29	0x3e80535c	0.25063598
30	0x3e54313c	0.20721906
31	0x3d07221c	0.032991514
32	0x3bfe9f0d	0.007770425
33	0x3e519094	0.20465308
34	0x3e354f78	0.17706096
35	0x3ec25d5f	0.37961861
36	0x3e86122a	0.26185733
37	0x3c0f547a	0.008748168
38	0x3e99eaf2	0.30062062
39	0x3e506ae8	0.20353281
40	0x3ed3a406	0.41336077
41	0x3e893faa	0.26806384
42	0x3be5e821	0.0070161973
43	0x3eb20842	0.34771925
44	0x3e697c42	0.22801307
45	0x3e9363f9	0.2878721
46	0x3d1965fc	0.037450776
47	0x3bbc73ed	0.005751124
48	0x3e9256db	0.2858189
49	0x3e7c4c78	0.24638546
50	0x3ec5147f	0.384922
51	0x3e88def6	0.26732606
52	0x3bbea19a	0.0058176043
53	0x3e9bd9ca	0.30439597
54	0x3e4f08b1	0.2021816
55	0x3ee0e56c	0.43925035
56	0x3e8e4810	0.27789354
57	0x3bc71b80	0.0060762763
58	0x3ec3494d	0.38141862
59	0x3e7cea56	0.24698767
60	0x3ee77e07	0.4521334
61	0x3ea3634d	0.31911698
62	0x3d4fc1a2	0.050721772
63	0x3efb4b85	0.49081054
64	0x3ec83a61	0.3910704
65	0x3eebb6c9	0.46037892
66	0x3ef71eca	0.48265678
67	0x3e9e1bcc	0.30880582
68	0x3d478cf2	0.0487184
69	0x3ec41cee	0.38303322
70	0x3d850da9	0.06496746
71	0x3df16ae2	0.117879644
72	0x3f20d408	0.62823534
73	0x3d760fcc	0.06007366
74	0x3ea732e8	0.32656026
75	0x3f1f4ac2	0.62223446
76	0x3f70969f	0.9397983
77	0x3f6d60d3	0.9272587
78	0x3cd74030	0.026275724
79	0x3a373d9a	0.00069900753
80	0x3aa1ba19	0.0012338787
81	0x424353c7	48.831814
82	0x3f40ead5	0.75358325
83	0x42dbf6e2	109.98219
84	0x3dca9cd4	0.09893194
85	0x3d7fe7f1	0.062477056
86	0x3e21f489	0.15815939
87	0x3ec20bd7	0.37899658
88	0x3ebd9252	0.37025696
89	0x3ed645f3	0.41850242
90	0x3ea60839	0.32428148

54 f4 [1, 2]
0	0xbf335ec8	-0.700665
1	0xbfae4c56	-1.3617046

distribution.mu.bias f4 [2]
0	0xbc6f6372	-0.014611112
1	0x3d1d7ad0	0.0384472

distribution.mu.weight f4 [2, 256]
0	0x3d5cde43	0.053922903
1	0x3d2dccaf	0.04243153
2	0xbd16f328	-0.036852986
3	0xbbe6c118	-0.0070420615
4	0xbd37349c	-0.044727907
5	0x3d1585be	0.0365045
6	0xbc7629fa	-0.015024656
7	0xbd069183	-0.032853615
8	0xbc0df96b	-0.008665423
9	0x3c8f616b	0.017502507
10	0xbd60fc36	-0.054928027
11	0x3cc7d757	0.024394674
12	0x3cbdc26b	0.023163995
13	0x3b8d090e	0.004304058
14	0xbd21ce2c	-0.03950326
15	0xbae6d775	-0.0017611819
16	0xbd2493b8	-0.040179938
17	0x3b48134b	0.0030529078
18	0xbd00bcd0	-0.031430066
19	0xbb8b9fbf	-0.0042609866
20	0x3b943848	0.004523311
21	0x3cd7e705	0.026355276
22	0xbca9b303	-0.020715242
23	0x3bcdafb0	0.006277047
24	0xbc7ffad6	-0.015623769
25	0x3c41a5ab	0.0118192835
26	0x3c5021cc	0.01270337
27	0x3ca3e6e9	0.020007567
28	0xbb0789e7	-0.0020681561
29	0xbce2a9a3	-0.02766878
30	0x3cb8f2bf	0.022576688
31	0xbc8b7008	-0.017021194
32	0xbc37bc05	-0.011214261
33	0xbc57c018	-0.013168357
34	0xbc9f1528	-0.019419268
35	0xbc88268a	-0.01661994
36	0xbbee8499	-0.0072789905
37	0xbd333b5e	-0.04375779
38	0xbcee74d0	-0.029108435
39	0x3c78e775	0.015191902
40	0xbc64cc12	-0.01396467
41	0x3cc75bb9	0.024335729
42	0x3cd1f85b	0.02563112
43	0xba0ae170	-0.0005297875
44	0x3acec260	0.0015774481
45	0xbb1e47fe	-0.0024151797
46	0xbd35e2db	-0.0444058
47	0xbc6f3d3c	-0.014602002
48	0x3d4e5f18	0.050383657
49	0xba213a9e	-0.0006150397
50	0xbba94179	-0.0051652757
51	0x3c32acbb	0.01090544
52	0xbd05db79	-0.03268001
53	0x3a56b657	0.0008190623
54	0xbc478768	-0.012178279
55	0xbd827fb5	-0.063720144
56	0xbd19a40b	-0.03750996
57	0x3a3655c0	0.0006955527
58	0x3d0da956	0.03458532
59	0xbc7b9159	-0.015354478
60	0x3cc2217b	0.023697605
61	0xbd6eebf2	-0.058330484
62	0xbc188dcf	-0.009311154
63	0x3c7fa6bb	0.0156037165
64	0x3cf6d390	0.030130178
65	0x3d1aa735	0.037757117
66	0xbcb9f2a9	-0.022698717
67	0xbc693d4e	-0.014235808
68	0xbbcd3a87	-0.0062630805
69	0xbd041cf0	-0.03225416
70	0xbcfe49c1	-0.031041028
71	0xbd1ff56e	-0.03905242
72	0x3c2ebd08	0.010665186
73	0xbd5eeb45	-0.05442359
74	0x3d60dc7e	0.054897778
75	0x3cbf55d5	0.023356358
76	0xbd340309	-0.043948207
77	0xbcfe2c94	-0.031027116
78	0xbd31dcb5	-0.043423373
79	0xbcd7e654	-0.026354946
80	0x3a802c35	0.00097788
81	0xbd2f8156	-0.042847954
82	0x3cf05569	0.029337602
83	0x3c1a7817	0.009428046
84	0x3cb2ffa8	0.021850422
85	0xbc4f2920	-0.012644082
86	0xbd7eca74	-0.062204793
87	0x3c126303	0.008934739
88	0xbd30c703	-0.043158542
89	0xbcef529d	-0.029214198
90	0xbd2162d1	-0.03940088
91	0xbcf8c731	-0.03036842
92	0xbbd77ee7	-0.0065764072
93	0x3ba7d3d5	0.005121688
94	0xbc7c6cfd	-0.015406844
95	0xbcd8154d	-0.026377345
96	0xbd54263c	-0.051794276
97	0x3c9a585b	0.01884096
98	0xbd89713e	-0.06711052
99	0xbc08434b	-0.008316825
100	0xbbaef523	-0.005339281
101	0x3c80313a	0.015648473
102	0x3d018740	0.031623125
103	0xbd1901e8	-0.037355334
104	0xbba3eb34	-0.0050024036
105	0xbd06b474	-0.032886937
106	0x3cb47053	0.022026217
107	0xbc21ea3f	-0.009882509
108	0xbb6460a6	-0.0034847646
109	0xbd334b42	-0.043772943
110	0xbd1310c0	-0.035904646
111	0x3c18b453	0.009320336
112	0xbc989415	-0.018625299
113	0xbcbf597b	-0.023358097
114	0xbc400ef0	-0.011722311
115	0xbb2d8a05	-0.002647997
116	0x3c1b9fac	0.009498518
117	0x3d8c12b5	0.068395056
118	0x3c311b76	0.01080977
119	0x3c4b9951	0.01242669
120	0x3cb7876e	0.022403445
121	0xbcf6a7d0	-0.030109316
122	0xbc40a0b1	-0.011757062
123	0xbc3ebe5f	-0.011642068
124	0xbbee2f6e	-0.0072688377
125	0xbc9980be	-0.018738147
126	0xbafcd6b1	-0.0019290057
127	0xbc9bde8a	-0.019027013
128	0x3cda492c	0.02664622
129	0xbcf68991	-0.030094894
130	0xbabe7b22	-0.0014532546
131	0x3d1a3f5d	0.037658084
132	0x3cfb26f6	0.030658226
133	0xbbf6581a	-0.0075178267
134	0x3cffaf4f	0.031211523
135	0xbca7e676	-0.020495635
136	0xbb87d61a	-0.004145396
137	0xbcb1cc0b	-0.02170374
138	0x3cf0b36e	0.029382434
139	0xbc4ade58	-0.012382112
140	0x3d3bd39c	0.045856103
141	0xbd86a7da	-0.06574984
142	0x3c953a57	0.018216295
143	0xbb095b4d	-0.002095896
144	0x3d1a6e21	0.037702683
145	0x3c2b5e01	0.010459424
146	0xbcd51422	-0.026010577
147	0xbd840670	-0.0644654
148	0xbc984d7e	-0.018591639
149	0xbd46aac6	-0.048502706
150	0xbd4883a3	-0.048953664
151	0x3c80a199	0.015702056
152	0xb8476dd0	-4.7547568e-05
153	0xbd06bf77	-0.03289744
154	0xbd7d7941	-0.061883215
155	0xbd6d78ca	-0.05797652
156	0xbd5da73b	-0.05411456
157	0xbc897266	-0.016778182
158	0xbd6b353c	-0.057423815
159	0xbb87172e	-0.0041226363
160	0x3c4f431d	0.012650278
161	0xbd107aa8	-0.035273224
162	0x3b28f08a	0.0025778138
163	0xbb44d9fd	-0.0030037158
164	0xbd2835cc	-0.04106693
165	0xbcca98cb	-0.02473106
166	0xbcbca113	-0.023026025
167	0xbd05b0d1	-0.03263933
168	0x3c9165cd	0.017748738
169	0xbc8821f5	-0.016617754
170	0x3bf62c14	0.0075125787
171	0xbd485e60	-0.048918128
172	0x3c1d514e	0.009601904
173	0xbbdb9c42	-0.006701977
174	0xbcbc0758	-0.02295272
175	0x3c2f10b2	0.010685133
176	0x3a280521	0.00064094557
177	0xbd2042ff	-0.039126392
178	0x3c8d3b84	0.017240293
179	0xbc1b65cb	-0.009484719
180	0xbd3e5585	-0.046468277
181	0xbc0b5367	-0.008503771
182	0xbc5b80b1	-0.013397382
183	0xbd17c1f5	-0.037050206
184	0xbd50a6cb	-0.050940316
185	0xbbfa2c9b	-0.007634712
186	0xbd63acb9	-0.055584643
187	0xbbc7aef1	-0.0060938527
188	0xbd057e97	-0.03259143
189	0xbb4183a0	-0.0029527918
190	0xbd573cef	-0.052548345
191	0xbcea0591	-0.028567107
192	0x3d1d9419	0.038471315
193	0xbd778228	-0.06042686
194	0xbcc11c58	-0.023573086
195	0x3c99a11d	0.018753583
196	0xbc82c8ad	-0.01596483
197	0x3c9c8bf8	0.019109711
198	0xbcfaca8d	-0.030614162
199	0xbc9fada0	-0.01949197
200	0xbadcf3da	-0.0016857341
201	0xbd0205cc	-0.03174381
202	0xbc612b16	-0.013743183
203	0x3c53be8f	0.012923851
204	0x3d3a3e5c	0.045469627
205	0x3cb00605	0.021487245
206	0x3b3c0118	0.0028687175
207	0x3cabd79d	0.020976836
208	0xbc2b6601	-0.010461331
209	0xbd165a0d	-0.036706973
210	0xbd3edd6a	-0.046597876
211	0xbc6a2eff	-0.014293431
212	0x3ce14546	0.027498852
213	0xbcca10c4	-0.024666198
214	0xbcf1532c	-0.029458605
215	0xbc1a9ffd	-0.009437558
216	0xbb48d8b5	-0.0030646746
217	0xbcf6db47	-0.030133856
218	0xbc5552d3	-0.013020235
219	0x3c0d2df6	0.008616915
220	0x3d19f080	0.037582874
221	0xbb330017	-0.0027313286
222	0x3d0f5a7b	0.0349984
223	0xbb1fe1f9	-0.0024396165
224	0x3d4adf5b	0.049529415
225	0xbd0748c0	-0.033028364
226	0x3bc282f6	0.005936022
227	0x3c64015b	0.013916339
228	0x3ca1f4cc	0.019770049
229	0xbd3614e9	-0.044453535
230	0xbc2e6764	-0.010644767
231	0xbc802ff5	-0.015647868
232	0xbb952050	-0.004550971
233	0xbd5592c8	-0.052141935
234	0xbc84f33e	-0.016229268
235	0x3b3cc140	0.002880171
236	0x3cf40bd4	0.029790796
237	0xbc2d90bb	-0.010593588
238	0xbc0c486f	-0.008562191
239	0x3c388ebe	0.011264501
240	0x3d410c5f	0.04713094
241	0x3cd4ad5b	0.025961569
242	0xbd3caa43	-0.04606081
243	0xbc9dbea5	-0.019255945
244	0x3c85055f	0.016237913
245	0xbc994f92	-0.0187147
246	0xbbea6fee	-0.0071544563
247	0xbc10b8fd	-0.008833167
248	0xbd11c71e	-0.035590284
249	0xbcb87d22	-0.022520605
250	0xbbe1b55e	-0.0068880757
251	0xbd3a1f3e	-0.04543995
252	0xbc890aff	-0.016728876
253	0x3c72185e	0.014776317
254	0xbc533aeb	-0.012892465
255	0xbd2b9ec6	-0.041899465

network_body.linear_encoder.seq_layers.0.bias f4 [256]
0	0xbce5bf66	-0.028045367
1	0xbde3010c	-0.11084184
2	0x3c864e81	0.016394855
3	0xbdb79460	-0.08963847
4	0xbd010003	-0.03149415
5	0xbc99ac19	-0.01875882
6	0xbd16661d	-0.036718477
7	0x3d82ff52	0.06396355
8	0xbb90f45f	-0.0044236626
9	0x3d6fde82	0.05856181
10	0x3d6b0a60	0.05738294
11	0xbda1c259	-0.07898397
12	0xbcb07ca4	-0.021543808
13	0x3d5f86b4	0.054571822
14	0xbd14b0ca	-0.03630141
15	0x3d0d8c6e	0.034557752
16	0xbd777aec	-0.06041996
17	0xbd7eee58	-0.06223902
18	0xbd795e23	-0.06088079
19	0xbd768ae3	-0.060191046
20	0x3ddf095c	0.10890457
21	0xbdabcbe3	-0.08388498
22	0x3d866251	0.06561721
23	0x3c9f50a9	0.019447641
24	0xbd079fd4	-0.03311141
25	0xbc448bfb	-0.011996265
26	0x3d3cd298	0.046099275
27	0xbdcfe68e	-0.10151397
28	0xbd14e44a	-0.036350526
29	0x3d7feb6f	0.062480386
30	0xbdd8e63f	-0.10590791
31	0xbdea41a5	-0.11438302
32	0x3c8df4ff	0.017328737
33	0xbd752db6	-0.059858046
34	0x3d4725a8	0.048619896
35	0x3d82be9c	0.06384012
36	0xbd997e77	-0.074948244
37	0x3d39723c	0.045274958
38	0x3b820c26	0.0039687334
39	0xb94e9b63	-0.00019703577
40	0xbd233617	-0.039846506
41	0xbcf493d9	-0.029855656
42	0xbcbce2d7	-0.023057384
43	0xbd32e452	-0.043674774
44	0x3df46289	0.119328566
45	0x3c3e1cdc	0.01160356
46	0xbd6b616e	-0.057465963
47	0xbd176960	-0.036965728
48	0xbd8960c5	-0.067079104
49	0xbcc83c04	-0.02444268
50	0x3d110a93	0.035410475
51	0x3bef09a5	0.007294851
52	0x3d81943d	0.06327102
53	0xbd264f7a	-0.04060314
54	0xbd813d7c	-0.06310555
55	0xbe127000	-0.14300537
56	0xbd04bdb7	-0.03240749
57	0x3db936ea	0.09043677
58	0x3cd7f1c5	0.026360402
59	0xbd8361ca	-0.06415136
60	0xbd645e2b	-0.055753868
61	0xbdc1bfd7	-0.09460419
62	0x3ca0e745	0.019641528
63	0xbd5ee219	-0.054414842
64	0x3d234ec6	0.039870046
65	0x3ccbfa60	0.024899662
66	0xbc8fa281	-0.017533543
67	0xbc0a32b8	-0.008434944
68	0xbd2a5e42	-0.041593798
69	0xbcc4016d	-0.023926461
70	0x3ddae7ab	0.106887184
71	0x3cef375f	0.029201208
72	0x3dba0714	0.09083381
73	0xbda4d577	-0.08048528
74	0x3c2d282b	0.010568659
75	0xbd21f165	-0.039536852
76	0x3c48cd72	0.012256013
77	0xbc35106a	-0.011051277
78	0xbdaf07b4	-0.08546391
79	0x3d22c795	0.039741118
80	0x3cd8a122	0.026444022
81	0xb9e41cf6	-0.00043509126
82	0x3d9ea2df	0.07745909
83	0xbbfed54b	-0.0077768913
84	0xbd487314	-0.048937872
85	0xbd84a599	-0.06476898
86	0xbdc5227b	-0.09625717
87	0xbd5cb095	-0.05387934
88	0x3cc0cecd	0.02353611
89	0xbc4dc616	-0.012559434
90	0x3d2c0951	0.042001072
91	0xbe19aa7f	-0.15006445
92	0xbd7bef8c	-0.061507747
93	0xbc91fac8	-0.017819777
94	0xbba44688	-0.005013291
95	0x3b8b10b3	0.004243934
96	0x3d897363	0.067114614
97	0x3c9be70e	0.019031074
98	0x3d838276	0.06421368
99	0x3df00a62	0.1172073
100	0x3c5da1c8	0.013527341
101	0xbdff07b8	-0.12452644
102	0xbccc9f61	-0.024978342
103	0xbd0ac1f1	-0.033876363
104	0x3d62cd49	0.055371556
105	0x3c8a1d47	0.016859664
106	0x3d9cb13f	0.076509945
107	0xbd3944d6	-0.045231663
108	0x3d6e85a8	0.058232933
109	0xbdf39cba	-0.118951276
110	0xbdae6526	-0.08515386
111	0x3d78feda	0.06078992
112	0xbd607a2d	-0.054804016
113	0xbd47ee31	-0.04881114
114	0xbdfb7128	-0.12277442
115	0xbe37494a	-0.17899051
116	0xbd054370	-0.032535017
117	0x3d27fda1	0.041013364
118	0x3d048f50	0.032363236
119	0xbd25718e	-0.040391497
120	0xbb7b0cc2	-0.0038307165
121	0xbd234325	-0.039858956
122	0x3ce7edd3	0.028311646
123	0xbd860cd2	-0.06545414
124	0x3d1aca0f	0.037790354
125	0xbc279ddc	-0.010230508
126	0xbe325703	-0.17416005
127	0xbd35a92b	-0.044350784
128	0xbcfdbb74	-0.030973174
129	0xbdb940a2	-0.09045531
130	0xbda36551	-0.07978309
131	0x3bd84eda	0.0066011967
132	0x3cb94563	0.022616094
133	0x3ccf4f64	0.025306411
134	0x3dee748f	0.116433255
135	0xbcf2dcbf	-0.029646276
136	0xbc289231	-0.010288761
137	0x3d8c363b	0.06846281
138	0xbd1614a5	-0.036640782
139	0xbdb72042	-0.089416996
140	0xbca10e04	-0.019660003
141	0x3c1e01d7	0.009643993
142	0x3dfd7100	0.12375069
143	0x3d230022	0.03979505
144	0xbc2865c9	-0.010278174
145	0xbca967e1	-0.020679416
146	0x3d869fce	0.06573449
147	0xbc49df5e	-0.012321321
148	0xbd84d558	-0.064860046
149	0xbcb98fbf	-0.022651551
150	0x3ca96308	0.020677105
151	0x3d4b06e4	0.04956712
152	0x3ce55e1d	0.027998978
153	0x3d210ec4	0.039320722
154	0xbddf3c87	-0.109002165
155	0xbd941017	-0.072296314
156	0xbdd89081	-0.10574437
157	0xbe153e23	-0.14574485
158	0x3d62e464	0.05539359
159	0xbbd4a028	-0.0064888187
160	0xbdc34aca	-0.09535749
161	0x3a700877	0.0009156535
162	0xbc12e623	-0.008966002
163	0xbc98c590	-0.018648893
164	0xbc84e854	-0.016224064
165	0xbd078d42	-0.0330937
166	0xbc8de020	-0.017318785
167	0x3da21b2f	0.07915341
168	0xbd1626e3	-0.03665818
169	0xbc72f633	-0.014829206
170	0x3db01bee	0.08599077
171	0x3c7a2038	0.015266471
172	0xbdb3916e	-0.08767973
173	0x3cc2c671	0.023776265
174	0xbc44eaf7	-0.012018911
175	0x3db419cd	0.087939836
176	0x3afb51d9	0.0019174173
177	0xbce32883	-0.027729278
178	0xbd3771b7	-0.04478618
179	0x3cbc15e0	0.02295965
180	0xbc4e0300	-0.012573957
181	0x3dabda09	0.08391196
182	0x3caa4633	0.020785427
183	0x3c983808	0.018581405
184	0xbcbee973	-0.023304677
185	0x3ba9ed8c	0.0051857885
186	0xbdca4476	-0.09876339
187	0xbc3a8496	-0.01138415
188	0x3c98cf51	0.018653544
189	0xbc6db235	-0.01450782
190	0x3cfb38c3	0.030666715
191	0xbd777a64	-0.060419455
192	0xbe02eb2e	-0.12785026
193	0xbcceb0ed	-0.02523085
194	0xbcff2205	-0.031144151
195	0xbce0e5e4	-0.02745337
196	0xbda48e4e	-0.08034955
197	0x3c8de8a3	0.017322844
198	0x3a424ce9	0.0007411973
199	0x3d86893c	0.06569144
200	0x3d851f62	0.065001264
201	0xbc69b880	-0.01426518
202	0x3c4dc18a	0.01255835
203	0xbd182283	-0.037142288
204	0xbdcb5397	-0.09928053
205	0xbda10161	-0.07861591
206	0x3bf9c7f8	0.007622715
207	0x3d87ac6f	0.06624686
208	0xbd065811	-0.03279883
209	0xbdce5159	-0.100741096
210	0xbd191516	-0.037373625
211	0x3b4da682	0.0031379764
212	0xbd605634	-0.05476971
213	0x3c9caf7e	0.01912665
214	0xbd4d0514	-0.05005367
215	0x3a936392	0.0011244884
216	0x3cd8d92b	0.026470741
217	0x3b9b4e84	0.0047395844
218	0x3cf86f29	0.030326443
219	0x3d039caa	0.03213183
220	0x3d335b12	0.043788023
221	0x3caed0cc	0.021339796
222	0xbceab310	-0.028649837
223	0x3c8efb8e	0.017453935
224	0xbd8f45c5	-0.06995729
225	0x3c8c7595	0.017145911
226	0x3b908dd3	0.004411438
227	0xbd96c1bf	-0.07361173
228	0xbdb02565	-0.086008824
229	0xbc0ff3aa	-0.008786121
230	0xbd1112d0	-0.03541833
231	0x3d718fd6	0.058975063
232	0xbc138c3f	-0.009005605
233	0xbc67e8e3	-0.014154646
234	0xb947654b	-0.00019015853
235	0xbcdf2572	-0.027239535
236	0xbdb8e7ed	-0.09028611
237	0x3c76b1fb	0.015057082
238	0xbda5596c	-0.080736965
239	0xbd6b903d	-0.057510603
240	0xbd817ac3	-0.06322243
241	0xbd62efdd	-0.055404533
242	0xbd10d6d6	-0.035361134
243	0xbd87d483	-0.0663233
244	0xbc33d945	-0.010977094
245	0xbbd29fea	-0.0064277546
246	0x3d0484f0	0.03235334
247	0xbcf7462a	-0.030184824
248	0xbd6a108d	-0.05714469
249	0xbc8a6823	-0.01689536
250	0xbb93b38c	-0.0045074876
251	0x3d53de82	0.05172587
252	0xbd2a89ec	-0.04163544
253	0xbca72e1a	-0.020407725
254	0x3daf1fa9	0.085509606
255	0xbd457a57	-0.048212375

network_body.linear_encoder.seq_layers.0.weight f4 [256, 91]
0	0x3b83e533	0.0040251254
1	0xbe61afb1	-0.22039677
2	0x3e155c12	0.14585903
3	0xbe2e302f	-0.17010568
4	0x3c9e389d	0.019314105
5	0x3e1069e2	0.14102891
6	0xbcf99353	-0.030465757
7	0x3d765f06	0.060149215
8	0xbd5120c3	-0.051056635
9	0x3d36ed8c	0.044660136
10	0xbe49e02d	-0.19714423
11	0xbc430543	-0.01190311
12	0x3e438e56	0.19097266
13	0xbdfb2cba	-0.1226439
14	0xbe2609f2	-0.16214731
15	0xbdd78705	-0.105238
16	0x3d9f5fd6	0.07781951
17	0xbd50ce51	-0.05097801
18	0x3d5672d7	0.052355614
19	0xbcd86a43	-0.026417857
20	0x3e55942f	0.20857309
21	0xbc6d2e07	-0.014476306
22	0xbdfc465d	-0.12318108
23	0xbe04a079	-0.1295184
24	0xbdb8ba10	-0.090198636
25	0xbdcb7b4f	-0.099356286
26	0x3c1a23e0	0.009407967
27	0x3c00ac7b	0.007853623
28	0xbe8adf33	-0.27123412
29	0xbdbdd197	-0.09268492
30	0xbe7bc95a	-0.24588528
31	0x3e93ebd5	0.28890863
32	0x3dc55463	0.09635236
33	0x3d8b2fbe	0.067962155
34	0xbd1e00f5	-0.03857513
35	0xbe14eda6	-0.1454378
36	0x3d858d2e	0.065210685
37	0x3d34537b	0.044024926
38	0x3e23d6c5	0.15999897
39	0xbe105c34	-0.14097673
40	0xbd64280d	-0.055702258
41	0x3db7eb60	0.08980441
42	0x3e59c4c6	0.2126647
43	0x3c8ebfe8	0.017425492
44	0x3da754fd	0.08170507
45	0x3dd9eb47	0.10640579
46	0xbe07a70d	-0.13247319
47	0xbe486a24	-0.1957174
48	0x3e31bab1	0.17356373
49	0x3dbc4d34	0.09194413
50	0x3dbb822e	0.09155689
51	0x3e0623d7	0.1309961
52	0x3dad283e	0.08454941
53	0x3bac5ad7	0.0052598524
54	0x3e4a0687	0.19729052
55	0xbdcc998a	-0.09990223
56	0xbdd974a6	-0.10617952
57	0x3cd2070f	0.025638131
58	0xbd6f9576	-0.058492146
59	0x3e136df5	0.14397414
60	0xbda9780a	-0.08274849
61	0xbd8c0d4f	-0.06838476
62	0x3dfc4896	0.12318532
63	0x3c886a82	0.01665235
64	0x3d063c33	0.032772254
65	0x3db416df	0.08793425
66	0xbdc566ae	-0.09638725
67	0xbe4d9106	-0.20074853
68	0xbdf59217	-0.11990755
69	0x3d76be6c	0.060240194
70	0x3b96daad	0.004603705
71	0xbdbfd3bb	-0.09366556
72	0x3e497ff5	0.19677718
73	0xbcf986cc	-0.030459784
74	0x3c30d644	0.010793272
75	0xbe20b80b	-0.15695207
76	0x3e3fb884	0.18722731
77	0x3cb20d2c	0.021734796
78	0xbd96b9d0	-0.0735966
79	0x3d75851e	0.059941404
80	0x3d8ab9a5	0.0677369
81	0xbe6b483c	-0.22976774
82	0x3e4ff807	0.20309459
83	0xbd207a35	-0.039179046
84	0xbed30568	-0.41215062
85	0xbe60b4c1	-0.21943952
86	0xbdf3cf7c	-0.11904809
87	0xbe330453	-0.17482118
88	0x3df62da9	0.12020428
89	0xbd5bdc38	-0.053676814
90	0xbd66aa57	-0.056314792
91	0x3e060553	0.13087969
92	0x3d715815	0.058921892
93	0xbdfe4fd7	-0.12417572
94	0xbe05c688	-0.13064015
95	0x390c25cb	0.0001336552
96	0x3e599e7b	0.21251862
97	0xbd8290fa	-0.06375308
98	0xbe11460c	-0.14186877
99	0xbe1613d5	-0.14656003
100	0x3e52ca23	0.20584922
101	0x3d116551	0.035497013
102	0xbe154d25	-0.1458021
103	0xbcbf3fa4	-0.023345776
104	0xbcd733e1	-0.026269855
105	0x3dd8c75d	0.105849005
106	0xbe1ff51f	-0.1562085
107	0x3db6bb0b	0.08922394
108	0x3dbc4201	0.09192277
109	0xbc8e328e	-0.01735809
110	0xbe35e917	-0.17764698
111	0x3daadec3	0.0834327
112	0x3d18bf60	0.037291884
113	0x3ed5969d	0.4171647
114	0x3c32eb6b	0.010920386
115	0x3e7bbd38	0.245839
116	0xbcd7d558	-0.026346847
117	0xbd9ae91a	-0.07563992
118	0x3d888428	0.06665832
119	0xbd54302f	-0.051803764
120	0xbe25166e	-0.16121837
121	0xbe058c3d	-0.13041778
122	0xbd07d064	-0.03315772
123	0x3df5aac5	0.11995462
124	0xbdf2b27e	-0.11850451
125	0xbd531f45	-0.051543493
126	0xbd379435	-0.044819076
127	0x3de14b5e	0.11000703
128	0x3d7e1037	0.062027182
129	0x3e13a1ad	0.14417143
130	0xbe157c18	-0.1459812
131	0xbd0da6ef	-0.03458303
132	0x3b569b2e	0.0032746303
133	0x3e6e30ac	0.23260754
134	0xbd58d46f	-0.052936967
135	0xbda8fbb9	-0.08251137
136	0xbcaef20d	-0.021355653
137	0x3da9f91a	0.082994655
138	0x3d7080cf	0.05871659
139	0x3d051647	0.03249195
140	0x3cdc7b71	0.02691433
141	0x3d9f4537	0.077768736
142	0xbd9414e6	-0.072305486
143	0xbd66e713	-0.056372713
144	0xb98cc955	-0.00026852885
145	0x3dac8d74	0.084254175
146	0xbe08c694	-0.13357002
147	0xbd482aac	-0.04886882
148	0xbc26a054	-0.010170061
149	0x3d0a8877	0.03382155
150	0xbe19c7d3	-0.15017633
151	0xbdc22f5f	-0.094816916
152	0xbda3e2b5	-0.08002225
153	0x3ce2970c	0.027659915
154	0x3d85f19f	0.06540226
155	0xbbf1faf5	-0.0073846527
156	0xbd2902f2	-0.041262574
157	0x3d2ffb66	0.04296436
158	0xbe6ae2be	-0.22938058
159	0xbe01e46a	-0.1268479
160	0xbd1de590	-0.038549006
161	0x3d2153dc	0.039386615
162	0xbe354a3a	-0.17704096
163	0x3ddf0142	0.10888912
164	0x3d76f44d	0.060291577
165	0x3e242ed6	0.16033491
166	0xbe59bb81	-0.21262933
167	0x3d89998f	0.06718742
168	0x3d9f530e	0.07779513
169	0xbe2a3ec3	-0.16625504
170	0xbd80a3a4	-0.06281212
171	0xbd3e2f39	-0.046431754
172	0xbd9a26c8	-0.07526928
173	0xbe127787	-0.14303409
174	0x3e07af2f	0.13250421
175	0xbef6ff77	-0.4824178
176	0xbe05fa22	-0.130837
177	0xbd2e5370	-0.04256004
178	0x3d83ecfa	0.06441684
179	0x3e104344	0.1408816
180	0x3d9e7eff	0.07739066
181	0x38f80e78	0.000118282565
182	0xbd9d062a	-0.07667191
183	0x3e30b41f	0.1725621
184	0x3c96654f	0.018358855
185	0x3db2b215	0.08725373
186	0xbe3616a9	-0.17782082
187	0x3d8b86aa	0.068127945
188	0xbbda5385	-0.0066627883
189	0xbccd54bc	-0.025064819
190	0x3e96059e	0.2930116
191	0x3dd54a2d	0.104145385
192	0xbd882587	-0.06647783
193	0x3d2a8e82	0.041639812
194	0xbd09b0f1	-0.03361601
195	0x3d8e0628	0.06934768
196	0x3dd185e1	0.102306135
197	0x3e13100f	0.14361595
198	0xbe139eae	-0.14416
199	0xbd9b2510	-0.075754285
200	0xbc96f2cd	-0.018426323
201	0x3dd151d1	0.10220683
202	0x3dff9790	0.1248008
203	0x3e1a8e2b	0.15093295
204	0x3b8783b6	0.004135574
205	0xbd8e3b57	-0.06944912
206	0xbde0cf15	-0.10976998
207	0xbc47e671	-0.012200938
208	0xbd0f7725	-0.035025734
209	0x3d378904	0.044808403
210	0x3de5cd55	0.112208046
211	0xbd98b6ea	-0.07456763
212	0xbe6de19c	-0.23230594
213	0x3e6f370c	0.23360842
214	0x3c30dfe7	0.01079557
215	0x3cadd699	0.021220492
216	0x3d17c9d3	0.03705771
217	0x3bc1754a	0.0059038745
218	0xbe7680dd	-0.24072595
219	0x3e2ab4c7	0.16670524
220	0xbe071125	-0.13190134
221	0xbde49921	-0.111620195
222	0x3d70e2b5	0.058809955
223	0x3d84d05f	0.06485056
224	0xbd5aef62	-0.05345095
225	0x3d494098	0.049133867
226	0xbe829427	-0.25503656
227	0xbe31ab43	-0.17350487
228	0x3dd98152	0.10620369
229	0xbc936b91	-0.017995628
230	0x3df7741c	0.12082693
231	0x3da55c43	0.08074238
232	0xbe100d8b	-0.14067666
233	0x3d8b34a8	0.06797153
234	0xbe907866	-0.28216857
235	0xbcf9e745	-0.030505786
236	0xbe1c3209	-0.15253462
237	0xbdb19a1b	-0.086719714
238	0xbe35e8ec	-0.17764634
239	0xbdd93ee2	-0.10607697
240	0xbe1139fd	-0.14182277
241	0xbe8b568b	-0.27214465
242	0x3de040a2	0.10949828
243	0x3ebd10cd	0.3692688
244	0xbcb1a046	-0.02168287
245	0x3d25fcff	0.04052448
246	0x3d2ecff1	0.042678777
247	0x3e4595d9	0.19295444
248	0xbc0f9cc3	-0.008765402
249	0x3cfb4ec6	0.03067721
250	0xbcc7a98a	-0.024372835
251	0xbe40fd70	-0.18846679
252	0xbdec09b8	-0.11525291
253	0xbd7f9714	-0.06239994
254	0xbd5e4a37	-0.054269996
255	0xbdfab0c7	-0.12240749

network_body.linear_encoder.seq_layers.2.bias f4 [256]
0	0xbd022db5	-0.03178187
1	0xbd8dbdbc	-0.069209546
2	0xbd7aed01	-0.06126118
3	0xbdb8e302	-0.09027673
4	0xbda9cd68	-0.08291131
5	0xbd5d899b	-0.05408631
6	0xbdb8a48f	-0.09015762
7	0xbd717af9	-0.058955166
8	0xbcaafb1a	-0.020871688
9	0xbdd52c54	-0.104088455
10	0xbd82d66f	-0.06388556
11	0xbdadb700	-0.0848217
12	0xbd55b8c1	-0.05217815
13	0xbd2025b6	-0.039098464
14	0xbd660208	-0.05615428
15	0xbd9077dc	-0.07054111
16	0xbd956ee9	-0.07296545
17	0xbd1c7c5f	-0.038204547
18	0xbda315ef	-0.07963168
19	0xbd773e26	-0.060362004
20	0xbd3b85fa	-0.045782067
21	0xbd9fc978	-0.07802099
22	0xbdb711c0	-0.089389324
23	0xbd1108bf	-0.03540873
24	0xbd7d92ef	-0.061907705
25	0xbd382369	-0.044955645
26	0xbdb51225	-0.088413514
27	0xbd820c39	-0.063499875
28	0xbdbcfcf0	-0.092279315
29	0xbd9cecfc	-0.07662389
30	0xbd92592d	-0.07145915
31	0xbd6efddb	-0.058347564
32	0xbb7ad8ed	-0.003827627
33	0xbdc0e91e	-0.094194636
34	0xbdb09264	-0.08621672
35	0xbd845ca1	-0.0646298
36	0xbdaaa9eb	-0.083331905
37	0xbd21c8ce	-0.039498143
38	0xbd4a7599	-0.049428556
39	0xbdd0f35f	-0.10202669
40	0xbd8b27e3	-0.06794717
41	0xbdbaadd7	-0.091151886
42	0xbd77edee	-0.06052964
43	0xbc63a3b1	-0.013894008
44	0xbdb16fa5	-0.08663873
45	0xbd7413ba	-0.059589125
46	0xbd752c0a	-0.059856452
47	0xbe07ea2d	-0.13272925
48	0xbd2a6959	-0.041604374
49	0xbcf7e062	-0.030258361
50	0xbd65e9b4	-0.05613108
51	0xbd625914	-0.055260733
52	0xbcce5b37	-0.025189979
53	0xbd83d95e	-0.06437944
54	0xbd99778e	-0.07493506
55	0xbd972c9a	-0.07381554
56	0xbd87637d	-0.06610773
57	0xbd9b07c8	-0.075698435
58	0xbe067015	-0.13128693
59	0xbd1c31ec	-0.038133547
60	0xbd993b0d	-0.07481966
61	0xbd359dd0	-0.044339955
62	0xbdbf4a94	-0.093403965
63	0xbd78bdc4	-0.06072785
64	0xbd744ca6	-0.05964341
65	0xbda2d876	-0.07951443
66	0xbda66899	-0.08125419
67	0xbd3d27b7	-0.046180453
68	0xbcc53644	-0.024073727
69	0xbd17f0cf	-0.037094887
70	0xbd9e2dc1	-0.077235706
71	0xbd473d5c	-0.0486425
72	0xbd81c041	-0.06335498
73	0xbd8daa6c	-0.06917271
74	0xbdb9feda	-0.09081812
75	0xbd53b235	-0.051683623
76	0xbd86eca6	-0.06588106
77	0xbd8e3e67	-0.06945496
78	0xbd7f1570	-0.062276304
79	0xbd6c6ec6	-0.05772283
80	0xbe07575e	-0.13216922
81	0xbcd3a271	-0.025834294
82	0xbd54209b	-0.051788907
83	0xbda447bb	-0.08021494
84	0xbd9374ce	-0.07200013
85	0xbdfccc4a	-0.123436525
86	0xbd905dbe	-0.0704913
87	0xbd8a1dfd	-0.06744001
88	0xbdbbfb7a	-0.09178825
89	0xbcad83a1	-0.02118093
90	0xbd1886c2	-0.03723789
91	0xbdb2fef4	-0.08740035
92	0xbdb6aca0	-0.08919644
93	0xbdc260a7	-0.09491091
94	0xbe0294e8	-0.12752116
95	0xbd9c25b8	-0.07624382
96	0xbdcb6f8d	-0.09933386
97	0xbdb592bf	-0.0886588
98	0xbd9cdf19	-0.0765974
99	0xbd7ba212	-0.06143386
100	0xbd7bc913	-0.061471056
101	0xbd7a9b84	-0.061183468
102	0xbd418195	-0.04724272
103	0xbda4b117	-0.0804159
104	0xbde13d9e	-0.10998081
105	0xbd8bdb20	-0.06828904
106	0xbde10a4e	-0.109882936
107	0xbdb07da5	-0.08617715
108	0xbbe76738	-0.007061865
109	0xbd3f03f6	-0.046634637
110	0xbd74171d	-0.059592355
111	0xbdd7d6c2	-0.10539009
112	0xbdabdfc1	-0.08392287
113	0xbd842c16	-0.06453721
114	0xbd691244	-0.056902185
115	0xbdb0616d	-0.086123325
116	0xbd9a8410	-0.0754472
117	0xbd80d224	-0.06290081
118	0xbdadd52f	-0.08487927
119	0xbe07d716	-0.13265643
120	0xbd56f3d3	-0.052478623
121	0xbd9c640d	-0.07636271
122	0xbd78dfd1	-0.060760323
123	0xbd84514e	-0.0646082
124	0xbd8367b1	-0.06416262
125	0xbda48747	-0.080336146
126	0xbd14801c	-0.036254987
127	0xbd2f87a5	-0.04285397
128	0xbce78739	-0.028262721
129	0xbd3b168e	-0.045675807
130	0xbd93ac06	-0.07210545
131	0xbc42eb10	-0.011896864
132	0xbcfcc6d9	-0.030856537
133	0xbd50ca3f	-0.050974127
134	0xbd80fb16	-0.06297891
135	0xbd8db4e8	-0.06919271
136	0xbd91f03c	-0.07125899
137	0xbda7352a	-0.08164437
138	0xbd06f712	-0.03295047
139	0xbdabee27	-0.08395033
140	0xbd8a729c	-0.06760141
141	0xbdd9e885	-0.10640053
142	0xbdb37be6	-0.08763866
143	0xbdcafc31	-0.09911383
144	0xbcdde7b0	-0.027088016
145	0xbdd3cb3f	-0.103415005
146	0xbd937c51	-0.07201446
147	0xbd88e287	-0.06683832
148	0xbdb7269a	-0.089429095
149	0xbd0ba62e	-0.03409403
150	0xbd7e14d5	-0.062031586
151	0xbd83fc99	-0.064446636
152	0xbdea71ee	-0.114475116
153	0xbdc70713	-0.09718146
154	0xbda74261	-0.08166958
155	0xbd4fbfdf	-0.050720092
156	0xbccae65e	-0.02476805
157	0xbdaf42c2	-0.08557655
158	0x3cd682c4	0.0261854
159	0xbdf61bf7	-0.120170526
160	0xbded7c55	-0.1159598
161	0xbdad38f4	-0.084581286
162	0xbdc79f3d	-0.09747169
163	0xbd6811bf	-0.05665755
164	0xbd9d8208	-0.07690817
165	0xbda7f80c	-0.08201608
166	0xbda34955	-0.07972971
167	0xbd643217	-0.055711832
168	0xbd797463	-0.06090201
169	0xbd3ccbf8	-0.046092957
170	0xbc808b2f	-0.015691368
171	0xbcdb6566	-0.026781749
172	0xbdb4f54f	-0.088358514
173	0xbd532cdf	-0.051556464
174	0xbd6b1296	-0.05739077
175	0xbde329f1	-0.11091984
176	0xbde420e7	-0.11139088
177	0xbd9b8708	-0.075941145
178	0xbd92b760	-0.07163882
179	0xbce332cd	-0.027734185
180	0xbdb18cd6	-0.086694404
181	0xbddcf611	-0.10789121
182	0xbd366329	-0.04452816
183	0xbd2f836f	-0.042849954
184	0xbdab24e1	-0.083566435
185	0xbd966327	-0.073431306
186	0xbd9154d9	-0.070962615
187	0xbd88dc15	-0.06682602
188	0xbd866650	-0.06562483
189	0xbde3a78d	-0.11115942
190	0xbd4e03cc	-0.05029659
191	0xbd480f90	-0.048842967
192	0xbd365c1b	-0.044521432
193	0xbd580890	-0.05274254
194	0xbd933e39	-0.071896024
195	0xbda011bb	-0.07815882
196	0xbdbf70b0	-0.09347665
197	0xbcf9ce3b	-0.030493846
198	0xbdbe36b5	-0.09287778
199	0xbd8c4b21	-0.06850267
200	0xbdfe597f	-0.12419414
201	0xbd742832	-0.059608646
202	0xbd9c9a28	-0.076465905
203	0xbd9ea652	-0.07746567
204	0xbd8f2882	-0.06990148
205	0xbd9e71cb	-0.07736548
206	0xbd711c4b	-0.058864873
207	0xbd6c591b	-0.057702165
208	0xbdd1e035	-0.10247842
209	0xbda8550e	-0.08219348
210	0xbd8c4627	-0.06849318
211	0xbcf2f6be	-0.029658671
212	0xbd0ecc06	-0.03486254
213	0xbdbd8d48	-0.09255463
214	0xbd7a40fa	-0.061097123
215	0xbd7b56fd	-0.061362255
216	0xbd9a7c60	-0.07543254
217	0xbd923dc6	-0.071406886
218	0xbd94c433	-0.072639845
219	0xbdace6cc	-0.084424585
220	0xbd8c1a54	-0.06840959
221	0xbd70f197	-0.058824148
222	0xbdbfb3f6	-0.09360497
223	0xbddaada8	-0.106776536
224	0xbd3ca473	-0.04605527
225	0xbdf26753	-0.11836114
226	0xbdcae19e	-0.09906314
227	0xbdc77888	-0.097397864
228	0xbd9f8447	-0.07788902
229	0xbdcaf4dc	-0.099099845
230	0xbe109395	-0.14118798
231	0xbdcc43c6	-0.09973864
232	0xbdef32e2	-0.11679627
233	0xbdaaa7a7	-0.083327584
234	0xbddcbc9a	-0.107781604
235	0xbdeaee68	-0.11471254
236	0xbdaba736	-0.08381502
237	0xbd8df055	-0.06930605
238	0xbd91fa82	-0.07127859
239	0xbc8842ba	-0.01663338
240	0xbd34dedb	-0.044157844
241	0xbd1a96fa	-0.03774164
242	0x3aa91833	0.0012900889
243	0xbd8b71a8	-0.068087876
244	0xbddf89e3	-0.10914972
245	0xbdcf85ef	-0.10132968
246	0xbe0421f9	-0.12903585
247	0xbdbb3946	-0.091417834
248	0xbdab8b2f	-0.083761565
249	0xbdb3fe94	-0.08788791
250	0xbd690705	-0.05689146
251	0xbdc4ae9c	-0.096036166
252	0xbcda2f6b	-0.026633939
253	0xbd31103c	-0.043228373
254	0xbdb3d719	-0.08781261
255	0xbd25644c	-0.040378854

network_body.linear_encoder.seq_layers.2.weight f4 [256, 256]
0	0xbca157e9	-0.01969524
1	0x3cc4f6d0	0.02404347
2	0xbd53a305	-0.05166914
3	0xbe17e099	-0.14831771
4	0xbc7bbe40	-0.015365183
5	0x3d1efef9	0.03881738
6	0x3e14558d	0.1448576
7	0xbdc8b082	-0.09799291
8	0xbdc8a727	-0.09797507
9	0xbcfc7818	-0.030818984
10	0xbd02b244	-0.03190829
11	0xbe222e4c	-0.15837973
12	0xbcb9f91d	-0.022701794
13	0xbe16ae35	-0.14714892
14	0x3d5c7f67	0.053832438
15	0xbcbf3cc9	-0.023344414
16	0xbd4d0c25	-0.05006041
17	0xbd3691e7	-0.044572737
18	0xbdfca597	-0.12336271
19	0x3d2bf44f	0.041981038
20	0xbd9f3fb7	-0.077758245
21	0xbcd5eb47	-0.026113166
22	0x3d7aeff4	0.061263993
23	0xbde013af	-0.10941254
24	0xbcd58686	-0.026065122
25	0x3db791b9	0.08963341
26	0xbe09697e	-0.13419148
27	0xba9667b6	-0.0011475
28	0xbd898fb2	-0.06716861
29	0xbd6639ba	-0.056207396
30	0xbcd89e25	-0.026442597
31	0xbde91858	-0.11381596
32	0x3d62242a	0.05521027
33	0xbd568a53	-0.05237801
34	0xbd8e988b	-0.06962689
35	0xbc9dce74	-0.019263484
36	0xbd17cda5	-0.037061352
37	0xbcffc2a3	-0.03122074
38	0xba669e3b	-0.0008797382
39	0xbe0444fd	-0.12916942
40	0x3b8c4582	0.004280747
41	0x3d10d361	0.035357837
42	0xbdee552b	-0.11637338
43	0x3e0d46bd	0.13796516
44	0xbc7b1f15	-0.015327235
45	0x3e15353c	0.14571089
46	0x3e0efcfd	0.13963695
47	0xbd06926e	-0.03285449
48	0x3de3fceb	0.11132225
49	0xbded08bb	-0.11573931
50	0x3da89e9b	0.082333766
51	0xbe332650	-0.17495084
52	0xbcc73218	-0.024315879
53	0xbd180e71	-0.037123147
54	0x3d13ae97	0.036055174
55	0x3d0130cd	0.03154068
56	0x3e03ca41	0.12870122
57	0xbd9333c6	-0.071876094
58	0xbe1af551	-0.15132643
59	0x3db712ab	0.089391075
60	0xbd085d04	-0.03329183
61	0xbe2ba5f6	-0.16762528
62	0xbd880b1b	-0.06642743
63	0xbc13e124	-0.009025846
64	0xbe39ec12	-0.1815646
65	0xbbe67a9e	-0.00703366
66	0x3d9cc6ea	0.07655127
67	0xbcf3eeb6	-0.029776912
68	0x3debb564	0.11509207
69	0x3cad1f43	0.02113307
70	0xbe697741	-0.22799398
71	0x3d2b0c4d	0.041759778
72	0x3d3aaebc	0.045576796
73	0xbde128db	-0.10994121
74	0xbe847b78	-0.2587545
75	0x3e59d297	0.2127174
76	0xbb97581b	-0.0046186573
77	0x3d9a73e4	0.07541636
78	0x3dbeefe8	0.09323102
79	0xbe47b9c4	-0.19504458
80	0x3d5e1bc8	0.054225713
81	0x3ccb776a	0.024837214
82	0xbd60a6cb	-0.054846566
83	0xbe22c983	-0.15897183
84	0x3be20e15	0.0068986514
85	0xbdb92889	-0.090409346
86	0x3d22e483	0.039768707
87	0xbd480308	-0.048831016
88	0xbe4a0e8a	-0.19732109
89	0xbd02fcfe	-0.031979553
90	0x3c47408e	0.012161387
91	0x3c882c0a	0.016622562
92	0x3dce35c4	0.10068849
93	0xbe4de126	-0.20105419
94	0xbda22c10	-0.079185605
95	0xbe6c9d5c	-0.23106903
96	0xbddb58c8	-0.10710293
97	0x3df2062d	0.11817584
98	0xbdc0799c	-0.09398195
99	0x3d5e3139	0.05424616
100	0xbe431789	-0.19051947
101	0x3dc7e77d	0.0976095
102	0x3dd0549f	0.1017239
103	0x3d1555c3	0.036458742
104	0x3c94d34b	0.018167159
105	0xbdab1760	-0.08354068
106	0xbc4fe697	-0.012689254
107	0x3c4ea4c5	0.012612526
108	0xbe446fe1	-0.19183303
109	0xbdd852fa	-0.105627015
110	0xbe1217b8	-0.1426686
111	0x3d295e3a	0.041349627
112	0x3cefaa44	0.029255994
113	0xbdabbfc7	-0.08386188
114	0xbd9ad3d9	-0.07559938
115	0x3c0c2212	0.008553045
116	0xbd96da73	-0.07365885
117	0xbd90fda9	-0.07079632
118	0x3d2434a6	0.040089272
119	0xbdf59341	-0.11990977
120	0xbb0012de	-0.0019542496
121	0x3e00f0dd	0.12591882
122	0x3d95bfb8	0.07311958
123	0x3bdb9b07	0.0067018303
124	0x3bbfa63a	0.005848673
125	0xbcf45a0e	-0.029828098
126	0xbc953dec	-0.018218003
127	0x3e004425	0.12525995
128	0x3dbd46ef	0.09242045
129	0xbb72debc	-0.003705903
130	0xbc6ca862	-0.0144444425
131	0x3c2ce692	0.010553019
132	0xbd56e9a4	-0.05246891
133	0x3d8da4bd	0.06916187
134	0xbcd25c81	-0.025678875
135	0x3d0bf8e4	0.034172907
136	0x3daaf879	0.08348174
137	0x3ba1cf48	0.00493804
138	0xbcdc8aa7	-0.026921583
139	0xbd794103	-0.060853016
140	0xbe0c78a3	-0.13717894
141	0x3d379d9b	0.04482804
142	0xbe2ed751	-0.17074324
143	0x3e041f98	0.12902677
144	0xbda6726c	-0.08127293
145	0xbe483353	-0.19550829
146	0xbe784243	-0.24244027
147	0x3d7b9f11	0.061430994
148	0x3e525cba	0.20543185
149	0x3e0c47ff	0.1369934
150	0x3d9c458c	0.076304525
151	0xbd775b0e	-0.06038957
152	0xbd7da804	-0.06192781
153	0xbd5ec10b	-0.05438332
154	0x3b8be544	0.004269274
155	0xbe3529cb	-0.17691724
156	0xbd3d27de	-0.0461806
157	0xbd4d4c4a	-0.050121583
158	0xbe707159	-0.23480739
159	0x3d9f09c7	0.07765537
160	0xbd92feae	-0.071774825
161	0xbd062244	-0.032747522
162	0xbd503a7c	-0.050837025
163	0xbe1729d8	-0.14762056
164	0xbe38b19f	-0.18036507
165	0x3c954c52	0.018224869
166	0xbc68c8cc	-0.01420803
167	0x3c3a5e19	0.011374974
168	0x3d3868c2	0.04502178
169	0xbcb8b740	-0.022548318
170	0xbdd694d0	-0.104776025
171	0x3d877ee7	0.066160016
172	0x3d9600db	0.07324382
173	0xbbda3004	-0.006658556
174	0x3e120f44	0.14263636
175	0xbd05c32c	-0.032656834
176	0x3d0ed420	0.034870267
177	0x3c97435a	0.018464733
178	0x3d353bd4	0.04424651
179	0xbb8e90e7	-0.00435077
180	0xbdd39ffe	-0.103332505
181	0x3d2fecbd	0.04295038
182	0xbe3b241b	-0.18275492
183	0xbd9e71da	-0.07736559
184	0xbdb37e57	-0.08764332
185	0xbd0c15c0	-0.03420043
186	0xbc9d1aa0	-0.019177735
187	0xbd412b09	-0.047160182
188	0xbd7e659f	-0.062108632
189	0x3dac7b1e	0.0842192
190	0x3bcb9556	0.0062128706
191	0xbce227f1	-0.027606936
192	0x3d1a25d1	0.03763372
193	0x3df6dadc	0.12053463
194	0x3dcff068	0.10153276
195	0x3dce17a2	0.10063101
196	0x3e4c31e5	0.19940908
197	0x3d91ec1f	0.07125115
198	0x3df453c3	0.11930039
199	0x3d8c389e	0.06846736
200	0xbcf395d3	-0.029734528
201	0xbbbf2436	-0.005833174
202	0x3dd2a6f2	0.102857485
203	0xbda26650	-0.07929671
204	0x3e0d2775	0.13784583
205	0x3d325cdb	0.043545585
206	0xbda48b6e	-0.080344066
207	0xbe148016	-0.14501986
208	0x3dfb112b	0.12259134
209	0xbdd357a9	-0.10319454
210	0xbdb10a4b	-0.08644541
211	0xbce07485	-0.02739931
212	0xbdac3e4e	-0.08410321
213	0xbd1712da	-0.036883213
214	0xbe36f3b4	-0.17866403
215	0xbe1e5a68	-0.15464175
216	0x3daca01a	0.084289744
217	0xbd2d1549	-0.042256627
218	0xbd09eb54	-0.033671692
219	0x3d87d9a9	0.06633312
220	0x3cd8ce0f	0.026465444
221	0xbe3404fe	-0.1758003
222	0x3d5aa37a	0.05337856
223	0xbd91f722	-0.07127215
224	0xbdf5db74	-0.12004748
225	0xbddc0940	-0.10743952
226	0xbd928293	-0.07153811
227	0x3d8bfd2b	0.06835397
228	0xbb1b7e51	-0.0023726413
229	0xbca4d46f	-0.020120827
230	0xbd5c7ed2	-0.053831883
231	0x3bacb8e6	0.005271065
232	0xbccd822b	-0.025086483
233	0xbd759cc4	-0.059963956
234	0x3d582256	0.05276712
235	0x3a905cd8	0.0011013998
236	0x3d8a15f3	0.06742468
237	0x3dea9e0f	0.114559285
238	0x3d8b3273	0.06796732
239	0xbcbeadc0	-0.02327621
240	0xbd23e75f	-0.040015575
241	0x3d83251a	0.06403561
242	0x3d06d52d	0.032918144
243	0xbdc734f0	-0.09726894
244	0xbb8bacfd	-0.004262565
245	0x3d92b86e	0.071640834
246	0xbd4cce8e	-0.050001673
247	0x3d6f6837	0.058448996
248	0xbdce592d	-0.10075603
249	0x3cd7ac3c	0.026327245
250	0xbb905b36	-0.0044054044
251	0x3c2c735f	0.0105255535
252	0x3cf74aec	0.030187093
253	0xbcaff638	-0.021479711
254	0xbccdae80	-0.025107622
255	0xbe0dee19	-0.13860358

network_body.vector_processors.0.normalizer.running_mean f4 [91]
0	0x3f5273b5	0.82207805
1	0x3a6648d2	0.0008784655
2	0x37e5131f	2.7307831e-05
3	0x3e35410a	0.17700592
4	0x3ea8a444	0.32937825
5	0x3f27f99b	0.6561524
6	0x3cee3e49	0.029082434
7	0x38b57c25	8.653876e-05
8	0x3ea11b02	0.31465918
9	0x3f10cc86	0.5656208
10	0x3f541e2a	0.82858527
11	0x3d238050	0.03991729
12	0x3816071a	3.57694e-05
13	0x3e069390	0.13142228
14	0x3ee377c0	0.444273
15	0x3f4ef575	0.8084329
16	0x3a3a1f9c	0.0007100047
17	0x3817a418	3.615403e-05
18	0x3e43664b	0.1908199
19	0x3eb04241	0.34425548
20	0x3f3a0bc8	0.72674227
21	0x3d192108	0.037385017
22	0x38113023	3.4615525e-05
23	0x3e717f12	0.2358363
24	0x3f047721	0.51744276
25	0x3f48ba86	0.7840961
26	0x3d016a43	0.03159548
27	0x38ed23f3	0.00011307737
28	0x3e3c9e2d	0.18419714
29	0x3ef837be	0.48480028
30	0x3f747e2b	0.9550502
31	0x3a8ed185	0.0010896182
32	0x387ba8ce	6.0000275e-05
33	0x3d3368d1	0.043801133
34	0x3e33e601	0.17568208
35	0x3f534da0	0.8254032
36	0x3d97aab0	0.07405603
37	0x389fb500	7.615425e-05
38	0x3dcdc085	0.10046486
39	0x3ee4cd60	0.4468794
40	0x3f48034d	0.78130037
41	0x3d9f9ac2	0.077931896
42	0x384ce07a	4.884645e-05
43	0x3e101555	0.14070638
44	0x3ef1ae6e	0.47203392
45	0x3f68a85b	0.9088189
46	0x3ab7f475	0.0014034646
47	0x38091f52	3.2692515e-05
48	0x3db7cdc6	0.08974795
49	0x3e5d85a1	0.21633007
50	0x3f51af5f	0.8190822
51	0x3d9ea392	0.07746042
52	0x380c5930	3.3461663e-05
53	0x3dd39f1a	0.103330806
54	0x3ee5dc38	0.44894576
55	0x3f3d26b6	0.73887193
56	0x3dacb90e	0.08433734
57	0x3819410d	3.6538626e-05
58	0x3e34f1f3	0.17670421
59	0x3efdd77c	0.49578464
60	0x3e92b1e8	0.28651357
61	0x3debaf39	0.115080304
62	0x3b290895	0.0025792469
63	0x3f186c5a	0.5954033
64	0x3f2f4349	0.68462044
65	0x3e9c1f83	0.30492792
66	0x3f216b66	0.630545
67	0x3f47ca08	0.7804265
68	0xb9ca3f05	-0.00038575396
69	0x3e0e7b75	0.13914283
70	0xbb0dddec	-0.0021647168
71	0x3f66e301	0.9019013
72	0x3e70effd	0.23529048
73	0x3b086573	0.0020812422
74	0x3f29c0f2	0.66310036
75	0x3ce71372	0.028207514
76	0xbdb3ecd3	-0.08785405
77	0xbcd69172	-0.0261924
78	0x42293218	42.29892
79	0x3f051dbe	0.5199851
80	0x3fdc27bf	1.719963
81	0x42aa0098	85.00116
82	0x3efa072b	0.48833594
83	0xc2adcfdf	-86.906
84	0x3b0b989f	0.0021300686
85	0x3ad7bd20	0.0016459562
86	0xbbc96a4e	-0.0061467057
87	0x3f537d51	0.8261309
88	0x3f5605ae	0.83602417
89	0x3f460b95	0.7736142
90	0x3f616e11	0.88058573
