Assets/ML-Agents/mla-1.0.6/results/carchase02/CarAgent/CarAgent-519.pt (torch, 728935 bytes, 16 tensors)

network_body.vector_processors.0.normalizer.running_mean f4 [91]
00000000: f881 7f3f 0000 0000 0000 0000 0000 0000
00000010: c307 3d3e f881 7f3f 0000 0000 0000 0000
00000020: 0000 0000 40f5 ba3e f881 7f3f 0000 0000
00000030: 0000 0000 0000 0000 64a5 bf3e f881 7f3f
00000040: 0000 0000 0000 0000 0000 0000 945d 3a3e
00000050: f881 7f3f 0000 0000 0000 0000 0000 0000
00000060: 3bc0 bc3e 2776 223f 0000 0000 0000 0000
00000070: a217 ba3e 924a 193f f003 3f3f 0000 0000
00000080: 0000 0000 11fc 803e 9831 b63e e346 0e3f
00000090: 0000 0000 0000 0000 2876 e23e 991f 2b3f
000000a0: d10b 5d3f 0000 0000 0000 0000 9ed8 093e
000000b0: cd2d f93e f881 7f3f 0000 0000 0000 0000
000000c0: 0000 0000 8b00 0f3e f881 7f3f 0000 0000
000000d0: 0000 0000 0000 0000 eb21 d23e f881 7f3f
000000e0: 0000 0000 0000 0000 0000 0000 8d09 d03e
000000f0: f881 7f3f 0000 0000 0000 0000 0000 0000
00000100: 80d6 eb3e d989 5d3f 7ee0 073e 21ea 073f
00000110: a509 1d3a 706c 17bd 2e83 763b c820 7f3f
00000120: 0808 97bd 7fa2 e8ba 3f0e 7e3f 2c5a e9bc
00000130: d78a 80bb c7c6 4c3e e5df 2842 30dd 043f
00000140: 9cbc db3f 7c62 ca42 8abd 0c3f 94f7 cd41
00000150: f7a5 8e39 4732 05bb b48b 7a3a d10b 5d3f
00000160: 566a 653f e985 7e3f fcc0 6f3f
0.9980769 0.0 0.0 0.0 0.18459992 0.9980769 0.0 0.0
0.0 0.36515236 0.9980769 0.0 0.0 0.0 0.3743087 0.9980769
0.0 0.0 0.0 0.1819976 0.9980769 0.0 0.0 0.0
0.3686541 0.63461536 0.0 0.0 0.36346155 0.5987941 0.74615383 0.0
0.0 0.2519231 0.35584712 0.55576915 0.0 0.0 0.4423077 0.6684509
0.86346155 0.0 0.0 0.13461539 0.48667756 0.9980769 0.0 0.0
0.0 0.13965051 0.9980769 0.0 0.0 0.0 0.41041502 0.9980769
0.0 0.0 0.0 0.40632287 0.9980769 0.0 0.0 0.0
0.46062088 0.86538464 0.1326923 0.5309163 0.0005990512 -0.03696865 0.003761481 0.99659395
-0.07374579 -0.0017748623 0.9924049 -0.02848538 -0.003922801 0.19997703 42.218647 0.51900005
1.7166934 101.19235 0.54976714 25.745888 0.00027208004 -0.0020324157 0.00095575606 0.86346155
0.8961538 0.9942308 0.93653846

network_body.vector_processors.0.normalizer.running_variance f4 [91]
00000000: fcc0 ff3f 0000 803f 0000 803f 0000 803f
00000010: 5d78 853f fcc0 ff3f 0000 803f 0000 803f
00000020: 0000 803f 1973 a83f fcc0 ff3f 0000 803f
00000030: 0000 803f 0000 803f aaf1 963f fcc0 ff3f
00000040: 0000 803f 0000 803f 0000 803f 60cb 883f
00000050: fcc0 ff3f 0000 803f 0000 803f 0000 803f
00000060: b41e 933f 6227 f342 0000 803f 0000 803f
00000070: 8c9c f242 bcbe 4342 0ffc c642 0000 803f
00000080: 0000 803f 03ff c542 b05c 9342 f861 0143
00000090: 0000 803f 0000 803f ec44 0143 3104 3a42
000000a0: 1c39 7942 0000 803f 0000 803f c74e 7642
000000b0: 95e3 b341 fcc0 ff3f 0000 803f 0000 803f
000000c0: 0000 803f f9c8 823f fcc0 ff3f 0000 803f
000000d0: 0000 803f 0000 803f cc28 9c3f fcc0 ff3f
000000e0: 0000 803f 0000 803f 0000 803f 7150 963f
000000f0: fcc0 ff3f 0000 803f 0000 803f 0000 803f
00000100: 6d95 9b3f c74e 7642 7c60 7342 02bf 9541
00000110: 4121 803f 3ca5 e13f b87f 873f c170 ff3f
00000120: 313a 8140 1903 813f fe1b ff3f 7412 5640
00000130: fd1b 1d40 062f 3a43 145b df44 618b a23f
00000140: cef9 7c40 840e a549 4426 bc3f 7394 c947
00000150: 2804 af3f df76 c03f 4364 a33f 1b39 7942
00000160: b891 4542 6ce4 7e40 033f ff41
1.9980769 1.0 1.0 1.0 1.0427357 1.9980769 1.0 1.0
1.0 1.3160125 1.9980769 1.0 1.0 1.0 1.17925 1.9980769
1.0 1.0 1.0 1.0687065 1.9980769 1.0 1.0 1.0
1.1493745 121.57692 1.0 1.0 121.305756 48.936264 99.4923 1.0
1.0 98.99807 73.68103 129.38269 1.0 1.0 129.26923 46.504093
62.30577 1.0 1.0 61.57693 22.486124 1.9980769 1.0 1.0
1.0 1.0217582 1.9980769 1.0 1.0 1.0 1.219995 1.9980769
1.0 1.0 1.0 1.1743299 1.9980769 1.0 1.0 1.0
1.2154976 61.57693 60.844223 18.718266 1.0010148 1.762855 1.0585852 1.9956285
4.0383534 1.007907 1.9930418 3.3448763 2.4548333 186.18369 1786.8462 1.2698785
3.9527469 1.3521445e+06 1.4699178 103208.9 1.3673143 1.5036277 1.2764972 62.305767
49.392303 3.9826918 31.905767

network_body.linear_encoder.seq_layers.0.weight f4 [256, 91]
00000000: 86c2 0c3e b5b3 3abd c78b 0f3e 6207 07be
00000010: 2a79 eabd 000f 223d c6ef a9bc 189f c93d
00000020: 99b4 f43d b759 923c 1789 85bc 0fa3 32bd
00000030: fcdb 35be d1d4 563e f6f6 013d 7592 fd3d
00000040: 82de cc3d 87fd ed3d 6f20 9abd 0b9b d33c
00000050: d762 d4bd 2c57 edbd 70f8 2f3d 980e b83d
00000060: 8800 0e3e 95f1 bebd fba0 ce3d 6f63 7abd
00000070: 7368 3d3d 3616 f03c b0d4 71bd 1ca3 d83d
00000080: a8ee d4bd fb83 62bc 60b5 06be 362c 33be
00000090: cf2d a73d 3879 843c 29c6 93bd 63e8 30be
000000a0: 2846 543c 71ff 9c3d 87ac 013d f642 a93d
000000b0: 0df6 893c 3f65 613b 6e7f afbd 7c83 07bd
000000c0: d1b5 3ebe e7f8 d63c f02d 83bc 7b0a 1abe
000000d0: d3d2 9abd 800c d3bd 7117 5dbe fbc8 103e
000000e0: 01c3 7d3d 908a 1ebe 8b46 c03d 4c28 843c
000000f0: e420 a13d 3862 9fbd 39fc ecbc b9d0 1e3d
00000100: bfec 0d3d 24ba fcbd a160 bbbc a2b2 253b
00000110: af69 35bd 4e7e 093e 3cd6 6e3d 4164 6b3d
00000120: 13ae 2abe 486b 5fbd 01a6 a13d 17ab 07be
00000130: 5aa1 f03c 606a 04bc ae2c b63c 49fd dabc
00000140: 0382 4d3d 6521 c43d 9229 dcbd 4fbe 893e
00000150: a018 4d3e 2829 8bbc 8892 f03c d629 a6bc
00000160: 73a0 ac3d dd4f e43d 8eba 3ebe c1cc d83c
00000170: e911 acbd 3a39 d13c 1e98 cbbd 194a ec3b
00000180: f930 04bc 1207 063d 5266 2dbc 19db 39bd
00000190: 5447 1b3e cf12 2dbd be31 8bbd d2cf 13bd
000001a0: a377 72be 2bca 2ebe f236 37be 3ebd 083d
000001b0: 0f90 d7bb f2c7 d83d 9e87 27be 55f1 0c3e
000001c0: 62b9 c43d bced 163e 9d4f 2fbe 0124 b03d
000001d0: b08c 013e 74eb cdba 922e 17bb 5a22 733c
000001e0: 94cf 54bc 44db a13c b9b4 973d e87f 313e
000001f0: 37e5 dcbd 5297 a73d aa19 893d 79d4 82be
00000200: fbc3 db3d ddf3 b33d ffc9 633d aeea 9fbd
00000210: b7d7 cd3d 42b9 113e 5817 21be 4c9d 123d
00000220: 06b5 5d3d 520b 62bd 1e96 59be c48c b63c
00000230: 16ac 64bd e2d1 aebd 0760 403d 4d35 17be
00000240: c1cd dbbb c37a 0b3b 80b7 8a3d 78b2 93bc
00000250: 9144 c33b cecd 32bd 9c27 d5bd af1a dabd
00000260: 3acb 43bb a919 003d 47ff 933d e437 b9bd
00000270: f9ba e9bc fc9d 343e a677 4e3d e7ad 65bd
00000280: e236 0abd 2230 c2bc 6a34 36bc 28f8 d03d
00000290: 72a6 c63c fcd9 793d 6b0a c3bd 1199 0abe
000002a0: 025f 5f3d da57 68bd 6117 703d 6ced 1e3e
000002b0: 3bb4 1c3e b5c5 93bd c311 bc3d 08f7 f83b
000002c0: b784 25be 9ae8 793d fe3e 0c3e 94ea fa3c
000002d0: d2e0 3e3e 21bb cdbd a756 493e a5a0 72bd
000002e0: 8cb0 40bd b31a 1cbd cc5e f03d 3ab9 70bd
000002f0: ca61 f23c c990 663e 338e 65be 7005 a5bc
00000300: b1c4 f03c 4760 7cbd b244 06be 307c c1bc
00000310: 9998 bc3d c820 193e 57ad 8d3d f0e2 7abd
00000320: c0ad dd3d 66ed c93d a9d7 723e 63ca 2c3d
00000330: 72a0 84bd 9628 7d3d 32bd 063e 81db 063e
00000340: 46ef 2a3e 64af 3bbe 09ca b0bd 4268 43be
00000350: 6701 bc3d 9f11 1e3e 32b6 03be f82a a73d
00000360: f3c2 2dbd 5bfa 203d c58b 2f3e 00ce fcbd
00000370: 83c0 07be 38a6 a7ba 1d7b dd3d 263a 8dbc
00000380: 6900 5ebd d2fc e5bb a069 38bd 14e0 893d
00000390: 815e a93c b6a0 5f3c df3a 83bd 7915 443e
000003a0: e5b0 a4bd 89bb 80be 94d8 21bd 135c dbbc
000003b0: 2f2b 913d da2c 2a3d 69f1 1e3e 8559 06be
000003c0: 8459 ae3d 3ef3 ad3d 347f 073d 4276 083e
000003d0: 6c03 c4bd c8d7 373e 9896 e73c 3f87 31be
000003e0: 2f3d 173e 6b2a 313e c644 683e dceb 2b3e
000003f0: 10be 583d eaf6 243e 1931 a6bd 89d8 09be
0.1374608 -0.04558154 0.14018165 -0.1318641 -0.114488915 0.039565086 -0.020744216 0.09844798
0.11948509 0.017865045 -0.016300721 -0.043612536 -0.17759699 0.2097962 0.03172966 0.1238145
0.100033775 0.11620622 -0.075257175 0.025830766 -0.10370415 -0.11588892 0.042961538 0.089871585
0.1386739 -0.09323422 0.10089298 -0.061129984 0.04624219 0.029307466 -0.059040725 0.10577986
-0.103970826 -0.013825412 -0.13155127 -0.17497334 0.08163034 0.016171083 -0.072155304 -0.17276148
0.01295618 0.07665909 0.031658676 0.08264725 0.016840959 0.0034392623 -0.08569227 -0.033084378
-0.18624045 0.026241733 -0.016013116 -0.1504306 -0.07559743 -0.103051186 -0.21590973 0.14139168
0.06195355 -0.15482545 0.09388455 0.016132496 0.078676015 -0.077824056 -0.028928863 0.038773272
0.034649607 -0.12340191 -0.022873225 0.0025283475 -0.04429024 0.13427088 0.05830978 0.057468656
-0.16667967 -0.05454567 0.07892991 -0.1324886 0.029373813 -0.008082002 0.022238102 -0.026732104
0.050172817 0.09576682 -0.107501164 0.26903006 0.20028925 -0.016987398 0.029366747 -0.02028362
0.08429041 0.11148045 -0.18625852 0.026464822 -0.084018536 0.025539983 -0.099411234 0.0072109816
-0.008068317 0.032721587 -0.010583477 -0.045374963 0.15163928 -0.042254265 -0.06796597 -0.036086865
-0.2367845 -0.17069308 -0.17892054 0.0333836 -0.0065784524 0.105850115 -0.16360328 0.13763936
0.096056715 0.14739126 -0.17120214 0.08600617 0.12651324 -0.0015710429 -0.002306853 0.014839733
-0.012988944 0.019757874 0.07407517 0.17333949 -0.10785907 0.08183159 0.06694348 -0.2555273
0.1073074 0.087867476 0.05561256 -0.078084335 0.1005091 0.14230826 -0.15731561 0.03579454
0.054127716 -0.055186577 -0.21248671 0.02228392 -0.055828176 -0.08536126 0.04696658 -0.14766426
-0.0067078774 0.0021282888 0.06773281 -0.018029436 0.0059591015 -0.043653302 -0.104079455 -0.10649621
-0.002987577 0.03127447 0.07226425 -0.090438634 -0.028531538 0.17638391 0.050407074 -0.05607405
-0.033743747 -0.023704592 -0.011120895 0.10203582 0.02424929 0.0609989 -0.095234714 -0.13534953
0.054533966 -0.056724407 0.058616046 0.15520257 0.15303127 -0.07215444 0.09183075 0.007597808
-0.16163908 0.06101284 0.13695905 0.030629434 0.1864045 -0.10045458 0.19661961 -0.059235234
-0.04704337 -0.0381114 0.11736831 -0.058770396 0.029587645 0.22516169 -0.22417526 -0.020144194
0.029390665 -0.061615255 -0.13112143 -0.023618788 0.09208793 0.14953911 0.069178276 -0.06125158
0.10824156 0.09859733 0.2371508 0.0421852 -0.06475915 0.061806284 0.1315811 0.13169672
0.16692838 -0.18328625 -0.08632285 -0.1908274 0.09179955 0.1543641 -0.12862471 0.081624925
-0.042422246 0.039301258 0.17143162 -0.12343979 -0.13257031 -0.0012790626 0.108144976 -0.017239641
-0.05419961 -0.007018664 -0.045022607 0.06732193 0.020674946 0.013649156 -0.06407713 0.19148816
-0.080415525 -0.25143078 -0.039513186 -0.026777303 0.07088315 0.04154668 0.15521778 -0.13120086
0.085131675 0.084936604 0.033080295 0.13326362 -0.09570965 0.17953408 0.02827005 -0.17336749
0.14769433 0.17301337 0.22682485 0.16789192 0.052915633 0.16109815 -0.081148334 -0.13461508

network_body.linear_encoder.seq_layers.0.bias f4 [256]
00000000: 0000 0000 0000 0000 0000 0000 0000 0000
00000010: 0000 0000 0000 0000 0000 0000 0000 0000
00000020: 0000 0000 0000 0000 0000 0000 0000 0000
00000030: 0000 0000 0000 0000 0000 0000 0000 0000
00000040: 0000 0000 0000 0000 0000 0000 0000 0000
00000050: 0000 0000 0000 0000 0000 0000 0000 0000
00000060: 0000 0000 0000 0000 0000 0000 0000 0000
00000070: 0000 0000 0000 0000 0000 0000 0000 0000
00000080: 0000 0000 0000 0000 0000 0000 0000 0000
00000090: 0000 0000 0000 0000 0000 0000 0000 0000
000000a0: 0000 0000 0000 0000 0000 0000 0000 0000
000000b0: 0000 0000 0000 0000 0000 0000 0000 0000
000000c0: 0000 0000 0000 0000 0000 0000 0000 0000
000000d0: 0000 0000 0000 0000 0000 0000 0000 0000
000000e0: 0000 0000 0000 0000 0000 0000 0000 0000
000000f0: 0000 0000 0000 0000 0000 0000 0000 0000
00000100: 0000 0000 0000 0000 0000 0000 0000 0000
00000110: 0000 0000 0000 0000 0000 0000 0000 0000
00000120: 0000 0000 0000 0000 0000 0000 0000 0000
00000130: 0000 0000 0000 0000 0000 0000 0000 0000
00000140: 0000 0000 0000 0000 0000 0000 0000 0000
00000150: 0000 0000 0000 0000 0000 0000 0000 0000
00000160: 0000 0000 0000 0000 0000 0000 0000 0000
00000170: 0000 0000 0000 0000 0000 0000 0000 0000
00000180: 0000 0000 0000 0000 0000 0000 0000 0000
00000190: 0000 0000 0000 0000 0000 0000 0000 0000
000001a0: 0000 0000 0000 0000 0000 0000 0000 0000
000001b0: 0000 0000 0000 0000 0000 0000 0000 0000
000001c0: 0000 0000 0000 0000 0000 0000 0000 0000
000001d0: 0000 0000 0000 0000 0000 0000 0000 0000
000001e0: 0000 0000 0000 0000 0000 0000 0000 0000
000001f0: 0000 0000 0000 0000 0000 0000 0000 0000
00000200: 0000 0000 0000 0000 0000 0000 0000 0000
00000210: 0000 0000 0000 0000 0000 0000 0000 0000
00000220: 0000 0000 0000 0000 0000 0000 0000 0000
00000230: 0000 0000 0000 0000 0000 0000 0000 0000
00000240: 0000 0000 0000 0000 0000 0000 0000 0000
00000250: 0000 0000 0000 0000 0000 0000 0000 0000
00000260: 0000 0000 0000 0000 0000 0000 0000 0000
00000270: 0000 0000 0000 0000 0000 0000 0000 0000
00000280: 0000 0000 0000 0000 0000 0000 0000 0000
00000290: 0000 0000 0000 0000 0000 0000 0000 0000
000002a0: 0000 0000 0000 0000 0000 0000 0000 0000
000002b0: 0000 0000 0000 0000 0000 0000 0000 0000
000002c0: 0000 0000 0000 0000 0000 0000 0000 0000
000002d0: 0000 0000 0000 0000 0000 0000 0000 0000
000002e0: 0000 0000 0000 0000 0000 0000 0000 0000
000002f0: 0000 0000 0000 0000 0000 0000 0000 0000
00000300: 0000 0000 0000 0000 0000 0000 0000 0000
00000310: 0000 0000 0000 0000 0000 0000 0000 0000
00000320: 0000 0000 0000 0000 0000 0000 0000 0000
00000330: 0000 0000 0000 0000 0000 0000 0000 0000
00000340: 0000 0000 0000 0000 0000 0000 0000 0000
00000350: 0000 0000 0000 0000 0000 0000 0000 0000
00000360: 0000 0000 0000 0000 0000 0000 0000 0000
00000370: 0000 0000 0000 0000 0000 0000 0000 0000
00000380: 0000 0000 0000 0000 0000 0000 0000 0000
00000390: 0000 0000 0000 0000 0000 0000 0000 0000
000003a0: 0000 0000 0000 0000 0000 0000 0000 0000
000003b0: 0000 0000 0000 0000 0000 0000 0000 0000
000003c0: 0000 0000 0000 0000 0000 0000 0000 0000
000003d0: 0000 0000 0000 0000 0000 0000 0000 0000
000003e0: 0000 0000 0000 0000 0000 0000 0000 0000
000003f0: 0000 0000 0000 0000 0000 0000 0000 0000
0.0 0.0 0.0 0.0 0.0 0.0 0.0 0.0
0.0 0.0 0.0 0.0 0.0 0.0 0.0 0.0
0.0 0.0 0.0 0.0 0.0 0.0 0.0 0.0
0.0 0.0 0.0 0.0 0.0 0.0 0.0 0.0
0.0 0.0 0.0 0.0 0.0 0.0 0.0 0.0
0.0 0.0 0.0 0.0 0.0 0.0 0.0 0.0
0.0 0.0 0.0 0.0 0.0 0.0 0.0 0.0
0.0 0.0 0.0 0.0 0.0 0.0 0.0 0.0
0.0 0.0 0.0 0.0 0.0 0.0 0.0 0.0
0.0 0.0 0.0 0.0 0.0 0.0 0.0 0.0
0.0 0.0 0.0 0.0 0.0 0.0 0.0 0.0
0.0 0.0 0.0 0.0 0.0 0.0 0.0 0.0
0.0 0.0 0.0 0.0 0.0 0.0 0.0 0.0
0.0 0.0 0.0 0.0 0.0 0.0 0.0 0.0
0.0 0.0 0.0 0.0 0.0 0.0 0.0 0.0
0.0 0.0 0.0 0.0 0.0 0.0 0.0 0.0
0.0 0.0 0.0 0.0 0.0 0.0 0.0 0.0
0.0 0.0 0.0 0.0 0.0 0.0 0.0 0.0
0.0 0.0 0.0 0.0 0.0 0.0 0.0 0.0
0.0 0.0 0.0 0.0 0.0 0.0 0.0 0.0
0.0 0.0 0.0 0.0 0.0 0.0 0.0 0.0
0.0 0.0 0.0 0.0 0.0 0.0 0.0 0.0
0.0 0.0 0.0 0.0 0.0 0.0 0.0 0.0
0.0 0.0 0.0 0.0 0.0 0.0 0.0 0.0
0.0 0.0 0.0 0.0 0.0 0.0 0.0 0.0
0.0 0.0 0.0 0.0 0.0 0.0 0.0 0.0
0.0 0.0 0.0 0.0 0.0 0.0 0.0 0.0
0.0 0.0 0.0 0.0 0.0 0.0 0.0 0.0
0.0 0.0 0.0 0.0 0.0 0.0 0.0 0.0
0.0 0.0 0.0 0.0 0.0 0.0 0.0 0.0
0.0 0.0 0.0 0.0 0.0 0.0 0.0 0.0
0.0 0.0 0.0 0.0 0.0 0.0 0.0 0.0

network_body.linear_encoder.seq_layers.2.weight f4 [256, 256]
00000000: c450 9abc b885 a43b a16a 96bd cc50 a3bd
00000010: 9f78 b63c 650b 8dbb 0526 b6bd fb7e 983c
00000020: 655a 1d3d 2f5a 1cbd 76c9 08be e5b3 b13d
00000030: ddba 953d c257 af3c 95e2 023d 537e 11bd
00000040: 7fd3 8fbd da09 76bd aa30 a8bd 5caa bcbd
00000050: ddc4 703c 0239 743d fd1b 2ebd 7380 b3bc
00000060: 0a58 babc 85c3 823c 5930 623d b3ab 86bd
00000070: 15a7 ebbd 19af 9ebd 8d94 5c3d 3819 22bd
00000080: 9c5b 173d cea2 84bd 40fd 9c3c 1c54 ab3d
00000090: c886 043e f1aa 1a3d 8c5b 0e3d a070 903d
000000a0: 9323 cdbd 1f7c 8c3c 99ce 6fbd 77d4 4bbd
000000b0: ed9f be3d 0b5b ae3c d6bb 3b3d d3c3 f43d
000000c0: 39af 10be e361 0ebd fc5f 75bd bd68 8a3d
000000d0: fa4c ef3c 3c34 5bbd f958 03bb 889b a93c
000000e0: 0bd1 7bbc 315c d43c fdcf 923d ec21 01bd
000000f0: fb61 703b 795d f53d f9ef 553d 2d05 493d
00000100: c995 8f3d 6c97 81bd c391 74bd d695 fdbc
00000110: 7af1 873d 7e17 81bc a4dd 043d 3a1a 4fbd
00000120: 7363 23bc 5a6c c33c b7ae 90bd f723 a7bd
00000130: 0c80 cfba 035d bb3d 25d3 5abd 2240 8a3d
00000140: c874 06be 17ec 8b3d 6e02 66bd 765d 8d3d
00000150: df0b 023a 8c6c fbbc 44a3 bf39 a9c4 20bd
00000160: 68c5 ecbc c376 b4bc 2a63 cabd e10c 5e3d
00000170: 6fc7 dfbd 901e 98bb ef8b c23c c254 af3d
00000180: f482 803d c289 583d 41b8 fcbc 73ff 973d
00000190: 28a7 823b b150 cabc 954f e9b8 3804 0bbe
000001a0: 415d 84bd 38b5 23bc 3685 08bb 5201 083d
000001b0: 0d1f 72bd f1da 4f3d d752 1a3d c266 2b3d
000001c0: 2aef b8bb 5f1c adbb 47cd ca3d f266 4bbd
000001d0: e78e ae3d 27cf f0bc 5a5f 2a3d cdc4 523b
000001e0: 6f26 e73b 0071 933c 1030 b13d b4bd be3a
000001f0: 9057 e2bd 044d 9cbd 061a 63bd 8127 e83c
00000200: 30c7 e8bd 971e c73c fef9 56bd 9c6b 1dbd
00000210: 7d12 983d 4eba 723d 52c9 4ebd 2d46 973c
00000220: 3d3f e73c 0d57 b1bc 2bce 5fbd cd6d 00b7
00000230: a745 f6bc 0e03 ffbc e739 c23c 15d2 1d3d
00000240: 67ad 90bd 128b ae3d e5fe 02be c51d a33d
00000250: 2bfb 8d3b 235d 25bc d145 413c 9bcb 35bd
00000260: 7c85 8b3d 947a 943d ef77 b03c 0bfc 9f3c
00000270: ba0b 9fbc 86aa c43d 9ba6 de3d 22e2 20be
00000280: 62dd ebbc 0725 abbc 638e 9bbd c3ea 8abd
00000290: cc97 c23c 2f39 4b3d 8e73 863d 4007 0c3d
000002a0: abe1 923d c117 983c 7778 a33c 49b4 603d
000002b0: 6b60 de3c 9898 893d 550a 5e3d 4c05 603d
000002c0: 2c12 583d 92e3 b5bd 5b8d 8b3b 409c 8e3d
000002d0: 0c6d 53bd 5324 5d3d 6b07 8cbd 6a5a c53c
000002e0: cc71 c73c 7cee f0bd 0dc5 02be 67c4 953d
000002f0: 141c ca3c f827 5b3c a53e 21bd f84b 6c3c
00000300: 9070 eebc 2764 ef3d 9d8a 753d 2c89 343a
00000310: 5ce8 393d c980 7fbd e67f 1ebd d6ed 10bd
00000320: e90a 863c ad82 833d e12b e73c 394b e03d
00000330: 2d4c b8bd 432c 74bc bdb5 2bbd bf3e 223d
00000340: 2b95 43ba 2a31 bdbd 3f68 1bbd 10fe 823d
00000350: 1b54 6e3d 82e5 793c c461 ff3d ce3d 9b3b
00000360: 6fc0 b7bd d623 bd3d ea4c 6a3d a1be 123c
00000370: 2922 abbd 8ba4 5f3c d3a4 eebd 4c1b e03a
00000380: 3138 293d 7bde 95bc 9dd6 343e cfc3 553d
00000390: 9f24 153d d1c8 1d3d 2be0 303c 116d 82bd
000003a0: e69d 3ebd 1b2b 0a3d 0a33 dc3c cb2e c63d
000003b0: 6027 1f3c e125 46bd 775e 143c 9f8e c4bd
000003c0: 56c9 00bd 2325 f2bc f6c7 c33c 1480 99bd
000003d0: 1891 863d ae4c c73c 3197 06bc 06a1 dfba
000003e0: 8fca d0bd 80a4 09be 9782 ff3c 2bfd 103e
000003f0: 811b bb3c 59e9 733c bdc3 f4bc fb90 583d
-0.01883734 0.0050208233 -0.073445566 -0.07974395 0.022274313 -0.004304337 -0.088939704 0.018615237
0.038416285 -0.038171943 -0.13358101 0.0867689 0.07311032 0.02140415 0.031954367 -0.035520863
-0.070227616 -0.06006799 -0.08212407 -0.09212181 0.014695373 0.05962468 -0.04250716 -0.021911835
-0.022747058 0.015962372 0.05522189 -0.06575718 -0.11506478 -0.07748241 0.053852607 -0.03957483
0.0369526 -0.06476365 0.019163728 0.08365652 0.1294204 0.03776068 0.034755275 0.070527315
-0.10016551 0.01714903 -0.058546636 -0.04976317 0.09307847 0.021283647 0.04583343 0.11951413
-0.14129342 -0.03476132 -0.05990599 0.067582585 0.02921151 -0.05351661 -0.0020042046 0.020704046
-0.015369664 0.025922867 0.07168577 -0.03152649 0.0036679495 0.11980719 0.05223081 0.0490772
0.07010991 -0.063277096 -0.05970932 -0.030955236 0.06637855 -0.015758272 0.032437935 -0.05056212
-0.009972441 0.023855377 -0.07064574 -0.081611566 -0.0015831008 0.091486 -0.05342402 0.067505136
-0.13130486 0.0683214 -0.05615466 0.06902592 0.00049608754 -0.030691408 0.00036552 -0.03925005
-0.028902724 -0.022029286 -0.09882195 0.0542115 -0.10926711 -0.004642315 0.023748366 0.08561088
0.06274977 0.05286575 -0.030849578 0.0742177 0.0039872117 -0.02469668 -0.00011125129 -0.13575828
-0.06463099 -0.009991936 -0.0020831353 0.033204384 -0.059111644 0.05074591 0.03767666 0.041846044
-0.005643745 -0.005282923 0.09902435 -0.049658723 0.0852335 -0.029395653 0.04159484 0.003216076
0.007054142 0.017998219 0.08651745 0.0014552386 -0.110518575 -0.07631877 -0.05544474 0.02833915
-0.11366117 0.024306579 -0.052484505 -0.038432702 0.07425401 0.059259705 -0.050484963 0.01846608
0.028228397 -0.021647954 -0.054639976 -7.6549595e-06 -0.03006251 -0.031129386 0.02370925 0.038530428
-0.07064324 0.08522619 -0.12792547 0.079646625 0.00433292 -0.010093006 0.011796431 -0.044383626
0.068125695 0.072499424 0.021541564 0.019529363 -0.019414771 0.09602837 0.10871621 -0.15711263
-0.028792087 -0.02089168 -0.075955175 -0.067830585 0.023754023 0.04961508 0.06565009 0.0341866
0.07171949 0.018566014 0.019954903 0.054859433 0.027145585 0.06718558 0.054209072 0.05469255
0.052751705 -0.08881296 0.0042587942 0.06963396 -0.051617667 0.05398972 -0.06837352 0.024090964
0.024346255 -0.11764237 -0.12770481 0.073128514 0.024671592 0.0133762285 -0.039366383 0.014422409
-0.029106408 0.116890244 0.059946645 0.0006886895 0.04538761 -0.06237868 -0.038696192 -0.035383068
0.016362624 0.06421409 0.028219165 0.109518476 -0.089989044 -0.014903131 -0.041921366 0.03961062
-0.00074608874 -0.09237893 -0.037941214 0.06396115 0.058185678 0.015252473 0.12469819 0.0047375923
-0.08972251 0.09235351 0.057202257 0.008956582 -0.08356125 0.01365007 -0.116525315 0.0017097979
0.041313354 -0.018294564 0.17659993 0.05218869 0.036411878 0.03852159 0.010795633 -0.06368459
-0.046537302 0.033732515 0.026879806 0.09676894 0.009713978 -0.048375968 0.009055725 -0.09597515
-0.03144201 -0.029558724 0.02389906 -0.07495132 0.06570643 0.024328556 -0.008214758 -0.0017061539
-0.10194885 -0.13441658 0.0311902 0.14159076 0.022840263 0.014887177 -0.029878492 0.05287264

network_body.linear_encoder.seq_layers.2.bias f4 [256]
00000000: 0000 0000 0000 0000 0000 0000 0000 0000
00000010: 0000 0000 0000 0000 0000 0000 0000 0000
00000020: 0000 0000 0000 0000 0000 0000 0000 0000
00000030: 0000 0000 0000 0000 0000 0000 0000 0000
00000040: 0000 0000 0000 0000 0000 0000 0000 0000
00000050: 0000 0000 0000 0000 0000 0000 0000 0000
00000060: 0000 0000 0000 0000 0000 0000 0000 0000
00000070: 0000 0000 0000 0000 0000 0000 0000 0000
00000080: 0000 0000 0000 0000 0000 0000 0000 0000
00000090: 0000 0000 0000 0000 0000 0000 0000 0000
000000a0: 0000 0000 0000 0000 0000 0000 0000 0000
000000b0: 0000 0000 0000 0000 0000 0000 0000 0000
000000c0: 0000 0000 0000 0000 0000 0000 0000 0000
000000d0: 0000 0000 0000 0000 0000 0000 0000 0000
000000e0: 0000 0000 0000 0000 0000 0000 0000 0000
000000f0: 0000 0000 0000 0000 0000 0000 0000 0000
00000100: 0000 0000 0000 0000 0000 0000 0000 0000
00000110: 0000 0000 0000 0000 0000 0000 0000 0000
00000120: 0000 0000 0000 0000 0000 0000 0000 0000
00000130: 0000 0000 0000 0000 0000 0000 0000 0000
00000140: 0000 0000 0000 0000 0000 0000 0000 0000
00000150: 0000 0000 0000 0000 0000 0000 0000 0000
00000160: 0000 0000 0000 0000 0000 0000 0000 0000
00000170: 0000 0000 0000 0000 0000 0000 0000 0000
00000180: 0000 0000 0000 0000 0000 0000 0000 0000
00000190: 0000 0000 0000 0000 0000 0000 0000 0000
000001a0: 0000 0000 0000 0000 0000 0000 0000 0000
000001b0: 0000 0000 0000 0000 0000 0000 0000 0000
000001c0: 0000 0000 0000 0000 0000 0000 0000 0000
000001d0: 0000 0000 0000 0000 0000 0000 0000 0000
000001e0: 0000 0000 0000 0000 0000 0000 0000 0000
000001f0: 0000 0000 0000 0000 0000 0000 0000 0000
00000200: 0000 0000 0000 0000 0000 0000 0000 0000
00000210: 0000 0000 0000 0000 0000 0000 0000 0000
00000220: 0000 0000 0000 0000 0000 0000 0000 0000
00000230: 0000 0000 0000 0000 0000 0000 0000 0000
00000240: 0000 0000 0000 0000 0000 0000 0000 0000
00000250: 0000 0000 0000 0000 0000 0000 0000 0000
00000260: 0000 0000 0000 0000 0000 0000 0000 0000
00000270: 0000 0000 0000 0000 0000 0000 0000 0000
00000280: 0000 0000 0000 0000 0000 0000 0000 0000
00000290: 0000 0000 0000 0000 0000 0000 0000 0000
000002a0: 0000 0000 0000 0000 0000 0000 0000 0000
000002b0: 0000 0000 0000 0000 0000 0000 0000 0000
000002c0: 0000 0000 0000 0000 0000 0000 0000 0000
000002d0: 0000 0000 0000 0000 0000 0000 0000 0000
000002e0: 0000 0000 0000 0000 0000 0000 0000 0000
000002f0: 0000 0000 0000 0000 0000 0000 0000 0000
00000300: 0000 0000 0000 0000 0000 0000 0000 0000
00000310: 0000 0000 0000 0000 0000 0000 0000 0000
00000320: 0000 0000 0000 0000 0000 0000 0000 0000
00000330: 0000 0000 0000 0000 0000 0000 0000 0000
00000340: 0000 0000 0000 0000 0000 0000 0000 0000
00000350: 0000 0000 0000 0000 0000 0000 0000 0000
00000360: 0000 0000 0000 0000 0000 0000 0000 0000
00000370: 0000 0000 0000 0000 0000 0000 0000 0000
00000380: 0000 0000 0000 0000 0000 0000 0000 0000
00000390: 0000 0000 0000 0000 0000 0000 0000 0000
000003a0: 0000 0000 0000 0000 0000 0000 0000 0000
000003b0: 0000 0000 0000 0000 0000 0000 0000 0000
000003c0: 0000 0000 0000 0000 0000 0000 0000 0000
000003d0: 0000 0000 0000 0000 0000 0000 0000 0000
000003e0: 0000 0000 0000 0000 0000 0000 0000 0000
000003f0: 0000 0000 0000 0000 0000 0000 0000 0000
0.0 0.0 0.0 0.0 0.0 0.0 0.0 0.0
0.0 0.0 0.0 0.0 0.0 0.0 0.0 0.0
0.0 0.0 0.0 0.0 0.0 0.0 0.0 0.0
0.0 0.0 0.0 0.0 0.0 0.0 0.0 0.0
0.0 0.0 0.0 0.0 0.0 0.0 0.0 0.0
0.0 0.0 0.0 0.0 0.0 0.0 0.0 0.0
0.0 0.0 0.0 0.0 0.0 0.0 0.0 0.0
0.0 0.0 0.0 0.0 0.0 0.0 0.0 0.0
0.0 0.0 0.0 0.0 0.0 0.0 0.0 0.0
0.0 0.0 0.0 0.0 0.0 0.0 0.0 0.0
0.0 0.0 0.0 0.0 0.0 0.0 0.0 0.0
0.0 0.0 0.0 0.0 0.0 0.0 0.0 0.0
0.0 0.0 0.0 0.0 0.0 0.0 0.0 0.0
0.0 0.0 0.0 0.0 0.0 0.0 0.0 0.0
0.0 0.0 0.0 0.0 0.0 0.0 0.0 0.0
0.0 0.0 0.0 0.0 0.0 0.0 0.0 0.0
0.0 0.0 0.0 0.0 0.0 0.0 0.0 0.0
0.0 0.0 0.0 0.0 0.0 0.0 0.0 0.0
0.0 0.0 0.0 0.0 0.0 0.0 0.0 0.0
0.0 0.0 0.0 0.0 0.0 0.0 0.0 0.0
0.0 0.0 0.0 0.0 0.0 0.0 0.0 0.0
0.0 0.0 0.0 0.0 0.0 0.0 0.0 0.0
0.0 0.0 0.0 0.0 0.0 0.0 0.0 0.0
0.0 0.0 0.0 0.0 0.0 0.0 0.0 0.0
0.0 0.0 0.0 0.0 0.0 0.0 0.0 0.0
0.0 0.0 0.0 0.0 0.0 0.0 0.0 0.0
0.0 0.0 0.0 0.0 0.0 0.0 0.0 0.0
0.0 0.0 0.0 0.0 0.0 0.0 0.0 0.0
0.0 0.0 0.0 0.0 0.0 0.0 0.0 0.0
0.0 0.0 0.0 0.0 0.0 0.0 0.0 0.0
0.0 0.0 0.0 0.0 0.0 0.0 0.0 0.0
0.0 0.0 0.0 0.0 0.0 0.0 0.0 0.0

distribution.log_sigma f4 [1, 2]
00000000: 0000 0000 0000 0000
0.0 0.0

distribution.mu.weight f4 [2, 256]
00000000: b7c4 1c3c c7dc cf3b 3994 8e3b 0513 25bc
00000010: 779c a4bc 0b07 293c 6fde 72bc 3022 90bb
00000020: f321 103c f250 46ba c9cf 99bc c364 a1bb
00000030: f945 16bc 7d16 40bc 8db4 efb9 320e d2bc
00000040: 14d2 9ebb dbd6 193b d84c e7ba 9396 c4bc
00000050: 03d8 2cbb db92 043b 2382 9e3b 19cb ae3c
00000060: 886a 163a fd05 ac3b ffcf 49bc 44a0 25bb
00000070: 2e44 04bb 27bf 753b 0830 f0bb 45a0 fdbb
00000080: 9349 7ebc caa1 7c3a 304f 2dbc 9e23 273c
00000090: 1af5 dabb 3407 05bc f721 3ebb 229c 173c
000000a0: dec4 20bc a3c6 fe3b 2770 153c 9565 23bb
000000b0: d232 e6bb 975e a03c 4759 493c b0ac 7abc
000000c0: af6c a4bc b678 1c3b 80f2 123a c3a4 88bc
000000d0: a7f9 e8ba ea0b d93b d665 ccbb 0b10 39bc
000000e0: b092 593c adfb c63c e4d2 963b fdf7 f93a
000000f0: 4da5 2cb9 2700 08bc c44f 9b3b 5b82 cbbb
00000100: 3dee 8ebb 4ea7 9f3b 1500 6fbb 0861 e8b9
00000110: d963 943a 433c f2bb 09ff 0cbc 8a3a b9bb
00000120: ce31 363c 6488 32bd 056c 86bc 0bd1 a8bb
00000130: be8c 21bc 6b46 213b fb1c 293c c56a 0ebb
00000140: 27dc 86bb e7b6 b3b9 4f86 c3bb a869 5dba
00000150: 2378 563a cb6a a73a 5249 d53b 3cc8 84bc
00000160: 4be7 99bb 4db5 b73c 57e5 98bc ff29 cebb
00000170: 4728 25bc b5b4 80bc db9a 2bbc 1ff8 f339
00000180: 8b82 c1bb c176 adbc 4a45 983b 93e0 bcbb
00000190: 98f9 62b9 c860 f8b9 80c6 aebb da36 80bc
000001a0: 06bd 95bc 6941 913c a0d2 4a3c db3b f13b
000001b0: d509 fcbb e5af 313c 6b65 c43c f7a6 2fba
000001c0: d440 b0bb 82d1 d3bb 3959 a63b f0c3 9bbb
000001d0: 18f3 c3bb 35ed 823c ac1d 113b fbf5 d63c
000001e0: 4a1b f8bb 3061 943c 7073 7bbc c42b 963c
000001f0: 40d6 55ba e0ae 05bd d273 fcbc a096 fcb9
00000200: b57a 89bc 375d 633c 2a96 313c da96 ce3c
00000210: 6ca6 86bb 4c80 b1bc 5068 723c 8a4a 313c
00000220: c674 2fbc a35f 6cb9 f0c9 623a fbc5 4a3c
00000230: 0b99 553c dfd8 89bc 6286 06bc 336b 61bc
00000240: bff8 d0bb ff16 0d3b 22c0 f33c 575e 173a
00000250: f2a8 a2bc 2055 fbbb ed70 053c f7eb a9bb
00000260: ab0c 383c 8638 083b d213 fd3b 3bb4 ab3b
00000270: 4794 bcba af88 a4bb 97d4 a23c 3a3c 9cbc
00000280: 20d0 753b 9130 923a 87b5 feba 27eb 2abb
00000290: b53b 08bd bfbd 0c3c e41f 27bb f9f5 b53b
000002a0: 6a6b 50bc caf5 c93b faa5 183c 9b38 f3bc
000002b0: d139 203c a8fd b6bc 5251 e93b 2258 003c
000002c0: afa7 1a3c 1f34 56bc 3a10 cbbc cce5 94bc
000002d0: 438e 073c cb7b c13c 6d37 653c 4080 d7ba
000002e0: 82d4 dfba 324d 523b 1b85 32bc 61b6 06bc
000002f0: 0838 2abc eba9 88bc a132 973c 5049 103d
00000300: 263f 4cbb 92e7 e6bc 8bee a5bc bb09 f93a
00000310: 8a01 80bc 2782 4c3c 3f80 763b 4417 a3bc
00000320: 79b2 acbc f141 833c 6381 a23c fa95 6cbb
00000330: 59e7 17bb 80c1 b6bc fc38 96bc e601 2e3c
00000340: 846e babb e19f 13ba 6c1d 8c3c 6d8d e1bc
00000350: cfb2 0dbd f7f8 773b a783 933b 54a2 043c
00000360: 856f 29bb 241f 38bb 3914 2fbc d675 1dbc
00000370: ab3a 5c3c 92dc e03b 74f6 0abc c795 2abb
00000380: 8c57 243a 455a 54bc a03e e5bc 09c2 9d3b
00000390: e389 0cbb f862 973a ebf6 0f3c 0a10 693c
000003a0: cca2 0dbc 5321 84bc f529 7a3c 0b8e 2abb
000003b0: cb9c 053c 9f53 283c 7fc4 14bb 1a96 daba
000003c0: c8d9 f63b 4729 9bbb 0703 9abb 87de 7e38
000003d0: 0b18 79bc dc45 01bd a580 f53c 0912 a63c
000003e0: 7760 d73c 3aa2 5c3c 4584 7c3b 8219 10bc
000003f0: b77d 8dbc bbc4 84bc 8c4f 0e3c 0f89 8cbc
0.009568385 0.0063434574 0.0043511656 -0.010075335 -0.02009414 0.010316621 -0.01482354 -0.0043986067
0.008797157 -0.00075651624 -0.018775837 -0.004925342 -0.009171956 -0.011724112 -0.00045720153 -0.025641534
-0.0048468206 0.002347401 -0.0017646803 -0.02399758 -0.002637387 0.0020229134 0.004837291 0.021337079
0.00057379203 0.0052497373 -0.012317657 -0.0025272528 -0.002018224 0.003749797 -0.0073299445 -0.007740053
-0.015520471 0.00096371456 -0.010577962 0.010201363 -0.0066820504 -0.008119393 -0.0029011944 0.009253534
-0.009812562 0.007775144 0.0091209775 -0.0024932374 -0.007025101 0.019576354 0.012289352 -0.015299961
-0.020071356 0.002387566 0.00056055933 -0.016680127 -0.0017774598 0.0066237347 -0.0062377257 -0.011295329
0.013279602 0.02428993 0.004602777 0.0019071099 -0.00016464778 -0.008300818 0.0047397334 -0.006210608
-0.0043618963 0.004872239 -0.0036468555 -0.00044322782 0.0011321261 -0.0073924377 -0.008605727 -0.0056527304
0.011120273 -0.043587103 -0.01640893 -0.005151873 -0.009860216 0.0024608623 0.010321851 -0.002173112
-0.0041155997 -0.00034277813 -0.0059669386 -0.0008446225 0.0008181354 0.0012772916 0.0065089846 -0.01620876
-0.0046967617 0.022425318 -0.018664045 -0.0062916274 -0.010080404 -0.015711168 -0.010473932 0.00046533436
-0.0059054545 -0.02117479 0.004646932 -0.005764076 -0.0002164602 -0.00047374354 -0.0053337216 -0.015651155
-0.01827861 0.017731385 0.0123793185 0.0073618717 -0.0076916018 0.010845159 0.023974141 -0.00067006
-0.005378822 -0.0064641843 0.005076554 -0.004753582 -0.005979907 0.01598225 0.002214293 0.02624034
-0.0075716125 0.018112749 -0.015347347 0.018331416 -0.0008157231 -0.032637477 -0.030816946 -0.0004817741
-0.016782144 0.013877205 0.010839025 0.025218416 -0.0041091945 -0.021667622 0.014795378 0.010820994
-0.010708993 -0.00022542341 0.0008651307 0.012376304 0.013036977 -0.016827045 -0.00821075 -0.013758468
-0.006377309 0.00215286 0.029754702 0.00057742506 -0.01985595 -0.00767006 0.008144599 -0.0051856
0.011233489 0.0020785644 0.00772331 0.005239991 -0.0014387452 -0.0050211768 0.019876761 -0.019071687
0.0037508085 0.001115339 -0.0019432761 -0.0026080103 -0.033260066 0.008590161 -0.0025501186 0.005553004
-0.012720922 0.0061633335 0.009316916 -0.029690078 0.0097794095 -0.02233775 0.00712029 0.0078335125
0.009439393 -0.01307395 -0.02478801 -0.018175982 0.008273664 0.0236186 0.013990265 -0.001644142
-0.0017076882 0.003208947 -0.010895993 -0.008222193 -0.010389335 -0.016682586 0.018456759 0.035226166
-0.003116557 -0.028186593 -0.020255348 0.0019000092 -0.015625734 0.012482203 0.0037613062 -0.019908555
-0.021081196 0.016022654 0.019837087 -0.0036100135 -0.0023178665 -0.022309065 -0.01833772 0.01062057
-0.005689444 -0.0005631429 0.017103873 -0.027533257 -0.034594353 0.0037837604 0.004501778 0.008095343
-0.0025853824 -0.0028094733 -0.010685974 -0.009610614 0.013441722 0.0068622315 -0.008481611 -0.0026029216
0.0006269149 -0.012960975 -0.027983963 0.0048143906 -0.0021444492 0.0011549881 0.008786897 0.014225015
-0.008644771 -0.016129171 0.015268792 -0.0026024606 0.008155058 0.010273843 -0.0022700129 -0.0016676814
0.0075332858 -0.0047351453 -0.004700068 6.0765564e-05 -0.015203486 -0.031560764 0.029968569 0.020272272
0.026291115 0.013466412 0.0038530987 -0.008795144 -0.01727186 -0.01620709 0.008685958 -0.017155198

distribution.mu.bias f4 [2]
00000000: 0000 0000 0000 0000
0.0 0.0

critic.network_body.vector_processors.0.normalizer.running_mean f4 [91]
00000000: f881 7f3f 0000 0000 0000 0000 0000 0000
00000010: c307 3d3e f881 7f3f 0000 0000 0000 0000
00000020: 0000 0000 40f5 ba3e f881 7f3f 0000 0000
00000030: 0000 0000 0000 0000 64a5 bf3e f881 7f3f
00000040: 0000 0000 0000 0000 0000 0000 945d 3a3e
00000050: f881 7f3f 0000 0000 0000 0000 0000 0000
00000060: 3bc0 bc3e 2776 223f 0000 0000 0000 0000
00000070: a217 ba3e 924a 193f f003 3f3f 0000 0000
00000080: 0000 0000 11fc 803e 9831 b63e e346 0e3f
00000090: 0000 0000 0000 0000 2876 e23e 991f 2b3f
000000a0: d10b 5d3f 0000 0000 0000 0000 9ed8 093e
000000b0: cd2d f93e f881 7f3f 0000 0000 0000 0000
000000c0: 0000 0000 8b00 0f3e f881 7f3f 0000 0000
000000d0: 0000 0000 0000 0000 eb21 d23e f881 7f3f
000000e0: 0000 0000 0000 0000 0000 0000 8d09 d03e
000000f0: f881 7f3f 0000 0000 0000 0000 0000 0000
00000100: 80d6 eb3e d989 5d3f 7ee0 073e 21ea 073f
00000110: a509 1d3a 706c 17bd 2e83 763b c820 7f3f
00000120: 0808 97bd 7fa2 e8ba 3f0e 7e3f 2c5a e9bc
00000130: d78a 80bb c7c6 4c3e e5df 2842 30dd 043f
00000140: 9cbc db3f 7c62 ca42 8abd 0c3f 94f7 cd41
00000150: f7a5 8e39 4732 05bb b48b 7a3a d10b 5d3f
00000160: 566a 653f e985 7e3f fcc0 6f3f
0.9980769 0.0 0.0 0.0 0.18459992 0.9980769 0.0 0.0
0.0 0.36515236 0.9980769 0.0 0.0 0.0 0.3743087 0.9980769
0.0 0.0 0.0 0.1819976 0.9980769 0.0 0.0 0.0
0.3686541 0.63461536 0.0 0.0 0.36346155 0.5987941 0.74615383 0.0
0.0 0.2519231 0.35584712 0.55576915 0.0 0.0 0.4423077 0.6684509
0.86346155 0.0 0.0 0.13461539 0.48667756 0.9980769 0.0 0.0
0.0 0.13965051 0.9980769 0.0 0.0 0.0 0.41041502 0.9980769
0.0 0.0 0.0 0.40632287 0.9980769 0.0 0.0 0.0
0.46062088 0.86538464 0.1326923 0.5309163 0.0005990512 -0.03696865 0.003761481 0.99659395
-0.07374579 -0.0017748623 0.9924049 -0.02848538 -0.003922801 0.19997703 42.218647 0.51900005
1.7166934 101.19235 0.54976714 25.745888 0.00027208004 -0.0020324157 0.00095575606 0.86346155
0.8961538 0.9942308 0.93653846

critic.network_body.vector_processors.0.normalizer.running_variance f4 [91]
00000000: fcc0 ff3f 0000 803f 0000 803f 0000 803f
00000010: 5d78 853f fcc0 ff3f 0000 803f 0000 803f
00000020: 0000 803f 1973 a83f fcc0 ff3f 0000 803f
00000030: 0000 803f 0000 803f aaf1 963f fcc0 ff3f
00000040: 0000 803f 0000 803f 0000 803f 60cb 883f
00000050: fcc0 ff3f 0000 803f 0000 803f 0000 803f
00000060: b41e 933f 6227 f342 0000 803f 0000 803f
00000070: 8c9c f242 bcbe 4342 0ffc c642 0000 803f
00000080: 0000 803f 03ff c542 b05c 9342 f861 0143
00000090: 0000 803f 0000 803f ec44 0143 3104 3a42
000000a0: 1c39 7942 0000 803f 0000 803f c74e 7642
000000b0: 95e3 b341 fcc0 ff3f 0000 803f 0000 803f
000000c0: 0000 803f f9c8 823f fcc0 ff3f 0000 803f
000000d0: 0000 803f 0000 803f cc28 9c3f fcc0 ff3f
000000e0: 0000 803f 0000 803f 0000 803f 7150 963f
000000f0: fcc0 ff3f 0000 803f 0000 803f 0000 803f
00000100: 6d95 9b3f c74e 7642 7c60 7342 02bf 9541
00000110: 4121 803f 3ca5 e13f b87f 873f c170 ff3f
00000120: 313a 8140 1903 813f fe1b ff3f 7412 5640
00000130: fd1b 1d40 062f 3a43 145b df44 618b a23f
00000140: cef9 7c40 840e a549 4426 bc3f 7394 c947
00000150: 2804 af3f df76 c03f 4364 a33f 1b39 7942
00000160: b891 4542 6ce4 7e40 033f ff41
1.9980769 1.0 1.0 1.0 1.0427357 1.9980769 1.0 1.0
1.0 1.3160125 1.9980769 1.0 1.0 1.0 1.17925 1.9980769
1.0 1.0 1.0 1.0687065 1.9980769 1.0 1.0 1.0
1.1493745 121.57692 1.0 1.0 121.305756 48.936264 99.4923 1.0
1.0 98.99807 73.68103 129.38269 1.0 1.0 129.26923 46.504093
62.30577 1.0 1.0 61.57693 22.486124 1.9980769 1.0 1.0
1.0 1.0217582 1.9980769 1.0 1.0 1.0 1.219995 1.9980769
1.0 1.0 1.0 1.1743299 1.9980769 1.0 1.0 1.0
1.2154976 61.57693 60.844223 18.718266 1.0010148 1.762855 1.0585852 1.9956285
4.0383534 1.007907 1.9930418 3.3448763 2.4548333 186.18369 1786.8462 1.2698785
3.9527469 1.3521445e+06 1.4699178 103208.9 1.3673143 1.5036277 1.2764972 62.305767
49.392303 3.9826918 31.905767

critic.network_body.linear_encoder.seq_layers.0.weight f4 [256, 91]
00000000: 14d7 7abd 2b37 58bc e05f c43c bc91 7b3d
00000010: c606 22be 92d8 523e 0ce4 47bd 58e5 e63d
00000020: 8016 133e eb7d 763d c7f6 1c3e 62b8 53bd
00000030: b615 0a3e c08a ed3c c348 943b 8ba3 72be
00000040: 1a59 6cbd 067a 38ba 2f5a 76be a233 4cbe
00000050: aeea c93d 420e 5c3d f36c bb3d 8b72 d03d
00000060: 336c 323e f216 f93d 3f00 b93a aff7 edbd
00000070: 4baf 5d3d c9fe c53c 16cc 423c c94a d33c
00000080: dee5 2e3d 1b5c 87be 6f9d 61bc 07ef cfbd
00000090: ae3c 103d 9e1f 0b3e f624 d33c 4bcc 4ebd
000000a0: 258b 0d3d 4890 e53d f87e 853c d3f9 01be
000000b0: 6994 dcbd 8501 99bd 04c4 2ebe aa47 4ebd
000000c0: 28b9 a43c cec0 05be f95b 87bd e596 a83d
000000d0: 8cc0 883d 1ffc 05be 042b fa3d 35f4 203d
000000e0: 4825 8abe 05a3 f73d d1e8 513e 59ba b03c
000000f0: e4da c73d d978 273d 9592 483e 3eca 30bd
00000100: 48ce 60be 829f a6bd 7964 92ba 9832 a53d
00000110: b997 56bb 143a 5dbe 4751 aa3d b7af bdbd
00000120: 5220 c93d 961f 3abe 0c18 733e b4ef 59bc
00000130: ed42 a1bd 8a6c 0c3e a8d0 4b3c f826 763e
00000140: 899d fa3d c512 8bbc 56b6 59bd 84cc c1bd
00000150: 615b 5fbc e292 a03e da28 003d e15f 23be
00000160: aa31 223d ba31 a3bc 7bb5 b8bd 3c0b 833d
00000170: f452 fc3d 616e 15bd 8078 d7bd a1ea 83bd
00000180: 53ac 3b3d 547a b8bd 723c 35be 9bfd e63d
00000190: fd08 39bd ecf4 35bd a301 4c3d 09c4 d1bd
000001a0: f986 b23d e1c7 53be 4489 4c3e 4b4a b4bd
000001b0: 0092 a13b c2d9 fb3d f3ee 793c 610d 973d
000001c0: 210c 153e 2d23 28bd 2aef b53d 1488 11be
000001d0: 6b11 87bd 0885 32bd c9de a33d 37ce f5bd
000001e0: 159c 483d 394d 943d e284 d43d 248c 54bd
000001f0: 9b44 b8bd 7147 b8ba afe8 2ebd 6012 5bbe
00000200: 4c0a acbd dacb aebd 6d97 2d3d 5e04 c13c
00000210: b74f a33b e122 54bd 0ff0 993b 52d4 5dbe
00000220: 171e 893d 9f82 5d3d 1665 b5bd 87a4 a23d
00000230: fb27 c03d 949e d03d e716 07bd 128a f43c
00000240: d372 54bd f707 14bc cfab 443b ace5 bd3d
00000250: 2a8d e5bd bf00 e6bc 01a1 64bd fa8c 643c
00000260: bda5 b3bd c0bd 0d3d 2a68 063e 5be3 ccbd
00000270: 18aa 4fbd 62a8 dfbb 62bb b73c 0441 5b3d
00000280: 6b4a 1d3d 54b5 0cbe 38e0 093e 63cb c2bd
00000290: 0bc7 833b 16ae 383e 599b 473e 419e 843d
000002a0: b6f5 f339 6e20 523b 8461 4f3d 2619 e7bd
000002b0: 0b50 0abd 1972 49bd 6d99 e43d 8c70 8bbd
000002c0: 4d30 863c e439 3b3d 88f9 7e3d 8f79 1bbe
000002d0: 9ab0 babd 340d d53d 3890 083e d5c3 2e3e
000002e0: a890 42bd a734 2ebc f408 efbc 61d0 2a3e
000002f0: 9ee4 60bc fdf4 ecbd a74e 55bd 8e72 54bd
00000300: fdbc 1b3e 6b11 72be 294a 89bd e7f7 103e
00000310: a85e 94bd a00a 81be 8f00 583e 79df c2bd
00000320: 1e45 1e3e 4b92 b8b9 e9eb 08bd 09c6 b33c
00000330: 071e 9dbd bcbb 0a3d 286f 8cbd 6cfc e4bd
00000340: dd48 debd 8d00 ea3c 0228 ef3d 6d97 c83d
00000350: 25a1 15be 62cb 24bd 8b5e 353e 446e cebd
00000360: 502d ba3d cb37 983d c68a 12be 15a1 2abd
00000370: 0167 853d 69de 35be 9c25 13bd d626 87bd
00000380: cda8 a5bd b967 723d 12f4 03be c196 9e3d
00000390: a008 3fbd 8a1a e03c 576c 9f3c fb29 4cbe
000003a0: 1aa3 dc3d c03a 94bc 364f fe3c e5cd bdbd
000003b0: 730d 0f3d 9fd5 4bbe 7593 ab3d 7af8 00be
000003c0: 02db a43b 6023 4c3e 7d32 b4bd f3af 893d
000003d0: e0c0 efbc 801a 1f3d 4348 de3c e07a 8a3d
000003e0: c07f 5d3e 8dc0 7f3d 9aee 68bd 6887 22be
000003f0: 1474 373d 1616 67bd ad87 213c 6103 203e
-0.06124027 -0.013196747 0.023971498 0.06141828 -0.15822896 0.20590428 -0.048801467 0.112742126
0.14364052 0.06017868 0.15328513 -0.051689513 0.13484845 0.028996825 0.0045252754 -0.23695199
-0.05770216 -0.0007037226 -0.2405784 -0.19941571 0.09859215 0.053724535 0.0915164 0.10178097
0.17424087 0.121625796 0.0014114453 -0.116195075 0.05412225 0.024169343 0.011889478 0.025792496
0.042699687 -0.26437458 -0.013770445 -0.10153013 0.03521412 0.1358628 0.02577446 -0.050487798
0.034556527 0.1120916 0.016295895 -0.12692957 -0.107704945 -0.07470993 -0.17066962 -0.050361313
0.02010782 -0.1306183 -0.06609339 0.08231906 0.066773504 -0.13084458 0.12215236 0.039295394
-0.26981568 0.120916404 0.20498969 0.021573232 0.09758547 0.040886734 0.19587167 -0.043161623
-0.2195369 -0.081358925 -0.0011168859 0.080662906 -0.0032744242 -0.21604186 0.08316284 -0.092620306
0.09820618 -0.18176112 0.23739642 -0.013301779 -0.07874093 0.1371328 0.012439884 0.24038303
0.12237079 -0.016976723 -0.053152405 -0.094628364 -0.013632626 0.31362063 0.03128896 -0.15954544
0.039598145 -0.019921172 -0.0901899 0.06398627 0.123205096 -0.03648222 -0.105210304 -0.06441236
0.045818638 -0.09007707 -0.1769884 0.1127884 -0.045174588 -0.04442303 0.04980625 -0.10242469
0.0871715 -0.20681717 0.19974238 -0.08803233 0.0049307346 0.122973934 0.015254724 0.07375599
0.14555408 -0.04104917 0.088835075 -0.14212066 -0.06595119 -0.0435839 0.08001477 -0.12002223
0.048976976 0.072412916 0.10376908 -0.05189146 -0.089974605 -0.0014059377 -0.042702373 -0.21393728
-0.084004015 -0.08534975 0.04238074 0.023561653 0.004983868 -0.051791076 0.0046978067 -0.21663025
0.06695192 0.054079648 -0.08857171 0.07941537 0.09382626 0.101864964 -0.032980826 0.029850993
-0.051867317 -0.009035102 0.0030009632 0.09272322 -0.112085655 -0.028076528 -0.055817608 0.013949627
-0.087718464 0.034604788 0.13125673 -0.10004302 -0.050699323 -0.0068254927 0.022428218 0.0535288
0.03840105 -0.13741046 0.13464439 -0.09511449 0.0040215305 0.18035159 0.19492854 0.06475497
0.0004653164 0.0032062787 0.050630108 -0.112840936 -0.03376774 -0.049181078 0.11162076 -0.06808576
0.016380453 0.045709506 0.06224969 -0.1518309 -0.09115715 0.10402909 0.13336265 0.17066891
-0.047501236 -0.0106326705 -0.029179074 0.16681053 -0.013726382 -0.11570165 -0.05207696 -0.05186706
0.15208812 -0.23639457 -0.06703598 0.14157067 -0.07244617 -0.2520342 0.21093963 -0.0951528
0.15456054 -0.00035204212 -0.033428106 0.021945016 -0.07671743 0.033870444 -0.06857139 -0.11180958
-0.10853741 0.028564716 0.11677553 0.09794507 -0.14612253 -0.040233023 0.17711847 -0.10079625
0.09090674 0.07432517 -0.1431075 -0.041657526 0.06513787 -0.17760624 -0.03592454 -0.06599204
-0.08088837 0.05918095 -0.12886074 0.07743598 -0.046639085 0.027356405 0.01946084 -0.1993789
0.10773297 -0.01809442 0.03104363 -0.09267787 0.034924936 -0.19905709 0.083777346 -0.12594786
0.0050309906 0.1993537 -0.087986924 0.06723013 -0.029266775 0.03884363 0.027134066 0.06761718
0.21630764 0.06243949 -0.056868173 -0.15871966 0.044788435 -0.056417547 0.009859008 0.15626289

critic.network_body.linear_encoder.seq_layers.0.bias f4 [256]
00000000: 0000 0000 0000 0000 0000 0000 0000 0000
00000010: 0000 0000 0000 0000 0000 0000 0000 0000
00000020: 0000 0000 0000 0000 0000 0000 0000 0000
00000030: 0000 0000 0000 0000 0000 0000 0000 0000
00000040: 0000 0000 0000 0000 0000 0000 0000 0000
00000050: 0000 0000 0000 0000 0000 0000 0000 0000
00000060: 0000 0000 0000 0000 0000 0000 0000 0000
00000070: 0000 0000 0000 0000 0000 0000 0000 0000
00000080: 0000 0000 0000 0000 0000 0000 0000 0000
00000090: 0000 0000 0000 0000 0000 0000 0000 0000
000000a0: 0000 0000 0000 0000 0000 0000 0000 0000
000000b0: 0000 0000 0000 0000 0000 0000 0000 0000
000000c0: 0000 0000 0000 0000 0000 0000 0000 0000
000000d0: 0000 0000 0000 0000 0000 0000 0000 0000
000000e0: 0000 0000 0000 0000 0000 0000 0000 0000
000000f0: 0000 0000 0000 0000 0000 0000 0000 0000
00000100: 0000 0000 0000 0000 0000 0000 0000 0000
00000110: 0000 0000 0000 0000 0000 0000 0000 0000
00000120: 0000 0000 0000 0000 0000 0000 0000 0000
00000130: 0000 0000 0000 0000 0000 0000 0000 0000
00000140: 0000 0000 0000 0000 0000 0000 0000 0000
00000150: 0000 0000 0000 0000 0000 0000 0000 0000
00000160: 0000 0000 0000 0000 0000 0000 0000 0000
00000170: 0000 0000 0000 0000 0000 0000 0000 0000
00000180: 0000 0000 0000 0000 0000 0000 0000 0000
00000190: 0000 0000 0000 0000 0000 0000 0000 0000
000001a0: 0000 0000 0000 0000 0000 0000 0000 0000
000001b0: 0000 0000 0000 0000 0000 0000 0000 0000
000001c0: 0000 0000 0000 0000 0000 0000 0000 0000
000001d0: 0000 0000 0000 0000 0000 0000 0000 0000
000001e0: 0000 0000 0000 0000 0000 0000 0000 0000
000001f0: 0000 0000 0000 0000 0000 0000 0000 0000
00000200: 0000 0000 0000 0000 0000 0000 0000 0000
00000210: 0000 0000 0000 0000 0000 0000 0000 0000
00000220: 0000 0000 0000 0000 0000 0000 0000 0000
00000230: 0000 0000 0000 0000 0000 0000 0000 0000
00000240: 0000 0000 0000 0000 0000 0000 0000 0000
00000250: 0000 0000 0000 0000 0000 0000 0000 0000
00000260: 0000 0000 0000 0000 0000 0000 0000 0000
00000270: 0000 0000 0000 0000 0000 0000 0000 0000
00000280: 0000 0000 0000 0000 0000 0000 0000 0000
00000290: 0000 0000 0000 0000 0000 0000 0000 0000
000002a0: 0000 0000 0000 0000 0000 0000 0000 0000
000002b0: 0000 0000 0000 0000 0000 0000 0000 0000
000002c0: 0000 0000 0000 0000 0000 0000 0000 0000
000002d0: 0000 0000 0000 0000 0000 0000 0000 0000
000002e0: 0000 0000 0000 0000 0000 0000 0000 0000
000002f0: 0000 0000 0000 0000 0000 0000 0000 0000
00000300: 0000 0000 0000 0000 0000 0000 0000 0000
00000310: 0000 0000 0000 0000 0000 0000 0000 0000
00000320: 0000 0000 0000 0000 0000 0000 0000 0000
00000330: 0000 0000 0000 0000 0000 0000 0000 0000
00000340: 0000 0000 0000 0000 0000 0000 0000 0000
00000350: 0000 0000 0000 0000 0000 0000 0000 0000
00000360: 0000 0000 0000 0000 0000 0000 0000 0000
00000370: 0000 0000 0000 0000 0000 0000 0000 0000
00000380: 0000 0000 0000 0000 0000 0000 0000 0000
00000390: 0000 0000 0000 0000 0000 0000 0000 0000
000003a0: 0000 0000 0000 0000 0000 0000 0000 0000
000003b0: 0000 0000 0000 0000 0000 0000 0000 0000
000003c0: 0000 0000 0000 0000 0000 0000 0000 0000
000003d0: 0000 0000 0000 0000 0000 0000 0000 0000
000003e0: 0000 0000 0000 0000 0000 0000 0000 0000
000003f0: 0000 0000 0000 0000 0000 0000 0000 0000
0.0 0.0 0.0 0.0 0.0 0.0 0.0 0.0
0.0 0.0 0.0 0.0 0.0 0.0 0.0 0.0
0.0 0.0 0.0 0.0 0.0 0.0 0.0 0.0
0.0 0.0 0.0 0.0 0.0 0.0 0.0 0.0
0.0 0.0 0.0 0.0 0.0 0.0 0.0 0.0
0.0 0.0 0.0 0.0 0.0 0.0 0.0 0.0
0.0 0.0 0.0 0.0 0.0 0.0 0.0 0.0
0.0 0.0 0.0 0.0 0.0 0.0 0.0 0.0
0.0 0.0 0.0 0.0 0.0 0.0 0.0 0.0
0.0 0.0 0.0 0.0 0.0 0.0 0.0 0.0
0.0 0.0 0.0 0.0 0.0 0.0 0.0 0.0
0.0 0.0 0.0 0.0 0.0 0.0 0.0 0.0
0.0 0.0 0.0 0.0 0.0 0.0 0.0 0.0
0.0 0.0 0.0 0.0 0.0 0.0 0.0 0.0
0.0 0.0 0.0 0.0 0.0 0.0 0.0 0.0
0.0 0.0 0.0 0.0 0.0 0.0 0.0 0.0
0.0 0.0 0.0 0.0 0.0 0.0 0.0 0.0
0.0 0.0 0.0 0.0 0.0 0.0 0.0 0.0
0.0 0.0 0.0 0.0 0.0 0.0 0.0 0.0
0.0 0.0 0.0 0.0 0.0 0.0 0.0 0.0
0.0 0.0 0.0 0.0 0.0 0.0 0.0 0.0
0.0 0.0 0.0 0.0 0.0 0.0 0.0 0.0
0.0 0.0 0.0 0.0 0.0 0.0 0.0 0.0
0.0 0.0 0.0 0.0 0.0 0.0 0.0 0.0
0.0 0.0 0.0 0.0 0.0 0.0 0.0 0.0
0.0 0.0 0.0 0.0 0.0 0.0 0.0 0.0
0.0 0.0 0.0 0.0 0.0 0.0 0.0 0.0
0.0 0.0 0.0 0.0 0.0 0.0 0.0 0.0
0.0 0.0 0.0 0.0 0.0 0.0 0.0 0.0
0.0 0.0 0.0 0.0 0.0 0.0 0.0 0.0
0.0 0.0 0.0 0.0 0.0 0.0 0.0 0.0
0.0 0.0 0.0 0.0 0.0 0.0 0.0 0.0
