Assets/ML-Agents/mla-1.0.6/results/carchase02/CarAgent/CarAgent-6812.onnx (onnx, 362126 bytes, 9 tensors)

53 f4 [91]
00000000: 37ac 743e db7e 463c 365a 8c3c 811e 743e
00000010: 8761 483e 3ab3 bc3e 1669 ec3d 365a 8c3c
00000020: ab0a b63e 04a4 693e fe41 7c3e dd59 853d
00000030: 365a 8c3c 2449 733e 8a12 1b3e e30e 6d3e
00000040: db7e 463c 365a 8c3c 4a7b 6c3e 8bce 413e
00000050: 2e51 7d3e 5e6c f13d db7e 463c d116 623e
00000060: 8209 153e 32e0 973e 8d48 db3d 365a 8c3c
00000070: 375b 8f3e f187 373e ca52 b23e db7e 463c
00000080: 365a 8c3c 192b b23e 5a90 993e 963c aa3e
00000090: dc59 853d db7e 463c 75c1 a73e 43a4 493e
000000a0: 0a48 c93e dd59 853d 365a 8c3c d47c c73e
000000b0: 7dc3 6e3e 641b 553e db7e 463c 365a 8c3c
000000c0: e972 543e 947b 383e 7a8c 843e e79e 873d
000000d0: 365a 8c3c 809e 803e 6f87 1b3e 0a16 883e
000000e0: 609c cb3d db7e 463c 2c28 7f3e 05ae 1c3e
000000f0: 2cb7 e43e 697c 9c3d 64df dd3c 3405 e33e
00000100: 6831 753e 1857 d13e b029 ca3e 2ae7 5a3e
00000110: f6d2 a53c a21a b03d d20f 003e ad9f ba3d
00000120: be24 2e3e b0a6 df3c 64ab e53c b885 a33e
00000130: 1372 3b3f 42d1 603f 5538 033f 85b9 5f3c
00000140: 6173 c53c 9285 3442 44e7 143f 899d b342
00000150: 6552 853d 6e42 963d 59d3 e93e 0cb1 9a3e
00000160: 77ee ae3e 5345 a63e dccc 8f3e
0.2389382 0.012115206 0.01713286 0.23839761 0.19568454 0.3685549 0.11543481 0.01713286
0.35555014 0.22816473 0.24634549 0.06511281 0.01713286 0.2375837 0.15143791 0.2315021
0.012115206 0.01713286 0.23093906 0.18926446 0.24737999 0.117882475 0.012115206 0.22079016
0.14554408 0.29663235 0.10707197 0.01713286 0.2799928 0.17922951 0.34828788 0.012115206
0.01713286 0.34798506 0.29992944 0.33249348 0.0651128 0.012115206 0.32764784 0.19691567
0.39312774 0.06511281 0.01713286 0.38962424 0.2331676 0.2081123 0.012115206 0.01713286
0.2074696 0.18015891 0.25888425 0.06622105 0.01713286 0.25120926 0.15188383 0.26579314
0.099419355 0.012115206 0.24917668 0.15300758 0.44671 0.07640917 0.02708406 0.44339907
0.23944628 0.4088676 0.3948493 0.21377245 0.020242196 0.0859883 0.12506035 0.09112487
0.17006204 0.027301162 0.028035827 0.31937957 0.7322094 0.878193 0.5125783 0.013655071
0.024102869 45.13044 0.58165383 89.807686 0.06509856 0.07336889 0.45669058 0.302132
0.3416631 0.32474765 0.28085983

54 f4 [1, 2]
00000000: eeb7 13b7 981f 0dbc
-8.804707e-06 -0.00861349

distribution.mu.bias f4 [2]
00000000: 2b85 9bba 7a95 04bb
-0.0011865249 -0.0020230697

distribution.mu.weight f4 [2, 256]
00000000: a251 6ebb ba03 3dbb 069a 803c 8551 7c3c
00000010: 5bce 4bbc 2a90 c2bb 9ba5 c93b af33 b23c
00000020: a3a3 853c 72b5 42ba 579c 9ebb a822 8abb
00000030: 8279 b23b c0df 99bc 7041 933c e35b ceba
00000040: e576 95bc 95b1 44bb 14d7 453b fce5 3fbc
00000050: ef91 1cbc e987 12bb 1c40 4c3b 9f82 aeba
00000060: 3fb8 3e3c 5e5a 29bb d7cf 51bd 75ac 393b
00000070: 528a c43b 9088 b2bb d342 e5ba 3a00 c5bc
00000080: a43e 0cbc 348d 38bc 2d35 243c e629 503c
00000090: cac3 e4bb 74b1 b63b 5034 b3bb 8ca1 183b
000000a0: b4e9 85bb 21d4 663b 9b4a 613b 7e0e 59bb
000000b0: 008c 103c 7b05 52bc 2420 983c 7ff0 653c
000000c0: 518a 0cbb 6d20 1f3c b64a b5b8 a3b5 033d
000000d0: 91ae a8bc 745a 9b3c dd78 223b 2651 803b
000000e0: 93ca a13b e881 25bc 75f5 5dbc f1c8 163c
000000f0: d550 833c 3ec5 cabb 2687 cbbb 5984 253c
00000100: c6aa 58bc c074 04bc 8d3f 50bb 24fe 313c
00000110: ff3a 373c cd14 3cbc 0e22 813c 7561 61ba
00000120: 37a5 85bc 2472 35bc bf38 843b eb10 abbc
00000130: 1dfe ea3c df27 02bc ef70 8ebb f929 d6b8
00000140: 3c95 e5bb d6c0 a63c 1ee4 c4bb 47db 71bc
00000150: 00bc 173c fc76 a1bb 3902 aebc c461 20bc
00000160: 98a4 823c c593 dfbb 1f7f 93b9 bdbf 2cbc
00000170: a26c cb3b cc79 293c 0ed2 063c 2756 60bc
00000180: 42c4 e43c e3ce 793c e41c 433b 5162 08bb
00000190: cec4 6dbc 0ca4 5cbc ef29 39bc 63ee 0e3c
000001a0: cb12 bfb9 6cc8 ba3b a608 4ebb 44f5 8cbc
000001b0: a767 c13c 9f2f 91bc 027e 3d3c 7896 28bc
000001c0: 8207 a2bb 4301 d6bb d344 86bb cd72 8ebb
000001d0: c1f4 733c fdad 81bc 19fc bbbb 9eb1 99ba
000001e0: da0a d3ba 170d 013c b742 bcbc 80f1 e0bb
000001f0: a04e b6bc 3841 6cbb 0654 3cbc d342 803b
00000200: 551f 94bc 1ca1 d1bb e677 eebb 0230 e5ba
00000210: 4b40 3ebb 2db2 583c 0ed2 4c3c bd15 60bb
00000220: 7518 863c f320 38bc a288 d9bc 2271 0abc
00000230: 90aa 9bbc 71b5 993a 44a8 d0ba 866d 76bc
00000240: fa02 a83c b1b8 84b9 182f 023c aedc babb
00000250: a077 813b ecce 10bc fc4d d6bb 207f 37bb
00000260: d8be 9339 0105 183b 348e f7b9 3388 43bb
00000270: 9bc3 7cbc 903c afbc b2d0 87ba 42c1 403b
00000280: 9ec3 23bc ecac 2d36 d365 efbb 0d72 6cbb
00000290: 7598 85bb 8c7f 39bc fb79 d13c fe54 8a3b
000002a0: c26a a9ba 8e4c dbbc 66bc f83b d0a2 0dbc
000002b0: f7e5 893c 989d 633c 1a63 8a3c 1c8a 563c
000002c0: 11b1 7ebc 0680 6f3c 2009 82b9 4b8a bfbb
000002d0: 3522 4a3c 3b2b d2bb 7a18 a33c b373 1b3c
000002e0: 4b6d dfbc c832 c33c 345a 77bb 599c a13b
000002f0: 8fde b9bb af08 d03b 66ef 3cbc 058e 723b
00000300: 7ed7 493c 7901 05bc 5907 1fbc 9204 49bc
00000310: f246 c3bc 7adb 63bc e9f8 2fbc 9d5b b3b9
00000320: 3f32 b3bc 54a8 abbc 2784 95bb 69b7 24bc
00000330: 4cc8 6dbc 7cc9 a0bc ab65 893c 91b6 09bc
00000340: 4686 0bbd f395 3a3c 653f 2c3b 2410 783c
00000350: 22c6 0bbc 7974 9f3c bda7 96bb 6338 bcbb
00000360: 1bc3 603c 8553 793b 3ffe 523c ed67 753c
00000370: 5f36 adbc b431 923c b927 efbc 9ee6 8ebc
00000380: b9c0 c5bb 6ce5 d1bb 2592 f73c 2d7c 50bb
00000390: 31a8 9d3b 57f7 903c 7b5f 8a3c e9ee c53c
000003a0: 1947 a13c 6c32 f6bb 814a 2d3c ce74 333c
000003b0: 40dc 8fbb c522 e4bc 99fc 94bc 52a6 173c
000003c0: 319f 653b a14e 72bc 1043 783c 72c0 593c
000003d0: d9b0 8fbc e7d5 fa3c 4d08 113c 1cfd 0f3c
000003e0: b197 91bc 9698 4c3c 0237 52bb 9b1d b939
000003f0: 19e7 223a cca2 94bc ffac 0b3c 51fd ff3b
-0.0036364575 -0.0028841333 0.015698444 0.015400295 -0.012439336 -0.005937596 0.006153775 0.02175316
0.01631338 -0.000742755 -0.0048404145 -0.004215557 0.0054466138 -0.01878345 0.017975539 -0.0015743937
-0.01824517 -0.0030013074 0.003018801 -0.011712547 -0.009556278 -0.002235884 0.0031166142 -0.0013314075
0.011640607 -0.0025841217 -0.051223602 0.0028331552 0.0059979344 -0.0054484084 -0.0017491229 -0.02404796
-0.008559857 -0.011264134 0.010022444 0.012705302 -0.0069813477 0.0055753533 -0.0054688826 0.0023289649
-0.0040866975 0.0035221654 0.0034376744 -0.003312021 0.008822441 -0.012818689 0.018570013 0.0140343895
-0.0021444748 0.009712321 -8.6446686e-05 0.032155644 -0.020591052 0.01896403 0.0024791278 0.0039159236
0.004937479 -0.010101773 -0.013547291 0.009203182 0.016029755 -0.006188064 -0.0062111793 0.010102355
-0.013224309 -0.008084476 -0.003177616 0.0108638145 0.011183499 -0.011479569 0.015763309 -0.0008597591
-0.016314132 -0.0110745765 0.004035085 -0.02088209 0.028685624 -0.007944076 -0.004346959 -0.00010212133
-0.0070063155 0.020355623 -0.006008639 -0.014761752 0.009261131 -0.004927514 -0.021241294 -0.009788934
0.015947625 -0.0068230354 -0.00028132737 -0.010543761 0.0062080184 0.01034398 0.008228792 -0.013692415
0.027925614 0.01524708 0.0029771859 -0.0020810554 -0.014512254 -0.013466846 -0.011301502 0.008723828
-0.0003644436 0.0057001617 -0.003143826 -0.017206796 0.023608996 -0.017722903 0.011565687 -0.010289781
-0.0049447427 -0.006530912 -0.00409756 -0.0043471814 0.014889897 -0.015830034 -0.0057368395 -0.0011725908
-0.0016101256 0.007876656 -0.02298103 -0.0068647265 -0.022254288 -0.0036049616 -0.011494642 0.003914216
-0.018081347 -0.0063973796 -0.0072774766 -0.0017485621 -0.002903002 0.013226074 0.012501253 -0.0034192645
0.016369084 -0.011238324 -0.02655441 -0.0084498245 -0.019002229 0.0011727047 -0.0015919288 -0.015040761
0.020509232 -0.00025314608 0.007945798 -0.0057025766 0.003951028 -0.0088383965 -0.006540058 -0.0027999356
0.00028180215 0.0023196342 -0.0004721746 -0.002983582 -0.015427495 -0.021391183 -0.0010361879 0.0029412066
-0.009995369 2.5879663e-06 -0.0073058396 -0.0036078722 -0.004077012 -0.011321913 0.02557086 0.0042215576
-0.0012925493 -0.026769903 0.007590818 -0.008644775 0.016833289 0.013892554 0.016892958 0.013094451
-0.015545146 0.0146179255 -0.0002480233 -0.005845343 0.012337257 -0.006413845 0.019909132 0.009488034
-0.027273795 0.023827925 -0.0037742974 0.004931968 -0.005672283 0.0063486914 -0.011531686 0.003701092
0.012319444 -0.008118027 -0.009706342 -0.012269156 -0.02383754 -0.013907308 -0.010740497 -0.00034209798
-0.021874545 -0.020954289 -0.004562873 -0.010053494 -0.0145130865 -0.019627325 0.016772112 -0.008405344
-0.0340636 0.01138829 0.0026282903 0.015140567 -0.008531125 0.019464718 -0.0045976327 -0.0057440265
0.013718392 0.0038044166 0.012878 0.014978391 -0.02114409 0.017845966 -0.029193746 -0.017443951
-0.006034937 -0.006405523 0.030221054 -0.0031812296 0.0048113097 0.017696066 0.016891232 0.024161773
0.019687222 -0.007513335 0.010576845 0.010953141 -0.0043902695 -0.02784861 -0.018186854 0.009255962
0.0035037512 -0.014789254 0.015152708 0.013290511 -0.017540382 0.030619575 0.008852077 0.008788373
-0.017772527 0.012487551 -0.0032076244 0.00035308008 0.0006214246 -0.018144034 0.008525132 0.00781218

network_body.linear_encoder.seq_layers.0.bias f4 [256]
00000000: d2a2 a53a 6601 8c3b 8f3a 97b9 d312 6f3b
00000010: 89ab 813b 6583 d03b 66e9 843a fc97 85ba
00000020: a925 a03b 0439 6a3b f205 39bb 04df cfbb
00000030: 0f8a 65b9 51c9 343b eccf 463b 17f6 8bba
00000040: de0f 6b3b 910d 923b 438a 92ba f4d3 773a
00000050: 02af 5abb ce8a d63a 4835 60b8 900a 103b
00000060: 1725 643b d814 0bbb cca8 e43a 7d27 7cba
00000070: bc43 7839 fc8d 1dba 8a28 c83b 387c 973b
00000080: 1718 79bb 00b9 673b c86e f2ba 982a 96ba
00000090: cf71 02bc 6f63 e9ba 1a43 aa3b b6d8 573b
000000a0: e4d2 26ba bdb8 91bb 9611 4eba 08a6 f539
000000b0: ab7f 2a38 410e 21bb c451 1f3b 16c3 b1ba
000000c0: 511c 5aba 241a b43b c61b 1bbb d2a0 acb9
000000d0: 02cf 483b 12cd f8ba 8c00 0f3a e4ae 7f3b
000000e0: b74d ccba 9ed6 923a a575 8cbb b8ea 8c39
000000f0: 0af7 2d3b a732 e63a 8d77 04bb 39e4 313b
00000100: 5abc 9d3a 9a2f 59bb 00a8 28bb 1cd0 95ba
00000110: 7604 80ba e78c 553b 3d91 98bb 6e10 06bb
00000120: 13c7 9ebb fb58 c13a 16b1 373b d6ad 7f3a
00000130: a3a2 38bb be6a 89b9 5fbd 0cbb de53 7d3b
00000140: 4591 f83b 72c4 4dba d984 673b 732a 76ba
00000150: ed41 19bb 0ba7 fbba a159 cab9 f683 13bb
00000160: 27b9 98b9 f85c 7e3b b9fe 89ba 46d5 113a
00000170: 2e44 393b 665f 983a da26 44bb ade1 9bbb
00000180: 1d46 a6ba fe90 ea3a 5cb5 0fbb 7847 613b
00000190: 07a6 df3a b169 47bb 0fa7 9c3a c88f ef3a
000001a0: f814 c8bb 862e 6fba 80ed a0ba e4a8 e439
000001b0: 1db9 18bb ee44 b9bb d556 7fba 3baa 293c
000001c0: 56eb ca3a c7a3 643b 0896 01ba 5cf2 8b3a
000001d0: 4b41 0b3b 4f91 2a39 1ae6 fa38 fdd7 83bb
000001e0: 8a32 213b 2227 ce3b f576 c73b e92f ed3a
000001f0: 6b2c 68bb 28cf 34bb 7717 64ba d48e 06bb
00000200: 4c7f 03ba 120c 73bb 3eac 80b9 2f83 003b
00000210: 099d c9bb f47d 5237 c569 fcba 853a 28ba
00000220: 69d1 d73a 9664 1f3b 6763 77bb c56b 9c3a
00000230: fb99 dd3b 3ac6 ef39 0419 9fbb 0d77 773a
00000240: 71b0 ccb8 3346 0cbb f851 bf3a 1f8b 9c3a
00000250: 25d9 c43a ffc9 85bb 2cd3 2fba 8e15 cc3a
00000260: 6532 063b e89b 79ba cfe1 5c3b 4831 0f39
00000270: 9c43 363b 210e f43a 656a 78ba 5c97 6639
00000280: c871 90bb b9a5 a23a 9886 3ebb d387 26ba
00000290: 178b bcba 3ece ccba 4c1d 1dbb d604 613b
000002a0: 1311 8cba f86c 16bb e353 c2bb c8f3 a53b
000002b0: e9da 6abb 4f17 973b fb62 573b 9f91 cc3b
000002c0: 504d a73a a11d 843a 661e 8f3b faad 99bb
000002d0: 38f5 95ba 469d b2bb bb6b 493b d467 d63a
000002e0: 2170 803b 1f23 273b 7a3e a03b 9587 9cbb
000002f0: 2cdc 3cba 7ea2 93bb aaff 2e3b 6060 95bb
00000300: 0da1 dfba b743 953b 40f8 cc3a 17ef cdba
00000310: 7885 cdba dc66 31ba a962 9d3b 59fe 01bb
00000320: ed8f c9bb 3284 32b9 32cc bcba da0a 35bb
00000330: 43cf ac3b 0a57 09b9 d019 99ba 5f35 8a3b
00000340: d3b5 58bb 7edf c237 9ebd d7ba ca4c 1cba
00000350: a2d7 1ebb 7e03 9c3a d309 013b 2371 deba
00000360: 5c04 18ba 5a14 c13b 19d9 513b 6f9d 7eba
00000370: e9a2 8c3b 35b4 4cba 6c5c 19bb cf49 833b
00000380: a264 e63a 26a3 313b 2901 653b dc89 4d3b
00000390: 2e95 bcba 48b4 bb3b 706b 4b39 7d60 80bb
000003a0: 6be2 b83b 8077 9fbb 98fa b6ba d0a8 b23b
000003b0: b067 ba3b 39b9 8b3a 9c92 c7ba a3fa 073b
000003c0: bc82 3cbb 89ed 9539 ed9d e7ba 3cca f43a
000003d0: 8339 7b3b c09d b3ba 6431 babb f37d b3ba
000003e0: 5332 973a 7b7d feb9 4a72 ab3b a44e 68ba
000003f0: 90e5 b63b b247 09bb fbcc 5e3b 954e 193b
0.0012637025 0.0042726276 -0.00028844594 0.0036479726 0.003957216 0.0063633197 0.0010140359 -0.001019239
0.004887302 0.003573955 -0.0028232303 -0.006343724 -0.00021890573 0.0027585814 0.0030336333 -0.0010678199
0.0035867612 0.0044571836 -0.0011180121 0.0009453886 -0.0033368473 0.0016368271 -5.3455384e-05 0.0021978952
0.0034812146 -0.002122214 0.0017445325 -0.00096189213 0.00023676356 -0.0006010232 0.0061083483 0.0046229623
-0.0038008743 0.0035358071 -0.001849615 -0.0011456786 -0.007961704 -0.0017806123 0.0051959874 0.0032935566
-0.00063638226 -0.0044470713 -0.0007860897 0.00046853744 4.065006e-05 -0.0024575146 0.002431021 -0.0013562168
-0.00083202595 0.0054962803 -0.0023667677 -0.00032926217 0.0030640964 -0.0018982014 0.00054550986 0.0039014155
-0.0015587126 0.0011202877 -0.0042864853 0.0002687776 0.0026544952 0.0017562703 -0.002021286 0.0027144088
0.0012034283 -0.0033139945 -0.0025734901 -0.0011429819 -0.0009766954 0.0032585205 -0.0046559856 -0.002045657
-0.004845509 0.001475125 0.0028029135 0.00097533816 -0.002817311 -0.00026210205 -0.0021475179 0.0038654725
0.007585677 -0.0007849402 0.0035326986 -0.00093904807 -0.0023385242 -0.0019199563 -0.0003859522 -0.0022509075
-0.00029129648 0.0038812738 -0.0010528184 0.0005563091 0.0028269398 0.0011625111 -0.0029930384 -0.0047571273
-0.001268569 0.0017895994 -0.0021928167 0.0034374874 0.001706303 -0.0030427987 0.0011951643 0.0018277103
-0.0061060153 -0.0009124059 -0.0012277812 0.00043613382 -0.0023303695 -0.005653969 -0.0009740417 0.0103555275
0.0015481513 0.0034887658 -0.0004943316 0.0010677087 0.0021248634 0.00016266595 0.00011963789 -0.0040235505
0.0024596774 0.006291286 0.006087179 0.0018095943 -0.0035426866 -0.0027589295 -0.00087010063 -0.002053191
-0.0005016222 -0.0037086052 -0.00024542393 0.0019609442 -0.0061527533 1.2546301e-05 -0.0019257596 -0.00064174115
0.0016465607 0.0024321429 -0.0037748457 0.0011933973 0.0067627407 0.00045733323 -0.004855277 0.0009440042
-9.760343e-05 -0.0021404147 0.0014596572 0.0011943317 0.0015018327 -0.0040829177 -0.0006707187 0.0015570389
0.0020476815 -0.0009521828 0.0033703928 0.00013655901 0.0027811294 0.0018619933 -0.0009476303 0.00021990895
-0.004408095 0.0012409008 -0.0029071923 -0.0006352637 -0.0014384714 -0.001562543 -0.002397376 0.0034335158
-0.0010686241 -0.0022953134 -0.00593041 0.0050644614 -0.0035836047 0.004610933 0.0032865393 0.0062429453
0.001276413 0.0010079631 0.0043676374 -0.004689929 -0.0011440879 -0.0054508774 0.0030734378 0.0016357847
0.003919617 0.0025503112 0.0048902603 -0.004776905 -0.0007204439 -0.0045054546 0.002670268 -0.004558608
-0.0017061547 0.0045551914 0.0015637949 -0.0015711513 -0.0015680036 -0.00067673414 0.004803021 -0.001983544
-0.0061511905 -0.0001702465 -0.0014404117 -0.0027624876 0.005273731 -0.00013097763 -0.0011680666 0.004217788
-0.003306736 2.3230674e-05 -0.0016459709 -0.000596237 -0.0024237414 0.0011902896 0.0019689694 -0.0016970973
-0.00057989894 0.0058923187 0.003202027 -0.00097127905 0.0042918813 -0.00078088354 -0.0023401035 0.0040066014
0.0017577598 0.00271053 0.0034943318 0.0031362688 -0.0014387721 0.0057282783 0.00019399612 -0.0039177523
0.0056422255 -0.0048665404 -0.0013960181 0.005452253 0.00568863 0.0010660059 -0.0015226188 0.0020748756
-0.0028764447 0.00028596472 -0.0017670967 0.0018675993 0.003833384 -0.0013703629 -0.0056821574 -0.0013694152
0.0011535384 -0.00048540146 0.00523213 -0.0008861816 0.005581565 -0.0020947275 0.003399669 0.0023392786

network_body.linear_encoder.seq_layers.0.weight f4 [256, 91]
00000000: 3b0d 1f3d 8ec6 e93d 4a37 073e 1838 923c
00000010: d64b cc3d d55d 963b 587e 82bd 903c c43c
00000020: 1458 99bd 876d 93bd 3a04 d5bd b81e caba
00000030: 5003 22be c4d2 9cbd 8378 613c a68d e33d
00000040: d7a6 13bd 9f76 fd3d 0a39 513d a804 a3bd
00000050: eabb 833c 12b7 1a3e 7f9c 9c3d 0290 403d
00000060: 3549 e43d 8dfe c5bc f122 0b3e 2fb4 30bd
00000070: 1e61 a1bd 730e 14be be95 593c e53b 1c3e
00000080: 3255 0bbe 5880 cd3d 15a1 c83d bc67 95be
00000090: 1ef9 7fbd 7efb 3f3e e7ae 433c 8f94 92bd
000000a0: 6df9 df3a a278 543c c7df 75bd a6f0 62be
000000b0: 3267 88bd 00b7 82bc 4371 0cbd 1e87 61bb
000000c0: 9397 44bd 9d6c 713d 361d 1d3e d194 c13d
000000d0: 566e 66bd 33eb 32bb 5466 2e3e 0d2f 883d
000000e0: 429f 943d f771 39be 79d7 2f3e 8d9e e3bd
000000f0: c416 3a3d e4a0 eebc 526d b3bd f874 3bbe
00000100: 2719 a33d 9405 87bd 7c39 05bd 388d 86bc
00000110: 79db 253e df80 e63c 34ab ebbc dd16 74bb
00000120: fc1e df3c 51e6 82bd 639d 9a3d 3901 093e
00000130: 7747 9ebd eae2 853d 3578 38bd 3cd6 983d
00000140: c841 843d d9c7 15bc 97d1 4a3e 2f92 7cbc
00000150: aff9 22bc af74 123e 4b5c a5bb 7682 343d
00000160: d70f 72bd 239b 973c b372 9fbd aef4 4b3d
00000170: 0546 33bd d493 f0bb bab3 a23d ae44 153c
00000180: 956e f53d 62a2 723d 8795 12bd 6c82 523d
00000190: 343f 24be b31e e83d 6ffd 5d3b ed84 9e3c
000001a0: 2d3a 5f3d 8f20 ad3b adde 30bc 05a1 803c
000001b0: b5ce 85bd 4482 47bd bc0f 05be d83a 363c
000001c0: a692 27bd 5862 5e3d 26c8 fc3b 0307 933d
000001d0: 150a 2abe d396 e0bc 7795 453e e4ee ef3d
000001e0: 6ef3 58bd 14e1 90bd ddb7 21be 0371 993c
000001f0: 363a 08be 6a22 4a3b 8114 0b3e a269 6cbd
00000200: e1e3 993d eaef f0bc 7f44 9d3d fe8f 09bd
00000210: 19ec c5bd 4391 143e 9eda d83d 407c 5a3d
00000220: 98a6 1a3d eca3 643e d71e 76bd c2b0 8abd
00000230: bafe 5e3e 6dc1 edbd e28e 413d 3cb2 09be
00000240: ecc7 c9bc 5d61 1d3e 84b2 4abe 3bb1 48bd
00000250: 6ea9 d03c 6677 fdbd f313 2bbe 14b0 fd3c
00000260: d22e ccbb 783d e43d e40d 7cbd 6ce0 513e
00000270: 1ff4 a9bd 8b75 093a 00a0 1fbd 79df babd
00000280: 5f5d 8cbc f8e6 cfbd 18d4 26be 0d46 05bd
00000290: 5a50 7c3d a047 d4bd eff2 a23d 73e4 11be
000002a0: 3a48 51bd 5100 513d 89e0 233d bed6 1fbd
000002b0: b47d 323c 3870 c9bc 7a6f 2dbd 1712 ecbd
000002c0: b4e9 9b3b d3d7 53be 3488 4f3d 71ad 113c
000002d0: 3a95 4abd 8c28 8b3d b862 49bc af7f 7d3b
000002e0: 8eea dbbd 4e08 d1bc d6e4 b23d 8948 513e
000002f0: ee57 a6bc 6f25 c2bd 77f4 67bd bc8c 6a3d
00000300: 68c2 b13c 9c1b 1dbd 4ba9 053e ebbe e43d
00000310: 48db 9f3d c67b 0cbe 1cb3 f5bd b563 ad3d
00000320: 0df5 cc3d ce14 8e3c 3e8f 883e c5b1 2fbd
00000330: f442 37bd 1f41 523c e300 06bd 04c7 a13d
00000340: f33f 143d b77d 6b3e ed91 8c3d 19f3 bdbd
00000350: 26ba f83c ed04 16be 5175 ad3c 51ba cbbd
00000360: 7d8b 6abd fe84 f8bd 9674 07be c32e 0f3c
00000370: 4d33 593d c508 e9bb 8163 37bd d73d 96bc
00000380: e061 8bbd 6052 abbd de14 00bd 109e 5b3e
00000390: 768b 2f3d 7781 95bd 0007 513c 5a02 0a3e
000003a0: b643 38bd 5ab8 0b3e b539 013e efdc b6bb
000003b0: 2188 e539 fe86 243b c72f b43d 6cca 9f3e
000003c0: 4244 3cbe e374 773d 7958 943d 5977 5abe
000003d0: 4046 b33d 8a91 083e 34c1 93bc 8cb3 e33d
000003e0: 2f01 cabd ebcd 18bc 61a9 82be 2b3a 113d
000003f0: 20cc 1c3d 5f09 76be af95 d23d f4a4 c5bb
0.038830977 0.114148244 0.13204685 0.017849013 0.09975402 0.0045888224 -0.063717544 0.02395466
-0.07487503 -0.07198625 -0.10401197 -0.0015420532 -0.15821576 -0.07657388 0.013761642 0.11111002
-0.036047783 0.12376141 0.051079787 -0.079598725 0.016080815 0.15108898 0.07647037 0.047012337
0.11146776 -0.02416923 0.13587548 -0.043140586 -0.07879852 -0.14458637 0.01328033 0.15257223
-0.13606718 0.10034245 0.09796349 -0.29180706 -0.062493436 0.1874828 0.011943555 -0.071572416
0.0017087884 0.012968214 -0.060027864 -0.22162113 -0.06660308 -0.015956402 -0.034287702 -0.0034412812
-0.047996115 0.058941472 0.15343174 0.094522126 -0.05625757 -0.0027300834 0.17031223 0.06649599
0.072569385 -0.1810988 0.1717204 -0.111142255 0.045431867 -0.029129453 -0.087610856 -0.18306339
0.07963782 -0.06592861 -0.032525524 -0.01642476 0.16197003 0.028137622 -0.02876816 -0.0037245073
0.027236454 -0.063915856 0.075495504 0.13379373 -0.077284746 0.06537421 -0.045036513 0.07462737
0.06457859 -0.009141886 0.19806515 -0.015415712 -0.0099472245 0.14302324 -0.0050464026 0.04406973
-0.059097137 0.018506592 -0.07785549 0.04979389 -0.043767948 -0.0073418412 0.07944436 0.009110613
0.119839825 0.05923689 -0.03578713 0.05139391 -0.16039735 0.113339804 0.0033872982 0.019350493
0.05449884 0.0052834223 -0.010795278 0.01570178 -0.06533567 -0.048708215 -0.12994283 0.011122428
-0.04091134 0.054293007 0.0077142892 0.07179072 -0.16605408 -0.027415669 0.19295298 0.11715487
-0.052966528 -0.0707418 -0.15792795 0.018730646 -0.13303456 0.0030843266 0.1358204 -0.057717927
0.075141676 -0.029411275 0.0767908 -0.033584587 -0.09664173 0.14508538 0.10588573 0.05334115
0.037756532 0.22328156 -0.060088005 -0.06771995 0.21776858 -0.11609159 0.047255404 -0.13446897
-0.024631463 0.15369172 -0.19794661 -0.048997145 0.025471415 -0.12376289 -0.16706829 0.03096775
-0.0062311674 0.11144537 -0.061536685 0.20495766 -0.082985155 0.00052436505 -0.038970947 -0.09124655
-0.017134367 -0.10151476 -0.16291845 -0.03253751 0.061600067 -0.10365224 0.07956492 -0.14247303
-0.05109427 0.051025692 0.040009055 -0.039023153 0.010894228 -0.024589643 -0.04234264 -0.11526888
0.004758084 -0.20687799 0.050667003 0.008891449 -0.04945872 0.06794843 -0.012291603 0.0038680842
-0.10738097 -0.025516655 0.08735053 0.20437826 -0.0203056 -0.09479796 -0.056629624 0.05726312
0.021699145 -0.03835641 0.13052861 0.11169227 0.078054965 -0.13719091 -0.11997053 0.08466283
0.10007677 0.017343905 0.26671785 -0.042894144 -0.044741586 0.012832909 -0.03271569 0.07899287
0.0361938 0.22997175 0.06863771 -0.09274883 0.0303622 -0.14650317 0.021174105 -0.099476464
-0.057261933 -0.12134741 -0.13228068 0.008739176 0.05302744 -0.007111641 -0.04477263 -0.018340034
-0.068057775 -0.08365321 -0.0312699 0.21447015 0.04285761 -0.07300084 0.012758017 0.1347746
-0.04498645 0.13644543 0.1261967 -0.0055805366 0.00043779708 0.0025104876 0.08798175 0.31209123
-0.18385413 0.060414206 0.07243437 -0.2133459 0.087536335 0.13336769 -0.018036462 0.1111823
-0.09863507 -0.009326438 -0.2551985 0.035455864 0.038280606 -0.24027012 0.10282456 -0.006031627

network_body.linear_encoder.seq_layers.2.bias f4 [256]
00000000: dc12 593b b6e5 b9ba 952a 623b f3fe b3ba
00000010: 2658 1c3a ee7d 2cbb 5d74 4539 aff6 8e3a
00000020: 5e02 463a 3c64 0eb9 93db 1b3b 03f2 58bb
00000030: b2ab 69bb 3233 8638 bbeb acba 87f1 3c3b
00000040: cc41 7b3a da31 0c3b 0cf5 06bb 940a 0eba
00000050: 0804 503b 0438 a7bb 45fd 57bb 4308 43ba
00000060: 47b7 09bb 6dad a93a 5d67 213b 35e6 323b
00000070: 5b55 8c3a a491 d5ba f5f0 38bb 28cc 5b3a
00000080: c043 5bbb c8f7 313b 02e0 e8ba 4e73 81ba
00000090: 6888 2d3b 407b 9e3b a681 293b 1d3d f2ba
000000a0: 3866 183b 0581 fa38 f0eb 4cbb 99b9 df3a
000000b0: 577e b1ba af19 813b 2721 043a f45e d9ba
000000c0: 68a7 38ba 3bd0 cd3a 8248 9abb f4d1 40ba
000000d0: c792 a33a fdef a5ba d16d 963a 03a6 ef3a
000000e0: 1290 3abb abb2 503a 0d2e 6b3b 2f96 8fba
000000f0: d59f 9239 9809 9db9 2a4e 0d3a f068 1dba
00000100: 5892 efb9 27c7 d7ba 0acd db3a c18f beb9
00000110: 9bb8 89ba 3ee8 8f3b 4c8c b9ba cabc 9dbb
00000120: 7d16 153b ae4b af3a 28a9 293b 8b87 dd3a
00000130: 1ad6 ffb9 e917 fc3a b633 213b 8344 35bb
00000140: 4c63 b23b 40c9 dfb6 bb52 70bb dc94 153b
00000150: 376f 98ba 1dea 983a 905a 83b9 82f4 9e3a
00000160: c3b6 f8ba e9b6 803b 7333 743a feea 11bb
00000170: 6671 07bb 4566 adb9 8963 b63b 4bd4 c53a
00000180: 701b d5ba d7ee baba 0beb 6dba 947f 4f3b
00000190: 6b1e 1a3b 229c 283b 8da9 973a 8ecb 88ba
000001a0: c2cd d93a 20b7 9e3a 58bf 32bb dfbf 583a
000001b0: 0b68 58ba 980b c33a dd96 15ba ad32 7a39
000001c0: 6ed8 ba3a d5d7 bb3a 13f7 21bb 3e24 0fbb
000001d0: 17d3 c43a 2ecd 643b 6d67 9d3a bc53 16bb
000001e0: 32b1 e2ba 1334 e23a 39f9 863b 147b 8a3a
000001f0: 822e 96ba 14c0 f23a 07f7 1c3b 31eb a03b
00000200: 903e 333a 63a6 1bba f388 c53a 96d0 623b
00000210: cef2 6bba 0315 2a3a 58c8 9e3a 2b51 4c3b
00000220: cb89 9cba 865e 053b 9af7 c63a b9cf ad3a
00000230: fd2b 953a 40eb 38ba 631d 483b ce20 133b
00000240: 21cb 0fbb dac6 5839 f565 63ba ef61 923a
00000250: 813e 04b8 d4e4 053a dcfb 933a 57d7 52ba
00000260: 796a 113b 8c1f 41bb 3551 143b 6c4a a4bb
00000270: 8c51 543a 7b0a 173b 3b82 8b3b f205 81ba
00000280: 9988 b83a 713e 39b9 73db 9c3a 07bd b7b9
00000290: e6cd a83a 7e58 e03a 5817 9bb9 aa47 16bb
000002a0: a3d2 ebb9 046e 053b e3af 3f3b 8032 ae3a
000002b0: 005c c43a 04eb da3a aa69 de39 4c1f 36bb
000002c0: e6cd b8ba daed 8f39 ff88 0fba e3ff 1dba
000002d0: b24a f638 afd0 023a 36ef 24ba 0f52 d9b9
000002e0: 3b07 0e3b f80f 193a f83f 213b f4ce 18bb
000002f0: 00fe 2c3b a12f 6d3a c804 c9ba aa02 3dbb
00000300: a251 7f3b 0355 b43a 8cb7 003b c79c a9b9
00000310: 7aa3 1338 ac2d 38b9 7348 1a3b 1b33 033b
00000320: 03e3 e43a 589d 973b c399 5839 3c75 bc3a
00000330: 8939 143b 33c2 923a 50d4 913b 46ff 143b
00000340: e765 413b 8103 47bb 793e 83b8 eaa2 60bb
00000350: 0d80 b33a 7e6e ebb9 e5d0 cbb9 44bf ef3a
00000360: ed02 03bb 1366 c2bb fde3 cdba c184 f738
00000370: e07b cab9 78d2 52ba 222e 503b 3f4f cb3a
00000380: e7c8 0d3b 7077 123b 982a ecb8 9bfc 8439
00000390: cf94 37bb 0b8d 873a 3672 cdba a919 2039
000003a0: 905a 7dba bb2d d43a 86d2 f5ba b6d4 adba
000003b0: e33f b9ba 3584 e13a 684e cc39 3f1d 5cbb
000003c0: 4520 67bb d5b5 86b6 7e10 0dba 0fd1 d8ba
000003d0: b023 fc39 2fcd 10ba 4b98 bbba 2566 0e3b
000003e0: 7244 8239 fe7f abb9 6f82 e03a aa3e 09bb
000003f0: 46d3 29ba 29fa 193b e3a0 543b 088f f33a
0.0033122813 -0.0014182839 0.0034510244 -0.0013732597 0.0005964063 -0.0026320177 0.00018830733 0.0010907258
0.00075534533 -0.00013579516 0.0023782 -0.0033103235 -0.0035655317 6.399154e-05 -0.0013192812 0.0028830485
0.00095846946 0.0021392019 -0.0020592837 -0.00054184464 0.0031740684 -0.005103113 -0.0032957357 -0.0007439891
-0.0021013783 0.0012945362 0.002462826 0.0027297859 0.001070659 -0.0016294015 -0.0028219793 0.00083846087
-0.003345713 0.0027155746 -0.0017766955 -0.0009876282 0.002647901 0.00483647 0.002586463 -0.0018481348
0.0023254286 0.00011944961 -0.003126856 0.0017068862 -0.001354168 0.0039398293 0.00050403405 -0.0016584084
-0.00070439884 0.0015702316 -0.0047083506 -0.0007355504 0.0012479656 -0.0012660023 0.001147682 0.0018283728
-0.002846722 0.0007961194 0.0035885603 -0.0010954792 0.00027966374 -0.0002995252 0.00053903705 -0.00060047116
-0.00045694667 -0.001646255 0.001676948 -0.0003634673 -0.0010507287 0.004391699 -0.0014156192 -0.004813765
0.0022749 0.0013373995 0.0025888178 0.0016901357 -0.00048796908 0.00192332 0.0024597473 -0.0027659244
0.005443966 -6.6693465e-06 -0.0036670405 0.0022824323 -0.0011629824 0.0011666451 -0.0002505374 0.0012127312
-0.0018975366 0.0039280546 0.0009315528 -0.002226531 -0.0020666956 -0.00033073328 0.0055660647 0.0015093175
-0.0016258787 -0.0014261854 -0.00090758567 0.0031661736 0.0023516666 0.0025727828 0.0011570916 -0.0010436641
0.0016617107 0.0012109019 -0.0027274694 0.0008268337 -0.00082552497 0.0014880775 -0.00057063793 0.00023860736
0.0014255175 0.0014331291 -0.0024713918 -0.002184167 0.0015016523 0.0034912336 0.0012008973 -0.0022938093
-0.001729524 0.0017257951 0.004119065 0.0010565245 -0.0011457952 0.0018520379 0.002395095 0.0049108495
0.00068376306 -0.00059375743 0.0015070721 0.003460919 -0.00090007193 0.00064881163 0.001211415 0.003117631
-0.0011942921 0.002035053 0.0015179992 0.0013260759 0.0011380907 -0.0007054098 0.0030535094 0.0022449973
-0.0021941143 0.00020673443 -0.00086745556 0.0011168103 -3.1529464e-05 0.00051076454 0.001129027 -0.00080429524
0.0022188707 -0.0029468266 0.002263141 -0.0050137546 0.00080993096 0.0023047018 0.004257468 -0.0009843691
0.0014078795 -0.00017666236 0.0011967256 -0.00035045316 0.0012878745 0.0017116216 -0.00029581296 -0.0022930899
-0.0004497963 0.0020359764 0.0029249124 0.0013290197 0.0014981031 0.001670212 0.00042421866 -0.002778965
-0.0014099448 0.000274523 -0.0005475431 -0.0006027205 0.00011744107 0.0004990203 -0.0006291749 -0.00041450604
0.002167179 0.00058388663 0.0024604779 -0.0023316713 0.0026396513 0.000904793 -0.0015336508 -0.00288407
0.003895857 0.0013758246 0.0019640652 -0.00032351 3.519978e-05 -0.00017564622 0.0023541718 0.0020019475
0.0017462674 0.004626911 0.00020656646 0.00143782 0.0022617301 0.0011196792 0.0044503585 0.0022735163
0.0029510201 -0.0030367079 -6.258203e-05 -0.0034276792 0.0013694778 -0.00044905016 -0.00038874816 0.0018291255
-0.0019990758 -0.0059325784 -0.0015708205 0.00011802605 -0.00038620736 -0.00080422265 0.0031765779 0.0015511288
0.002163464 0.0022349022 -0.00011261291 0.00025365208 -0.002801228 0.0010341717 -0.0015674296 0.00015268348
-0.0009664679 0.0016187945 -0.0018754757 -0.0013262245 -0.001413342 0.0017205538 0.0003896833 -0.0033586768
-0.0035267037 -4.0146792e-06 -0.00053811807 -0.0016541797 0.00048091775 -0.0005523739 -0.0014312355 0.0021728363
0.00024846528 -0.00032711023 0.0017128716 -0.0020941892 -0.00064783206 0.0023495054 0.0032444529 0.0018582055

network_body.linear_encoder.seq_layers.2.weight f4 [256, 256]
00000000: e6f7 aa3d de26 f8bc cde9 01be 0618 ef3d
00000010: c5cb 81bd 79de f13b 75a5 ccbd 27f0 bc3c
00000020: d679 313d e7b9 08bd 3adc 6bbd 9488 ab3d
00000030: c482 bdbc 78ff 313d bf37 3dbd 0089 3ebd
00000040: c3fb a8bd bb6c 223e d1da eabd 81d4 693d
00000050: c9aa edbd 992c a13d dec7 f53d 6262 a9b9
00000060: 4a3c 86bd 6d54 84bb 8635 6ebd ae13 9abd
00000070: cbfc 373d e7ec f7bc 4bb8 35be 083b 713d
00000080: d4a7 bcba 5786 603d d13f 053c 07b8 06bd
00000090: 83d9 6a3d c707 77bd ffac 5ebd 0e00 aebc
000000a0: 5e6e 16bc 8605 81bc 3652 643d 7a84 983b
000000b0: d971 69be ed87 f4bd 6391 a7bd 1631 14bd
000000c0: 5e84 3a3d 22c7 ee3d 9411 0fbe 769d e13b
000000d0: 0948 18bc 06d9 9d3d 91f8 af3d 187d 3f3d
000000e0: 70cd 093d 5d64 6bbd c229 99ba 5002 a43c
000000f0: 6614 313d 085f b53d bc98 adbd c962 c03d
00000100: 6b85 f03c 2463 633c 570d 87bd 53af 95bb
00000110: a54a 1ebd d610 0abe 49a9 373d de92 99bc
00000120: 3da8 edbc ecf8 8a3d f9e2 1abe 0345 7bbd
00000130: 660f c93c 66cb 843c 52bd 7dbc 87ec 8e3d
00000140: 9e8f 3abb 441a b6bd 6e71 c0bd 2c15 c1bd
00000150: e471 053d 54d2 263d aa9f 863d 9b95 60bb
00000160: 40a1 9eba fac0 da3d bb22 afbd 35d1 24bb
00000170: 50cf 633d 6017 20bc 8f1d ca3c 3a57 01bd
00000180: bdaf 83bc 2a88 2f3d a43f 223d 5938 743c
00000190: be5d 153c ed37 8dbc 7231 803d e298 8d3d
000001a0: 05e3 87bc 98bd 063d aae1 09bd cc30 493d
000001b0: 4af3 5e3c 6710 6b3d fc01 bfbc 4fe1 b83d
000001c0: 3d9d 183c 2911 4abd a8bf 04bd 3984 1e3d
000001d0: ccfc 063d 4585 a2bd 38a5 503d 8e75 6ebc
000001e0: c8c7 1ebb 2a28 7e3c 947e 69bc 535b febc
000001f0: 3d62 0c3d 0e3d 07be 92e7 8ebc 57c9 fc3c
00000200: dc71 d6bd ed9e c5bd 0615 8ebd 9792 a03d
00000210: 87ca a2bd 85c2 e5bc 01b8 8e3d 8ab9 b2bb
00000220: 83eb 86bd 0091 0fbb bb38 d0bd 1a66 1a3c
00000230: fb90 a13d 14bf 653d ef9b ec3b 019c e63d
00000240: 054e 9b3b 9053 febd 5b7b eb3c a5e0 05bb
00000250: 5f7e f9bd 2500 bd3c 1675 18bc d7e9 673d
00000260: 1d72 51bd 109e cd3b 81ed d7bc 198b b33d
00000270: 7b5e cc3c a862 b5bb ea8a b83b fb7a 4a3d
00000280: 9f7a c5bc de87 0a3d 9831 32bd 317f 4d3c
00000290: 6791 65bc 7955 023c 268e 89bd d524 2ebd
000002a0: 2301 52bd 129c f53d da0d 7f3c 960c e83b
000002b0: f3a6 1c3d 7ffd a33c c00c 6bbb 0e07 713d
000002c0: 2a7e dab9 7e27 96bc 5fb5 7d3c e9e4 2d3c
000002d0: 2b53 fcbc 39f5 913b 5937 61bd 33a7 27bd
000002e0: c1bd a73c 4047 95bd d6a3 c13d b7e5 203d
000002f0: 2e1c f4bc 6840 ad3d d513 2cbd 8cd3 cd3c
00000300: 4046 babb 6a0f ee3d 44ca b13b 5831 0abc
00000310: 2a42 57bd 5698 3fbc e018 dd3c 68ab 2cbd
00000320: f9eb 04bd 900b 9abd d5c7 58bc c189 50bc
00000330: 5766 fbbd 6793 ddbd 2607 15be eb85 dabd
00000340: 441c d3bd 07e0 9bbc 0136 22bd fc91 943b
00000350: a33f ddbd d55a 983d f37f 39bc 5913 f93d
00000360: 8ab5 f6bc 2c9c 763c 16c2 24bd 1bfd 83bd
00000370: 3784 623d c03f ab3c 529a 14bd 6d87 b23c
00000380: 9d90 88be dbd4 a83c c1f6 6e3d ba06 c1bd
00000390: 47f8 573d 8d1e 613d 5168 abbc 010d 31bc
000003a0: 5ecd 503c bdea 4abd 1d2f f63c 4d9d 2bbe
000003b0: 3315 0b3e d52a f23c aa30 08bd 1659 313d
000003c0: 78b8 163d 9c14 a5bb ab11 b9bc f0b0 c23c
000003d0: 535d 62bc 0317 e0bc ffba 35bd 1bf4 b3bc
000003e0: e458 c3bc 1ac8 2c3c ed9a dfbd d26b 53bd
000003f0: ac8f b33b e6d6 2dbd 3c3a 14bc a7ae 2fbd
0.08348064 -0.03029197 -0.12686844 0.11674504 -0.06337694 0.007381257 -0.09992496 0.023063732
0.043329082 -0.033380415 -0.05758307 0.083756596 -0.023133643 0.043456525 -0.04619574 -0.046517372
-0.08251145 0.1586179 -0.11467517 0.057087425 -0.1160484 0.078698345 0.12001012 -0.00032307493
-0.06554468 -0.0040383846 -0.058156513 -0.07523285 0.044918817 -0.030264331 -0.17746083 0.058894187
-0.0014393278 0.054815616 0.008132891 -0.032890346 0.05733634 -0.06031015 -0.0543642 -0.02124026
-0.009181587 -0.015749704 0.055742465 0.0046544643 -0.22797336 -0.11939988 -0.08182027 -0.036179624
0.04553639 0.11659075 -0.1397155 0.006885226 -0.009294518 0.077074096 0.08592332 0.046750158
0.033643186 -0.05746876 -0.0011685418 0.020020634 0.043232344 0.088560164 -0.084763974 0.09393842
0.029360494 0.013878617 -0.06594341 -0.0045680194 -0.038645405 -0.13482985 0.044839177 -0.01874679
-0.029010886 0.06785759 -0.15125646 -0.06134511 0.024543475 0.01621027 -0.015487032 0.06978708
-0.002846695 -0.088917285 -0.09396635 -0.09427866 0.032579318 0.04072793 0.06573422 -0.003426886
-0.00121025 0.106813386 -0.08551546 -0.0025149111 0.05561763 -0.009771198 0.024672298 -0.031577326
-0.01607501 0.042854466 0.039611474 0.014906012 0.009116588 -0.017238582 0.06259431 0.06913926
-0.016587744 0.032895654 -0.033662476 0.049118802 0.013607809 0.05738869 -0.023316376 0.09027349
0.009314832 -0.04933277 -0.03240934 0.038700316 0.03295593 -0.079355754 0.050938815 -0.014554394
-0.0024227966 0.015512506 -0.01425137 -0.031049406 0.034273375 -0.13206884 -0.017444406 0.030857725
-0.10470936 -0.09649453 -0.06937604 0.0784046 -0.07948785 -0.028046856 0.0696869 -0.005454247
-0.06587889 -0.0021906495 -0.101670705 0.009423757 0.07888981 0.05609043 0.007220737 0.11260224
0.0047395253 -0.12418282 0.028745344 -0.0020428088 -0.121823065 0.023071358 -0.009305259 0.05661949
-0.051134218 0.006274946 -0.026358368 0.08766765 0.024947396 -0.0055354424 0.005631794 0.04943369
-0.024106322 0.03382098 -0.043504328 0.012542532 -0.014011717 0.007954949 -0.06716566 -0.042515595
-0.051270615 0.11992659 0.015567267 0.0070815785 0.038245153 0.020018337 -0.0035865754 0.05884462
-0.000416742 -0.018329378 0.015485137 0.010613658 -0.030801376 0.0044542816 -0.054984424 -0.040930938
0.020476224 -0.072889805 0.09455077 0.039281573 -0.029798593 0.0845955 -0.0420111 0.025125287
-0.005684644 0.11624034 0.0054257233 -0.008434616 -0.052553333 -0.011694035 0.0269894 -0.042155653
-0.032451604 -0.075217366 -0.013231237 -0.012728156 -0.12275379 -0.108191304 -0.14553508 -0.10670074
-0.103081256 -0.019027723 -0.039602283 0.0045340043 -0.10803153 0.074392 -0.011322009 0.121618934
-0.030115861 0.015051883 -0.040224157 -0.064447604 0.05530187 0.020904422 -0.036279984 0.021793092
-0.2667283 0.02060931 0.05834079 -0.09425111 0.05272701 0.054960776 -0.020923765 -0.010806323
0.012744276 -0.04954027 0.030051762 -0.16759224 0.13582306 0.02956144 -0.033249535 0.04329785
0.036797017 -0.005037857 -0.022591433 0.023766011 -0.013816196 -0.027354723 -0.044367786 -0.021966984
-0.023846097 0.010545755 -0.109182216 -0.051616497 0.0054797735 -0.04244127 -0.009047087 -0.04289117

network_body.vector_processors.0.normalizer.running_mean f4 [91]
00000000: 3c7b 703f 0000 0000 78e8 1939 3b18 773d
00000010: b97a 713e f78d 563f 91d6 5a3c 78e8 1939
00000020: cccd 173e dae3 eb3e e86d 6f3f 6cab 863b
00000030: 7be8 1939 824a 753d ee7d d13e f97e 713f
00000040: 0000 0000 78e8 1939 b9dc 663d 20cb 6f3e
00000050: 6b47 6f3f 1875 643c 0000 0000 f1d1 513d
00000060: 1c6d cf3e 6b16 673f 5093 3b3c 78e8 1939
00000070: 3840 af3d 57d4 d83e e6e3 5b3f 0000 0000
00000080: 78e8 1939 7723 103e 9a7f 853e d1a5 5f3f
00000090: 6bab 863b 0000 0000 c519 fa3d 0608 f53e
000000a0: f726 4f3f 6dab 863b 78e8 1939 d4e1 3e3e
000000b0: ba96 043f 456d 743f 0000 0000 78e8 1939
000000c0: e4f7 373d 7797 383e f58c 6d3f b27a 8b3b
000000d0: 7be8 1939 e146 8a3d 0f16 e63e fb75 6c3f
000000e0: 651f 213c 0000 0000 3bdf 873d 6758 e63e
000000f0: 8295 393f 5593 bb3b 7ae8 193a 7a86 893e
00000100: 8e29 1b3f cbbd 493f 4ea5 453e 33cd 103f
00000110: 5f67 6eba de56 ecbb 8220 c2ba 23f4 7b3f
00000120: 5ebc 4abc 1c04 223a 1417 7c3f ebe8 c8bc
00000130: 3ef4 6dbd 3433 2cbe d72c 2942 b719 053f
00000140: b920 dc3f 7345 9042 29ce 073f 4de0 71c2
00000150: d147 41b8 bfc7 d53a 1c5b 37bb 1509 663f
00000160: 8581 5d3f 4f60 613f 7df1 693f
0.9393804 0.0 0.00014677818 0.060325842 0.23581971 0.8381037 0.013356821 0.00014677818
0.14824599 0.46072274 0.9352708 0.0041097905 0.00014677823 0.05988551 0.4091639 0.9433437
0.0 0.00014677818 0.05636284 0.2341733 0.9346835 0.013943933 0.0 0.051225606
0.4051293 0.9026858 0.011448696 0.00014677818 0.08557171 0.42349502 0.8589462 0.0
0.00014677818 0.14076029 0.26073915 0.8736239 0.00410979 0.0 0.122119464 0.47857684
0.8091883 0.004109791 0.00014677818 0.18640834 0.5179249 0.9547923 0.0 0.00014677818
0.04491414 0.18026529 0.9279321 0.00425657 0.00014677823 0.067518 0.44938704 0.92367524
0.009834145 0.0 0.06634375 0.4498932 0.72493756 0.0057243505 0.00058711285 0.2686041
0.6061028 0.78805226 0.1930134 0.5656311 -0.0009094383 -0.007212504 -0.0014810713 0.984194
-0.012374012 0.0006180422 0.98472714 -0.024525126 -0.058094256 -0.16816407 42.29379 0.5199236
1.7197486 72.13564 0.5304895 -60.469044 -4.608167e-05 0.0016310139 -0.002797789 0.8985761
0.86525756 0.8803758 0.91384107
