Assets/ML-Agents/mla-1.0.6/results/carchase02/CarAgent/CarAgent-180183.onnx (onnx, 362126 bytes, 9 tensors)

53 f4 [91]
0.2997322 0.02492403 0.011778439 0.2987143 0.24424899 0.28012112 0.1049767 0.022343686
0.26127866 0.16919352 0.392453 0.13040426 0.023669295 0.37753433 0.24116325 0.29999897
0.02307623 0.010268176 0.2991533 0.24340628 0.3317251 0.11555555 0.014133621 0.31556228
0.2019566 0.31642622 0.098900504 0.018989848 0.30346027 0.19402054 0.28187764 0.026118517
0.013115636 0.2806294 0.24157573 0.32029122 0.12660615 0.016319534 0.29933175 0.18374315
0.3007891 0.12609617 0.014520869 0.27713588 0.16945584 0.32907772 0.020934569 0.012011651
0.32841626 0.2832484 0.40414286 0.12837401 0.017309213 0.39087167 0.23591983 0.34106162
0.12004267 0.014133646 0.323915 0.19663168 0.48592764 0.21859598 0.04170909 0.46903652
0.25759354 0.43025127 0.4077739 0.22202532 0.048552364 0.25542545 0.16790137 0.19318372
0.39003778 0.10733838 0.33096915 0.89068526 2.1115527 1.6937897 0.09968389 0.0026552756
0.0046870545 44.489243 1.7399179 104.6524 0.12432306 0.15568596 0.4229195 0.39280275
0.30791414 0.33501336 0.38432813
00000000: 8076 993e 7b2d cc3c 5bfa 403c 15f1 983e
00000010: 681c 7a3e 096c 8f3e 06fe d63d 1b0a b73c
00000020: 51c6 853e 1141 2d3e 9aef c83e b288 053e
00000030: 1ce6 c13c 2e4c c13e 80f3 763e 7799 993e
00000040: 5d0a bd3c da3b 283c 9f2a 993e 7f3f 793e
00000050: dfd7 a93e 63a8 ec3d b490 673c 6191 a13e
00000060: b6cd 4e3e 9e02 a23e 598c ca3d 9990 9b3c
00000070: 255f 9b3e 52ad 463e 4452 903e 80f6 d53c
00000080: f7e2 563c a8ae 8f3e a15f 773e 36fd a33e
00000090: 0ba5 013e 8bb0 853c 0342 993e 2a27 3c3e
000000a0: 0701 9a3e 5b1f 013e f0e8 6d3c c1e4 8d3e
000000b0: d585 2d3e e07c a83e f97e ab3c 84cc 443c
000000c0: 2d26 a83e ef05 913e d0eb ce3e 7a74 033e
000000d0: 0dcc 8d3c 5520 c83e f894 713e a19f ae3e
000000e0: eed8 f53d cf90 673c 30d8 a53e d159 493e
000000f0: 82cb f83e a0d7 5f3e 27d7 2a3d 8e25 f03e
00000100: 4de3 833e e549 dc3e bec7 d03e 9b5a 633e
00000110: d8de 463d 20c7 823e 56ee 2b3e f4d1 453e
00000120: 08b3 c73e 39d4 db3d ca74 a93e f303 643f
00000130: ae23 0740 1ace d83f 1127 cc3d 2204 2e3b
00000140: dd95 993b fcf4 3142 a1b5 de3f 074e d142
00000150: 179d fe3d 246c 1f3e e888 d83e 711d c93e
00000160: eca6 9d3e df86 ab3e a8c6 c43e

54 f4 [1, 2]
0.08165855 0.055857692
00000000: 993c a73d 09cb 643d

distribution.mu.bias f4 [2]
0.000863852 -0.0014535822
00000000: 2074 623a 2086 beba

distribution.mu.weight f4 [2, 256]
-0.00012221865 -0.01640466 0.030255403 0.049711987 0.01135225 0.0013026147 0.0037213208 -0.006801988
-0.012202765 0.024940392 -0.009983382 0.007946385 -0.0013976997 0.050921444 -0.018693507 0.007207346
-0.012907658 -0.0424138 0.035013948 0.012841264 -0.02511782 -0.008505119 0.037876878 -0.03877531
-0.027081981 0.02542594 0.024087412 -0.0036908453 0.08163692 -0.024708606 0.0500528 0.022619732
-0.012598386 0.019490443 0.03325367 0.008187847 -0.011128972 0.010878835 -0.0027039063 -0.019403178
-0.06220859 -0.0042184726 -0.021565625 -0.013652146 0.05237764 -0.00054170773 -0.007061784 0.0033914212
-0.02050039 0.028993446 -0.013877018 0.042849448 0.024372282 -0.012871482 -0.012237483 -0.0023167941
0.022128476 0.03870057 0.035297263 -0.03707876 0.01997615 -0.0017148424 0.04552794 0.02963853
0.010493138 0.00015135795 -0.004135249 0.0418187 0.026916513 0.0012916566 -0.024305474 0.03932517
0.030905789 0.005879359 -0.033904877 0.010587479 0.04566178 0.016255356 0.007992106 -0.022475025
-0.003055841 -0.03877479 0.019056028 0.03154742 0.0035860576 -0.031909816 -0.013459749 -0.021749571
0.014761878 0.0038299072 -0.027480824 0.02316261 -0.034727793 0.034948554 0.020357035 0.0024676528
0.0037438027 -0.0038348741 -0.009886746 -0.017280705 0.046482895 0.01081782 0.022905275 0.034958057
0.008185416 0.010197173 0.012293795 0.03408007 -0.012906564 -0.015738748 0.019768994 0.04964506
0.02190737 0.010257746 -0.0036426792 -0.023143591 0.018397372 0.03642066 0.022628708 0.034411207
-0.012677269 0.00057524326 0.044329576 0.08356824 0.027930198 -0.0006338832 -0.04183448 0.030683845
-0.025712619 -0.0060192514 0.023781832 0.033600293 -0.020967534 0.0035889007 -0.01468663 -0.030796241
-0.010275797 -0.0052125547 0.052590262 0.019411827 0.0008902095 0.021183241 0.0063184155 0.02413231
0.024289591 0.023677673 0.052576415 0.04559397 0.0030336883 -0.015243223 -0.029997334 -0.022783814
0.019012723 -0.000103129394 0.016033739 0.04712924 -0.028480766 0.032564323 0.030168433 -0.07554102
-0.017386176 0.04381121 -0.01318856 0.047199734 -0.02100462 -0.08399744 -0.0016791087 0.015700087
0.0056742993 0.05113005 -0.0031852259 -0.060003668 0.047604468 -0.027445996 0.028542127 0.027195714
0.03450285 -0.01656324 0.029713923 0.008495968 0.025515435 0.016365983 -0.0039263447 0.040674478
-0.0682032 -0.022294099 0.0014074496 -0.052802045 -0.012975113 -0.07005256 -0.056608453 -0.025660623
0.01309781 -0.022560693 0.0013217485 0.0151722105 -0.0034045065 0.025365662 0.017858008 0.020779068
0.008505444 -0.023871992 -0.054313626 0.07111891 0.016393932 -0.0039239866 -0.004185673 -0.015606319
-0.005179649 -0.017972223 0.0011961642 0.010617343 0.02364712 -0.025180181 -0.0038367272 0.012293199
-0.036562674 -0.045012143 0.012982433 -0.013444343 0.013449349 0.012501717 0.012469374 0.012595132
-0.0060335845 -0.032441568 -0.0047873924 -0.039073557 -0.014656507 -0.0037298435 0.008151208 -0.005887245
-0.00075262453 -0.0063443896 -0.012869875 -0.018429352 0.01443348 -0.00908652 -0.024474414 -0.0031790154
-0.09103767 -0.045880828 0.0105966795 0.0705689 0.011876177 -0.020222241 -0.031791203 0.020045841
0.012400385 -0.02381804 0.011469923 -0.013172478 -0.013131316 0.01332798 -0.01897964 0.01790683
00000000: d227 00b9 1163 86bc 2eda f73c cc9e 4b3d
00000010: cafe 393c 7fbc aa3a 67e1 733b 36e3 debb
00000020: 1bee 47bc cb4f cc3c 5791 23bc 8e31 023c
00000030: 0533 b7ba 0193 503d 2023 99bc 9a2b ec3b
00000040: a47a 53bc 18ba 2dbd c96a 0f3d 2a64 523c
00000050: e3c3 cdbc 0e59 0bbc c924 1b3d dcd2 1ebd
00000060: 08db ddbc 104a d03c f752 c53c 1ce2 71bb
00000070: 4231 a73d b469 cabc 2a04 4d3d 044d b93c
00000080: 7669 4ebc 6caa 9f3c 0035 083d 5226 063c
00000090: 4b56 36bc 243d 323c 0534 31bb 6af3 9ebc
000000a0: 6fce 7ebd 1d3b 8abb 65aa b0bc 40ad 5fbc
000000b0: f089 563d 6401 0eba 8a66 e7bb 9b42 5e3b
000000c0: 6ff0 a7bc aa83 ed3c 6f5c 63bc e782 2f3d
000000d0: 61a8 c73c e9e2 52bc b97f 48bc 5bd5 17bb
000000e0: c746 b53c 7d84 1e3d dd93 103d e6df 17bd
000000f0: 06a5 a33c 90c4 e0ba 817b 3a3d 81cc f23c
00000100: 69eb 2b3c d7b5 1e39 fc80 87bb 164a 2b3d
00000110: 0580 dc3c ce4c a93a 461c c7bc 6e13 213d
00000120: 232e fd3c a3a7 c03b d7df 0abd 1b77 2d3c
00000130: d907 3b3d f429 853c 52f1 023c 8b1d b8bc
00000140: 8144 48bb 50d2 1ebd 631b 9c3c de37 013d
00000150: 1004 6b3b deb3 02bd 4786 5cbc 282c b2bc
00000160: cedb 713c 2eff 7a3b 771f e1bc 84bf bd3c
00000170: bb3e 0ebd 3726 0f3d ccc3 a63c 58b8 213b
00000180: 965a 753b 8352 7bbb 05fc 21bc 4490 8dbc
00000190: d964 3e3d 3a3d 313c d8a3 bb3c 2e30 0f3d
000001a0: 201c 063c 0b12 273c ea6b 493c 8b97 0b3d
000001b0: 0e76 53bc 8cee 80bc 96f2 a13c 9e58 4b3d
000001c0: 1677 b33c 1b10 283c 04ba 6ebb a197 bdbc
000001d0: 16b6 963c d42d 153d d75f b93c c4f2 0c3d
000001e0: 52b4 4fbc eccb 163a ee92 353d d325 ab3d
000001f0: dfcd e43c 2e2b 26ba a25a 2bbd b05c fb3c
00000200: 45a3 d2bc 243d c5bb 1ed2 c23c 76a0 093d
00000210: 1bc4 abbc c333 6b3b 31a0 70bc 6648 fcbc
00000220: d15b 28bc 14ce aabb e368 573d 8d05 9f3c
00000230: f35c 693a 7a88 ad3c b60a cf3b 1fb1 c53c
00000240: f7fa c63c aef7 c13c 5e5a 573d bec0 3a3d
00000250: d8d0 463b b6be 79bc f8bc f5bc 1fa5 babc
00000260: 92c0 9b3c 2c47 d8b8 3059 833c 970a 413d
00000270: 7f50 e9bc 2b62 053d ca23 f73c 40b5 9abd
00000280: 746d 8ebc 6273 333d d414 58bc 8254 413d
00000290: e111 acbc da06 acbd 8a15 dcba 789d 803c
000002a0: 79ef b93b be6d 513d 39bf 50bb 68c6 75bd
000002b0: e7fc 423d 6dd6 e0bc 2ed1 e93c 8cc9 de3c
000002c0: dc52 0d3d a2af 87bc 9d6a f33c ac32 0b3c
000002d0: bf05 d13c f411 863c 91a8 80bb 489a 263d
000002e0: 1fae 8bbd 1da2 b6bc 2c7a b83a f546 58bd
000002f0: 9195 54bc b777 8fbd 44de 67bd 3a36 d2bc
00000300: 3298 563c 34d1 b8bc 853e ad3a dd94 783c
00000310: 241e 5fbb a6cb cf3c f54a 923c dd38 aa3c
00000320: 6b5a 0b3c 328f c3bc f777 5ebd cba6 913d
00000330: 914c 863c c994 80bb f827 89bb a5b1 7fbc
00000340: 0cba a9bb 7c3a 93bc 9cc8 9c3a 5df4 2d3c
00000350: 9bb7 c13c ab46 cebc 9a71 7bbb 6a69 493c
00000360: bec2 15bd a75e 38bd 45b4 543c a945 5cbc
00000370: a95a 5c3c 00d4 4c3c 584c 4c3c d05b 4e3c
00000380: 60b5 c5bb 73e1 04bd 8fdf 9cbb 980b 20bd
00000390: d921 70bc 6470 74bb a58c 053c cae9 c0bb
000003a0: c74b 45ba 99e4 cfbb 2bdc 52bc 27f9 96bc
000003b0: 677a 6c3c a1df 14bc 917e c8bc 0757 50bb
000003c0: f571 babd 89ed 3bbd b29d 2d3c 6d86 903d
000003d0: 4c94 423c 1da9 a5bc 7e37 02bd 2d37 a43c
000003e0: fc2a 4b3c 0d1e c3bc 58ec 3b3c 61d1 57bc
000003f0: bb24 57bc 9a5d 5a3c 317b 9bbc 58b1 923c

network_body.linear_encoder.seq_layers.0.bias f4 [256]
-0.003325699 -0.008489476 0.01574746 -0.01055951 0.008075104 0.0050283414 0.015373081 0.019171014
-0.007355143 0.006222655 -0.0031949584 0.008981483 0.024697496 0.0014803745 0.009016991 0.011702018
0.011336213 -0.03523439 0.017216286 -0.0012162826 0.004838505 0.004106644 0.001844351 -0.009469276
0.010785838 0.00038676112 -0.0034246605 -0.025431022 0.013674237 -0.03728231 -0.016796144 -0.026004305
0.0080598565 0.054404993 0.0049604364 0.023230609 -0.0013508222 0.015765373 0.008818071 -0.005852973
-0.018982887 0.009597448 -0.0061381366 0.0078223245 0.008030839 0.02327528 0.0033169182 -0.00012209531
-0.014226252 -0.014760988 0.009979184 -0.045954365 -0.016371278 0.01594691 0.0012794979 -0.007946422
0.017159475 -0.0152777815 0.006210609 -0.03065973 0.0035134577 0.0048242207 -0.007305279 0.003545362
-0.016082184 -0.0061169416 0.017175423 -0.04077341 -0.010218186 -0.0055498015 -0.035092115 -0.014966451
-0.017866205 -0.021067986 0.003187992 0.04293589 0.029564505 0.02261032 0.013780012 -0.008610105
-0.03685135 0.002153154 0.0040085 0.01251025 0.0070396904 -0.0296058 -0.02277553 -0.015659194
0.0059285527 0.020153753 0.0015167453 -0.048475146 0.010188422 0.0035143287 -0.0006894215 -0.007379571
-0.009945866 0.021422096 0.0021245875 -0.001960136 -0.010418547 -0.019238336 -0.007142981 -0.0043727565
0.009739333 0.0070122224 -0.004836044 -0.00018442422 0.029095776 0.022105 0.010065515 0.012353928
0.021790454 0.010902608 0.002749879 -0.0105546545 0.002315985 0.00022200157 -0.00962951 -0.014961403
0.015662491 -0.002036016 0.011226172 0.009072199 -0.018858038 0.00383321 0.0009599831 -0.012287494
-0.010607233 0.013777184 -0.034898046 0.0024599677 0.0093240375 -0.012186237 0.018842371 -0.027257994
0.011392844 0.03245598 0.02116479 0.0060499976 0.02445477 0.006697301 0.019893548 0.029198939
-0.0015712868 -0.0269267 0.0067900782 0.0127062155 -0.017319812 0.0065984963 -0.02943635 -0.0007544956
0.0033784523 0.024268948 0.005873844 -0.01366397 0.004241549 -0.011332978 0.0007962011 -0.02213386
0.009227284 -0.005975579 -0.0039337175 -0.019092647 -0.023137579 0.015395161 -0.016644018 0.011008352
0.007542951 -0.013666819 -0.015062098 0.002407831 0.0040663085 0.0039346716 0.00045213682 -0.011051706
-0.022172911 -0.011776836 0.015875062 0.01583653 -0.020663723 0.009382139 0.016063545 0.0039642206
-0.029263664 0.005447376 -0.025675362 -0.005145192 -0.0005139384 0.0035595424 0.004550089 0.017431967
-0.0027949219 -0.011273193 0.0056018075 -0.001191725 -0.018454585 -0.05975993 -0.03675053 -0.0027177522
-0.0055521717 -0.016798383 0.01873834 0.007614495 -0.005128668 -0.003907402 0.00061217695 0.04896806
-0.013102688 0.010174615 -0.009026167 -5.64037e-06 0.026481694 0.012713456 0.006828829 -0.016520139
0.011761481 -0.027224194 0.023782961 0.013276897 -0.005881803 -0.04574316 -0.007017753 0.008625027
-0.0151801715 0.028582815 -0.012417137 0.015405783 -0.028661288 0.008626235 0.01997887 -0.008175482
-0.012398663 0.027468257 -0.01200262 -0.0053138 0.00691584 0.00310304 0.0004021068 0.015915064
-0.021119459 -0.0067933304 0.023176143 0.00090064143 0.0025709688 0.0011204068 -0.008556044 0.009615481
-0.03844049 0.0014042424 0.01784721 -0.027155487 -0.004115797 0.02662814 -0.017064841 -0.008101901
00000000: f8f3 59bb 7117 0bbc d100 813c cc01 2dbc
00000010: 714d 043c c9c4 a43b 60df 7b3c 880c 9d3c
00000020: 6903 f1bb 6ae7 cb3b 8262 51bb 1227 133c
00000030: 6752 ca3c 2009 c23a 00bc 133c d2b9 3f3c
00000040: 86bb 393c f051 10bd 2b09 8d3c ac6b 9fba
00000050: 528c 9e3b 0791 863b 26be f13a 0625 1bbc
00000060: 15b7 303c 33c6 ca39 4570 60bb b854 d0bc
00000070: e809 603c 56b5 18bd 1198 89bc fb06 d5bc
00000080: 7d0d 043c c5d7 5e3d 288b a23b 1e4e be3c
00000090: 120e b1ba 6226 813c ac79 103c 4cca bfbb
000000a0: 0082 9bbc 9d3e 1d3c 6c22 c9bb 3529 003c
000000b0: c893 033c cdab be3c a760 593b b606 00b9
000000c0: 3a15 69bc 12d8 71bc bb7f 233c a53a 3cbd
000000d0: 0f1d 86bc 18a3 823c d3b4 a73a b631 02bc
000000e0: 0792 8c3c a94f 7abc 5d82 cb3b 1d2a fbbc
000000f0: 0a42 663b 7f14 9e3b 1f61 efbb 4e59 683b
00000100: c9be 83bc a070 c8bb 79b3 8c3c 0502 27bd
00000110: 2e6a 27bc 1cdb b5bb c0bc 0fbd d835 75bc
00000120: 265c 92bc c596 acbc a1ed 503b 8bdd 2f3d
00000130: 4331 f23c 4739 b93c 8fc5 613c 6611 0dbc
00000140: 71f1 16bd ee1b 0d3b bc59 833b cbf7 4c3c
00000150: 34ad e63b dd87 f2bc c093 babc b647 80bc
00000160: 4e44 c23b 7c19 a53c 87cd c63a e08d 46bd
00000170: 57ed 263c a750 663b 4bba 34ba 54d0 f1bb
00000180: fcf3 22bc 647d af3c aa3c 0b3b a075 00bb
00000190: 8eb2 2abc b799 9dbc ab0f eabb 5749 8fbb
000001a0: b991 1f3c c9c6 e53b ad77 9ebb 0062 41b9
000001b0: 445a ee3c 8c15 b53c d4e9 243c 2168 4a3c
000001c0: e581 b23c daa0 323c 5037 343b 6eed 2cbc
000001d0: c8c7 173b 18c9 6839 18c5 1dbc ac20 75bc
000001e0: a04e 803c ae6e 05bb faed 373c 90a3 143c
000001f0: 2c7c 9abc 9836 7b3b 60a7 7b3a 7c51 49bc
00000200: f6c9 2dbc b3b9 613c 41f1 0ebd 6937 213b
00000210: d9c3 183c c8a8 47bc 515b 9a3c 284c dfbc
00000220: 0da9 3a3c 90f0 043d c861 ad3c 0f3f c63b
00000230: 5f55 c83c 0875 db3b cbf7 a23c 9d32 ef3c
00000240: a3f3 cdba 6295 dcbc 4e7f de3b bb2d 503c
00000250: 47e2 8dbc 3338 d83b 8024 f1bc 58c9 45ba
00000260: 0669 5d3b accf c63c 6079 c03b d8de 5fbc
00000270: b1fc 8a3b f4ad 39bc 27b8 503a 1252 b5bc
00000280: 092e 173c cace c3bb 6ae6 80bb 2f68 9cbc
00000290: 058b bdbc fc3b 7c3c 0959 88bc 605c 343c
000002a0: dc2a f73b cbea 5fbc 05c7 76bc b3cc 1d3b
000002b0: ab3e 853b 6bee 803b c70c ed39 3712 35bc
000002c0: f7a3 b5bc a1f3 40bc 6b0c 823c 9cbb 813c
000002d0: f846 a9bc 8bb7 193c b297 833c 4be6 813b
000002e0: 5aba efbc e77f b23b 2355 d2bc 0099 a8bb
000002f0: d2b9 06ba 3647 693b ea18 953b 7ccd 8e3c
00000300: 022b 37bb 33b3 38bc 5e8f b73b a833 9cba
00000310: 122e 97bc d4c6 74bd b987 16bd 511c 32bb
00000320: feee b5bb c39c 89bc 2681 993c 0483 f93b
00000330: 630e a8bb aa09 80bb 807a 203a bc92 483d
00000340: a8ac 56bc 6eb3 263c 7de2 13bc 6942 bdb6
00000350: 23f0 d83c 194c 503c 5fc4 df3b 3e55 87bc
00000360: 3ab3 403c 4605 dfbc 7cd4 c23c 5887 593c
00000370: 24bc c0bb 2e5d 3bbd 2ef5 e5bb fc4f 0d3c
00000380: 41b6 78bc 8226 ea3c 3f71 4bbc 8a68 7c3c
00000390: 14cb eabc 0d55 0d3c baaa a33c 75f2 05bc
000003a0: c323 4bbc 1c05 e13c a3a6 44bc 631f aebb
000003b0: 459e e23b 5f5c 4b3b dcd1 d239 4f60 823c
000003c0: b702 adbc 969a debb e5db bd3c 0619 6c3a
000003d0: b37d 283b 9dda 923a a62e 0cbc 408a 1d3c
000003e0: c673 1dbd 8e0e b83a 5034 923c 2f75 debc
000003f0: cfdd 86bb 4223 da3c 91cb 8bbc d6bd 04bc

network_body.linear_encoder.seq_layers.0.weight f4 [256, 91]
-0.012361223 -0.020144148 -0.09195917 -0.056385227 -0.17028545 0.038387924 0.15869746 -0.06948164
-0.041197844 0.15090182 -0.042331062 -0.08129752 -0.11570084 0.023317832 0.0011334642 0.1942559
0.035410505 0.0657211 -0.21149011 -0.037484426 0.018389026 0.1355652 0.15421513 -0.060810443
-0.15662022 0.10029346 0.009634745 -0.014692974 -0.101514705 -0.09531202 0.12141301 -0.067363985
0.21777804 0.05799159 0.019724043 -0.055669915 -0.104198515 -0.069938526 0.0800161 0.106001884
-0.0020873821 0.06375012 0.10526152 -0.09210686 0.24976175 0.023209216 0.15257788 0.028462837
0.11419309 0.046257664 0.16855408 0.046784937 0.008310638 -0.01880613 -0.22845265 -0.012259562
0.22010437 -0.03768224 -0.0758414 0.1748441 0.059807945 0.20971976 0.0012196526 -0.058048815
0.056931425 0.04827442 0.17619215 -0.09676894 0.018236458 0.14991577 0.022255352 -0.06619045
0.13540941 -0.009473198 -0.104142204 -0.009885391 0.0013593987 -0.03145429 0.042171873 0.13430093
-0.063538104 0.089011334 0.1532861 -0.05554261 0.14034168 -0.07577662 0.15969728 0.010190342
0.032083817 -0.08563203 -0.048809953 0.050714616 0.057514846 -0.0788783 0.052408364 0.078277186
-0.047703337 -0.11502596 0.2124522 -0.12539515 -0.024689076 -0.06551658 -0.1497593 0.012035337
0.06465095 0.120232195 -0.11105109 -0.04373475 0.2025142 -0.04654632 -0.08316212 -0.22024731
0.02799526 0.16819999 -0.060197707 -0.04670817 -0.026687225 -0.13643126 0.109370306 -0.045295097
-0.035789263 -0.012556807 -0.020318864 0.042134367 -0.023197584 0.06906195 -0.130848 0.10509839
0.10045857 0.006566595 -0.114436 0.11927007 -0.034963325 -0.113244876 -0.10950702 0.016147869
-0.061983854 -0.15711881 -0.025173184 0.112282924 -0.073447146 0.022348642 -0.07947708 -0.060166404
-0.22656974 0.09990051 -0.15858123 0.004162391 0.02967161 -0.04648754 0.15678807 0.04514963
0.16733329 0.12264778 0.059641674 0.009914555 0.20383492 0.22465675 -0.00067593687 -0.026903816
0.03735548 -0.008964653 -0.03060412 -0.004760956 -0.067809746 0.0975357 -0.15868735 0.09041869
0.1152154 -0.032371633 -0.22687274 0.08686543 -0.11654372 -0.04902197 0.22520809 0.18286951
0.011582964 -0.09432224 0.100489356 -0.08999465 -0.12567846 0.19603823 -0.06683099 0.04973889
0.009973196 0.212047 0.013563393 0.02930046 -0.12106428 -0.11995896 0.030487483 0.10025717
0.0014473073 0.22667004 0.0098074395 0.013297459 0.10988106 0.12526609 0.07380438 0.2763799
-0.15091869 -0.0050479486 0.0012490955 -0.15915927 -0.04114741 0.08921322 -0.21409984 -0.035608053
0.16581367 -0.056820236 0.022924272 0.0631492 -0.029317804 0.0649062 0.07780086 0.20423846
0.1278562 0.14655115 0.1784682 -0.13124065 -0.053150706 -0.14892538 -0.1001146 0.029240843
-0.061700787 0.04485024 0.11406689 0.04677147 0.05974119 -0.12222408 -0.045081653 -0.06356411
0.012773063 0.052812196 0.105687976 0.14413136 -0.048367653 -0.014572232 0.04247082 -0.0011309216
0.11425675 -0.058465637 0.08821665 0.019724652 0.21085443 -0.031355835 -0.09049373 0.16722669
-0.034274243 -0.036028963 0.17323685 -0.0450421 0.14900595 0.10108224 0.09392678 -0.104329966
00000000: ba86 4abc 5705 a5bc 1755 bcbd 32f4 66bd
00000010: 4f5f 2ebe a83c 1d3d 9681 223e 644c 8ebd
00000020: 12bf 28bd 0286 1a3e 5663 2dbd 507f a6bd
00000030: 90f4 ecbd 0a05 bf3c bf90 943a 05eb 463e
00000040: 9b0a 113d c998 863d dd90 58be 4589 19bd
00000050: 95a4 963c 9bd1 0a3e 92ea 1d3e 5f14 79bd
00000060: 0d61 20be a866 cd3d 0ddb 1d3c cdba 70bc
00000070: f1e6 cfbd f332 c3bd 62a7 f83d 21f6 89bd
00000080: 3501 5f3e 9788 6d3d 5194 a13c 2306 64bd
00000090: 0866 d5bd ee3b 8fbd 7bdf a33d 8417 d93d
000000a0: 76cc 08bb 6c8f 823d 5a93 d73d 85a2 bcbd
000000b0: 8bc1 7f3e 4121 be3c 603d 1c3e e52a e93c
000000c0: 11de e93d ad78 3d3d 7199 2c3e 90a1 3f3d
000000d0: 5829 083c 500f 9abc 7eef 69be 54dc 48bc
000000e0: 0a63 613e b158 1abd bc52 9bbd 550a 333e
000000f0: 2df9 743d c7c0 563e c0dc 9f3a 98c4 6dbd
00000100: ed30 693d 66bb 453d b76b 343e cb2e c6bd
00000110: a064 953c 8583 193e db50 b63c dc8e 87bd
00000120: c4a8 0a3e 7935 1bbc 8248 d5bd 56f6 21bc
00000130: da2d b23a 37d6 00bd 6abc 2c3d 2f86 093e
00000140: 4420 82bd 934b b63d 08f7 1c3e a680 63bd
00000150: bbb5 0f3e c630 9bbd af87 233e 64f5 263c
00000160: 526a 033d d95f afbd f2ec 47bd 21ba 4f3d
00000170: b094 6b3d f28a a1bd 27aa 563d ca4f a03d
00000180: 9364 43bd bb92 ebbd 128d 593e 9667 00be
00000190: bf40 cabc 8f2d 86bd 805a 19be dd2f 453c
000001a0: b867 843d 4c3c f63d c16e e3bd 3623 33bd
000001b0: e25f 4f3e 5ba7 3ebd e750 aabd 8388 61be
000001c0: 5156 e53c 9e3c 2c3e df91 76bd 1151 3fbd
000001d0: 2b9f dabc a3b4 0bbe 8afd df3d 5a87 39bd
000001e0: c397 12bd 11bb 4dbc bf73 a6bc 1695 2c3d
000001f0: dc08 bebc 5a70 8d3d 05fd 05be d33d d73d
00000200: 39bd cd3d 972c d73b 6c5d eabd de43 f43d
00000210: b435 0fbd eeec e7bd 3745 e0bd 8948 843c
00000220: c8e2 7dbd c1e3 20be fe37 cebc 97f4 e53d
00000230: 756b 96bd 8014 b73c e1c4 a2bd 0c71 76bd
00000240: e601 68be a398 cc3d 1e63 22be ab64 883b
00000250: e011 f33c b869 3ebd 0d8d 203e d2ee 383d
00000260: 6b59 2b3e c22e fb3d d44a 743d a870 223c
00000270: 1aba 503e 6b0c 663e 5b31 31ba 6465 dcbc
00000280: 0f02 193d 7be0 12bc 7eb5 fabc cb01 9cbb
00000290: d6df 8abd ccc0 c73d f07e 22be 6f2d b93d
000002a0: 0df6 eb3d 1e98 04bd 5451 68be 81e6 b13d
000002b0: 79ae eebd 43cb 48bd f39c 663e 2542 3b3e
000002c0: 79c6 3d3c 052c c1bd 5dcd cd3d 1d4f b8bd
000002d0: dbb1 00be 3fbe 483e b0de 88bd 02bb 4b3d
000002e0: 9e66 233c d922 593e fe38 5e3c 8507 f03c
000002f0: 8df0 f7bd 0bad f5bd e3c0 f93c a253 cd3d
00000300: 93b3 bd3a 311c 683e 62af 203c 96dd 593c
00000310: 5209 e13d c145 003e c026 973d ab81 8d3e
00000320: 6e8a 1abe 4369 a5bb b1b8 a33a a6fa 22be
00000330: 308a 28bd 6cb5 b63d fd3c 5bbe c0d9 11bd
00000340: 0fcb 293e 56bc 68bd afcb bb3c 5e54 813d
00000350: e42b f0bc 8bed 843d 0f56 9f3d e323 513e
00000360: bcec 023e 8111 163e 5ec0 363e f363 06be
00000370: 8eb4 59bd e57f 18be e208 cdbd 7e8a ef3c
00000380: f7b9 7cbd e3b4 373d e79b e93d 7193 3f3d
00000390: 2eb3 743d 9e50 fabd 8aa7 38bd e62d 82bd
000003a0: 1c46 513c 9a51 583d f072 d83d 2c97 133e
000003b0: 291d 46bd 5fc0 6ebc e2f5 2d3d 6f3b 94ba
000003c0: 71ff e93d aa79 6fbd eeaa b43d 9895 a13c
000003d0: 39ea 573e fa6e 00bd c754 b9bd 793d 2b3e
000003e0: 2663 0cbd 1b93 13bd 0065 313e 117e 38bd
000003f0: 0495 183e 3504 cf3d af5c c03d f3aa d5bd

network_body.linear_encoder.seq_layers.2.bias f4 [256]
0.00020281803 -0.009987235 -0.0029704813 0.016322145 -0.0023622066 0.017747369 -0.013766557 -0.012370947
0.023766078 -0.0017052749 -0.007476911 -0.012421359 -0.008567254 0.0014437867 -0.013924652 0.0025623986
0.0043021054 0.032921195 0.0050486177 0.014467745 0.0034043978 0.00040129424 0.007171632 -0.017072473
0.024503257 -0.012750535 0.015564569 -0.02297859 0.010949351 -0.001539088 -0.0014277042 0.0042354325
0.0008032976 -7.514685e-05 -0.007272026 -0.014280987 -0.015087762 0.010960066 0.002657229 0.00858
0.010870387 0.0021299664 0.01404251 0.006457796 0.020477608 -0.010271237 -0.0023875146 0.004232315
-0.005668239 -0.0011178134 0.0029556614 0.0010456521 -0.031234622 -0.005695087 -0.010737917 0.00069463294
0.00058619445 -0.017820239 0.0014118779 0.0072478764 -0.035593003 -0.0034222032 0.0063848807 -0.02653929
-0.005153501 -0.016566608 -0.016891435 -0.006840749 0.0026787801 -0.0050741117 0.01638958 0.00093571475
0.00046372533 -0.02415941 0.0033609972 0.0018614961 -0.0024291533 -0.00049389835 -0.01099075 -0.0093741985
-0.018537417 0.01968187 -0.006555795 -0.0077736382 -0.018395837 -0.0015047389 -0.00083571894 0.023732852
-0.0038836158 0.0037824854 -0.00757833 -0.01693299 0.0016414523 0.0022349868 -0.0048382585 -0.020033434
-0.008186327 -0.010607782 0.0025502502 0.0210449 -0.019873055 -0.002601515 0.0024599892 -0.00071889744
-0.007370984 0.012474437 -0.002939813 -0.012662314 0.0033921758 -0.0072416724 -0.00084371184 0.008080117
-0.020296127 -0.01246957 -0.012044669 -0.0035402486 -0.0013855485 0.005150796 0.0053481353 0.005392847
-0.014736289 -0.007826994 0.0022266824 -0.007600437 0.03189056 -0.0056163156 0.013223673 -0.0016517822
0.02118852 -0.010591098 0.008811684 -0.007979542 0.016178487 -0.004658933 0.0050770175 -0.0034273334
-0.01063469 0.00102895 0.0068191797 -0.021577453 0.009279622 -0.0046716537 -0.010953705 -0.018562848
0.0011118223 -0.03525211 -0.0035351734 -0.019188577 0.0129981 -0.020897362 0.0048624664 0.030522749
-0.018492933 0.016494196 0.009289068 -0.0017355507 0.0037052508 0.002041962 -0.0022587047 0.008206508
-0.010257692 0.004434831 -0.013221814 -0.003433607 -0.014259645 0.007421656 -0.008300775 -0.005685408
-0.006711997 0.009313341 -0.01286158 0.0063618976 -0.0019648555 -0.005446736 0.012430278 0.00392571
-0.006786999 0.0076612555 -0.010356061 -0.013148781 -0.0019493402 -0.015262986 -0.024655458 0.011281474
0.0005475119 0.025114091 0.009124009 0.028372226 0.015741939 0.024928981 0.0049915584 -0.003642014
-0.01074625 -0.010012161 -0.008144484 -0.02188406 -0.010641489 0.010204981 -0.0014385018 6.965897e-05
-0.022980744 -0.010192999 -0.0020442267 0.0074297446 -0.0026808528 0.0118809035 -0.016707141 0.011028854
-0.01691169 -0.009720514 0.008059571 -0.024642337 0.0070333495 0.015764838 0.0030890212 0.0054717823
0.0005081237 0.007064269 -0.024693828 0.0051013636 0.0066925487 -0.02031732 -0.03223991 -0.00855474
-0.020236803 0.0076910253 -0.0036405432 0.005402068 0.0072533954 0.008468782 0.020039257 0.0068028844
-0.019672211 0.0049429415 0.014543674 0.0015389122 -0.026878271 -0.01351895 0.004507068 -0.0033119598
0.0241072 0.002057059 0.0013667828 0.010488512 -0.020934436 0.010796193 -0.0064290906 -0.0056065847
-0.00017419271 0.005006826 -0.0009822021 -0.0095022265 0.017669505 -0.0007070656 -0.002136756 0.014389702
00000000: 8dab 5439 80a1 23bc 68ac 42bb 05b6 853c
00000010: 40cf 1abb ee62 913c 208d 61bc 83af 4abc
00000020: 14b1 c23c 8883 dfba e000 f5bb f582 4bbc
00000030: ab5d 0cbc 713d bd3a 3924 64bc eaed 273b
00000040: adf8 8c3b 60d8 063d e06e a53b 1f0a 6d3c
00000050: 511c 5f3b cd64 d239 0200 eb3b 92db 8bbc
00000060: 0ebb c83c 9fe7 50bc 8902 7f3c 993d bcbc
00000070: e864 333c 39bb c9ba ce21 bbba 62c9 8a3b
00000080: 6494 523a 2898 9db8 2d4a eebb cdfa 69bc
00000090: a932 77bc d991 333c e824 2e3b 2193 0c3c
000000a0: b519 323c e896 0b3b 8e12 663c eb9b d33b
000000b0: a8c0 a73c b148 28bc d977 1cbb 3baf 8a3b
000000c0: a3bc b9bb 9883 92ba c5b3 413b 430e 893a
000000d0: c0df ffbc da9d babb 17ee 2fbc 0718 363a
000000e0: d8aa 193a c0fb 91bc c30e b93a 987f ed3b
000000f0: f8c9 11bd 0b47 60bb 4338 d13b ed68 d9bc
00000100: b3de a8bb b2b6 87bc e85f 8abc 5d28 e0bb
00000110: 798e 2f3b bc44 a6bb 7143 863c c14a 753a
00000120: 2920 f339 f4e9 c5bc 2d44 5c3b 72fd f33a
00000130: 6e32 1fbb f578 01ba 8c12 34bc 3d96 19bc
00000140: c8db 97bc df3b a13c ffd1 d6bb 01ba febb
00000150: deb2 96bc a93a c5ba 2614 5bba 666b c23c
00000160: 4384 7ebb 93e3 773b a453 f8bb 0eb7 8abc
00000170: 0026 d73a db78 123b 418a 9ebb 281d a4bc
00000180: f21f 06bc 43cc 2dbc 1922 273b 5b66 ac3c
00000190: d1cc a2bc 2e7e 2abb c537 213b 6474 3cba
000001a0: 4c88 f1bb 9561 4c3c e1a9 40bb 9875 4fbc
000001b0: 444f 5e3b 8d4b edbb 8b2c 5dba 7862 043c
000001c0: 1044 a6bc 2b4d 4cbc 0157 45bc 8403 68bb
000001d0: 4b9b b5ba 02c8 a83b 693f af3b 7bb6 b03b
000001e0: 7a70 71bc cb3c 00bc 88ed 113b 160d f9bb
000001f0: ad9f 023d 1209 b8bb 1ba8 583c 9d80 d8ba
00000200: 8c93 ad3c 4986 2dbc e25e 103c a0bc 02bc
00000210: bf88 843c f6a9 98bb 1c5d a63b 1d9d 60bb
00000220: 1f3d 2ebc d5dd 863a 6d73 df3b 33c3 b0bc
00000230: 8e09 183c ac14 99bb 2b77 33bc 1d11 98bc
00000240: 91ba 913a 8464 10bd 5eae 67bb 5d31 9dbc
00000250: fcf5 543c f230 abbc 5355 9f3b d80a fa3c
00000260: 7e7e 97bc d61e 873c 2d31 183c 6b7b e3ba
00000270: cbd3 723b 70d2 053b c706 14bb 9774 063c
00000280: e10f 28bc 0f52 913b 4fa0 58bc 5e06 61bb
00000290: 49a1 69bc 5d31 f33b f9ff 07bc a94c babb
000002a0: 50f0 dbbb fc96 183c 60b9 52bc 7777 d03b
000002b0: cec4 00bb 887a b2bb 5da8 4b3c 3ea3 803b
000002c0: 7965 debb 450b fb3b 78ac 29bc fc6d 57bc
000002d0: 0181 ffba 9a11 7abc 3efa c9bc eed5 383c
000002e0: e786 0f3a 11bc cd3c de7c 153c df6c e83c
000002f0: 3df5 803c dd37 cc3c 3a90 a33b dbae 6ebb
00000300: 0a11 30bc 0c0a 24bc 7170 05bc 3346 b3bc
00000310: a459 2ebc cb32 273c 1c8c bcba e015 9238
00000320: 1d42 bcbc 8900 27bc 6ff8 05bb 3775 f33b
00000330: 3fb1 2fbb 1fa8 423c 6add 88bc 5eb2 343c
00000340: 628a 8abc ca42 1fbc 4a0c 043c bade c9bc
00000350: 0378 e63b 4325 813c 2d71 4a3b a34c b33b
00000360: 9b33 053a 627b e73b b64a cabc 5729 a73b
00000370: 2b4d db3b 8270 a6bc ff0d 04bd 2e29 0cbc
00000380: a7c7 a5bc ff04 fc3b 2e96 6ebb d503 b13b
00000390: e4ad ed3b a5c0 0a3c 5e29 a43c bbea de3b
000003a0: 9e27 a1bc 66f8 a13b 9748 6e3c 53b5 c93a
000003b0: d22f dcbc 967e 5dbc 07b0 933b 770d 59bb
000003c0: 767c c53c b9cf 063b 9f25 b33a 02d8 2b3c
000003d0: b27e abbc 84e2 303c 1fab d2bb 71b7 b7bb
000003e0: 80a7 36b9 4d10 a43b 3cbd 80ba 3aaf 1bbc
000003f0: a3bf 903c 5f5a 39ba d108 0cbb c9c2 6b3c

network_body.linear_encoder.seq_layers.2.weight f4 [256, 256]
-0.018481169 -0.16034362 -0.0106797945 0.015758775 0.031512927 0.008704372 -0.038401626 -0.030019585
-0.0005458984 0.0022775773 -0.011677347 -0.09968959 -0.06817483 -0.12521148 0.12540247 -0.091571964
-0.081908144 -0.04065071 0.0148185175 0.023996683 -0.03299805 0.04079314 0.01131983 -0.031426836
0.06724307 -0.061035123 -0.044341702 -0.0131547265 -0.008036882 0.02244796 0.03910067 -0.054488115
-0.009920466 0.05953544 -0.09499575 -0.035119858 0.042304497 -0.07210519 0.052757543 -0.04986932
0.01718789 -0.0059774546 -0.022971034 0.02464424 -0.00620013 0.08093681 -0.14289445 0.028219976
0.004825689 0.028915776 0.06489115 -0.021373305 0.063850924 0.05264305 0.0019925074 0.036321204
-0.008026678 -0.00096203404 0.07448643 -0.068877734 -0.011237129 -0.016512513 -0.03309574 0.014737004
0.026375776 -0.02929002 0.0429585 -0.00690373 0.043941412 0.00918415 -0.034238294 0.035506956
0.011392235 0.006772155 -0.061357126 0.118939005 0.047888055 -0.0036234746 0.06751614 0.10934604
0.0112537425 -0.096223295 0.019895654 -0.028662078 -0.13043316 -0.02827889 -0.10537092 -0.028896097
-0.05646664 -0.019241206 -0.11170232 -0.069135725 0.018260388 0.112593904 0.06527118 0.04606742
-0.044617746 0.044957496 0.060781933 0.040030077 0.1120201 0.028492657 0.03627601 0.00013498952
0.0045370255 0.07143614 0.03173598 -0.044123944 -0.05827163 0.07426261 -0.09044902 -0.022177363
0.07158726 -0.006925643 -0.04390469 0.04187646 -0.15494657 0.07866669 0.0507826 0.04891927
0.10538336 0.08155707 -0.044535093 -0.026308347 -0.04502407 -0.034575067 0.059532367 0.068812415
0.0991811 -0.03742296 -0.014265961 -0.09267191 0.026137477 -0.08308651 0.07727932 0.08813757
0.024192717 -0.020082273 0.054897312 -0.05527717 -0.08946121 -0.012614151 -0.036834914 0.042600024
-0.047888808 -0.015319878 0.043372776 -0.00023949642 -0.16151309 0.040852346 0.113796964 -0.1121464
-0.08244624 -0.005501087 -0.062118303 0.087967575 0.052153464 0.059170537 0.0031637552 -0.05713579
-0.0101344045 0.08192592 0.099743776 0.04690055 0.0853339 -0.057688408 -0.031934608 -0.021346105
0.03010566 0.023889758 0.06227272 -0.05895391 -0.06893848 0.0143703325 -0.037038207 -0.11360591
0.04947378 0.1390434 -0.035864234 -0.06913555 0.028621364 0.046239577 -0.06997228 -0.08231446
-0.0109482305 -0.10878707 -0.02736585 0.12216879 0.0906369 -0.14350991 -0.017504359 -0.12509522
-0.09037691 -0.038506035 0.07852858 0.0723895 0.041603982 -0.03737364 -0.018808158 0.0036798734
-0.045524705 0.01222445 0.00647665 -0.045392867 -0.0321788 -0.08026121 0.04160578 -0.026358921
0.025558293 0.028062444 0.011040715 -0.06844422 -0.014896494 0.04080143 -0.09728792 -0.025438093
0.03567872 0.008027301 0.10713178 -0.004318432 0.04929761 -0.0822793 0.030767942 0.02945445
-0.16164471 -0.12672724 -0.19134529 0.0019899847 -0.058095936 0.040431418 0.03216215 -0.009721517
0.022167463 -0.02697449 -0.0076644276 -0.06745012 -0.0939026 0.084580265 -0.04196394 0.015387502
-0.0586836 -0.08160966 0.024118507 0.0310022 0.05043914 -0.045009267 0.016792838 0.0054250513
0.008100639 0.06955811 -0.061184105 -0.053368904 -0.027625117 0.08020717 0.0020621119 0.05296214
00000000: d265 97bc 1e31 24be 4efa 2ebc 8c18 813c
00000010: b313 013d c89c 0e3c 064b 1dbd a2eb f5bc
00000020: 9f1a 0fba 6843 153b 5852 3fbc 0e2a ccbd
00000030: 3f9f 8bbd 7037 00be 8169 003e 158a bbbd
00000040: 75bf a7bd 5c81 26bd 5ec9 723c b194 c43c
00000050: f728 07bd b516 273d cf76 393c 6db9 00bd
00000060: bcb6 893d f7ff 79bd a59f 35bd ec86 57bc
00000070: 20ad 03bc c9e4 b73c 0628 203d ee2e 5fbd
00000080: 7389 22bc 6fdb 733d 228d c2bd d7d9 0fbd
00000090: 7b47 2d3d e3ab 93bd 4b18 583d c643 4cbd
000000a0: 9ecd 8c3c 86de c3bb c02d bcbc b8e2 c93c
000000b0: 762a cbbb 33c2 a53d ec52 12be 942d e73c
000000c0: d020 9e3b c7e0 ec3c a7e5 843d 1217 afbc
000000d0: 46c4 823d 3da0 573d ba94 023b 8bc5 143d
000000e0: 5482 03bc 0331 7cba 578c 983d c50f 8dbd
000000f0: ef1b 38bc 4045 87bc 668f 07bd 7a73 713c
00000100: 0312 d83c a0f1 efbc 41f5 2f3d af38 e2bb
00000110: e9fb 333d 1e79 163c 743d 0cbd be6f 113d
00000120: 7fa6 3a3c f4e8 dd3b 9c51 7bbd 4b96 f33d
00000130: 4426 443d d177 6dbb e745 8a3d d1f0 df3d
00000140: 9e61 383c b810 c5bd 36fc a23c bccc eabc
00000150: 4590 05be 21a9 e7bc b5cc d7bd 82b7 ecbc
00000160: 9049 67bd bc9f 9dbc 30c4 e4bd 0897 8dbd
00000170: cf96 953c a297 e63d e5ac 853d 31b1 3c3d
00000180: 19c1 36bd 5a25 383d 7af6 783d 94f6 233d
00000190: cb6a e53d 6f69 e93c 2796 143d f98b 0d39
000001a0: 54ab 943b 1c4d 923d 96fd 013d 4fbb 34bd
000001b0: 3cae 6ebd ff16 983d 563d b9bd 4dad b5bc
000001c0: 579c 923d 81f0 e2bb 67d5 33bd a786 2b3d
000001d0: 50aa 1ebe 001c a13d 6a01 503d 935f 483d
000001e0: 3bd3 d73d 6507 a73d 6e6a 36bd 9a84 d7bc
000001f0: 296b 38bd 969e 0dbd 36d8 733d 86ed 8c3d
00000200: 761f cb3d d148 19bd c7bb 69bc c5ca bdbd
00000210: 431e d63c 4329 aabd 9f44 9e3d 7881 b43d
00000220: ce2f c63c 9483 a4bc 01dc 603d 506a 62bd
00000230: 7037 b7bd 96ab 4ebc 35e0 16bd 5d7d 2e3d
00000240: 0e27 44bd 3a00 7bbc a7a7 313d 5521 7bb9
00000250: b063 25be ca54 273d 620e e93d 03ad e5bd
00000260: 93d9 a8bd 7642 b4bb c36f 7ebd 5828 b43d
00000270: df9e 553d ce5c 723d 0157 4f3b 3807 6abd
00000280: c60a 26bc c7c8 a73d 7746 cc3d cb1a 403d
00000290: 8ac3 ae3d ae4a 6cbd ddcd 02bd 07de aebc
000002a0: 25a0 f63c 74b4 c33c ae11 7f3d a879 71bd
000002b0: 9e2f 8dbd 8b71 6b3c 60b5 17bd 37aa e8bd
000002c0: 05a5 4a3d 6561 0e3e 60e6 12bd f096 8dbd
000002d0: 5a77 ea3c b665 3d3d a04d 8fbd 7c94 a8bd
000002e0: 3560 33bc c1cb debd 592e e0bc a133 fa3d
000002f0: d79f b93d 43f4 12be 4d65 8fbc f618 00be
00000300: 8817 b9bd 81b8 1dbd 98d3 a03d f240 943d
00000310: f068 2a3d 1a15 19bd 9113 9abc 082a 713b
00000320: 1d78 3abd 0f49 483c 143a d43b dfed 39bd
00000330: ebcd 03bd fd5f a4bd d36a 2a3d aaee d7bc
00000340: a05f d13c 36e3 e53c 1de4 343c 7c2c 8cbd
00000350: 6d10 74bc 661f 273d e43e c7bd 8c63 d0bc
00000360: d923 123d f184 033c e867 db3d a281 8dbb
00000370: 4aec 493d 0d82 a8bd 0d0d fc3c 754a f13c
00000380: 3186 25be c9c4 01be 05f0 43be 676a 023b
00000390: 01f6 6dbd 6a9b 253d 75bc 033d ff46 1fbc
000003a0: 8a98 b53c 9bf9 dcbc e125 fbbb 4a23 8abd
000003b0: 0250 c0bd 6b38 ad3d 61e2 2bbd dc1b 7c3c
000003c0: 375e 70bd f722 a7bd 2d94 c53c 53f8 fd3c
000003d0: 4699 4e3d a35b 38bd 2291 893c a1c4 b13b
000003e0: 8bb8 043c 7b74 8e3d 2f9c 7abd 5a99 5abd
000003f0: 124e e2bc a843 a43d 7f24 073b d4ee 583d

network_body.vector_processors.0.normalizer.running_mean f4 [91]
0.90020716 0.00061603676 0.00013319716 0.099032216 0.26650926 0.9141719 0.011138618 0.00049393997
0.07369138 0.41458654 0.80981827 0.017298978 0.00055498775 0.17216825 0.47793 0.9000081
0.00052723876 9.989787e-05 0.09935963 0.2695788 0.87411696 0.013530615 0.0001942457 0.11215207
0.4405518 0.8871433 0.009873229 0.00035519266 0.10261179 0.44393596 0.91297764 0.0006770859
0.00016649636 0.08617301 0.21577103 0.8839525 0.016288899 0.00026084456 0.09949263 0.47215262
0.8994126 0.016155707 0.00020534551 0.083825395 0.45529935 0.8764487 0.00043289122 0.00013874705
0.122974336 0.24486016 0.7944044 0.016755085 0.00029414415 0.18819092 0.51700896 0.8656261
0.014618395 0.00019424576 0.11910056 0.47414517 0.617813 0.050309595 0.0017371154 0.3267665
0.6326739 0.7547331 0.21064588 0.5754005 0.0039807875 -0.1951868 -0.0043442873 0.9103698
-0.32372975 -0.011987307 0.78858984 0.07920193 -0.4448731 0.046957422 42.298916 0.519985
1.7199625 81.40627 0.23541576 -70.8891 -0.014563383 -0.017049145 -0.005669037 0.8093725
0.89394677 0.87117654 0.81983936
00000000: fa73 663f 877d 213a d7aa 0b39 67d1 ca3d
00000010: e773 883e 2b07 6a3f c07e 363c c07b 013a
00000020: 82eb 963d b044 d43e 4050 4f3f 96b6 8d3c
00000030: 997c 113a e04c 303e 3eb3 f43e ee66 663f
00000040: 6536 0a3a 4380 d138 107d cb3d 3c06 8a3e
00000050: 21c6 5f3f 83af 5d3c 6fae 4b39 fcaf e53d
00000060: 0190 e13e d31b 633f 53c3 213c 2739 ba39
00000070: 2126 d23d 934b e33e e7b8 693f 777e 313a
00000080: 8795 2e39 7a7b b03d 15f3 5c3e b64a 623f
00000090: 4c70 853c f7c1 8839 cbc2 cb3d fdbd f13e
000000a0: e73f 663f f958 843c 0452 5739 a6ac ab3d
000000b0: ff1c e93e f15e 603f adf5 e239 a17c 1139
000000c0: f8d9 fb3d 9fbc 7a3e 165e 4b3f f641 893c
000000d0: 5c37 9a39 1fb5 403e b35a 043f ac99 5d3f
000000e0: fe81 6f3c 73ae 4b39 ffea f33d 28c3 f23e
000000f0: fe28 1e3f 6f11 4e3d ecaf e33a f04d a73e
00000100: ebf6 213f 3036 413f 8eb3 573e 724d 133f
00000110: 4471 823b 0cdf 47be 865a 8ebb ff0d 693f
00000120: e8bf a5be 6966 44bc 06e1 493f 9f34 a23d
00000130: 68c6 e3be 6d56 403d 1732 2942 bd1d 053f
00000140: bb27 dc3f 03d0 a242 d410 713e 38c7 8dc2
00000150: 419b 6ebc a6aa 8bbc 54c3 b9bb 0933 4f3f
00000160: b2d9 643f 6d05 5f3f fee0 513f
