Assets/ML-Agents/mla-1.0.6/results/carchase02/CarAgent/CarAgent-24130.onnx (onnx, 362126 bytes, 9 tensors)

53 f4 [91]
0.049804095 0.0064374274 0.0064374274 0.049388364 0.040583782 0.13963307 0.08437055 0.0064374274
0.11117297 0.075307354 0.12450186 0.08557223 0.0064374274 0.09111305 0.06288201 0.14629982
0.009103801 0.0064374274 0.14602861 0.11925797 0.2609246 0.109709024 0.0064374274 0.23987289
0.15493044 0.27350748 0.121066265 0.0064374274 0.24896945 0.16063778 0.25155014 0.0091038
0.0064374274 0.25140768 0.21649307 0.29672006 0.08388498 0.0064374274 0.28650385 0.1720248
0.25556514 0.08907692 0.0064374274 0.24100642 0.14557968 0.2838177 0.0091038 0.0064374274
0.2836975 0.24426726 0.29188156 0.091559224 0.0064374274 0.27974746 0.16817912 0.33024642
0.09310318 0.0064374274 0.32003134 0.19221601 0.2750866 0.20940195 0.0064374274 0.18756111
0.10496851 0.36792746 0.3295383 0.18078732 0.007456579 0.049595844 0.009128173 0.009325185
0.098097384 0.010017761 0.012134757 0.16102552 0.040611725 1.0900129 0.27237344 0.00725571
0.012807595 44.469307 0.015149096 95.21993 0.029680608 0.07776216 0.032046843 0.23110159
0.18601754 0.18246247 0.17421274
00000000: 61ff 4b3d 0ef1 d23b 0ef1 d23b 744b 4a3d
00000010: 2e3b 263d f9fb 0e3e 78ca ac3d 0ef1 d23b
00000020: a7ae e33d be3a 9a3d d5fa fe3d 7e40 af3d
00000030: 0ef1 d23b 7b99 ba3d 49c8 803d 9fcf 153e
00000040: 1c28 153c 0ef1 d23b 8688 153e 863d f43d
00000050: e997 853e 20af e03d 0ef1 d23b 3da1 753e
00000060: 16a6 1e3e 2c09 8c3e 97f1 f73d 0ef1 d23b
00000070: d9f1 7e3e 3b7e 243e 2ecb 803e 1b28 153c
00000080: 0ef1 d23b 82b8 803e 5cb0 5d3e b1eb 973e
00000090: e3cb ab3d 0ef1 d23b a2b0 923e 4527 303e
000000a0: 6fd9 823e f66d b63d 0ef1 d23b 63ca 763e
000000b0: d712 153e 8e50 913e 1b28 153c 0ef1 d23b
000000c0: cc40 913e 3221 7a3e 8071 953e 6783 bb3d
000000d0: 0ef1 d23b 0f3b 8f3e 2637 2c3e 0f16 a93e
000000e0: e1ac be3d 0ef1 d23b 26db a33e 46d4 443e
000000f0: 27d8 8c3e 776d 563e 0ef1 d23b 0510 403e
00000100: bbf9 d63d fd60 bc3e 3eb9 a83e 5020 393e
00000110: 5156 f43b 0325 4b3d 558e 153c a9c8 183c
00000120: 48e7 c83d 8921 243c dcd0 463c e0e3 243e
00000130: 7b58 263d 8b85 8b3f 8874 8b3e 4fc1 ed3b
00000140: f2d6 513c 92e0 3142 ea33 783c 9b70 be42
00000150: bf24 f33c c441 9f3d 8d43 033d e5a5 6c3e
00000160: 627b 3e3e 71d7 3a3e d364 323e

54 f4 [1, 2]
-0.025179604 -0.025187984
00000000: 7545 cebc 0857 cebc

distribution.mu.bias f4 [2]
-0.00050413626 0.02073258
00000000: 0328 04ba 5fd7 a93c

distribution.mu.weight f4 [2, 256]
0.0033654294 0.004948066 -0.026098955 -0.012622165 0.014252208 0.0011320802 0.020445397 0.00084669853
0.025157943 -0.0126634305 0.011772131 0.004971044 -0.029890457 -0.028310252 -0.010087741 0.014228314
0.040880267 0.0019287972 0.021065114 0.029983215 0.013230944 0.017275425 -0.0005681652 0.0052598445
0.022891834 0.040748533 0.003993394 -0.02626295 -0.016111376 -0.006168163 -0.0045601088 0.033537317
0.012219008 -0.018530516 0.008663477 0.0024117723 0.011713089 -0.0051517165 0.01777242 0.0071502705
-0.015154098 -0.025817597 0.031795744 -0.00040621482 0.009021496 -0.02308122 -0.03337529 -0.006693547
-0.0039409446 -0.007950091 -0.02452971 -0.019565498 -0.0014781657 -0.010192969 0.014078007 0.01279987
-0.013625003 0.025304 -0.018763758 0.02587418 -0.0006222782 -0.028469373 -0.0051403823 -0.0018875498
0.023140788 0.017127508 -0.009453255 0.009909748 0.0026996364 -0.019906873 0.0223755 0.020299442
0.008804933 0.004912916 -0.02333189 -0.010990196 0.0021367783 -0.014809528 0.0107082045 0.0096712345
-0.009334936 0.0007588659 -0.004997875 -0.0067522754 0.009758216 0.013391134 0.012182886 -0.0010163741
0.021865737 -0.0026687358 -0.002245793 0.014218692 0.005974642 -0.035036385 0.004450885 0.004147741
-0.0032360957 0.01423496 -0.015417285 -0.0023275006 0.0042761657 -0.013439789 -0.0022822171 -0.006512993
0.013707863 -0.024060115 -0.040942263 -0.021226794 0.02133608 0.0023167904 -0.028006544 0.028019587
0.035417896 0.011133799 0.021345815 -0.014647901 0.0065958616 -0.035497274 0.018955342 -0.009652262
0.013272732 0.025656391 -0.030513765 -0.015624361 -0.015103345 0.03400253 0.0018437172 -0.004885006
0.035512514 0.0020174112 -0.011832873 0.030145975 -0.0013156617 -0.014898364 -0.011767569 0.025022587
0.014924756 -0.0025304356 0.015793981 0.0019576019 -0.019581605 0.029683169 0.0018397559 -0.015433862
0.017083082 0.0021558565 0.012106615 0.029310714 -0.016037403 0.005641792 0.01819776 -0.04412496
0.0008972574 -0.011182669 -0.0128172515 0.011873522 -0.020113293 -0.021948736 0.016295275 -0.02318929
0.007564482 0.004651886 -0.019585935 0.00048544456 -0.03648973 0.027014948 -0.007911387 0.010813779
-0.005144008 0.014337275 0.02330919 0.013375895 -0.0038625284 -0.026558006 0.042122778 0.026533457
0.018407008 0.009159059 -0.025816793 -0.02311416 -0.012613025 -0.017489936 0.003832807 -0.015756138
0.0049276087 0.042347524 0.03544805 -0.006768607 0.0051759025 0.007844043 0.00022081318 0.01443901
0.0011554542 -0.02531544 -0.013219086 0.011189215 0.020179179 -0.011867022 -0.026453665 0.007812864
0.001991235 -0.03152363 -0.006308501 0.0046508745 0.01750825 0.029858194 0.018181123 0.007626265
0.025028532 0.024661949 -0.0041734064 0.009997567 0.027694805 0.0058025187 -0.013604422 -0.02866624
-0.011971332 -0.008982811 0.017101312 0.012041706 -0.027407782 0.022481399 0.017142015 -0.012823726
-0.03607299 -0.0017810762 -0.022624543 -0.007883407 0.014149668 -0.037157472 -0.012195252 0.02613744
0.006483045 -0.027725203 0.0036120145 0.02771536 0.009244485 -0.00064108026 -0.020959223 0.00949355
0.00015775484 -0.006219407 0.017598655 -0.012312683 0.024505375 -0.0018991734 0.008796719 -0.021758262
-0.01962905 -0.0207125 -0.002657754 -0.0008263683 -0.003004503 0.010324862 0.013104516 0.0017956793
00000000: 898e 5c3b 6323 a23b 7acd d5bc 32cd 4ebc
00000010: 1882 693c 4f62 943a 1b7d a73c faf4 5d3a
00000020: 0818 ce3c 477a 4fbc e5df 403c 24e4 a23b
00000030: d5dc f4bc e7ea e7bc 0d47 25bc e01d 693c
00000040: 1172 273d b2cf fc3a bf90 ac3c 5c9f f53c
00000050: 9ac6 583c 3185 8d3c ecf0 14ba c65a ac3b
00000060: a887 bb3c efe7 263d 04db 823b 6625 d7bc
00000070: 01fc 83bc 4d1e cabb f76c 95bb 6d5e 093d
00000080: 3c32 483c 4fcd 97bc 42f1 0d3c d30e 1e3b
00000090: 42e8 3f3c bbcf a8bb 7797 913c d14c ea3b
000000a0: e548 78bc 6d7f d3bc 413c 023d 3bf9 d4b9
000000b0: e6ce 133c d414 bdbc 87b4 08bd 8b55 dbbb
000000c0: 0a23 81bb 1941 02bc 88f2 c8bc d347 a0bc
000000d0: 03bf c1ba 6900 27bc 71a7 663c 8cb6 513c
000000e0: 683b 5fbc 564a cf3c 74b6 99bc 17f6 d33c
000000f0: 6220 23ba 9a38 e9bc a770 a8bb a967 f7ba
00000100: c091 bd3c fd4e 8c3c d3e1 1abc 7f5c 223c
00000110: 62ec 303b bd13 a3bc d34c b73c 044b a63c
00000120: 9142 103c 87fc a03b 8522 bfbc 3910 34bc
00000130: 3109 0c3b aaa3 72bc 7771 2f3c 1974 1e3c
00000140: 8ff1 18bc a1ee 463a 37c5 a3bb 3142 ddbb
00000150: ede0 1f3c 7d66 5b3c ba9a 473c db37 85ba
00000160: c61f b33c f5e5 2ebb 272e 13bb 84f5 683c
00000170: eec6 c33b 5082 0fbd bbd8 913b c6e9 873b
00000180: ad14 54bb c039 693c c898 7cbc fb88 18bb
00000190: 141f 8c3b 9032 5cbc 4091 15bb f26a d5bb
000001a0: f296 603c b819 c5bc 13b3 27bd d0e3 adbc
000001b0: 01c9 ae3c 4bd5 173b fb6d e5bc 5589 e53c
000001c0: 5b12 113d 8a6a 363c 6bdd ae3c c0fd 6fbc
000001d0: 1922 d83b 9765 11bd 3c48 9b3c 8524 1ebc
000001e0: df75 593c 5a2d d23c 01f8 f9bc 52fd 7fbc
000001f0: 0574 77bc 3d46 0b3d e2a8 f13a 6712 a0bb
00000200: 9275 113d 8b36 043b abde 41bc b1f4 f63c
00000210: 4872 acba 4518 74bc c3cc 40bc 2bfc cc3c
00000220: f786 743c aad5 25bb 6162 813c 1c4b 003b
00000230: 9a69 a0bc 1e2a f33c f723 f13a 4fde 7cbc
00000240: d2f1 8b3c 4549 0d3b d35a 463c 061d f03c
00000250: df60 83bc c8de b83b 7813 953c 60bc 34bd
00000260: ed35 6b3a 8337 37bc 73ff 51bc 2989 423c
00000270: a2c4 a4bc d6cd b3bc ab7d 853c 77f7 bdbc
00000280: 79df f73b d96e 983b af72 a0bc 4483 fe39
00000290: 4176 15bd 744e dd3c c39e 01bc 472c 313c
000002a0: 118f a8bb e4e6 6a3c eaf2 be3c 9226 5b3c
000002b0: 7922 7dbb 2d90 d9bc ef88 2c3d b15c d93c
000002c0: 4bca 963c e10f 163c bd7d d3bc e859 bdbc
000002d0: dca6 4ebc 0e47 8fbc d52f 7b3b 0413 81bc
000002e0: c777 a13b 9974 2d3d f931 113d 31cb ddbb
000002f0: 9e9a a93b 4d84 003c 168a 6739 9991 6c3c
00000300: 9c72 973a 5362 cfbc de94 58bc f852 373c
00000310: ce4e a53c e66d 42bc 5bb5 d8bc 8701 003c
00000320: 617f 023b ec1e 01bd 8bb7 cebb 5d66 983b
00000330: 766d 8f3c 2c99 f43c 94f0 943c bfe5 f93b
00000340: a308 cd3c db07 ca3c 12c1 88bb d6cc 233c
00000350: 37e0 e23c 0e23 be3b 15e5 5ebc 76d5 eabc
00000360: 6823 44bc a42c 13bc 0d18 8c3c 934a 453c
00000370: 4986 e0bc e92a b83c 696d 8c3c 9b1a 52bc
00000380: 46c1 13bd 0073 e9ba 1b57 b9bc 6829 01bc
00000390: 02d4 673c 6f32 18bd 98ce 47bc 2f1e d63c
000003a0: b96f d43b f71f e3bc 8cb7 6c3b 530b e33c
000003b0: 2e76 173c 2b0e 28ba adb2 abbc d68a 1b3c
000003c0: fe6a 2539 2bcc cbbb 0e2b 903c 23bb 49bc
000003d0: 7fbf c83c afed f8ba 1d20 103c 623e b2bc
000003e0: 1acd a0bc 43ad a9bc b72d 2ebb a3a0 58ba
000003f0: 32e7 44bb 9c29 293c 53b4 563c 005d eb3a

network_body.linear_encoder.seq_layers.0.bias f4 [256]
-0.0006818158 -0.012765581 -0.015684852 -0.0021832176 0.02021472 0.023212973 0.017542958 -0.011874516
0.003641177 -0.0062868334 0.014385411 0.022778813 0.017884798 -0.0004716441 0.008466769 0.0053428113
-0.006521449 -0.01008349 0.012397251 -0.020083468 0.011545342 -0.021857485 0.017758261 -0.010965855
0.019091785 -0.013212444 0.024183964 0.00751816 0.008947383 -0.013034759 0.020262035 0.01953505
-0.001004069 -0.014561198 0.013332596 0.020137575 0.016528245 0.012467145 -0.0049351114 0.0097467145
-0.004532976 -0.020905307 -0.008345497 -0.022826105 0.0010159174 0.017485261 0.00328814 0.019222008
-0.013509885 0.02036005 -0.017203627 0.009862806 0.017546374 0.006282837 -0.0034665407 -0.0061665415
0.008997189 0.019760845 0.020330073 -0.0025102475 -0.010957754 -0.016863512 -0.021490024 0.01035135
-0.014988952 0.0064740265 0.015284224 0.02674473 0.01397564 0.009789215 0.015839666 -0.022915281
0.02245706 -0.017616684 -0.018442307 -0.0042648595 0.008606341 0.0141063705 0.0053860885 -0.016258402
-0.020253295 0.008605062 0.009638127 0.016278453 0.0063499277 0.024990471 0.020707054 -0.0006300636
-0.0045872717 0.015623466 0.0145685375 -0.0008773636 0.015338157 -0.0003622463 0.026135035 -0.021130651
0.006933523 0.014794521 -0.012307037 -0.009559132 0.013099495 0.00023093044 -0.0052944142 0.011924823
-0.006120042 0.004344066 0.0030347912 -0.009045691 0.02458959 0.020119749 -0.019141812 -0.0124927685
0.01317976 0.0033773752 -0.0035161243 -0.010015585 -0.01745449 0.020563358 0.018104903 -0.017083755
0.0025627727 -0.02171348 0.020321144 -0.013749485 -0.016869726 -0.0076292804 0.020044075 -0.012240654
-0.0057764384 0.019180538 0.013984141 0.015260815 0.0112371575 -0.0006512553 -0.008999225 -0.0251915
0.017308298 0.021396073 0.0010165542 -0.004037405 0.0045065405 -0.015817817 -0.019714046 0.014854043
0.015318573 -0.021518324 -0.010893768 0.019200083 -0.004848845 0.028106831 0.017156735 0.018023407
0.008325504 0.0043405313 -0.003845319 -0.011718297 0.01078673 0.007124009 -0.018779969 0.015357446
-2.357209e-05 0.0013691814 0.021085791 -0.016125947 0.0005478782 0.021851007 0.008234348 0.019188726
0.012720731 -0.017740803 -0.00924181 -0.0059183342 0.0014996844 -0.0035502438 0.0133526735 0.0040485593
0.0029581985 0.02178614 -0.023035826 0.007140016 0.0021447635 0.013742886 -0.015242571 0.0058979387
0.014060094 0.02031267 0.015572944 0.021314032 0.0037772332 -0.0003881781 -0.0004903611 0.015592613
-0.014445402 -0.0031590639 -0.015345021 -0.02680743 -0.011383917 0.020223914 0.021233909 0.022526724
0.014195273 -0.0021432051 -0.00023582023 0.0012672672 -0.018618308 -0.016680539 -0.0028793924 -0.018257044
-0.004084655 0.01058044 0.00356417 0.024445325 0.020492055 -0.023822162 0.021264536 -0.020352514
-0.0060611167 -0.022762422 -0.0014712202 -0.004000682 0.016662812 -0.0028695397 -0.014375883 -0.010022804
-0.0169683 0.010912494 -0.0030378085 0.024076791 -0.0063077975 0.013260636 -0.019972153 -0.00978743
0.020817237 0.027160862 -0.015450648 -3.3829012e-05 0.012196727 -0.01374996 -0.010812336 0.0060252575
0.002433999 -0.015720898 -0.0021692275 0.015615773 0.0033373616 0.020363748 0.022601 -0.008082835
-0.021417981 0.02115328 -0.011286425 0.011252511 0.023522016 0.026376288 -0.011392262 -0.00024484022
00000000: e2bb 32ba ba26 51bc 857d 80bc 5014 0fbb
00000010: 5799 a53c 2229 be3c 40b6 8f3c 548d 42bc
00000020: d0a0 6e3b c801 cebb c9b0 6b3c a29a ba3c
00000030: 2483 923c 0047 f7b9 34b8 0a3c c012 af3b
00000040: e1b1 d5bb 3935 25bc d71d 4b3c 1686 a4bc
00000050: ad28 3d3c 780e b3bc c679 913c 21aa 33bc
00000060: 6066 9c3c 0279 58bc 731d c63c e65a f63b
00000070: 0b98 123c be8f 55bc 91fc a53c f807 a03c
00000080: f79a 83ba 1792 6ebc f670 5a3c 8ef7 a43c
00000090: 3e66 873c ff42 4c3c b7b6 a1bb afb0 1f3c
000000a0: 5c89 94bb 9b41 abbc 8dbb 08bc d0fd babc
000000b0: 8828 853a 403d 8f3c d67d 573b 7977 9d3c
000000c0: 9158 5dbc 1fca a63c 9fee 8cbc 9b97 213c
000000d0: 6abd 8f3c 42e0 cd3b e72e 63bb b310 cabb
000000e0: f268 133c 7fe1 a13c 418b a63c f782 24bb
000000f0: 2788 33bc 5925 8abc d90b b0bc b598 293c
00000100: 3994 75bc 1224 d43b af6a 7a3c c417 db3c
00000110: 15fa 643c f262 203c 30c2 813c d4b8 bbbc
00000120: def7 b73c dd50 90bc 5214 97bc 3cc0 8bbb
00000130: 9c01 0d3c 681e 673c c97d b03b 5730 85bc
00000140: 3dea a5bc 3ffc 0c3c 3ce9 1d3c 645a 853c
00000150: 0e13 d03b d1b8 cc3c d7a1 a93c da2a 25ba
00000160: d350 96bb 91f9 7f3c e0b0 6e3c e0fe 65ba
00000170: e54c 7b3c e0eb bdb9 2419 d63c 301a adbc
00000180: 9b32 e33b b864 723c 74a3 49bc e89d 1cbc
00000190: 449f 563c eb25 7239 c47c adbb 5560 433c
000001a0: a28a c8bb ab58 8e3b 59e3 463b 6134 14bc
000001b0: 1c70 c93c 2cd2 a43c 4acf 9cbc 78ae 4cbc
000001c0: ecef 573c f456 5d3b c76e 66bb 6918 24bc
000001d0: b8fc 8ebc 7d74 a83c bc50 943c 3bf3 8bbc
000001e0: 31f4 273b 78e0 b1bc 8778 a63c 8545 61bc
000001f0: 6132 8abc 0bff f9bb 7933 a43c 068d 48bc
00000200: 4748 bdbb 8120 9d3c bd1d 653c 7f08 7a3c
00000210: 0e1c 383c 01b9 2aba 7c71 13bc 685e cebc
00000220: 22ca 8d3c d146 af3c e63d 853a 354c 84bb
00000230: 9aab 933b 5e94 81bc 5a7f a1bc 5f5e 733c
00000240: c1fa 7a3c 3247 b0bc c67b 32bc 7e49 9d3c
00000250: 0fe3 9ebb 4c40 e63c 488c 8c3c d3a5 933c
00000260: b267 083c 043b 8e3b bf01 7cbb 1afe 3fbc
00000270: d3ba 303c 8570 e93b 73d8 99bc cc9d 7b3c
00000280: aebc c5b7 1b76 b33a 1cbc ac3c 901a 84bc
00000290: 7c9f 0f3a e200 b33c 5ce9 063c ad31 9d3c
000002a0: 9d6a 503c 2955 91bc f66a 17bc 96ee c1bb
000002b0: 0f91 c43a 35ab 68bb 2cc5 5a3c c7a9 843b
000002c0: 56de 413b d978 b23c a1b5 bcbc ccf6 e93b
000002d0: 298f 0c3b d729 613c fabb 79bc 7f43 c13b
000002e0: 4f5c 663c c266 a63c a925 7f3c c49a ae3c
000002f0: 758b 773b 6284 cbb9 948b 00ba 2978 7f3c
00000300: 68ac 6cbc 4c08 4fbb af69 7bbc 419b dbbc
00000310: 9c83 3abc 9fac a53c bcf2 ad3c f789 b83c
00000320: 4a93 683c 0475 0cbb 8346 77b9 6e1a a63a
00000330: 6c85 98bc a0a5 88bc 30b4 3cbb cc8f 95bc
00000340: 92d8 85bb 9559 2d3c da94 693b 9041 c83c
00000350: f4de a73c b226 c3bc f732 ae3c 51ba a6bc
00000360: 559c c6bb 4278 babc f5d5 c0ba 2718 83bb
00000370: 7380 883c e30e 3cbb d388 6bbc b036 24bc
00000380: 1b01 8bbc 51ca 323c f815 47bb b13c c53c
00000390: a4b1 cebb 2343 593c a49c a3bc 755b 20bc
000003a0: e988 aa3c 7580 de3c b724 7dbc a0e3 0db8
000003b0: c8d4 473c 8347 61bc 3926 31bc 866f c53b
000003c0: ba83 1f3b 1dc9 80bc 9929 0ebb 4dd9 7f3c
000003d0: a3b7 5a3b e0d1 a63c bb25 b93c de6d 04bc
000003e0: c374 afbc a549 ad3c b3ea 38bc 745c 383c
000003f0: 3eb1 c03c 1613 d83c 9ca6 3abc e65d 80b9

network_body.linear_encoder.seq_layers.0.weight f4 [256, 91]
0.041682463 -0.07290376 0.09721959 -0.07877225 0.16338612 -0.03778563 -0.023581857 -0.11183748
-0.059573133 0.090163335 0.020281238 0.17489628 -0.04628175 -0.0015815247 -0.16456328 -0.11337962
-0.023203526 -0.013277523 0.16139722 0.14654255 -0.22417691 -0.11652228 -0.08522263 0.12783863
-0.10631911 0.035582248 0.11981495 -0.036616884 -0.101745665 0.07805857 0.12749177 0.21566154
0.08585397 0.050767407 -0.20637342 -0.13880831 -0.056591175 -0.08005735 -0.060324814 0.014687364
-0.122282065 -0.26528847 0.13408995 0.03790347 -0.010697369 -0.32371727 0.07082342 -0.062132843
0.06020085 0.10311299 0.051183067 -0.035195865 0.116637476 0.16992034 0.051374048 0.110827096
0.102556236 -0.13847396 -0.12771332 0.048747256 0.04288752 -0.11632521 0.04328894 -0.037679333
-0.04389516 0.25163263 -0.32778633 -0.03154049 0.096029356 0.062233627 -0.07333133 0.24467878
-0.034993373 -0.119676925 -0.044775907 -0.35682365 0.026768764 -0.017930975 -0.07873446 -0.009009399
-0.18572228 -0.036394116 0.018173924 -0.060664207 0.04695369 -0.15920278 0.10734051 0.15706904
0.048201364 -0.07154165 0.20176318 0.047886956 -0.15608491 0.026911039 -0.0961189 -0.13807267
-0.00095546193 -0.060905077 0.07221799 -0.012104282 0.12383487 -0.06327081 -0.1434572 -0.07526336
-0.019323444 0.010991276 0.14683731 0.019059926 -0.02723615 -0.15485767 -0.008993821 0.013485583
0.00986377 0.02802425 0.009772997 -0.03362444 -0.035450906 0.112300284 0.031014407 -0.087972015
0.05038416 0.11666989 -0.17676896 -0.15102625 -0.16301686 0.0037526393 0.0026536556 -0.09398774
0.035100553 0.028735984 0.29825214 -0.029455839 0.12354679 0.03305006 -0.09644839 0.004650783
-0.06951187 0.034134448 -0.006707011 0.114469215 -0.02936804 0.048110668 0.11810324 -0.019311659
0.05044816 0.032314282 -0.07826954 0.010680017 -0.0063069044 -0.16536482 -0.02162523 0.13353227
-0.060581174 -0.05176076 -0.16687898 -0.09458091 -0.056666456 0.013165793 0.01788673 0.0155481575
-0.04191372 -0.0056153904 -0.053412594 0.049796 0.059588175 0.16901569 -0.062369797 -0.029600106
0.12135344 0.15342903 0.1252498 0.050824374 -0.10203193 -0.027203824 -0.027147537 0.080681376
0.063547164 0.01764932 0.10715787 0.12151021 -0.010852242 -0.10541202 0.11441941 0.04628154
-0.15262526 -0.05047682 -0.026099388 -0.013479144 0.034939796 0.10105052 0.041489813 0.0031862506
0.19385093 -0.04134822 -0.06563966 -0.14710948 -0.13999814 0.00011453788 0.14786065 0.15750869
-0.05944293 0.0980615 -0.16946934 0.02779759 -0.004838487 0.051780816 -0.08243021 0.09319952
0.04134577 -0.10359436 0.00020161342 -0.04622654 -0.008728807 -0.07910295 0.10239423 0.088496715
-0.1118891 0.034458447 0.17651075 0.08472699 -0.045187626 0.011748721 0.08437128 0.053540908
-0.15096547 0.08369567 -0.058236748 -0.06274581 -0.0754315 0.21565717 0.0936039 0.16716366
0.1980964 -0.071610086 0.099561445 -0.08549091 -0.091659226 -0.21197794 -0.0043247836 -0.03664336
0.10907516 0.108478315 -0.09259512 0.019042956 0.061616242 0.16191056 0.042046167 -0.008817268
0.12435416 -0.091687895 -0.07496104 0.15555055 0.008835854 -0.057443526 0.04240691 0.06265437
00000000: 3bbb 2a3d 914e 95bd 101b c73d 5853 a1bd
00000010: b14e 273e 1bc5 1abd bd2e c1bc 0c0b e5bd
00000020: f502 74bd 8ea7 b83d d724 a63c 0318 333e
00000030: ef91 3dbd 2a4b cfba 4783 28be 9333 e8bd
00000040: 5215 bebc f889 59bc 5045 253e 400f 163e
00000050: a28e 65be 3ca3 eebd 3489 aebd 21e8 023e
00000060: d5bd d9bd b1be 113d 8a61 f53d 96fb 15bd
00000070: 0860 d0bd 2cdd 9f3d 348d 023e 61d6 5c3e
00000080: 35d4 af3d 7cf1 4f3d 8e53 53be c423 0ebe
00000090: 26cc 67bd 1cf5 a3bd 2717 77bd 45a3 703c
000000a0: 056f fabd e4d3 87be e04e 093e ab40 1b3d
000000b0: 0544 2fbc 45be a5be df0b 913d 027f 7ebd
000000c0: 2b95 763d e72c d33d 56a5 513d 8a29 10bd
000000d0: a1df ee3d 99ff 2d3e 986d 523d 51f9 e23d
000000e0: 0109 d23d 1ecc 0dbe 48c7 02be 34ab 473d
000000f0: d3aa 2f3d e93b eebd be4f 313d a555 1abd
00000100: 69cb 33bd fed5 803e 9cd3 a7be 9a30 01bd
00000110: 0aab c43d b0e8 7e3d bd2e 96bd 138d 7a3e
00000120: 3655 0fbd 2d19 f5bd f166 37bd 97b1 b6be
00000130: 2b4a db3c fbe3 92bc 883f a1bd 299c 13bc
00000140: fb2d 3ebe ff11 15bd 7be1 943c 087b 78bd
00000150: 8352 403d 0e06 23be 57d5 db3d b5d6 203e
00000160: cb6e 453d 6e84 92bd 029b 4e3e 1d25 443d
00000170: b9d4 1fbe 8a74 dc3c fcd9 c4bd ec62 0dbe
00000180: f777 7aba 9a77 79bd 07e7 933d 0a51 46bc
00000190: 239d fd3d 2094 81bd 72e6 12be ad23 9abd
000001a0: 334c 9ebc c114 343c 855c 163e 9023 9c3c
000001b0: 591e dfbc 0293 1ebe d25a 13bc a2f2 5c3c
000001c0: a69b 213c 1d93 e53c ec1e 203c c8b9 09bd
000001d0: f834 11bd b1fd e53d ed11 fe3c ac2a b4bd
000001e0: 9f5f 4e3d a0f0 ee3d ec02 35be a0a6 1abe
000001f0: e4ed 26be d7ee 753b f4e8 2d3b a57c c0bd
00000200: 99c5 0f3d ba67 eb3c 81b4 983e 5f4d f1bc
00000210: 1906 fd3d 805f 073d bc86 c5bd 9865 983b
00000220: 3d5c 8ebd 90d0 0b3d 7cc6 dbbb d66e ea3d
00000230: 3e95 f0bc b10f 453d 1de0 f13d 7c33 9ebc
00000240: bba2 4e3d fb5b 043d c84b a0bd 3dfb 2e3c
00000250: 26aa cebb 6555 29be 6527 b1bc afbc 083e
00000260: f723 78bd 1703 54bd 53e2 2abe a3b3 c1bd
00000270: 161b 68bd 57b5 573c 3187 923c b3bd 7e3c
00000280: b9ad 2bbd 4f01 b8bb 2ac7 5abd e4f6 4b3d
00000290: bb12 743d 7312 2d3e 7977 7fbd ec7b f2bc
000002a0: 2788 f83d 801c 1d3e 7c41 003e 382d 503d
000002b0: 1ef6 d0bd 8eda debc 8364 debc 473c a53d
000002c0: 0425 823d 4f95 903c 9675 db3d 58da f83d
000002d0: 9acd 31bc 42e2 d7bd b954 ea3d b691 3d3d
000002e0: cc49 1cbe c8c0 4ebd 62ce d5bc a1d7 5cbc
000002f0: 081d 0f3d 93f3 ce3d 39f1 293d 6ad0 503b
00000300: dc80 463e c05c 29bd 166e 86bd dea3 16be
00000310: ac5b 0fbe 0e34 f038 c868 173e f549 213e
00000320: 6e7a 73bd 78d4 c83d 5f89 2dbe c5b7 e33c
00000330: 2c8c 9ebb 1f18 543d 2cd1 a8bd 64df be3d
00000340: 2f5a 293d 4829 d4bd 3168 5339 0a58 3dbd
00000350: 4503 0fbc ba00 a2bd 11b4 d13d c43d b53d
00000360: 1d26 e5bd 4d24 0d3d 3cbf 343e 5885 ad3d
00000370: a916 39bd b57d 403c daca ac3d b64d 5b3d
00000380: b196 1abe a368 ab3d a889 6ebd e080 80bd
00000390: d57b 9abd 3cd5 5c3e 67b3 bf3d f32c 2b3e
000003a0: c8d9 4a3e 4fa8 92bd dfe6 cb3d dc15 afbd
000003b0: d5b7 bbbd bf10 59be eab6 8dbb 5917 16bd
000003c0: cc62 df3d e129 de3d 83a2 bdbd f9ff 9b3c
000003d0: 5061 7c3d e2cb 253e 9a38 2c3d 4d76 10bc
000003e0: 65ad fe3d ddc6 bbbd 2c85 99bd a548 1f3e
000003f0: 42c4 103c e749 6bbd deb2 2d3d ef50 803d

network_body.linear_encoder.seq_layers.2.bias f4 [256]
0.012999965 -0.024515916 0.013436854 -0.010077989 -0.0030680592 0.015641823 -0.012132989 -0.019423338
-0.0047804555 0.02012082 0.01260983 0.023428474 -0.010076324 -0.012339132 -0.019119924 -0.01643136
0.0030778546 -0.02179664 -0.008549235 -0.01504518 0.017799355 0.0063056434 -0.022415746 0.01875191
0.019045565 0.014228145 -0.0018512886 -0.0051701725 0.016903901 0.002097932 0.021159848 0.014324616
-0.018898629 0.0047502196 0.017968621 0.020541962 -0.020259853 0.01858404 -0.0056699584 -0.021148635
-0.01709557 -0.010126839 0.019625153 0.015548474 0.012891485 0.0013571577 0.0046996456 0.018015882
0.021671869 -0.01618171 -0.0138057405 -0.014220417 -0.022184804 0.016503781 -0.016639138 -0.0156431
-0.0057276827 -0.009960968 -0.012152129 0.008988294 0.0058843046 0.00033363994 -0.008777255 -0.020712387
0.009661027 0.0139329275 0.019546865 -0.019943623 0.01913983 0.017016321 0.016595462 0.022901654
-0.016112644 -0.02396481 0.0007367543 -0.015788207 -0.021205354 -0.019257726 -0.012368905 0.014213855
0.008924888 0.014579588 0.0015665495 0.018722147 -0.021018086 0.015784815 -0.007888168 -0.02337059
0.017110597 -0.019891618 0.021748537 0.005740636 0.019812677 0.008286112 0.01445602 0.023226209
-0.020555725 -0.0041115857 0.016240688 0.022212207 0.02164965 0.022823872 -0.019485354 0.00445997
-0.014559326 -0.003437331 -0.009134403 0.02013241 0.0020947193 -0.021615839 -0.0036323739 0.006957383
0.013317514 -0.019308742 -0.006515791 -0.00513209 0.019927131 0.0043183216 0.015858317 0.021755163
-0.014270218 -0.014168269 -0.0030601753 0.009954615 0.02229925 -0.0015260334 -0.017976621 0.016086794
-0.013220916 -0.018818589 0.021344332 -0.008464942 -0.018389033 0.016086375 -0.015660293 0.017308284
-0.0024725958 0.018804543 -0.01944662 0.021334866 0.005226362 -0.015607915 0.015617574 0.022069423
-0.008364068 0.019476708 0.017922496 -0.007625441 0.00662556 0.008200526 -0.018143578 -0.011063416
0.020164832 -0.017570032 0.016209563 -0.012538858 0.0006211389 -0.017182203 -0.018105157 0.011901224
-0.01971438 -0.0014098766 0.011323691 -0.022687212 -0.0088431835 0.02085795 0.018235018 0.011643182
-0.017933546 -0.018662846 -0.012325706 -0.020414788 0.018743988 -0.009504817 0.011424337 0.020196421
-0.004400019 -0.021072192 -0.0047244667 -0.008046934 0.023254551 0.0007175056 0.016510949 -0.0169511
-0.020633074 0.0004522164 0.0177901 -0.017827464 0.016763207 -0.00055488717 0.01822737 0.014369975
0.01142454 -0.016886353 0.005374152 0.018900648 -0.0077603273 0.020688243 0.016639886 0.020299686
0.01885112 0.009458243 0.016100928 -0.022084134 -0.013924064 -0.015273012 -0.010511819 0.02008807
-0.007643231 0.004205621 0.02020853 0.014523515 0.01757234 -0.0020211018 -0.021370467 0.02092329
-0.012939947 -0.021724645 0.012279732 0.022598423 0.015890213 -0.012996673 0.015930103 0.012024864
0.017897833 0.008821947 -0.010114003 0.017749537 0.014172218 0.0056145755 -0.011863089 0.01095739
-0.019654172 -0.010477891 -0.0052774306 0.01949038 0.019976117 0.020708831 -0.0009150784 -0.017386628
-0.020607937 -0.00012573774 -0.017678339 0.024852535 -0.0042209798 0.023558633 0.015379288 0.016632365
0.018869624 -0.004525068 6.199318e-05 0.01418093 -0.016947147 0.011141277 0.018374778 -0.019011365
00000000: cefd 543c 9ad5 c8bc 4026 5c3c 261e 25bc
00000010: 7e11 49bb 4823 803c 72c9 46bc b11d 9fbc
00000020: 5ea5 9cbb 6bd4 a43c 7699 4e3c 12ed bf3c
00000030: 2b17 25bc 122a 4abc 63a1 9cbc 0f9b 86bc
00000040: d5b5 493b de8e b2bc 1712 0cbc 0f80 76bc
00000050: f4cf 913c 929f ce3b 3aa1 b7bc 9b9d 993c
00000060: 7205 9c3c 2a1d 693c f0a6 f2ba 8d6a a9bb
00000070: 0d7a 8a3c 757d 093b 6b57 ad3c cbb1 6a3c
00000080: 4cd1 9abc bba7 9b3b ee32 933c 9e47 a83c
00000090: fef7 a5bc 8f3d 983c 0fcb b9bb e73f adbc
000000a0: 020c 8cbc 0beb 25bc eec4 a03c 07bf 7e3c
000000b0: cf36 533c a8e2 b13a 7cff 993b 0b96 933c
000000c0: 3489 b13c 818f 84bc 7931 62bc c0fc 68bc
000000d0: e8bc b5bc f032 873c cd4e 88bc f525 80bc
000000e0: 49af bbbb 5433 23bc b919 47bc a343 133c
000000f0: 20d1 c03b 65ec ae39 7ace 0fbc 06ad a9bc
00000100: 4949 1e3c ef46 643c bf20 a03c cf60 a3bc
00000110: 22cb 9c3c d065 8b3c 35f3 873c 409c bb3c
00000120: aafe 83bc d951 c4bc be22 413a 4556 81bc
00000130: dab6 adbc 61c2 9dbc f3a6 4abc 3be1 683c
00000140: b239 123c 39df 6e3c ae54 cd3a 305f 993c
00000150: 1f2e acbc 284f 813c 603d 01bc ae73 bfbc
00000160: 862b 8c3c bff3 a2bc fd29 b23c f21b bc3b
00000170: 324e a23c 79c2 073c f1d8 6c3c e444 be3c
00000180: 7b64 a8bc 7bba 86bb 310b 853c 60f6 b53c
00000190: 9b5a b13c 21f9 ba3c c09f 9fbc f124 923b
000001a0: 3d8a 6ebc d844 61bb 77a8 15bc b9ec a43c
000001b0: 8f47 093b b313 b1bc 1f0d 6ebb c2fa e33b
000001c0: b431 5a3c 5e2d 9ebc 6b82 d5bb 172b a8bb
000001d0: 393e a33c b580 8d3b 4de9 813c e237 b23c
000001e0: a2cd 69bc 0722 68bc 398d 48bb ae18 233c
000001f0: ebac b63c 2f05 c8ba b543 93bc 74c8 833c
00000200: 8a9c 58bc 7129 9abc 4fda ae3c 8ab0 0abc
00000210: 99a4 96bc 93c7 833c 044a 80bc 1aca 8d3c
00000220: 460b 22bb fc0b 9a3c 854e 9fbc 75c6 ae3c
00000230: e741 ab3b 57b8 7fbc dae0 7f3c efca b43c
00000240: 7209 09bc 9e8d 9f3c 33d2 923c d6de f9bb
00000250: 3a1b d93b 805b 063c d7a1 94bc 5443 35bc
00000260: b830 a53c 07ef 8fbc ebc9 843c c86f 4dbc
00000270: edd3 223a b1c1 8cbc 4451 94bc 5afd 423c
00000280: 0d80 a1bc 9ccb b8ba 0187 393c 88da b9bc
00000290: 00e3 10bc 4bde aa3c 9b61 953c 0bc3 3e3c
000002a0: 5fe9 92bc d3e2 98bc c2f1 49bc ea3c a7bc
000002b0: fe8c 993c 18ba 1bbc 242d 3b3c f772 a53c
000002c0: 092e 90bb 979f acbc b3cf 9abb 4ad7 03bc
000002d0: 5480 be3c fc16 3c3a f841 873c 09dd 8abc
000002e0: b106 a9bc 7517 ed39 8bbc 913c e70a 92bc
000002f0: fe52 893c d975 11ba 9151 953c 0b70 6b3c
00000300: fe2d 3b3c 4055 8abc a819 b03b 88d5 9a3c
00000310: 584a febb 647a a93c 5f50 883c 874b a63c
00000320: aa6d 9a3c bff6 1a3c 18e6 833c c9e9 b4bc
00000330: c221 64bc a83b 7abc c439 2cbc bc8f a43c
00000340: 1274 fabb 4ecf 893b 5c8c a53c 09f4 6d3c
00000350: def3 8f3c 7674 04bb 1e11 afbc 5267 ab3c
00000360: 1202 54bc e2f7 b1bc ee30 493c 5420 b93c
00000370: 312c 823c ffef 54bc d97f 823c ef03 453c
00000380: 7a9e 923c ed89 103c 34b5 25bc 7a67 913c
00000390: 9732 683c 79fa b73b 675d 42bc a086 333c
000003a0: c901 a1bc 76ab 2bbc 4cee acbb 4aaa 9f3c
000003b0: f4a4 a33c 91a5 a93c dfe1 6fba 676e 8ebc
000003c0: fad1 a8bc 78d8 03b9 2ad2 90bc 8b97 cb3c
000003d0: 2550 8abb 09fe c03c 69f9 7b3c 9940 883c
000003e0: 7894 9a3c 0647 94bb 5602 8238 2257 683c
000003f0: bed4 8abc e789 363c b486 963c b9bd 9bbc

network_body.linear_encoder.seq_layers.2.weight f4 [256, 256]
-0.012652419 0.09989304 0.15089318 0.044543266 -0.10038537 0.12180826 0.053478412 0.03531439
0.019106006 0.0883672 -0.014945477 0.026052207 0.03639563 -0.036561467 0.08756226 -0.011207412
0.07170653 -0.019206949 0.03960576 -0.11110061 -0.06185888 -0.04636842 0.04968757 -0.004007915
0.042294994 0.022594 0.011037212 -0.018330244 -0.011917433 0.017386686 -0.01289979 0.0042413855
-0.03990212 -0.01342888 6.910233e-05 0.005748328 0.10593262 0.0034915514 0.063958056 -0.027182387
-0.040243592 0.003224677 -0.05270269 0.078738205 0.001223149 0.062033057 -0.062006723 -0.085913695
0.11596573 -0.007609931 0.0007863692 -0.00090239727 -0.10297019 0.015520445 0.10051057 0.057075113
-0.091680504 -0.08681897 -0.013921467 -0.005668964 0.009024713 -0.038930114 0.057754047 0.16055267
0.017963666 0.12428106 0.013143155 0.09053973 -0.12079595 0.049366962 0.025345096 0.041397057
-0.0009880834 -0.049490433 -0.02760904 -0.0053349915 -0.002079362 0.027622698 0.034120392 0.051288918
-0.031085465 -0.058276158 -0.06049376 0.017082134 -0.06065272 -0.06661368 0.075728685 0.017104814
0.040441357 -0.010399225 0.1399042 -0.034590654 -0.010203463 -0.04763321 -0.0639001 0.11422595
0.12494402 0.021693991 -0.03958721 -0.047735713 0.020751571 -0.014801976 -0.099425524 -0.061495513
0.08328362 0.06946036 0.08362394 -0.022624902 0.08335805 -0.06798688 0.0632925 0.14679267
-0.052087426 0.04420186 0.026736233 -0.00065654475 0.03433697 0.057647184 0.06365456 -0.00764487
0.01435663 0.08724403 0.03267063 -0.03097128 -0.051312048 -0.021759693 0.020032011 -0.029658401
-0.10748853 0.0661091 0.044150487 0.031985708 -0.017127767 0.10628943 -0.08037066 -0.07575698
-0.053270932 0.020906083 0.009084942 -0.06065838 -0.0030049512 0.040259995 -0.076479554 -0.12747261
-0.034046505 -0.0015235272 0.059891395 0.08721969 -0.09170839 -0.19662224 0.06808041 -0.074404925
0.112701245 0.01690966 -0.018250078 0.14214225 -0.0013797595 -0.038468137 -0.09413571 0.10615182
-0.054526035 0.049963236 0.084383555 0.027477205 -0.04643268 -0.011388349 0.0031231127 0.04516396
-0.010553151 -0.059707563 -0.009888525 -0.07825267 0.05143397 -0.025882943 -0.03152227 0.11267613
-0.04028808 -0.0074480553 -0.03540345 0.008539152 0.07811567 -0.13034427 0.03783832 0.042215306
0.09296516 -0.006521893 0.04206422 -0.100847274 0.058525167 -0.049707685 -0.06002852 -0.10288568
-0.0598993 0.03716376 -0.099691354 0.053477954 0.0019366329 0.003931568 -0.031891096 0.05560488
0.09050645 -0.03367323 0.014210143 0.03219143 0.00086966844 0.03862088 0.019551456 0.08144178
-0.06848767 0.09331121 -0.0010020719 -0.021440407 -0.053021763 -0.0062611788 0.038438782 -0.06994779
0.068617806 0.056268487 0.018509211 0.0060414686 -0.06749952 -0.0015921041 -0.09710668 0.059363823
0.011447975 -0.034950685 0.06972891 0.004468631 0.09741226 -0.016596198 0.03208645 0.0026436343
0.030702027 -0.047967453 -0.08457203 0.00060581655 0.094472215 -0.02717138 0.03817739 0.0696075
0.012046144 0.0007020637 -0.06452638 0.040906254 -0.0030769552 0.033443112 0.015604322 -0.07250433
0.013861984 0.044805776 -0.065593705 -0.0010592445 0.10910008 -0.08273495 -0.05367901 0.17970145
00000000: 174c 4fbc b994 cc3d be83 1a3e 0073 363d
00000010: d896 cdbd 9c76 f93d 2e0c 5b3d d2a5 103d
00000020: 3384 9c3c ddf9 b43d e0dd 74bc 706b d53c
00000030: 9613 153d 7ac1 15bd d853 b33d 4b9f 37bc
00000040: e0da 923d e457 9dbc a639 223d b788 e3bd
00000050: bd5f 7dbd d0ec 3dbd 3285 4b3d d454 83bb
00000060: 843d 2d3d 0d17 b93c 6cd5 343c 4f29 96bc
00000070: 5641 43bc 866e 8e3c a459 53bc 52fb 8a3b
00000080: 6870 23bd ce04 5cbc 08eb 9038 785c bc3b
00000090: 34f3 d83d 83d2 643b 71fc 823d 99ad debc
000000a0: 77d6 24bd 1a55 533b c7de 57bd 7f41 a13d
000000b0: 1252 a03a 6016 7e3d c3fa 7dbd 85f3 afbd
000000c0: 717f ed3d ba5c f9bb 5824 4e3a db8e 6cba
000000d0: 09e2 d2bd 7749 7e3c 7cd8 cd3d 98c7 693d
000000e0: fdc2 bbbd 25ce b1bd dd16 64bc b7c2 b9bb
000000f0: 64dc 133c 2f75 1fbd 828f 6c3d eb67 243e
00000100: 8a28 933c 1287 fe3d 6356 573c e56c b93d
00000110: de63 f7bd 0335 4a3d 85a0 cf3c f68f 293d
00000120: 9482 81ba 7bb6 4abd 5a2c e2bc 27d1 aebb
00000130: e845 08bb ff48 e23c d3c1 0b3d 5414 523d
00000140: f2a6 febc fbb2 6ebd 4ec8 77bd d5ef 8b3c
00000150: fd6e 78bd c16c 88bd a417 9b3d 651f 8c3c
00000160: d6a5 253d 8361 2abc 0c43 0f3e eeae 0dbd
00000170: 6d2c 27bc 0a1b 43bd 0ede 82bd 4bef e93d
00000180: a6e2 ff3d 99b7 b13c 3326 22bd 8686 43bd
00000190: 33ff a93c fd83 72bc 9c9f cbbd b8e2 7bbd
000001a0: 9a90 aa3d 3c41 8e3d 0743 ab3d dc57 b9bc
000001b0: a0b7 aa3d b53c 8bbd 809f 813d d150 163e
000001c0: a059 55bd 020d 353d f205 db3c f91b 2cba
000001d0: eca4 0c3d 741f 6c3d 525d 823d d181 fabb
000001e0: 1238 6b3c ffac b23d a3d1 053d 7bb7 fdbc
000001f0: 952c 52bd 6241 b2bc 2c1a a43c 2df6 f2bc
00000200: f222 dcbd 3564 873d 24d7 343d 7203 033d
00000210: 884f 8cbc 46ae d93d 5f99 a4bd 7a26 9bbd
00000220: 9f32 5abd 3c43 ab3c 02d9 143c ec74 78bd
00000230: b7ee 44bb aae7 243d 50a1 9cbd 2e88 02be
00000240: 5974 0bbd 17b1 c7ba ae50 753d 3da0 b23d
00000250: 9cd1 bbbd 5757 49be be6d 8b3d 9c61 98bd
00000260: e9cf e63d 2186 8a3c 3081 95bc bd8d 113e
00000270: 0cd9 b4ba c490 1dbd 39ca c0bd 2066 d93d
00000280: b156 5fbd 40a6 4c3d 49d1 ac3d e017 e13c
00000290: 3230 3ebd 3396 3abc 23ad 4c3b d8fd 383d
000002a0: 20e7 2cbc eb8f 74bd 7b03 22bc f042 a0bd
000002b0: 6dac 523d 7708 d4bc 7f1d 01bd bec2 e63d
000002c0: 1d05 25bd d10e f4bb 3503 11bd cde7 0b3c
000002d0: 1cfb 9f3d f878 05be 5bfc 1a3d f5e9 2c3d
000002e0: 8564 be3d 9bb5 d5bb 884b 2c3d 0489 cebd
000002f0: 16b8 6f3d 499a 4bbd 77e0 75bd bab5 d2bd
00000300: f858 75bd 0739 183d fb2a ccbd b30b 5b3d
00000310: 9ed6 fd3a 62d4 803b 3da0 02bd f1c1 633d
00000320: 725b b93d f1ec 09bd a9d1 683c 29db 033d
00000330: 76fa 633a ee30 1e3d 602a a03c f3ca a63d
00000340: 4343 8cbd f319 bf3d f457 83ba cba3 afbc
00000350: 592d 59bd 932a cdbb fc71 1d3d c940 8fbd
00000360: 7e87 8c3d c979 663d a1a0 973c 83f7 c53b
00000370: 303d 8abd 26ae d0ba dedf c6bd 7b27 733d
00000380: 4a90 3b3c 7328 0fbd 08ce 8e3d 986d 923b
00000390: 1480 c73d c0f4 87bc 156d 033d d340 2d3b
000003a0: d182 fb3c 8579 44bd 1a34 adbd a9cf 1e3a
000003b0: a67a c13d 8496 debc e55f 1c3d 618e 8e3d
000003c0: 315d 453c b30a 383a 6826 84bd 518d 273d
000003d0: bea6 49bb a5fb 083d 45a9 7f3c 267d 94bd
000003e0: 601d 633c 4386 373d fe55 86bd 59d6 8aba
000003f0: dd6f df3d f170 a9bd 86de 5bbd a803 383e

network_body.vector_processors.0.normalizer.running_mean f4 [91]
0.997555 0.0 0.0 0.0024035475 0.18767588 0.9801503 0.0071277632 0.0
0.012473582 0.37684724 0.98429435 0.0073349634 0.0 0.008329532 0.37576145 0.978161
4.1440457e-05 0.0 0.021756245 0.20225517 0.9265674 0.01214205 0.0 0.061249044
0.40608788 0.918611 0.014835672 0.0 0.06634622 0.40899718 0.9321619 4.1440453e-05
0.0 0.06775515 0.19735934 0.90249074 0.0070448807 0.0 0.09017446 0.45862713
0.92979985 0.007956567 0.0 0.061870623 0.44242725 0.91169 4.1440457e-05 0.0
0.08822674 0.2150704 0.906013 0.008412415 0.0 0.08553317 0.45700943 0.8754715
0.0087025035 0.0 0.11578468 0.4736391 0.91757476 0.045916032 0.0 0.03646761
0.47628754 0.83863086 0.12390701 0.52302986 0.00061804143 -0.0030876964 0.00073989196 0.99871284
-0.0061894762 -0.0014209718 0.99507385 -0.012447553 -0.0017240358 1.0990008 42.29822 0.519978
1.7199302 56.06979 0.553645 29.282871 0.00042282007 -0.0009874059 0.00035864106 0.94343364
0.9641541 0.965563 0.9687123
00000000: c45f 7f3f 0000 0000 0000 0000 d684 1d3b
00000010: 1b2e 403e 21eb 7a3f 0390 e93b 0000 0000
00000020: ff5d 4c3c 1ff2 c03e b7fa 7b3f 225a f03b
00000030: 0000 0000 9778 083c ce63 c03e c268 7a3f
00000040: 5ad0 2d38 0000 0000 273a b23c fb1b 4f3e
00000050: 8533 6d3f 73ef 463c 0000 0000 47e0 7a3d
00000060: c0ea cf3e 172a 6b3f 5211 733c 0000 0000
00000070: 87e0 873d 1468 d13e 2aa2 6e3f 59d0 2d38
00000080: 0000 0000 36c3 8a3d 9118 4a3e a209 673f
00000090: bed8 e63b 0000 0000 63ad b83d 2dd1 ea3e
000000a0: 5d07 6e3f 435c 023c 0000 0000 0d6c 7d3d
000000b0: d385 e23e 8464 693f 5ad0 2d38 0000 0000
000000c0: 39b0 b43d 6a3b 5c3e 78f0 673f 3ad4 093c
000000d0: 0000 0000 042c af3d 24fd e93e e61e 603f
000000e0: f294 0e3c 0000 0000 8520 ed3d d380 f23e
000000f0: 2ee6 6a3f 7312 3c3d 0000 0000 105f 153d
00000100: f6db f33e 83b0 563f f5c2 fd3d 49e5 053f
00000110: 0f04 223a f35a 4abb 4ff5 413a a5ab 7f3f
00000120: 17d1 cabb e73f baba 29bd 7e3f d2f0 4bbc
00000130: 0bf9 e1ba 0fac 8c3f 6131 2942 471d 053f
00000140: ac26 dc3f 7747 6042 aebb 0d3f 5243 ea41
00000150: f3ad dd39 d86b 81ba fd07 bc39 de84 713f
00000160: ced2 763f 232f 773f 87fd 773f
