Assets/ML-Agents/mla-1.0.6/results/carchase02/CarAgent/CarAgent-24640.onnx (onnx, 362126 bytes, 9 tensors)

53 f4 [91]
0	0x3c139ae6	0.009009099
1	0x3bd0bf4c	0.0063704606
2	0x3bd0bf4c	0.0063704606
3	0x3bd0bf4c	0.0063704606
4	0x3c0debdf	0.008662193
5	0x3e4eee4e	0.20208094
6	0x3d9a7bc2	0.07543136
7	0x3bd0bf4c	0.0063704606
8	0x3e412005	0.1885987
9	0x3dfd51f9	0.12369151
10	0x3d678f84	0.05653335
11	0x3d367ac2	0.044550665
12	0x3bd0bf4c	0.0063704606
13	0x3d0a0018	0.033691496
14	0x3cd89b2b	0.026441177
15	0x3e6bb2e6	0.23017463
16	0x3c9c89b0	0.019108623
17	0x3bd0bf4c	0.0063704606
18	0x3e6af9e5	0.2294689
19	0x3e4062b7	0.18787657
20	0x3e582e79	0.21111478
21	0x3d8a6027	0.06756621
22	0x3bd0bf4c	0.0063704606
23	0x3e4dcc6c	0.20097512
24	0x3e030af4	0.12797147
25	0x3eea2c5f	0.45736977
26	0x3d4d3598	0.05009994
27	0x3bd0bf4c	0.0063704606
28	0x3ee9998a	0.45624954
29	0x3e938153	0.28809604
30	0x3eeb6254	0.45973456
31	0x3c139ae5	0.009009098
32	0x3bd0bf4c	0.0063704606
33	0x3eeb5dc5	0.45969978
34	0x3ecaca68	0.3960755
35	0x3ef7cf45	0.48400322
36	0x3d26f26c	0.040758535
37	0x3bd0bf4c	0.0063704606
38	0x3ef79645	0.48356834
39	0x3e93259e	0.28739637
40	0x3ee45a2a	0.4460004
41	0x3d7f2c8d	0.062298346
42	0x3bd0bf4c	0.0063704606
43	0x3ee35474	0.4440037
44	0x3e8769ba	0.2644785
45	0x3ca50087	0.020141853
46	0x3bd0bf4c	0.0063704606
47	0x3bd0bf4c	0.0063704606
48	0x3c9c89ae	0.01910862
49	0x3c8c4d0d	0.017126584
50	0x3d8568c1	0.06514121
51	0x3d2ee314	0.042697027
52	0x3bd0bf4c	0.0063704606
53	0x3d49e16d	0.04928725
54	0x3d0725e1	0.03299511
55	0x3e3949a0	0.18094492
56	0x3d4831fb	0.04887579
57	0x3bd0bf4c	0.0063704606
58	0x3e32d7c0	0.17465115
59	0x3dd6a092	0.10479845
60	0x3e60a242	0.21936896
61	0x3e4a10d8	0.19732988
62	0x3bd0bf4c	0.0063704606
63	0x3dccd6ce	0.10001908
64	0x3d70ac54	0.058758095
65	0x3eeba89b	0.46027073
66	0x3ee3e02d	0.4450697
67	0x3e791099	0.24322738
68	0x3c002562	0.007821413
69	0x3d4c5508	0.04988578
70	0x3c5784c6	0.013154214
71	0x3c19c0aa	0.009384314
72	0x3dc9bea2	0.098508134
73	0x3c37e51d	0.011224058
74	0x3c617a9b	0.013762142
75	0x3e250366	0.16114578
76	0x3d568b7c	0.052379116
77	0x3f8e1bd3	1.1102241
78	0x3e8a0129	0.2695401
79	0x3beb4821	0.0071802293
80	0x3c4fa81f	0.012674361
81	0x4233490f	44.821346
82	0x3cb4e188	0.022080198
83	0x42b5a961	90.83082
84	0x3cf27987	0.029598964
85	0x3d8acb2b	0.067770325
86	0x3d2265eb	0.039647978
87	0x3ecbb954	0.39789832
88	0x3ea88136	0.3291108
89	0x3e43274a	0.19057956
90	0x3e839620	0.25700474

54 f4 [1, 2]
0	0x3c4e7793	0.012601751
1	0xbd2bd230	-0.041948497

distribution.mu.bias f4 [2]
0	0xb9e7f641	-0.00044243227
1	0x3ca77610	0.020442039

distribution.mu.weight f4 [2, 256]
0	0xbadc9dc1	-0.0016831682
1	0x3a796d3f	0.0009514875
2	0xbcde471c	-0.027133517
3	0x3c75346e	0.0149661135
4	0x3c21f7f9	0.009885781
5	0xbc9ea5ae	-0.019366112
6	0x3ce8f23a	0.028435815
7	0xbc19fb12	-0.009398239
8	0x3c6764f2	0.014123188
9	0xbc9c4a95	-0.019078532
10	0xbc399b1d	-0.011328486
11	0x3d100b35	0.035166938
12	0x3b1d8996	0.0024038306
13	0xbc5e3b53	-0.013563949
14	0xbbcc37f9	-0.0062322584
15	0xbc96910a	-0.018379707
16	0x3b94f602	0.004545928
17	0xbc01d70e	-0.007924808
18	0xbccd34ef	-0.025049655
19	0x3b916228	0.00443675
20	0x3b84f393	0.0040573566
21	0xbc42e5df	-0.011895626
22	0x3c9e17c8	0.01929845
23	0x3b089f07	0.002084674
24	0xb94fee73	-0.00019829888
25	0xbada01ce	-0.0016632618
26	0xbc708854	-0.014680941
27	0x3d079e3b	0.033109885
28	0x3cb93619	0.022608804
29	0x3b84f519	0.004057538
30	0x3cd51382	0.026010279
31	0x3ae340ce	0.0017338039
32	0x3c01855c	0.0079053305
33	0x3acf996e	0.0015838572
34	0x3cc18d8b	0.023627063
35	0x3c41eaf5	0.011835803
36	0xbc441226	-0.011967218
37	0xbcd06546	-0.025438916
38	0x3c9e44c6	0.019319903
39	0x3c9cc00b	0.019134542
40	0x3c5b98c6	0.013403123
41	0xbc6fa9fd	-0.014627931
42	0x3c5a92b5	0.013340642
43	0xbcbfab21	-0.02339703
44	0xbc2729e5	-0.0102028595
45	0xbc6ef56b	-0.014584879
46	0x3c3de6fa	0.011590714
47	0x3cab08b7	0.020878179
48	0xbc561a2c	-0.013067763
49	0xbce2129e	-0.027596768
50	0x3bfc5a51	0.0077011962
51	0xbbd1a65d	-0.006398006
52	0xbc82bff7	-0.015960677
53	0xbbdfb1e5	-0.0068266266
54	0xbc540111	-0.012939707
55	0xb81a42e5	-3.677876e-05
56	0x3c45eac7	0.012079901
57	0x3ca67d33	0.020323372
58	0xbd05994b	-0.032616895
59	0xbbb06347	-0.0053829285
60	0x3c74f132	0.014950084
61	0x3b332ee1	0.0027341174
62	0xbbc89f0a	-0.0061224746
63	0x3ccb3809	0.024806993
64	0xbc35ec75	-0.011103739
65	0x3a89db12	0.0010517559
66	0xbbf2936c	-0.007402828
67	0x3be60563	0.007019685
68	0x3860af06	5.3568765e-05
69	0xbcf18718	-0.029483363
70	0xbcc5d115	-0.02414755
71	0x3c6cb5cb	0.01444764
72	0x3cbb4d98	0.022864148
73	0x3b9fb7e6	0.0048742173
74	0xbbfb3d11	-0.007667192
75	0x3d0817c3	0.033225786
76	0x3ba4b2c2	0.0050261924
77	0xbc2c4435	-0.010514309
78	0xbd2076cb	-0.03917579
79	0xbcd4ab0a	-0.025960464
80	0x3c64e6ec	0.013971072
81	0x3bfb1494	0.007662365
82	0x3ca6fe04	0.020384796
83	0xbc32c64e	-0.010911537
84	0xbaf09157	-0.0018353862
85	0xbc7af1e2	-0.015316458
86	0x3d2e92ac	0.042620346
87	0xbc0112ae	-0.007877989
88	0x3c208e81	0.009799601
89	0xbbda3c35	-0.0066600093
90	0x3c2c5ed8	0.010520659
91	0xbd3d753b	-0.046254378
92	0xbc51e537	-0.012810997
93	0xbba910c5	-0.00515947
94	0xbc68752f	-0.014188095
95	0xbd07131a	-0.0329772
96	0x3947411a	0.00019002371
97	0xbcbb12c9	-0.022836106
98	0x3d300f1e	0.042983167
99	0x3bcd3b09	0.006263141
100	0xbcd3a9f1	-0.02583787
101	0x3cc7ac55	0.024374167
102	0x3c57c3fb	0.013169284
103	0xbc21db57	-0.009878955
104	0x3d1d9158	0.03846869
105	0x3b80014f	0.003906406
106	0x3cc2abfe	0.023763653
107	0xbc01a98f	-0.007913961
108	0x3c5c6de5	0.013453935
109	0xbc38336c	-0.011242729
110	0x3c92ea8c	0.017934106
111	0xbcdd4d6b	-0.027014455
112	0x3c6e22b9	0.014534646
113	0xbb3096f9	-0.0026945455
114	0xbbca0293	-0.0061648577
115	0xbc1f6972	-0.00972973
116	0x3bf4778d	0.0074605406
117	0xbbc757b5	-0.0060834535
118	0x3b991038	0.004671123
119	0x3ce9c792	0.028537545
120	0xbc9b895d	-0.018986398
121	0x3ce5ead9	0.028066086
122	0xbc833418	-0.016016051
123	0xbcf3223f	-0.029679416
124	0x3bbfc914	0.005852828
125	0x3ae977a8	0.001781215
126	0x3c45763d	0.012052116
127	0xbd3f65a0	-0.046727777
128	0xbc691757	-0.014226756
129	0xbc1e2590	-0.00965251
130	0x3a0b92e1	0.0005324316
131	0x3a3976a6	0.000707487
132	0x3cc9b576	0.02462266
133	0x3c4a2c1a	0.012339616
134	0x3caa6c75	0.02080367
135	0x3cdd1f00	0.026992321
136	0x3d29ee56	0.04148706
137	0xbb991142	-0.0046712467
138	0x3ce8e7c6	0.02843083
139	0xbce13acb	-0.027493855
140	0xbd0600f4	-0.032715753
141	0xbca0f9af	-0.019650308
142	0xbcf0acfe	-0.029379364
143	0x3b7e49f0	0.0038801394
144	0x3c35bf76	0.011093011
145	0xbc633000	-0.013866425
146	0xbcac8fad	-0.021064604
147	0xbca4563d	-0.020060653
148	0x3c676a26	0.014124429
149	0xbb5f6df4	-0.0034092637
150	0xb9bb698c	-0.00035746058
151	0xbcadca0a	-0.021214504
152	0xbca471fb	-0.020073881
153	0x3c63c596	0.013902089
154	0x3cdd68ff	0.027027605
155	0xbcdbc031	-0.026825042
156	0x3c2cdd2f	0.010550781
157	0xbd05cd44	-0.03266646
158	0x3c09394b	0.008375476
159	0x3bab52df	0.005228385
160	0xba790a3c	-0.0009500121
161	0x3c397755	0.011319955
162	0x3a5134d2	0.0007980588
163	0x3d159bc3	0.0365255
164	0xb9c09528	-0.00036732224
165	0x3c5ca49d	0.013466981
166	0xbb20c02a	-0.0024528601
167	0x3afd5716	0.0019328322
168	0x3c5f158c	0.013615977
169	0x3c88432c	0.016633593
170	0xbc80c946	-0.015720975
171	0xbc97e03f	-0.018539546
172	0xbbe143a0	-0.0068745166
173	0x3c93a756	0.018024128
174	0xbb83cf1e	-0.004022493
175	0x3b9e6f6d	0.0048350603
176	0x3cc2464f	0.023715166
177	0xbc2b78b3	-0.010465789
178	0x3c54fca2	0.0129996855
179	0x3c35ba44	0.0110917725
180	0xbcc0d126	-0.02353723
181	0xbcbe5b2a	-0.02323683
182	0x3cfa322e	0.030541506
183	0xbca70377	-0.020387394
184	0x3c93f12f	0.018059341
185	0x3bfaf5b0	0.0076586828
186	0xbc76aa9d	-0.015055326
187	0xbcc6d951	-0.024273546
188	0x3b9d6924	0.0048037935
189	0xbc6f8f5d	-0.014621583
190	0xbbc89012	-0.00612069
191	0x3ba09816	0.0049009426
192	0xbcc99d18	-0.024611041
193	0x3c93353b	0.017969718
194	0x3cac0f1c	0.021003298
195	0x3ca15fcd	0.019699002
196	0xbc734375	-0.014847626
197	0xbbabee52	-0.005246916
198	0xbd231f7b	-0.039824944
199	0xbc99d913	-0.018780267
200	0xbcef495f	-0.02920979
201	0x3cb3869d	0.021914775
202	0xbbbad24f	-0.0057013403
203	0xbd023fde	-0.03179919
204	0xbbee9c12	-0.0072817886
205	0xbb234599	-0.002491331
206	0x3c807ecd	0.015685463
207	0x3c2d4e4b	0.0105777485
208	0xbc67bcce	-0.014144136
209	0xbcb5cb96	-0.022191804
210	0xbb26c0b4	-0.002544445
211	0xbc9c6448	-0.019090787
212	0xbc2e9e30	-0.010657832
213	0xbb93e3e0	-0.004513249
214	0x3be12653	0.0068710237
215	0xbd193b17	-0.037409868
216	0xbcb0ec6c	-0.02159711
217	0xbd202283	-0.039095413
218	0xbceac591	-0.02865866
219	0xbb97c1d1	-0.004631259
220	0xbc542c62	-0.012950035
221	0x3c97535b	0.018472364
222	0x3b12952e	0.002236675
223	0x3c951a9b	0.018201163
224	0x3c80238d	0.015641952
225	0x3cb2ed72	0.021841738
226	0x3c3cd0de	0.011524407
227	0x3c95dd7f	0.018294094
228	0xbc714c6e	-0.014727695
229	0xbb9c8142	-0.004776151
230	0x3c46c326	0.012131488
231	0x3cd47187	0.02593304
232	0x3bb0970e	0.005389101
233	0xb8405d8b	-4.5863486e-05
234	0x3cab840c	0.020936988
235	0xbc103dcb	-0.008803795
236	0xbbae2ff2	-0.005315774
237	0x3c8bd408	0.017068878
238	0xbc5d8eaf	-0.013522788
239	0x3b569e09	0.0032748005
240	0xbbcd000c	-0.006256109
241	0x3d1e576a	0.038657583
242	0x3cdf22a5	0.0272382
243	0x393d2472	0.00018038022
244	0xbc25e82b	-0.010126154
245	0x3ce1747f	0.02752137
246	0x3c2c8ad7	0.010531149
247	0xbc8fc99c	-0.01755219
248	0x3bea9a31	0.0071594943
249	0xbc15f5ac	-0.009152811
250	0xbc7eb3b1	-0.015545771
251	0xbc13dc95	-0.009024759
252	0xbca3d77d	-0.020000214
253	0xb9b437fe	-0.00034373993
254	0x3bc7f697	0.006102394
255	0xbb88f29e	-0.004179313

network_body.linear_encoder.seq_layers.0.bias f4 [256]
0	0x3b6b65b8	0.0035918783
1	0xbcbb9d38	-0.022902116
2	0x3c0f0bb3	0.008730817
3	0x3c49bea9	0.012313523
4	0x3c0968f5	0.00838684
5	0x3c8733c3	0.016504174
6	0xbbd01994	-0.0063507054
7	0x3c4ec8da	0.012621129
8	0x3bca2035	0.00616839
9	0xbcb13dd9	-0.021635937
10	0xbc163781	-0.009168507
11	0xbc4d3444	-0.012524668
12	0xbcc5deda	-0.024154115
13	0x3c750126	0.014953887
14	0xbbe9ecff	-0.007138848
15	0xbc616f1c	-0.013759401
16	0x3cc2bd3e	0.023771878
17	0xbca49c16	-0.020093959
18	0x3c834f01	0.016028883
19	0xbc959569	-0.01825972
20	0x3ab47556	0.0013767879
21	0xbc0795cf	-0.008275463
22	0x3b90f941	0.0044242446
23	0xbb91b0a6	-0.004446107
24	0xbbf4e64a	-0.0074737417
25	0xb95dec37	-0.000211642
26	0x3c97e7b5	0.018543104
27	0xbc882f0b	-0.016623994
28	0x3cee68b6	0.029102664
29	0x3cdccb02	0.02695227
30	0xbc97817c	-0.01849436
31	0xbcb3a2cf	-0.02192822
32	0xbc4e70b0	-0.012600109
33	0xbca1de6f	-0.019759385
34	0xbc2bc2d6	-0.010483464
35	0x3cbd31c4	0.02309502
36	0x3caabc5b	0.020841768
37	0x3ce50057	0.027954264
38	0xbc6ab253	-0.014324742
39	0x3cdc2a75	0.026875714
40	0xbc3f4e8f	-0.011676445
41	0x3c3af84f	0.01141174
42	0xbaf17bd7	-0.0018423748
43	0xbcaf17b1	-0.021373602
44	0x3c819c1b	0.015821507
45	0xbba9c602	-0.005181075
46	0x3cb2244e	0.021745827
47	0xbaada592	-0.0013248196
48	0x3b91fad2	0.004454949
49	0xba068c26	-0.0005132578
50	0xbc15b041	-0.0091362605
51	0x3c558df3	0.013034332
52	0xbc0c8f65	-0.00857911
53	0x3ca523b6	0.02015863
54	0xbc5cd7be	-0.013479171
55	0xbc7097b2	-0.0146846045
56	0xbc360c6c	-0.01111136
57	0x3be680a2	0.007034377
58	0xbc54c0f5	-0.012985458
59	0xbb2cde18	-0.0026377495
60	0xbc727f44	-0.01480085
61	0x3cce4f2e	0.02518424
62	0x3c3a1405	0.011357312
63	0x3c072c41	0.008250297
64	0x3b97ff63	0.0046385988
65	0xbc19bb9f	-0.009383111
66	0x3c79d9bf	0.015249669
67	0x3c5ae074	0.013359178
68	0x3c65e791	0.0140322605
69	0xbcb473a0	-0.02202779
70	0x3cc67826	0.024227213
71	0x3c75dca9	0.015006223
72	0xbc549d82	-0.012977006
73	0xbcc8d15a	-0.02451389
74	0xbc07bb97	-0.008284471
75	0x3ca694fc	0.020334713
76	0x3c5ce0c2	0.013481321
77	0x3c27e63c	0.010247763
78	0xbc43de9e	-0.011954932
79	0x3c280459	0.010254943
80	0xbb72d04c	-0.0037050424
81	0xbcab02cd	-0.020875359
82	0xbb89d70d	-0.0042065443
83	0xbc73f332	-0.014889525
84	0x3c760157	0.015014968
85	0x3c9856fc	0.018596165
86	0x3c041fe3	0.008064243
87	0x3cb851c3	0.022499925
88	0xbc3534cd	-0.011059952
89	0x3c604fe1	0.01369092
90	0x3a2c361b	0.00065693416
91	0x3aa7f2ca	0.0012813446
92	0xbbf891ff	-0.0075857635
93	0x3cb45d84	0.022017248
94	0x3bee0d5f	0.0072647776
95	0x3c8dcb41	0.017308833
96	0x3c998a9f	0.018742858
97	0x3cb0b0f3	0.021568751
98	0x3c09ea65	0.0084177
99	0xbc795566	-0.0152181145
100	0xbcc17254	-0.023614086
101	0x3cb06c05	0.021535883
102	0x3b526c50	0.0032108016
103	0xbca122ec	-0.019669972
104	0xbc2780dc	-0.010223594
105	0x3c2ee9e8	0.010675885
106	0x3c9561f7	0.01823519
107	0xbb80e208	-0.003933195
108	0xbc8e5a0a	-0.017376918
109	0x3cb0b7fe	0.02157211
110	0x3c6facd5	0.014628609
111	0x3c30fc9c	0.010802414
112	0x3c23eb17	0.01000478
113	0x3c18e4d0	0.009331897
114	0xbc320ed2	-0.010867791
115	0x3c961ef5	0.018325308
116	0xbc8ac828	-0.016941145
117	0xbb2faabb	-0.0026804644
118	0xbc32f7b5	-0.010923316
119	0x3b70ad4c	0.0036724387
120	0xbc85f409	-0.016351717
121	0x3c99c92a	0.01877268
122	0x3c67fb67	0.01415906
123	0x3bc0faab	0.005889257
124	0x3c256cd7	0.01009675
125	0x3aa1766e	0.001231862
126	0x3cc7400c	0.024322532
127	0xbc9bba4f	-0.019009737
128	0xbcb11b2e	-0.021619406
129	0xbc84d044	-0.01621259
130	0x3c941f4c	0.01808133
131	0x3d1be9f0	0.038064897
132	0x3cb1377f	0.021632908
133	0xbc813511	-0.015772374
134	0x3ccd4afb	0.025060168
135	0xba8e688d	-0.0010864899
136	0x39a68ffb	0.0003176926
137	0xbc621a6c	-0.013800245
138	0x3c458743	0.012056175
139	0x3cd4353a	0.025904287
140	0x3c914e9c	0.01773768
141	0x3ba76166	0.0051080463
142	0x3a88391f	0.0010393
143	0x3cc1e390	0.02366808
144	0x3c717422	0.014737161
145	0x3c509439	0.012730652
146	0x3c8ea6b5	0.017413476
147	0x3cea78ba	0.02862202
148	0xbc626510	-0.0138180405
149	0x3ccb54de	0.024820741
150	0x3cc7cf09	0.024390714
151	0x3c08a7a6	0.008340752
152	0x3c3dafca	0.011577556
153	0x39e4052a	0.00043491396
154	0xbb2fedf2	-0.0026844707
155	0xbc097f7f	-0.008392214
156	0x3c54752a	0.012967387
157	0x3c1a662d	0.009423775
158	0x3bae2d59	0.0053154645
159	0xbbbaff29	-0.005706687
160	0xbc8da5f7	-0.017291052
161	0x3b4d0df5	0.0031288837
162	0xbd07b18a	-0.0331283
163	0x3bad576e	0.0052899634
164	0x3c596dfc	0.013270851
165	0x3c899e6d	0.016799176
166	0xbb28592d	-0.0025687919
167	0x3c941b51	0.018079432
168	0x3c936007	0.017990125
169	0x3a501dfb	0.0007939038
170	0xbbda9829	-0.006670971
171	0x3cbdc1b0	0.023163646
172	0xbc967ec7	-0.018370999
173	0xbc467473	-0.012112725
174	0x3c682a0b	0.01417018
175	0x3cd8e410	0.026475936
176	0x3cc32bf2	0.023824666
177	0x3c63d685	0.013906126
178	0x3bbccd55	0.005761782
179	0x3ccb3d2b	0.02480944
180	0x3c892ded	0.016745532
181	0x3cc89f4d	0.024490023
182	0x3ca8e54f	0.020617155
183	0xbb4c17b6	-0.0031142063
184	0xbcc00e4f	-0.023444323
185	0x3c3b14a3	0.011418494
186	0x3c1976e5	0.009366726
187	0x3baadc31	0.005214237
188	0x3b52f4cd	0.003218937
189	0x3cbcb3f3	0.023035025
190	0x3cb34ffd	0.021888727
191	0x3c168fc1	0.009189547
192	0x3ca2e12a	0.019882757
193	0xbc767258	-0.01504191
194	0xbc2fa8c3	-0.010721388
195	0xbcc5c5b8	-0.024142131
196	0x3c30c5e9	0.010789373
197	0x3cf4012f	0.02978572
198	0xbbf61fbc	-0.0075111073
199	0xbcc2e42c	-0.023790441
200	0x3c67dcca	0.014151761
201	0x3ca2dc55	0.019880453
202	0x3cf1b5e5	0.02950568
203	0xbbf56ae0	-0.007489547
204	0xbb03bcc9	-0.0020101538
205	0x3c002d05	0.0078232335
206	0x3c30f75a	0.010801161
207	0xbcb0f6ff	-0.021602152
208	0xbc5a402f	-0.013320967
209	0x3cbbbd48	0.022917405
210	0x3c3e6379	0.011620396
211	0xbc4fe8f4	-0.012689818
212	0xbc6d06c2	-0.014466943
213	0xbc36aa30	-0.011148974
214	0x3c8b7f77	0.017028553
215	0x3c398db7	0.011325291
216	0xbc6d49b1	-0.014482901
217	0x3c631900	0.013860941
218	0x3c9d2f4e	0.019187596
219	0x3cb5159e	0.022105034
220	0xbc62efea	-0.013851145
221	0xbc04814b	-0.0080874665
222	0x3c82d109	0.015968816
223	0x3c5b8920	0.013399392
224	0xbad1f385	-0.0016018009
225	0x3cb513a9	0.022104101
226	0xbc44d716	-0.012014171
227	0xbc9d60ad	-0.019211138
228	0x3c7528b8	0.014963321
229	0xbc800eac	-0.015631996
230	0x3b94bf02	0.0045393715
231	0xbc065349	-0.008198568
232	0x3b80505f	0.003915831
233	0xbc8448f8	-0.016148075
234	0xbca745c0	-0.020419002
235	0x3b64df91	0.0034923295
236	0xbca3eeb6	-0.020011287
237	0x3c84350b	0.016138574
238	0x3c7af83f	0.015317976
239	0x3c2f178b	0.010686765
240	0x3cee9029	0.029121475
241	0x3c9b493d	0.018955821
242	0x3c92c1a8	0.017914608
243	0xbc0fed26	-0.008784568
244	0x3c3f8723	0.011689934
245	0xbc83684f	-0.01604095
246	0xbc71531f	-0.01472929
247	0x3bae90f6	0.0053273393
248	0x3c048daa	0.008090416
249	0x3ca87285	0.02056242
250	0xbca5a57c	-0.02022051
251	0x3c81a6e0	0.015826643
252	0xbb06d63b	-0.0020574469
253	0x3be807b9	0.0070809987
254	0x39ca45ab	0.0003858035
255	0x3cd160b4	0.025558807

network_body.linear_encoder.seq_layers.0.weight f4 [256, 91]
0	0xbdae6641	-0.08515597
1	0xbaa47002	-0.0012545588
2	0x3db0da18	0.08635348
3	0x3d441e5d	0.04788052
4	0x3d277a7c	0.040888295
5	0x3d80bd1a	0.06286068
6	0xbd8262b5	-0.06366483
7	0xbddedcdd	-0.1088197
8	0xbd52677c	-0.05136822
9	0x3d8f85d5	0.07007948
10	0x3e792fc2	0.24334624
11	0x3e650e9b	0.22368853
12	0xbd40c11f	-0.047059175
13	0x3e3d5a3c	0.18491453
14	0xbd3380bb	-0.04382394
15	0x3e104eda	0.1409258
16	0xbe52bf4d	-0.20580788
17	0x3e3b02da	0.18262807
18	0x3dae07ae	0.084975585
19	0x3d26993e	0.040673487
20	0x3dafbcea	0.085809544
21	0xbe06c333	-0.131604
22	0xbe1776c0	-0.14791393
23	0xbd949d75	-0.07256595
24	0xbc0c08f5	-0.008547057
25	0x3cb1f8f8	0.021725163
26	0xbd8ae093	-0.067811154
27	0x3d66feca	0.05639533
28	0x3dc4eddf	0.09615683
29	0xbd96e93e	-0.07368706
30	0xbe2e4dd5	-0.17021878
31	0x3df9133e	0.12161873
32	0xbcf336a6	-0.029689144
33	0xbce9919c	-0.028511815
34	0x3d517180	0.051133633
35	0xbdf1435e	-0.117804274
36	0x3d8ee3f3	0.069770716
37	0xbda91c33	-0.08257332
38	0xbe1d1aa9	-0.15342201
39	0xbcdaf0c4	-0.026726134
40	0xbea45d14	-0.32102263
41	0x3c740b4c	0.0148952715
42	0x3d62291d	0.05521499
43	0xbd14dfee	-0.03634637
44	0xbe1be204	-0.15222937
45	0xbd9f9182	-0.07791425
46	0xbd34ff4e	-0.04418879
47	0x3d57ebf8	0.05271527
48	0x3cb4c7e9	0.02206798
49	0xbca5bd19	-0.02023177
50	0xbe59b9f3	-0.2126234
51	0xbb233c65	-0.0024907824
52	0xbdd2c121	-0.10290743
53	0xbdd27246	-0.10275702
54	0x3c9770fd	0.018486494
55	0xbd063ca3	-0.03277267
56	0x3c2c910d	0.01053263
57	0x3d94e512	0.07270254
58	0x3dfe4d30	0.12417066
59	0x3e3a1e32	0.18175581
60	0xbe310ace	-0.17289278
61	0x3dc2068c	0.09473905
62	0xbded7c48	-0.115959704
63	0x3e3f294e	0.186681
64	0x3bb71e3d	0.0055883215
65	0xbd3aea1b	-0.045633417
66	0xbc2fd46e	-0.0107317995
67	0x3cf87dc4	0.030333407
68	0x3d5fdd34	0.054654315
69	0xbda341c3	-0.079715274
70	0xbe0e5129	-0.13898148
71	0xbd570d30	-0.05250281
72	0x3e38e5c6	0.18056402
73	0x3cfe87bb	0.03107058
74	0x3e26cb54	0.16288501
75	0x3e4b8825	0.19876154
76	0xbdea069f	-0.11427044
77	0xbcb59b92	-0.022168908
78	0x3e2b5a2d	0.16733618
79	0x3c201635	0.00977092
80	0xbd28dc03	-0.041225445
81	0x3df384a1	0.11890531
82	0x3d920c6d	0.07131276
83	0xbe781be4	-0.2422939
84	0x3d546172	0.051850744
85	0x3e133a9e	0.1437783
86	0x3e319d59	0.1734518
87	0xbd852091	-0.06500352
88	0xbd5b76db	-0.053580146
89	0xbd5606b0	-0.05225247
90	0x3dd66100	0.1046772
91	0xbe5985d8	-0.21242464
92	0xbe24a9df	-0.16080426
93	0xbcefcc6b	-0.029272279
94	0xbe04102b	-0.12896793
95	0xbdffbae0	-0.124868155
96	0xbdb1a512	-0.08674063
97	0xbe215169	-0.15753712
98	0x3e0a24d3	0.1349061
99	0x3e296857	0.16543709
100	0xbe28a080	-0.16467476
101	0xbc387672	-0.011258708
102	0xbd391a18	-0.0451909
103	0xbe432233	-0.19056015
104	0x3db08085	0.08618263
105	0x3e266cc7	0.16252433
106	0x3cbdae9b	0.023154547
107	0xbd744199	-0.05963287
108	0x3c2e49ba	0.010637695
109	0x3db9df73	0.09075823
110	0x3d57325d	0.052538265
111	0x3e6ad227	0.2293173
112	0xbc75f53a	-0.01501208
113	0xbde7b24c	-0.11313304
114	0x3cfc5767	0.030803395
115	0x3e3b7d22	0.18309453
116	0xbbcebdf4	-0.0063092653
117	0xbcab77da	-0.020931173
118	0x3d4a4f09	0.04939178
119	0xbb2e4ede	-0.0026597301
120	0xbe3e3869	-0.18576206
121	0xbdb6d038	-0.08926433
122	0xbe0f8166	-0.14014205
123	0xbd395adb	-0.045252662
124	0x3d3e3688	0.046438724
125	0xbdab48b3	-0.08363476
126	0xbda1c105	-0.07898144
127	0xbe053266	-0.13007507
128	0xbd9e5039	-0.07730145
129	0x3d8017d4	0.06254545
130	0x3e14ccfb	0.14531319
131	0xbd1aaaa4	-0.03776039
132	0x3d9d3da1	0.076777704
133	0xbd0a7c37	-0.033809867
134	0x3da9fcf8	0.08300203
135	0x3ce90139	0.028442966
136	0x3c80f629	0.015742378
137	0x3c9754d0	0.018473059
138	0xbc8464f0	-0.016161412
139	0x3d14129d	0.036150564
140	0x3d7beccf	0.061505135
141	0xbcae9c4c	-0.021314763
142	0x3d14cf00	0.036330223
143	0x3d3d6a19	0.04624376
144	0x3dee68fc	0.11641118
145	0x3d433875	0.047661263
146	0x3d90de2e	0.070736274
147	0xba5fb3c9	-0.0008533565
148	0xbd2c3023	-0.042038094
149	0x3e2c1c5c	0.16807693
150	0x3d967f2c	0.07348475
151	0xba41a1a3	-0.00073864515
152	0xbda30925	-0.079607286
153	0xbc6e6331	-0.014550016
154	0x3cdd4933	0.027012443
155	0xbdf2e4ac	-0.11860022
156	0x3e8625f5	0.26200834
157	0x3e0ce64b	0.13759725
158	0x3bea2fb5	0.0071468004
159	0x3e17e892	0.14834812
160	0x3d92e514	0.071725994
161	0xbc8e7687	-0.017390503
162	0x3ca31396	0.0199068
163	0xbd8d5fae	-0.06903015
164	0xbd9e2712	-0.07722296
165	0x3d41492b	0.04718892
166	0xbcbebbef	-0.023282973
167	0xbdd41c7d	-0.10356996
168	0xbc1bef61	-0.009517522
169	0xbe32d990	-0.17465806
170	0x3daadd92	0.083430424
171	0x3d403057	0.0469211
172	0xbd496178	-0.04916522
173	0xbe946c9f	-0.2898912
174	0xbe7f77a0	-0.24947977
175	0xbd35b568	-0.044362456
176	0xbd4fe077	-0.050751176
177	0xbe278e16	-0.16362795
178	0xbb8c98d4	-0.0042906795
179	0xbe539288	-0.20661366
180	0xbb654843	-0.0034985698
181	0xba68922f	-0.0008871881
182	0xbc412904	-0.011789564
183	0x3e1ef699	0.15523757
184	0xbe9ef046	-0.3104269
185	0xbcc9b2d6	-0.024621408
186	0x3e544cf9	0.20732488
187	0x38697213	5.565777e-05
188	0x3e156b6b	0.14591758
189	0x3c4d8896	0.012544772
190	0x3d9e1974	0.077196985
191	0x3c0c1d9d	0.008551982
192	0x3e322aca	0.17399135
193	0xbcf22836	-0.02956019
194	0x3d1d74ed	0.038441587
195	0x3e2347e3	0.15945391
196	0x3d5bce8d	0.05366378
197	0x3cdf00cd	0.027222062
198	0xbd91f96b	-0.07127651
199	0x3d7b8361	0.06140459
200	0xbcca85fd	-0.024722094
201	0xbe3de6c1	-0.18545057
202	0xba10d31c	-0.0005524622
203	0xbd5d91d7	-0.05409416
204	0x3e2e89dc	0.17044777
205	0xbe349a7b	-0.17637055
206	0xbdffe2bd	-0.12494419
207	0x3c8bdafb	0.017072191
208	0xbdc1aaa7	-0.094563775
209	0x3cb62b63	0.022237485
210	0x3e2d2fde	0.16912791
211	0xbe5368cb	-0.20645444
212	0xbdceaca4	-0.10091522
213	0x3dc77810	0.09739697
214	0x3dfe13e0	0.124061346
215	0xbdc3a7ea	-0.095535114
216	0x3e12a7b2	0.14321783
217	0xbe3233a5	-0.17402513
218	0x3cdc0156	0.026856106
219	0xbd86ea20	-0.065876245
220	0x3e60a003	0.2193604
221	0xb851a7e8	-4.9985858e-05
222	0xbe008073	-0.12549
223	0xbe4bdab0	-0.19907641
224	0x3e032965	0.1280876
225	0x3d879f6d	0.06622205
226	0xbddcfd66	-0.107905194
227	0xbe08117f	-0.13287924
228	0x3daa94e5	0.08329181
229	0xbb940028	-0.00451662
230	0x3c89e2a4	0.016831703
231	0x3d52660b	0.051366847
232	0xbdb1f29c	-0.08688852
233	0x3e028987	0.12747775
234	0xbdd68825	-0.10475186
235	0x3e004c34	0.12529069
236	0xbd357bf4	-0.044307664
237	0xbc0f83a4	-0.008759413
238	0x3c62e79c	0.013849165
239	0x3de193d1	0.11014522
240	0x3c8d1760	0.01722306
241	0x3c6e2438	0.014535002
242	0xbe3e2e1e	-0.1857228
243	0x3c8d3686	0.017237913
244	0xbc4921dd	-0.01227614
245	0x3e49c993	0.197058
246	0xbc830f44	-0.01599849
247	0x3cedd362	0.02903146
248	0x3d843192	0.06454767
249	0xbe11238a	-0.14173713
250	0x3e235203	0.15949254
251	0xbce48882	-0.027897123
252	0x3d973ef1	0.07385052
253	0xbddcb19b	-0.10776063
254	0x3dd8057b	0.1054792
255	0xbd19d2f3	-0.037554692

network_body.linear_encoder.seq_layers.2.bias f4 [256]
0	0x3cbee455	0.023302237
1	0xbb285b46	-0.0025689169
2	0xbc033e88	-0.008010514
3	0x3cc0d6c7	0.023539914
4	0x3cb498e4	0.02204556
5	0x3c3b4f02	0.011432411
6	0x3c9c364d	0.019068861
7	0xbca713b2	-0.020395134
8	0xbbe1e938	-0.006894257
9	0x3c9ab005	0.01888276
10	0xbca14b04	-0.01968909
11	0x3c00330c	0.0078246705
12	0x3c96a58e	0.01838949
13	0x3c8eb917	0.017422242
14	0xbca6f33c	-0.020379655
15	0xbc8a7e8b	-0.016906044
16	0x3c831f1f	0.01600605
17	0x3c941498	0.018076226
18	0x3c676eeb	0.014125566
19	0x3ba281fd	0.0049593435
20	0xbcbad636	-0.022807222
21	0xbccee257	-0.025254412
22	0x3c9b027b	0.018922081
23	0x3b07bfd2	0.00207137
24	0x3c11a425	0.008889233
25	0xbc84535c	-0.01615303
26	0x3c6f06fd	0.0145890685
27	0x3b8d3fc7	0.0043105814
28	0x3c9f9a4f	0.01948276
29	0xbca820da	-0.020523477
30	0x3b95f467	0.004576254
31	0x3ca9e6c8	0.020739928
32	0x3c9f8903	0.019474512
33	0xbc8c505f	-0.017128168
34	0xbbe220ef	-0.0069008986
35	0x3bd378f5	0.006453628
36	0x3c9eb362	0.019372646
37	0xbbd006cf	-0.006348468
38	0x3cc250a9	0.023720102
39	0xbb68f655	-0.0035547216
40	0xbc85b605	-0.016322145
41	0xbc237c53	-0.009978372
42	0xbc7804fa	-0.015137905
43	0x3cb02747	0.021503104
44	0xbcc7ab8c	-0.024373792
45	0x3bc78e5f	0.00608997
46	0x3ca8c282	0.020600561
47	0x3b373ff8	0.0027961712
48	0x3c87db71	0.01658413
49	0xbc947be9	-0.018125491
50	0x3c97b8a2	0.018520657
51	0xbccfdb30	-0.025373071
52	0xbc29ae28	-0.0103564635
53	0x3c864905	0.01639224
54	0x3c4f5a0f	0.012655749
55	0x3c8d0056	0.017212074
56	0x3b03e8ed	0.0020127848
57	0x3cb6885d	0.02228182
58	0xbc22d2ca	-0.009937951
59	0x3c71304d	0.014720988
60	0x3cb3c3ea	0.021944005
61	0x3cb5a379	0.022172676
62	0xbb3f92be	-0.0029231752
63	0x3c9d10d3	0.019173061
64	0x3c9e04d2	0.019289408
65	0xbcb3c057	-0.0219423
66	0x3c258e1c	0.010104682
67	0xbc5d5c34	-0.0135107525
68	0xbc8b3fea	-0.01699825
69	0x3c6e5d70	0.014548644
70	0xbbf7a968	-0.0075580366
71	0xbc91c1e6	-0.017792653
72	0xbc22889a	-0.009920264
73	0x3ca0aebf	0.019614575
74	0xbcac0f5f	-0.021003423
75	0xbba2683e	-0.0049562743
76	0xbc44f784	-0.012021903
77	0x3c685d06	0.014182335
78	0xbc3a6c11	-0.011378304
79	0x3c4b3044	0.012401644
80	0x3caddc36	0.021223169
81	0xbcb052c7	-0.021523846
82	0xbc6118b9	-0.0137388045
83	0xbc98d041	-0.01865399
84	0xbc9d0108	-0.01916553
85	0x3c7d8bba	0.015475208
86	0xba6a6ef9	-0.0008942928
87	0xbbecba69	-0.0072243703
88	0xbb16935b	-0.0022976014
89	0xbcc35450	-0.023843914
90	0x3caa32a3	0.020776099
91	0xbc0f0b3e	-0.008730708
92	0x3c613c87	0.013747341
93	0xbbbeff4d	-0.005828774
94	0xbc0abae0	-0.008467406
95	0xbb47cee3	-0.0030488304
96	0x3b4c618d	0.0031186074
97	0xbca4a3fa	-0.020097721
98	0xbad1cadf	-0.0016005895
99	0x3cc1684b	0.023609301
100	0xbb85c20c	-0.00408197
101	0x3c897f64	0.016784377
102	0xbc473bb2	-0.012160229
103	0x3c7c80f5	0.015411605
104	0x3c2c7eef	0.01052831
105	0xbca139f6	-0.019680958
106	0xbabfcf3a	-0.0014633902
107	0xbcaf72ee	-0.021417107
108	0xbc780ac6	-0.015139287
109	0x3c9e8d27	0.019354416
110	0x3c912d31	0.017721744
111	0x3c817675	0.015803555
112	0x3ca78546	0.020449292
113	0xbca7552f	-0.02042636
114	0x3c884547	0.016634597
115	0xbc915f5e	-0.01774567
116	0xbc189f14	-0.009315271
117	0x3c899273	0.016793465
118	0x3b0d779a	0.002158618
119	0xbbb395eb	-0.005480518
120	0x3bfa9df8	0.007648226
121	0x3bf99236	0.0076163067
122	0x3c8cd7b3	0.017192697
123	0x3c8bee21	0.017081322
124	0x3ca3da10	0.020001441
125	0xbca59257	-0.020211382
126	0x3c964212	0.018342052
127	0xbc66dc6d	-0.01409064
128	0xbcb310fb	-0.021858683
129	0x3c8812b5	0.016610483
130	0xbc972fc0	-0.018455386
131	0x3c8173b0	0.015802234
132	0xbc83d78d	-0.016093994
133	0xbbe5a48c	-0.007008141
134	0xbc040512	-0.0080578495
135	0x3c85a2e0	0.016313016
136	0xbacea86c	-0.0015766746
137	0x3ca578e4	0.020199247
138	0x3c95fc52	0.018308792
139	0x3c71b8ec	0.0147535615
140	0x3c7bc740	0.015367329
141	0xbc2c8412	-0.010529535
142	0xbab1dca6	-0.0013569787
143	0xbc93e5b4	-0.018053867
144	0x3c9aafa4	0.01888258
145	0x3c5c0abd	0.013430295
146	0x3bb714a7	0.0055871787
147	0x3c1e6b1e	0.009669093
148	0x3c93d80a	0.018047351
149	0x3ca097ca	0.019603629
150	0x3c08149b	0.008305694
151	0x3cadf979	0.021237122
152	0xbb9ca639	-0.0047805575
153	0xbc4e840e	-0.0126047265
154	0x3cb70d66	0.022345256
155	0x3c2c16f4	0.010503519
156	0x3cbacb7d	0.022802109
157	0x3c5a9459	0.013341033
158	0x3cbf00f3	0.023315882
159	0xbc9453c8	-0.018106356
160	0xbcae0828	-0.021244124
161	0x3c677587	0.014127142
162	0x3c9424fc	0.018084042
163	0x3c41e166	0.011833524
164	0x3c91d997	0.01780395
165	0x3c63d4ed	0.013905746
166	0x3c8ce558	0.017199203
167	0x3ca8dd72	0.020613406
168	0x3c9a3f33	0.018828964
169	0x3c6fffd9	0.014648401
170	0x3cb6e445	0.022325644
171	0x3c21e7c8	0.009881921
172	0x3c95c978	0.018284544
173	0x395229a5	0.00020042674
174	0x3c89d498	0.016825005
175	0x3c079583	0.008275392
176	0x3c9734b6	0.018457752
177	0x3c860030	0.016357511
178	0xbc9c32d4	-0.019067205
179	0xbc8bc9cc	-0.017063998
180	0x3c4ebbb6	0.012617996
181	0xbcaa4e81	-0.020789387
182	0x3c49c867	0.012315846
183	0x3c1cc255	0.009567817
184	0xbb275eab	-0.0025538604
185	0xbc8af3c2	-0.016961936
186	0xbc4d1e5d	-0.012519446
187	0xbca4eae5	-0.020131538
188	0x3ae41519	0.0017401307
189	0x3c3c4ecd	0.011493397
190	0x3c67ccb5	0.014147927
191	0x3c9efbdc	0.019407205
192	0x3c025230	0.007954165
193	0xbc85f6ef	-0.016353099
194	0x3aa544c1	0.0012608991
195	0xbb80f7bb	-0.003935782
196	0xbc1f43ac	-0.009720724
197	0xbc987e37	-0.018614871
198	0x3acd01b9	0.0015640772
199	0xbc80180d	-0.015636468
200	0x3c2b4ebc	0.010455783
201	0xbc7c1a02	-0.01538706
202	0xbc9e51b7	-0.019326074
203	0xbc6cc2f0	-0.014450774
204	0xbca13ee7	-0.019683314
205	0x3c8a71cf	0.016899971
206	0x3b29e5ee	0.0025924402
207	0xbc909cf0	-0.017652959
208	0x3c8b0b92	0.01697329
209	0xbcae2819	-0.021259354
210	0x3c1bb177	0.00950276
211	0x3c8ba193	0.017044818
212	0xbada2396	-0.0016642686
213	0x3c749b90	0.014929667
214	0xbcb73670	-0.022364825
215	0x3b5e5a00	0.0033928156
216	0xbc8123b2	-0.015764091
217	0x3c3a7cc7	0.011382288
218	0xbb98a3b5	-0.0046581873
219	0x3c84c660	0.016207874
220	0x3c835aca	0.016034503
221	0x3c7afd0f	0.015319123
222	0x3c1e3986	0.009657269
223	0x3c88604a	0.016647477
224	0x3c21e546	0.009881323
225	0xbc56aa97	-0.013102195
226	0xbc8c6b2c	-0.017140947
227	0x3c94bde8	0.01815696
228	0xbc73a033	-0.014869737
229	0xbcb05f25	-0.021529743
230	0x3c825dd1	0.015913876
231	0xbc829b81	-0.01594329
232	0xbafdc0d1	-0.0019359832
233	0x3ca03396	0.019555848
234	0xbb2e623e	-0.002660885
235	0x3c8b79f9	0.017025935
236	0xbc9f1a19	-0.019421624
237	0xbc407fc6	-0.011749214
238	0x3af7c889	0.0018904369
239	0x3c96d8cd	0.018413926
240	0x3c570187	0.013122923
241	0xbc261ee2	-0.010139199
242	0xbc0f8ced	-0.008761627
243	0xbca10d25	-0.019659588
244	0xbc880489	-0.016603725
245	0x3ca6d914	0.020367183
246	0x3c716dcf	0.014735653
247	0xbc25c8f0	-0.010118708
248	0x3c652c28	0.013987578
249	0xbcb62d7d	-0.022238487
250	0xbcaad1fa	-0.020852078
251	0x3ca4216b	0.020035466
252	0x3c8c6564	0.01713819
253	0x3cb99e49	0.022658484
254	0x3cb30c4c	0.02185645
255	0xbcbba4fa	-0.022905815

network_body.linear_encoder.seq_layers.2.weight f4 [256, 256]
0	0xbd9bfb01	-0.076162346
1	0xbd30c83d	-0.043159712
2	0x3dff4d91	0.124659665
3	0x3aac69bf	0.0013154073
4	0xbc2794e2	-0.0102283675
5	0xbc77c9d0	-0.015123799
6	0xbd09b6ba	-0.033621527
7	0xbd93fd79	-0.072260804
8	0x3d205a5c	0.039148673
9	0xbc902dc8	-0.017599955
10	0x3d939d35	0.07207719
11	0xbe070f05	-0.13189323
12	0x3daabbf0	0.083366275
13	0xbc8c492d	-0.017124737
14	0xbdffc17d	-0.12488077
15	0x3c9764e0	0.018480718
16	0x3daf3dfd	0.08556745
17	0xbd606f04	-0.054793373
18	0xbc301f76	-0.010749688
19	0x3c8f41c5	0.017487416
20	0x3b581e3f	0.0032977012
21	0xbda701fa	-0.08154674
22	0xbd4d7989	-0.050164733
23	0xb99d095f	-0.00029952356
24	0xbd9f5023	-0.07778957
25	0xbd8a16ab	-0.06742605
26	0x3c671c7c	0.014105912
27	0x3d1e7a67	0.03869095
28	0xbdd673b0	-0.104712844
29	0x3cda7613	0.02666763
30	0x3d4b394f	0.0496152
31	0xbcf02800	-0.029315948
32	0xbc9baed8	-0.01900427
33	0xbd9e28aa	-0.077226
34	0x3e015c87	0.12632953
35	0x3d42881e	0.047493093
36	0x3dc9450a	0.09827621
37	0x3da81fbe	0.08209179
38	0xbc76aa76	-0.0150552895
39	0xbdb8cca6	-0.090234086
40	0xbd90c83b	-0.07069441
41	0xbd691a12	-0.05690963
42	0xbb51da36	-0.0032020933
43	0x3db6be1f	0.089229815
44	0xbc961263	-0.018319314
45	0x3c19cbf1	0.009387002
46	0x3d177527	0.03697696
47	0x3d04dc19	0.032436464
48	0xbc268b07	-0.010164983
49	0x3e78cceb	0.2429692
50	0xbde35125	-0.110994615
51	0x3de130ff	0.109956734
52	0x3c71165c	0.014714804
53	0x3d7bcca6	0.061474465
54	0xbd4538ed	-0.04814999
55	0xbd36e688	-0.044653445
56	0xbe0c7951	-0.13718154
57	0x3d342a85	0.043985862
58	0x3da98fec	0.08279404
59	0xbd8e442a	-0.06946595
60	0x3ce0ee22	0.0274573
61	0x3dc37aea	0.09544928
62	0x3cc6154a	0.024180073
63	0xbd86e64a	-0.06586893
64	0xb9e370fd	-0.00043380997
65	0xbd9b9245	-0.07596258
66	0x3db84fe3	0.08999612
67	0x3d856b87	0.0651465
68	0x3e19ec41	0.1503153
69	0xbd5d7bce	-0.054073147
70	0x3c24d1e1	0.010059805
71	0xbce0a133	-0.027420616
72	0x3d183624	0.037161008
73	0x3c8bf96c	0.017086707
74	0x3dd9a495	0.10627095
75	0xbc73af2e	-0.014873309
76	0x3cc6ea84	0.024281748
77	0xbcc12c90	-0.02358082
78	0x3ceedae0	0.029157102
79	0xbcc64753	-0.024203932
80	0xbd698bc0	-0.05701804
81	0x3d175ae6	0.036951922
82	0xbafea1f3	-0.0019426927
83	0x3d732056	0.05935701
84	0xbb261dfe	-0.0025347467
85	0x3d0b3570	0.03398651
86	0xbcced023	-0.025245732
87	0x3cf45cc7	0.029829396
88	0xbd8ba0c4	-0.06817773
89	0x3e25261f	0.16127823
90	0xbd4c1524	-0.04982485
91	0x3d068a58	0.03284678
92	0xbdc9b3fe	-0.09848784
93	0xbdbb300e	-0.09140025
94	0xbc76aec8	-0.01505632
95	0x3c8e441f	0.017366467
96	0xbd6aa05c	-0.057281837
97	0x3cfe7812	0.031063113
98	0xbd5127aa	-0.051063217
99	0x3c3f8948	0.011690445
100	0xbd9e459b	-0.0772812
101	0x3cbc0108	0.02294971
102	0x3d69e345	0.057101507
103	0xbe36cb22	-0.17850927
104	0xbd0a496e	-0.033761434
105	0xbbc6f035	-0.0060711154
106	0xbd2ae664	-0.041723624
107	0xb64b869e	-3.0327715e-06
108	0x3d0ecb00	0.034861565
109	0x3c859274	0.016305186
110	0xbd91a781	-0.07112027
111	0x3df0c713	0.117567204
112	0x3d87c4d7	0.06629341
113	0xbc87423c	-0.016511075
114	0xbd25a0bb	-0.040436488
115	0x3c5e1be1	0.013556452
116	0x3dc216cb	0.09477004
117	0x3d973f2c	0.07385096
118	0x3d9f411a	0.07776089
119	0x3c9971a0	0.018730938
120	0xbdba9709	-0.09110839
121	0x3cbd7b59	0.023130106
122	0x3d3146f8	0.04328057
123	0x3d47af66	0.048751257
124	0x3cdff9df	0.027340828
125	0xbd0057b9	-0.03133366
126	0xbdf0c0b8	-0.11755508
127	0x3d0d627e	0.034517758
128	0x3bd16545	0.006390246
129	0xbdde2fbe	-0.1084895
130	0xbcc69764	-0.02424211
131	0x3db21cbb	0.08696886
132	0xbd8b8ebb	-0.06814333
133	0xbd4adb26	-0.049525402
134	0x3dc51abb	0.09624239
135	0xbb6aceaa	-0.0035828748
136	0xbbae341f	-0.005316272
137	0x3dbc85aa	0.09205182
138	0xbc071583	-0.008244875
139	0x3df22df6	0.118251726
140	0xbd314876	-0.043281995
141	0xbdee7404	-0.11643222
142	0x3ceaa3e7	0.028642608
143	0x3dd5cdf7	0.10439675
144	0xbd34e392	-0.04416234
145	0x3da8b77b	0.08238121
146	0xbc449cab	-0.012000243
147	0x3db0702a	0.086151436
148	0x3dae7779	0.08518881
149	0xbd1a1cf6	-0.037625276
150	0xbc37080d	-0.011171353
151	0x3c1a7b80	0.009428859
152	0xbcaabfe8	-0.020843461
153	0xbdde4b9f	-0.10854267
154	0xbdc67f21	-0.09692217
155	0xbe0cc79b	-0.13748018
156	0x3d2ef92b	0.042718094
157	0x3d8f655a	0.07001753
158	0x3d840ab4	0.06447354
159	0xbd9a7bee	-0.07543169
160	0xbd8551a7	-0.065097146
161	0xbcd4678f	-0.025928287
162	0xbca2e35e	-0.019883808
163	0xbe37e574	-0.17958623
164	0x3d940c63	0.07228925
165	0x3c643e0c	0.013930809
166	0xbd779512	-0.0604449
167	0xbcf75399	-0.03019123
168	0xbcab1588	-0.02088429
169	0xbcfcd12d	-0.030861462
170	0x3c3ba13a	0.011452014
171	0x3e116bfb	0.14201348
172	0xbcb7c26d	-0.022431577
173	0xbd8d49bc	-0.06898829
174	0xbd30ce27	-0.043165352
175	0x3de690ff	0.112581246
176	0xbc873419	-0.016504334
177	0xbd820d1e	-0.06350158
178	0xbc730f1a	-0.014835143
179	0x3dc0d202	0.09415056
180	0x3c407820	0.01174739
181	0x3db8d5ca	0.09025152
182	0xbc4b6ab3	-0.012415576
183	0xbe141955	-0.14462788
184	0xbd80dc00	-0.06291962
185	0xbdb0cace	-0.08632432
186	0xbbe21f15	-0.006900678
187	0xbe0494e9	-0.1294743
188	0x3c81e127	0.015854431
189	0xbd54bdf6	-0.051938973
190	0xbc356a53	-0.011072713
191	0xbdb0ff75	-0.086424746
192	0xbd00e663	-0.031469714
193	0xbd7f792f	-0.06237143
194	0xbd2754d5	-0.040852387
195	0xbe0b1814	-0.13583404
196	0xbdcbb417	-0.09946459
197	0x3d3b0ddb	0.04566751
198	0x3e3a20df	0.18176602
199	0x3caafee6	0.020873498
200	0xbd009bc0	-0.031398535
201	0x3d1bc410	0.038028777
202	0x3e0d6dc2	0.138114
203	0xbdbcfb25	-0.092275895
204	0x3d3f3857	0.04668459
205	0xbdb5d5aa	-0.08878644
206	0xbce99e86	-0.028517973
207	0xbb9590fb	-0.004564402
208	0x3c627493	0.013821739
209	0xbdbd3113	-0.09237876
210	0xbbfa79b6	-0.0076439036
211	0x3d9facab	0.07796606
212	0xbe295a5a	-0.16538373
213	0xbb8d2bf1	-0.0043082167
214	0x3d869201	0.06570817
215	0x3c7080f9	0.014679187
216	0xbd7b4115	-0.061341364
217	0x3d1a7c78	0.03771636
218	0xbcecd62b	-0.028910717
219	0x3a41a56c	0.00073870155
220	0x3d6028de	0.054726474
221	0x3d8b208e	0.06793319
222	0xbd8b0417	-0.067878895
223	0xbd94c826	-0.07264738
224	0xbb81d5d5	-0.0039622583
225	0xbced0ee5	-0.028937766
226	0x3cde50d9	0.02713816
227	0xbc865102	-0.01639605
228	0x3d8583d3	0.06519284
229	0xbc3c85cd	-0.01150651
230	0x3a4fbc96	0.0007924525
231	0xbd3d6320	-0.04623711
232	0x3da1337d	0.07871149
233	0xbdd9533e	-0.1061158
234	0xbcd8a625	-0.026446411
235	0xbe3811e7	-0.17975579
236	0xbda6fd8d	-0.0815383
237	0xbd701c54	-0.058620766
238	0x3d5bb877	0.053642716
239	0x3d84b935	0.06480638
240	0x3d489e24	0.04897894
241	0xbd760eea	-0.060072817
242	0xbceb5c75	-0.02873061
243	0xbd02ec4b	-0.031963628
244	0x3dd87440	0.10569048
245	0xbdb178f3	-0.08665647
246	0x3d050d70	0.032483518
247	0x3ddf6bef	0.109092586
248	0xbd77f024	-0.06053175
249	0x3d82b0d4	0.063813835
250	0x3d42d97b	0.047570687
251	0x3cdaa214	0.026688613
252	0xbd80ff58	-0.06298703
253	0x3bfdec3e	0.0077491095
254	0xbcfc0d18	-0.030767962
255	0x3d6a286a	0.057167448

network_body.vector_processors.0.normalizer.running_mean f4 [91]
0	0x3f7ffd57	0.9999594
1	0x00000000	0.0
2	0x00000000	0.0
3	0x00000000	0.0
4	0x3e3d411a	0.18481866
5	0x3f751765	0.9573882
6	0x3bba2c9d	0.005681588
7	0x00000000	0.0
8	0x3d1719af	0.03688973
9	0x3ec5f380	0.38662338
10	0x3f7f308c	0.9968345
11	0x3aff531f	0.0019479728
12	0x00000000	0.0
13	0x3a8f9ec0	0.0010957345
14	0x3ec09df6	0.37620515
15	0x3f71a462	0.94391453
16	0x39aa376a	0.00032466213
17	0x00000000	0.0
18	0x3d643ad1	0.055720154
19	0x3e6941bc	0.22778982
20	0x3f740ac3	0.9532892
21	0x3b94f07f	0.004545271
22	0x00000000	0.0
23	0x3d2c8b2f	0.042124923
24	0x3eca8a06	0.3955843
25	0x3f33be4e	0.70212257
26	0x3b223cce	0.002475548
27	0x00000000	0.0
28	0x3e973997	0.29536125
29	0x3f0e462c	0.55575824
30	0x3f3259ed	0.69668466
31	0x382a3769	4.0582763e-05
32	0x00000000	0.0
33	0x3e9b4189	0.30323437
34	0x3ecca6a6	0.39970893
35	0x3f2028ea	0.6256243
36	0x3ad4c546	0.0016233108
37	0x00000000	0.0
38	0x3ebed424	0.37271225
39	0x3f20a6b8	0.6275439
40	0x3f39e229	0.7261072
41	0x3b7caa3e	0.003855362
42	0x00000000	0.0
43	0x3e8a3d12	0.26999718
44	0x3f10fe60	0.56638145
45	0x3f7fe810	0.99963474
46	0x00000000	0.0
47	0x00000000	0.0
48	0x39aa3769	0.0003246621
49	0x3e0f54da	0.13997212
50	0x3f7eeb60	0.99577904
51	0x3aea0c2f	0.0017856414
52	0x00000000	0.0
53	0x3b1ceb13	0.0023943826
54	0x3ed37316	0.4129874
55	0x3f7755d7	0.96615356
56	0x3b1a423c	0.0023538014
57	0x00000000	0.0
58	0x3d00d36f	0.03145164
59	0x3eda06ef	0.42583415
60	0x3f7308c5	0.94935256
61	0x3d260f8d	0.040542174
62	0x00000000	0.0
63	0x3c24e5aa	0.010064522
64	0x3eed6fe8	0.4637444
65	0x3f320776	0.69542634
66	0x3e8b4c54	0.2720667
67	0x3f1a7b02	0.60343945
68	0x3a9c1951	0.00119094
69	0xbd08588b	-0.033287566
70	0x3b9851d4	0.0046484265
71	0x3f7f82b8	0.99808836
72	0xbd87c480	-0.06629276
73	0xbb437caf	-0.0029828956
74	0x3f7e2858	0.9928031
75	0xbd816584	-0.06318191
76	0xbb8b1759	-0.0042447266
77	0x3f5ae338	0.8550296
78	0x42293167	42.298244
79	0x3f051d4e	0.5199784
80	0x3fdc26bf	1.7199324
81	0x4288d165	68.40897
82	0x3f0c3759	0.54771954
83	0xc18a4aa9	-17.286455
84	0x3a1167a0	0.00055467524
85	0xbb4852cc	-0.003056693
86	0x3b0fc763	0.0021938912
87	0x3f4d8780	0.8028488
88	0x3f60600c	0.87646556
89	0x3f765934	0.96229863
90	0x3f6dcf00	0.9289398
