Assets/ML-Agents/mla-1.0.6/results/carchase02/CarAgent/CarAgent-99962.onnx (onnx, 362126 bytes, 9 tensors)

53 f4 [91]
0.24933873 0.021212557 0.011403256 0.24832745 0.20341979 0.23944767 0.09832845 0.022802027
0.21930227 0.14259206 0.36723024 0.09807871 0.021678612 0.35730642 0.22737963 0.29101565
0.011833626 0.008367896 0.29073602 0.23647277 0.31691614 0.096056715 0.01303986 0.30498913
0.19419532 0.29155988 0.08309255 0.017607536 0.28115106 0.1793753 0.25822008 0.013785399
0.010489575 0.2577382 0.22175431 0.2846067 0.085720964 0.0109559605 0.2734363 0.1656914
0.26573282 0.10156477 0.014833647 0.24694124 0.15000768 0.31453297 0.018166449 0.0104895625
0.31400064 0.27075687 0.3828587 0.084388085 0.015166929 0.37597358 0.2248314 0.320124
0.09682013 0.010489603 0.30723715 0.1853712 0.48016 0.22178541 0.0394737 0.46089634
0.25259903 0.40451294 0.37531435 0.2049244 0.039559927 0.18391514 0.15016457 0.16092129
0.3084783 0.08857107 0.19533555 0.76229507 1.879175 1.66506 0.13382839 0.003564906
0.006292721 45.796642 1.5452223 93.6566 0.11123611 0.1269475 0.38195598 0.36699867
0.27939227 0.30673575 0.35972786
00000000: a752 7f3e f5c5 ad3c b9d4 3a3c 8d49 7e3e
00000010: 474d 503e c531 753e 6d60 c93d 51cb ba3c
00000020: c690 603e a703 123e 9a05 bc3e 7edd c83d
00000030: 5897 b13c def0 b63e 35d6 683e 0100 953e
00000040: d3e1 413c 8019 093c 5adb 943e eb25 723e
00000050: d542 a23e 62b9 c43d 23a5 553c 8927 9c3e
00000060: 23db 463e 5647 953e 6d2c aa3d ae3d 903c
00000070: 08f3 8f3e 29ae 373e 6c35 843e 27dc 613c
00000080: 77dc 2b3c 43f6 833e 9013 633e f8b7 913e
00000090: 798e af3d a180 333c d8ff 8b3e 02ab 293e
000000a0: 220e 883e 3101 d03d d308 733c 2ade 7c3e
000000b0: 9d9b 193e 770a a13e ced1 943c 6adc 2b3c
000000c0: b1c4 a03e a5a0 8a3e 0e06 c43e a9d3 ac3d
000000d0: b67e 783c 9c7f c03e 343a 663e 4be7 a33e
000000e0: a249 c63d 95dc 2b3c 304e 9d3e f3d1 3d3e
000000f0: 88d7 f53e b71b 633e 2daf 213d 9bfa eb3e
00000100: a954 813e 521c cf3e 3429 c03e b4d7 513e
00000110: 9709 223d 4054 3c3e bec4 193e 8dc8 243e
00000120: def0 9d3e c064 b53d 0b06 483e c525 433f
00000130: ce88 f03f b020 d53f 4f0a 093e 33a1 693b
00000140: 2b33 ce3b c32f 3742 d8c9 c53f 2e50 bb42
00000150: c2cf e33d 87fe 013e bc8f c33e 40e7 bb3e
00000160: 810c 8f3e 780c 9d3e 402e b83e

54 f4 [1, 2]
0.03793379 -0.0074330354
00000000: 7660 1b3d d290 f3bb

distribution.mu.bias f4 [2]
0.0059099393 -0.004791137
00000000: 2aa8 c13b f8fe 9cbb

distribution.mu.weight f4 [2, 256]
0.007040221 -0.033360932 0.0052239383 0.03232213 0.0093777245 0.004376924 -0.0027263123 0.0035971664
-0.010447861 0.021063417 -0.002173493 0.004515467 0.0024310255 0.04285641 -0.03513783 0.009011333
-0.0019427796 -0.04077385 0.033222612 0.010140786 -0.017343696 -0.008601005 0.033943534 -0.041737538
-0.00813686 0.002441336 0.03733495 0.0033940198 0.074353136 -0.02952162 0.04141193 0.015893523
-0.0094586015 0.012442716 0.018032202 -0.0013707175 -0.010690309 -0.0016232382 -0.010587516 -0.0215889
-0.052117497 -0.010822645 -0.011142323 9.97634e-05 0.043540742 0.0010223791 -0.0020616134 -0.013141005
-0.021876391 0.029276328 -0.013904874 0.038244925 0.011320476 -0.0014248402 -0.0029423225 -0.0054593026
0.023956498 0.020780498 0.031042391 -0.04033972 0.014196262 -0.008478211 0.031896625 0.016958518
0.021691663 -0.006997841 -0.0063345945 0.026276072 0.025422521 0.0007026921 -0.006057375 0.028727502
0.024776634 -0.0029531352 -0.025314951 -0.0046695285 0.026738264 0.0012389515 0.011185573 -0.028198391
-0.008304008 -0.031181188 0.020663442 0.017049687 0.0014610098 -0.02621492 -0.021486036 -0.02819441
0.0070661404 0.01268757 -0.023964398 0.02372974 -0.028266631 0.035062227 0.01136419 -0.0062442445
0.007671673 0.015738586 0.0013072301 -0.01904355 0.027135514 0.012307731 0.022701206 0.0261186
0.0040746196 0.013996592 0.005421689 0.018579716 -0.0023392683 -0.015906451 0.020967668 0.046710953
0.017406704 -0.0035225546 0.0026910093 -0.03128869 -0.0011190332 0.017336123 -0.0011146021 0.032402817
-0.0023662932 -0.00068758766 0.040874578 0.06893047 0.024537379 -0.021490302 -0.040042035 0.027955418
-0.026451927 -0.017543534 0.032238822 0.018554417 -0.015673723 0.014083942 -0.0070289653 -0.033649012
-0.031380262 0.0009208988 0.04186206 0.020087132 0.0006642257 0.012500993 0.0040849773 -0.0052129566
0.0057421797 0.021393908 0.032281414 0.021336686 0.015275464 -0.0063647684 -0.02485983 -0.009157565
0.0018125507 0.014884236 0.010243584 0.033230413 -0.022331294 0.01710837 0.015390765 -0.05482061
-0.017109944 0.03803834 -0.016688075 0.029013779 -0.022151358 -0.0757393 0.0034358883 0.028368706
0.014521509 0.036906395 -0.00025816477 -0.057664517 0.05040617 -0.018573148 0.019131092 0.014654448
0.017759178 -0.011536327 0.023865925 0.017844222 0.02006001 0.0057970085 0.0003566885 0.029987644
-0.064421855 -0.019120146 -0.0028819165 -0.0417163 -0.0031597156 -0.048597835 -0.047829796 0.007000732
0.019674597 -0.022759236 -0.0024116037 0.013545222 -0.0065189176 0.013157433 0.012775314 0.021494236
-0.0028507672 -0.0225344 -0.04555341 0.055327024 0.012230835 -0.011437128 -0.0006376422 0.0039365925
-0.0058193374 -0.004084644 0.005828431 0.007683707 0.027721655 -0.011719827 0.009632718 0.00991239
-0.031112835 -0.012071144 -0.0013217595 -0.019018782 0.020130975 0.007668403 -0.0046455385 0.01837451
0.0014759452 -0.024577808 0.0061091883 -0.018106705 -0.006455743 -0.0036072864 -0.00049989135 0.010598459
-0.0037506009 -0.008205003 -0.01778428 -0.0048622247 0.011156957 -0.020097787 -0.029270383 -0.00979909
-0.077699095 -0.043346614 0.01098744 0.0650031 0.0074973973 -0.01977041 -0.023593998 0.027543548
0.016945302 -0.021186741 0.003514617 -0.00051275396 -0.010440394 0.0040175356 -0.014083272 0.020132478
00000000: a7b1 e63b 79a5 08bd 922d ab3b 3664 043d
00000010: 07a5 193c 4d6c 8f3b eeab 32bb 70be 6b3b
00000020: 812d 2bbc 308d ac3c 2971 0ebb 7cf6 933b
00000030: d751 1f3b 348a 2f3d afec 0fbd 45a4 133c
00000040: dea4 feba 7b02 27bd 6f14 083d 8a25 263c
00000050: 5e14 8ebc 3beb 0cbc 6008 0b3d fbf4 2abd
00000060: 7750 05bc d2fe 1f3b 88ec 183d 346e 5e3b
00000070: 7546 983d 53d7 f1bc 8e9f 293d 2233 823c
00000080: 40f8 1abc 89dc 4b3c 45b8 933c a6a9 b3ba
00000090: 6826 2fbc d6c2 d4ba 4377 2dbc 34db b0bc
000000a0: 2879 55bd 7751 31bc 4a8e 36bc 1138 d138
000000b0: c757 323d 5a01 863a 221c 07bb 5f4d 57bc
000000c0: 1e36 b3bc e9d4 ef3c 45d1 63bc b6a6 1c3d
000000d0: 8579 393c b4c1 baba fbd3 40bb f3e3 b2bb
000000e0: 6b40 c43c dd3b aa3c 9d4c fe3c 433b 25bd
000000f0: 7097 683c 32e8 0abc 09a6 023d 97ec 8a3c
00000100: b7b2 b13c 254e e5bb 6e92 cfbb eb40 d73c
00000110: e442 d03c de34 383a f27c c6bb f055 eb3c
00000120: 5ef8 ca3c 6389 41bb 4d61 cfbc d802 99bb
00000130: 340a db3c 5064 a23a b243 373c 5000 e7bc
00000140: 890d 08bc b16f ffbc 6146 a93c c9ab 8b3c
00000150: 5b7f bf3a acc0 d6bc 7c03 b0bc f7f7 e6bc
00000160: 158b e73b 87df 4f3c fc50 c4bc df64 c23c
00000170: 6c8f e7bc 699d 0f3d de30 3a3c 859c ccbb
00000180: a862 fb3b 35ee 803c 5d57 ab3a 3801 9cbc
00000190: 4c4b de3c 5ea6 493c e1f7 b93c adf6 d53c
000001a0: 6384 853b f651 653c 6ca8 b13b 7d34 983c
000001b0: 694e 19bb 3f4e 82bc 63c4 ab3c fc53 3f3d
000001c0: 8198 8e3c a9da 66bb a55b 303b 9228 00bd
000001d0: 86ac 92ba 7c04 8e3c d717 92ba d1b8 043d
000001e0: d013 1bbb 3a3f 34ba 1a6c 273d 6b2b 8d3d
000001f0: 9d02 c93c 6e0c b0bc 1e03 24bd c302 e53c
00000200: b6b1 d8bc 75b7 8fbc db0c 043d 6fff 973c
00000210: 2e66 80bc 56c0 663c 3c53 e6bb 8cd3 09bd
00000220: 9788 00bd 7968 713a 8d77 2b3d c58d a43c
00000230: 6f1f 2e3a f7d0 4c3c 46db 853b 73d1 aabb
00000240: e528 bc3b 4742 af3c 8439 043d 46ca ae3c
00000250: f145 7a3c 8c8f d0bb d8a6 cbbc 9d09 16bc
00000260: 1c93 ed3a 03dd 733c b5d4 273c 9d1c 083d
00000270: 1ef0 b6bc da26 8c3c 8c29 7c3c 938b 60bd
00000280: 272a 8cbc 17ce 1b3d 6eb5 88bc 4eae ed3c
00000290: c476 b5bc 351d 9bbd a42c 613b 7d65 e83c
000002a0: a0eb 6d3c 292b 173d 4a5a 87b9 a131 6cbd
000002b0: b376 4e3d b726 98bc cfb8 9c3c 3619 703c
000002c0: b27b 913c dd02 3dbc 7982 c33c 0c2e 923c
000002d0: e454 a43c d5f4 bd3b ec01 bb39 a6a8 f53c
000002e0: 9bef 83bd daa1 9cbc 89de 3cbb b6de 2abd
000002f0: 3b13 4fbb 860e 47bd 2de9 43bd 6566 e53b
00000300: 9f2c a13c 9471 babc ff0b 1ebb c7ec 5d3c
00000310: a59c d5bb 4692 573c 8d4f 513c ae14 b03c
00000320: f0d3 3abb 109a b8bc 3696 3abd 979e 623d
00000330: d763 483c cb62 3bbc 7227 27ba 88fe 803b
00000340: 24b0 bebb 7ad8 85bb 6cfc be3b 9bc7 fb3b
00000350: 8618 e33c 8404 40bc 8cd2 1d3c 9467 223c
00000360: 58e0 febc 0cc6 45bc e43e adba 47cd 9bbc
00000370: b7e9 a43c 3a47 fb3b 9a39 98bb 2486 963c
00000380: 8174 c13a 6657 c9bc 962f c83b 8354 94bc
00000390: b38a d3bb 3968 6cbb 240b 03ba 29a5 2d3c
000003a0: a4cc 75bb 476e 06bc 57b0 91bc 4c53 9fbb
000003b0: abcb 363c 1da4 a4bc 71c8 efbc 5d8c 20bc
000003c0: b420 9fbd 388c 31bd aa04 343c 5820 853d
000003d0: baac f53b 8ef5 a1bc 3348 c1bc 02a3 e13c
000003e0: e0d0 8a3c d18f adbc 7d55 663b 566a 06ba
000003f0: 300e 2bbc 88a5 833b 86bd 66bc deec a43c

network_body.linear_encoder.seq_layers.0.bias f4 [256]
-0.00016909614 -0.008061807 0.018077772 -0.010571967 8.608514e-05 0.008093325 0.009585169 0.015339363
-0.00734261 -0.0050277193 -0.0010742303 -0.00613892 0.013613759 0.011335424 0.01582993 0.00782052
0.013757557 -0.034694538 0.012103891 -0.009460137 -0.0020725217 0.0042451182 0.008327041 -0.008188499
0.010271771 0.0043286886 -0.00956858 -0.019551946 0.010261459 -0.036870718 -0.005617351 -0.017149627
0.0024788424 0.049232893 0.003720623 0.021891376 -0.0026808386 0.012174288 0.018707203 -0.00494509
-0.029438412 0.0017055119 -0.0087066535 -0.00038870802 0.014139932 0.013381018 0.0102571575 0.004346935
-0.018248865 -0.0010943853 0.013673164 -0.031997528 -0.0134157585 0.016372254 0.009114437 -0.025289824
0.010789801 -0.011652961 0.017378692 -0.024917087 0.005625064 0.012473008 -0.0041261795 0.0043520685
-0.022421187 -0.007613525 0.02284954 -0.030050952 -0.010312566 -0.016414141 -0.033105824 -0.016824458
-0.019319793 -0.021712506 0.0019257423 0.04372284 0.021146834 0.021164246 0.02370679 -0.0020281076
-0.019550243 -0.00793402 0.017708132 0.021235326 -0.0030877634 -0.011493086 -0.018739365 -0.0073698144
0.004753425 0.015663348 0.0040079346 -0.036534015 -0.00052571984 -0.009851379 -0.0038721827 -0.000883222
-0.0165285 0.00822051 0.0009260921 -0.0027031424 0.008045268 -0.013944885 -0.006810256 -0.0019508672
-0.0049222875 0.010493983 0.0030080106 0.006752113 0.025888367 0.009667547 0.0044183903 0.014175529
0.019454611 0.014186458 0.009353913 -0.003076371 0.010665725 -0.004695061 -0.0008746938 -0.015410513
0.027417526 -0.004430399 0.008571404 0.010928669 -0.01023332 0.00623022 -0.0016086831 -0.010792337
-0.005119437 0.010560191 -0.036169585 -0.0024347077 0.0024903496 -0.010981853 -0.0013250931 -0.024777595
0.01841461 0.022507321 0.027154338 0.0051042167 0.015906608 0.006311581 0.018564245 0.021800473
-0.0013296119 -0.026981791 0.014278451 0.0012819924 -0.009383487 0.0077264337 -0.015509733 -0.0048823063
0.017214486 0.0065013003 -0.0013551885 -0.018552179 0.0067968867 0.0015159192 0.012445913 -0.015582677
-0.0019578254 -0.0042842026 -0.010404753 -0.022136146 -0.021049319 0.016076455 -0.006709527 0.019917121
0.0025468774 -0.0012094072 -0.016512148 0.0030974417 0.0045032413 0.009307125 -0.010541187 -0.013505608
-0.021117453 -0.008391265 0.016722806 0.0021717676 -0.0077019837 0.011374702 0.011952399 0.005210501
-0.032239266 0.0021816462 -0.02399122 -0.012185323 -0.006282403 0.0033588407 0.002924101 0.013466298
-0.00017414789 -0.016491199 0.00437594 0.009541347 -0.010802932 -0.053967074 -0.033383667 0.00880908
0.0026474458 -0.01822478 0.021202315 0.016578205 -0.015136237 0.0033190134 0.0035606795 0.037911933
-0.006760327 0.01339203 -0.0022746497 -0.007910112 0.025871605 0.010429807 -0.002865632 -0.0162144
0.011177562 -0.021780195 0.018112974 0.00754982 0.0024927573 -0.045311417 -0.002048827 0.014293655
-0.009289859 0.01790112 -0.010218341 0.010799153 -0.027987594 0.01924805 0.028433809 -0.0041310824
-0.02039549 0.022447862 -0.012966091 -0.0066067223 0.0030611835 -0.017184965 0.0077293264 0.007494924
-0.02610949 -0.006185179 0.013012348 0.0011101176 0.0064942962 -0.0035046397 -0.012272488 0.0079596145
-0.028617997 0.004055427 0.010001665 -0.029761408 -0.011526013 0.02635445 -0.017201057 0.0021986403
00000000: 664f 31b9 ab15 04bc d617 943c 0b36 2dbc
00000010: 9c88 b438 de99 043c 1d0b 1d3c f451 7b3c
00000020: 479a f0bb 91bf a4bb 30cd 8cba fe28 c9bb
00000030: 3e0c 5f3c 37b8 393c c5ad 813c a321 003c
00000040: 6067 613c dc1b 0ebd 664f 463c b1fe 1abc
00000050: 25d3 07bb a21a 8b3b 246e 083c 0e29 06bc
00000060: ee4a 283c acd7 8d3b 89c5 1cbc 672b a0bc
00000070: ae1f 283c c005 17bd c111 b8bb 607d 8cbc
00000080: 1374 223b 6ea8 493d b2d5 733b 8b55 b33c
00000090: 02b1 2fbb aa76 473c d93f 993c 6c0a a2bb
000000a0: d328 f1bc 7c8b df3a 5aa6 0ebc 82cb cbb9
000000b0: 2cab 673c 0f3c 5b3c a30d 283c bc70 8e3b
000000c0: a57e 95bc 7a71 8fba 6805 603c d70f 03bd
000000d0: c5cd 5bbc 1b1f 863c b854 153c 9b2c cfbc
000000e0: b5c7 303c 10ec 3ebc c25d 8e3c eb1e ccbc
000000f0: 7552 b83b 965b 4c3c e734 87bb cc9b 8e3b
00000100: a3ac b7bc e07a f9bb f52e bb3c 6a2d f6bc
00000110: 09f6 28bc f376 86bc f999 07bd 72d3 89bc
00000120: 8b44 9ebc 6dde b1bc 3069 fc3a b816 333d
00000130: 203c ad3c a460 ad3c be34 c23c 00ea 04bb
00000140: d527 a0bc b1fd 01bc a510 913c b5f5 ad3c
00000150: 135c 4abb 7f4d 3cbc 4c83 99bc 7c7e f1bb
00000160: 9ec2 9b3b 6c50 803c fe54 833b b1a4 15bd
00000170: 76d0 09ba ae67 21bc 72c4 7dbb 0688 67ba
00000180: c766 87bc 51af 063c fdc4 723a 3427 31bb
00000190: 4dd0 033c 1679 64bc 9128 dfbb 3eb4 ffba
000001a0: 244b a1bb f4ee 2b3c 0b22 453b d440 dd3b
000001b0: d713 d43c a264 1e3c 25c8 903b 7a40 683c
000001c0: 475f 9f3c 516e 683c 2841 193c f19c 49bb
000001d0: 4bbf 2e3c 07d9 99bb b54b 65ba 607c 7cbc
000001e0: b89a e03c e12c 91bb 136f 0c3c 290e 333c
000001f0: a8a9 27bc e026 cc3b 73da d2ba 58d2 30bc
00000200: f3c0 a7bb a704 2d3c 8f26 14bd 9e8f 1fbb
00000210: 2235 233b 3bed 33bc bfae adba 62fa cabc
00000220: 3cda 963c 4661 b83c c672 de3c 4641 a73b
00000230: 934e 823c 61d1 ce3b 0b14 983c e896 b23c
00000240: 5f46 aeba eb08 ddbc 2af0 693c 8708 a83a
00000250: 32bd 19bc 062e fd3b 891c 7ebc c1fb 9fbb
00000260: 6505 8d3c dc08 d53b 95a0 b1ba bdfa 97bc
00000270: 6bb8 de3b cfb1 c63a f1e9 4b3c 7c4e 7fbc
00000280: dc4e 00bb 7f62 8cbb b278 2abc dd56 b5bc
00000290: 9f6f acbc c5b2 833c 98db dbbb 3b29 a33c
000002a0: 83e9 263b f984 9eba 7c44 87bc 73fe 4a3b
000002b0: ed8f 933b e97c 183c f1b4 2cbc a046 5dbc
000002c0: 82fe acbc 847b 09bc 44fe 883c 3754 0e3b
000002d0: ec60 fcbb f55c 3a3c ffd3 433c dabc aa3b
000002e0: 520d 04bd f3f9 0e3b 3c89 c4bc f3a4 47bc
000002f0: 9edc cdbb ff1f 5c3b 46a2 3f3b bfa1 5c3c
00000300: 789b 36b9 8d18 87bc 0c64 8f3b 4f53 1c3c
00000310: c8fe 30bc 940c 5dbd 50bd 08bd f653 103c
00000320: c580 2d3b 224c 95bc 7ab0 ad3c 04cf 873c
00000330: fbfd 77bc ce83 593b 4a5a 693b 8b49 1b3d
00000340: bc85 ddbb 3f6a 5b3c 4a12 15bb 6a99 01bc
00000350: b0f0 d33c c8e1 2a3c 54cd 3bbb 10d4 84bc
00000360: 1822 373c 616c b2bc a961 943c 7b64 f73b
00000370: 875d 233b 7798 39bd 9d45 06bb ef2f 6a3c
00000380: 7e34 18bc 5fa5 923c d46a 27bc eeee 303c
00000390: 3d46 e5bc 16ae 9d3c 05ee e83c 085e 87bb
000003a0: 7114 a7bc 94e4 b73c ba6f 54bc 347d d8bb
000003b0: 239e 483b 7cc7 8cbc 4a46 fd3b fb97 f53b
000003c0: 92e3 d5bc 0bad cabb be31 553c 5e81 913a
000003d0: 1bce d43b 19ae 65bb 8c12 49bc 0b69 023c
000003e0: 4a70 eabc 63e3 843b 06de 233c 32ce f3bc
000003f0: 9ad7 3cbc 4ae5 d73c 3be9 8cbc 1017 103b

network_body.linear_encoder.seq_layers.0.weight f4 [256, 91]
-0.013955036 -0.05818728 -0.078292586 -0.051125098 -0.16578211 0.03059442 0.140526 -0.079694435
-0.027235972 0.16560534 -0.03341342 -0.088388994 -0.11424676 0.018829437 -0.0063394774 0.18564877
0.05000757 0.081349775 -0.20619045 -0.027536564 0.046531934 0.08992573 0.18336833 -0.07762919
-0.16184063 0.09688003 0.025953818 -0.027923703 -0.1015153 -0.09166981 0.116321504 -0.04559878
0.22572882 0.06209973 0.02451156 -0.034470018 -0.13373224 -0.07243261 0.064526886 0.08681149
-0.0044481964 0.08388953 0.099063054 -0.10013945 0.24104452 0.024186505 0.13025503 0.04848685
0.115550295 0.04955812 0.16324565 0.019431306 0.015147204 -0.00065724534 -0.21167466 -0.02973087
0.23822561 -0.016234042 -0.07568371 0.16232735 0.06572423 0.19170214 -0.007604537 -0.058338404
0.057270635 0.06223845 0.15338436 -0.11984939 0.010601697 0.14322256 0.03114525 -0.054655798
0.11877779 -0.00804929 -0.091919936 -0.002623307 -0.024666537 -0.011588254 0.04556582 0.13769256
-0.06014686 0.07658812 0.13698071 -0.07481336 0.0885137 -0.04861463 0.13881586 0.04430612
0.037580304 -0.10319688 -0.059079662 0.043260463 0.03572918 -0.06995216 0.060704987 0.08753052
-0.030382754 -0.13038929 0.17442472 -0.13470633 -0.042821653 -0.07373878 -0.12585223 0.044391602
0.06888163 0.119578235 -0.11499964 -0.057906147 0.21309814 -0.043678686 -0.07785433 -0.21608464
0.028248748 0.1494523 -0.06378669 -0.051422223 -0.020718144 -0.07807603 0.12206125 -0.06669624
-0.05605195 -0.012622226 0.008382877 0.04252477 -0.026781699 0.06527349 -0.14682885 0.13164732
0.1380134 0.008976567 -0.11566284 0.11073133 -0.03295948 -0.1278377 -0.10328062 0.013972684
-0.053684853 -0.11032172 -0.036137417 0.10257165 -0.08317637 0.029822601 -0.12841846 -0.028333342
-0.2279738 0.097143844 -0.16133648 0.002506985 0.015266135 -0.04271937 0.16089942 0.06268125
0.14213735 0.101438 0.0619204 0.016135018 0.20742257 0.21950637 -0.0045738406 -0.035218377
0.017615307 -0.005637795 -0.03170047 -0.020462291 -0.04727748 0.08296391 -0.16802634 0.100967616
0.13249402 -0.03189862 -0.22640173 0.087340705 -0.099998504 -0.03907579 0.21947686 0.13682085
-0.004389095 -0.06833527 0.10081126 -0.09506549 -0.1307679 0.18945535 -0.070319556 0.0672508
-0.035833064 0.21462424 0.0149324285 0.030605994 -0.113704994 -0.10993613 0.029479217 0.09663486
-0.006914728 0.23582497 -0.02584716 0.018999202 0.11405738 0.13277097 0.028890304 0.23453802
-0.15624838 -0.010765519 -0.0049084583 -0.14365268 -0.05731491 0.09331491 -0.21135859 -0.04568866
0.17843509 -0.117703095 0.028919896 0.063670136 -0.025230933 0.07868528 0.009774969 0.19876999
0.12354782 0.13882844 0.18347484 -0.095602505 -0.047351837 -0.13584115 -0.108989574 0.03515201
-0.0644419 0.0509525 0.11058655 0.035981297 0.06646105 -0.1316058 -0.034931507 -0.053159922
0.0028612483 0.05439697 0.072189726 0.14999801 -0.044876955 -0.0140243815 0.027927846 0.055742197
0.12031305 -0.0449025 0.085623905 0.02006896 0.16274333 -0.023760293 -0.083817296 0.16662747
-0.033299863 -0.0255503 0.17812803 -0.043574367 0.14628236 0.08359648 0.09912696 -0.11206283
00000000: aaa3 64bc c955 6ebd dd57 a0bd 8d68 51bd
00000010: c9c2 29be 26a1 fa3c 0ce6 0f3e d636 a3bd
00000020: f91d dfbc 7294 293e 83dc 08bd 4a05 b5bd
00000030: 35fa e9bd 3140 9a3c 64bb cfbb b61a 3e3e
00000040: bdd4 4c3d b69a a63d 9723 53be 5c94 e1bc
00000050: 4598 3e3d fb2a b83d e8c4 3b3e 0efc 9ebd
00000060: 8db9 25be 0a69 c63d 1a9d d43c 40c0 e4bc
00000070: 41e7 cfbd 62bd bbbd f839 ee3d c9c5 3abd
00000080: 7525 673e 495c 7e3d 78cc c83c 6f30 0dbd
00000090: 1bf1 08be 8c57 94bd ac26 843d 39ca b13d
000000a0: 2dc2 91bb 46ce ab3d 92e1 ca3d e915 cdbd
000000b0: 60d4 763e c722 c63c 9361 053e 269a 463d
000000c0: a2a5 ec3d 75fd 4a3d de29 273e 672e 9f3c
000000d0: fa2b 783c fd4a 2cba 3ec1 58be 278e f3bc
000000e0: 6af1 733e 41fd 84bc 1000 9bbd 2439 263e
000000f0: 6d9a 863d 914d 443e 7b2f f9bb 40f4 6ebd
00000100: 9d94 6a3d bfed 7e3d ca10 1d3e 9973 f5bd
00000110: bdb2 2d3c efa8 123e 5324 ff3c c2de 5fbd
00000120: c541 f33d 2be1 03bc 8540 bcbd caeb 2bbb
00000130: 7a11 cabc a9dc 3dbc 3aa3 3a3d 47ff 0c3e
00000140: 8e5c 76bd 3bda 9c3d ac44 0c3e bf37 99bd
00000150: ac46 b53d 2220 47bd bf25 0e3e 567a 353d
00000160: ceed 193d e358 d3bd 84fd 71bd e231 313d
00000170: c358 123d 1443 8fbd cba5 783d 3443 b33d
00000180: 41e5 f8bc c584 05be 659c 323e 75f0 09be
00000190: c265 2fbd 5c04 97bd 68df 00be f8d3 353d
000001a0: d011 8d3d 6fe5 f43d ee84 ebbd ff2e 6dbd
000001b0: 6636 5a3e 6ce8 32bd 1772 9fbd 4b45 5dbe
000001c0: eb69 e73c 060a 193e 99a2 82bd 1ca0 52bd
000001d0: 19b9 a9bc 53e6 9fbd 40fb f93d 0a98 88bd
000001e0: bb96 65bd 74cd 4ebc 5658 093c 742e 2e3d
000001f0: 4b65 dbbc 1cae 853d 4d5a 16be 8ece 063e
00000200: 6253 0d3e 7312 133c a4e0 ecbd 1cc7 e23d
00000210: 8500 07bd e3e7 02be ca84 d3bd afed 643c
00000220: a6e4 5bbd 5bf0 e1bd d404 14bd 1611 d23d
00000230: 5f58 aabd 874e f43c 2180 03be 531b e8bc
00000240: f771 69be 5af3 c63d 6435 25be 3b4c 243b
00000250: d01e 7a3c 82fa 2ebd d1c2 243e 075f 803d
00000260: 748c 113e babe cf3d 3fa0 7d3d 962d 843c
00000270: 9566 543e 47c6 603e 28e0 95bb 2541 10bd
00000280: fa4d 903c 41bd b8bb 5ad8 01bd 89a0 a7bc
00000290: 08a6 41bd fce8 a93d 190f 2cbe 1cc8 ce3d
000002a0: 83ac 073e 21a8 02bd dbd5 67be afdf b23d
000002b0: 04cc ccbd f00d 20bd 8bbe 603e c41a 0c3e
000002c0: 66d2 8fbb 5df3 8bbd 2276 ce3d b2b1 c2bd
000002d0: 05e8 05be 9500 423e b303 90bd caba 893d
000002e0: b1c5 12bd 75c6 5b3e 25a7 743c 6cb9 fa3c
000002f0: 2ade e8bd 3226 e1bd 667e f13c 7fe8 c53d
00000300: f194 e2bb 1a7c 713e 6cbd d3bc 37a4 9b3c
00000310: ea96 e93d 1df5 073e 5cab ec3c bc2a 703e
00000320: 93ff 1fbe dc61 30bc 22d7 a0bb b019 13be
00000330: 0ac3 6abd e31b bf3d 636e 58be 0824 3bbd
00000340: b0b7 363e 520e f1bd 6be9 ec3c 7d65 823d
00000350: 1ab1 cebc c025 a13d 3127 203c 5c8a 4b3e
00000360: a406 fd3d 0b29 0e3e d4e0 3b3e 3fcb c3bd
00000370: 00f4 41bd f119 0bbe ed35 dfbd 8efb 0f3d
00000380: 1dfa 83bd 92b3 503d 337b e23d 2061 133d
00000390: bb1c 883d acc3 06be 5714 0fbd 38be 59bd
000003a0: c883 3b3b 5bcf 5e3d 35d8 933d 1499 193e
000003b0: e6d0 37bd 85c6 65bc f0c8 e43c ee51 643d
000003c0: b066 f63d afeb 37bd 965b af3d a967 a43c
000003d0: 30a6 263e f2a4 c2bc 67a8 abbd 64a0 2a3e
000003e0: 7065 08bd dd4e d1bc 3267 363e 097b 32bd
000003f0: 0bcb 153e a234 ab3d 1303 cb3d 3281 e5bd

network_body.linear_encoder.seq_layers.2.bias f4 [256]
0.008048116 -0.0046394123 -0.0030459547 0.018285956 0.0050964425 0.0189783 -0.008643637 -0.021237617
0.01100482 0.0005244347 -0.014656858 -0.0026913022 -0.004102618 0.0020315836 -0.008461833 0.007380943
0.0017779012 0.03153499 0.00363991 0.016110623 0.00288489 0.0051542786 0.015953362 -0.021306979
0.013606731 -0.015167075 0.019950792 -0.02541434 0.018589007 -0.0006933566 0.0073918668 0.010372388
-0.006630633 0.009074389 0.006875772 -0.00782054 -0.020895988 0.016563483 0.008696272 0.0074337977
0.0058807572 -0.004618632 0.016199524 -0.0033957711 0.021962536 -0.009720874 -0.0035038788 0.0037508325
-0.0024304688 0.003565499 -0.0030809972 0.0064536254 -0.030109804 -0.0048950757 -0.011119387 0.0039360663
0.0068984563 -0.016381484 0.007108 0.004834032 -0.028641576 -0.0011632132 0.008650713 -0.020023685
0.003537849 -0.015399661 -0.014120536 -0.0060526025 0.0048327534 -0.0069789924 0.012007538 0.006371554
0.008128452 -0.022480054 -0.0057688677 0.0128994575 -0.006524716 0.0032188157 -0.0009831382 -0.0071873376
-0.019387946 0.018567966 -0.002630565 0.0057106623 -0.017306358 -0.0047283717 -0.0013802486 0.023981033
-0.0016134813 0.0078760795 -0.011394291 -0.011333203 -0.012098929 0.008773827 -0.008316345 -0.015117432
-0.008739329 0.002539776 0.00759636 0.018916387 -0.022974841 0.0011098377 0.011317499 0.00089391036
-0.004132255 0.015190366 0.004842667 -0.013845695 -7.840484e-05 -0.005552722 0.0017408183 0.012739697
-0.019078197 -0.01402299 -0.01701532 -0.006455951 -0.0011684115 0.0119602205 0.006162012 0.014966424
-0.02103797 -0.0154885845 0.012677327 0.0034267616 0.037163123 0.0016458047 0.011748717 0.0016763492
0.019654233 -0.0114012845 0.017485023 -0.00721294 0.019120691 -0.0038863467 0.0032994242 -0.0018099954
-0.0033674592 -0.0029815754 0.014709204 -0.024862273 0.012100636 -0.0029948829 -0.008408472 -0.005774808
0.0053034993 -0.0322358 0.0063919513 -0.019341053 0.008178058 -0.024620565 0.0075063426 0.028193485
-0.018715825 0.017817568 0.015228981 0.0047169086 0.0057281023 0.0038358236 0.009053548 -0.000871237
-0.0113394335 0.009565386 -0.00882427 -0.0020397964 -0.016850494 0.0017234237 -0.0072994954 0.00042061703
-0.0056722225 0.014070468 -0.013928245 0.0070479386 0.007869137 -0.008970589 0.0212535 0.011928048
-0.009235754 0.0019155368 -0.004292971 -0.0096768625 0.005708515 -0.0022703202 -0.018654913 0.0061932146
-0.0037137037 0.024367264 0.011629599 0.022709386 0.011577907 0.016051605 0.0010547945 -0.014518595
0.0005399602 -0.010865075 -0.005752401 -0.016223473 -0.012273476 0.015400972 -0.0019904415 0.010257734
-0.023901133 -0.0129362885 -0.0044352645 0.0056491112 2.5456035e-05 0.01052152 -0.016335765 -0.0010713263
-0.019128902 -0.02124836 0.00021548312 -0.024003347 0.008238638 0.015406303 0.007538837 0.010686967
0.003669894 -0.0018339824 -0.01721504 0.0025366913 0.009605429 -0.012775264 -0.025194902 0.0016905913
-0.019517481 0.0066481847 -0.008976168 -0.011044564 0.009992635 0.008468943 0.023530792 0.0077456213
-0.009515918 0.009412461 0.015411821 -0.010804797 -0.02363062 -0.0047101933 -0.0040080063 -0.009879362
0.02044338 0.004795232 0.0127298245 0.010804327 -0.016641714 0.013111605 -0.011398937 0.0031995901
0.010125343 0.0019912517 0.0059630005 -0.015594362 0.016704923 0.0020867847 0.002337295 0.02441625
00000000: 3fdc 033c 3606 98bb a49e 47bb 6ecc 953c
00000010: 0f00 a73b 6178 9b3c 0b9e 0dbc 83fa adbc
00000020: 8f4d 343c 387a 093a 5123 70bc 8f60 30bb
00000030: 416f 86bb 5124 053b 80a3 0abc d6db f13b
00000040: 7708 e93a d52a 013d 8e8b 6e3b 6dfa 833c
00000050: 6c10 3d3b 39e5 a83b a0b0 823c f98b aebc
00000060: c4ee 5e3c 537f 78bc d86f a33c bc31 d0bc
00000070: f947 983c 60c2 35ba 7937 f23b f3f0 293c
00000080: c845 d9bb bfac 143c 284e e13b b921 00bc
00000090: 102e abbc 24b0 873c cf7a 0e3c 3797 f33b
000000a0: 5eb3 c03b e557 97bb ddb4 843c 968b 5ebb
000000b0: c7ea b33c 4d44 1fbc 55a1 65bb 87d0 753b
000000c0: 8048 1fbb 26ab 693b 8eea 49bb ef78 d33b
000000d0: d6a8 f6bc df66 a0bb 172e 36bc 1efa 803b
000000e0: 720c e23b 7632 86bc 3aea e83b cd66 9e3b
000000f0: bda1 eabc f576 98ba b8bb 0d3c b608 a4bc
00000100: 42db 673b dc4e 7cbc d259 67bc e954 c6bb
00000110: 135c 9e3b 08b0 e4bb 44bb 443c 78c8 d03b
00000120: 332d 053c 1728 b8bc c508 bdbb 3f58 533c
00000130: 49cd d5bb c4f2 523b a5dc 80ba c283 ebbb
00000140: 78d3 9ebc d91b 983c 8f65 2cbb 8220 bb3b
00000150: 10c6 8dbc 75f0 9abb 75e9 b4ba df73 c43c
00000160: 737b d3ba ac0a 013c 1faf 3abc e6ae 39bc
00000170: 963a 46bc 19c0 0f3c 4741 08bc 1baf 77bc
00000180: 672f 0fbc 5f72 263b e3ea f83b 8af6 9a3c
00000190: bc35 bcbc f977 913a 086d 393c 4f55 6a3a
000001a0: de67 87bb 03e1 783c 3caf 9e3b 0ed9 62bc
000001b0: 476d a4b8 9cf3 b5bb 2b2c e43a 29ba 503c
000001c0: e149 9cbc afc0 65bc b663 8bbc 718c d3bb
000001d0: 6225 99ba cdf4 433c b4ea c93b bb35 753c
000001e0: d257 acbc d5c3 7dbc 90b4 4f3c 8593 603b
000001f0: 5c38 183d 0bb8 d73a b17d 403c f2b8 db3a
00000200: ea01 a13c 74cc 3abc c03c 8f3c 875a ecbb
00000210: ffa2 9c3c 14b2 7ebb 273b 583b 5e3d edba
00000220: 97b0 5cbb 8966 43bb e0fe 703c f7ab cbbc
00000230: bf41 463c cc45 44bb b0c3 09bc 9a3a bdbb
00000240: fac8 ad3b b009 04bd 9373 d13b 2171 9ebc
00000250: 43fd 053c 11b1 c9bc c4f7 f53b 06f6 e63c
00000260: ee51 99bc 26f6 913c fa82 793c 4c90 9a3b
00000270: ceb2 bb3b 7162 7b3b 5555 143c ba63 64ba
00000280: 08c9 39bc 23b8 1c3c ac93 10bc 1bae 05bb
00000290: 0c0a 8abc 81e4 e13a 9b30 efbb 4386 dc39
000002a0: 0dde b9bb d287 663c 4b33 64bc 65f2 e63b
000002b0: 8eed 003c 61f9 12bc d21b ae3c dc6d 433c
000002c0: 8f51 17bc c012 fb3a 0dac 8cbb b48b 1ebc
000002d0: 7f0e bb3b a7c9 14bb 30d2 98bc 73f0 ca3b
000002e0: 9c61 73bb db9d c73c 138a 3e3c 0909 ba3c
000002f0: 43b1 3d3c a87e 833c 0841 8a3a 67df 6dbc
00000300: 1e8c 0d3a 6d03 32bc a37e bcbb 17e7 84bc
00000310: b116 49bc 5c54 7c3c 1172 02bb 0e10 283c
00000320: 4fcc c3bc baf2 53bc b255 91bb 2e1c b93b
00000330: 6b8a d537 7462 2c3c 95d2 85bc bf6b 8cba
00000340: 37b4 9cbc 0a11 aebc 4ff3 6139 aba2 c4bc
00000350: 5afb 063c b86a 7c3c 5908 f73b 6318 2f3c
00000360: 9b82 703b 3d62 f0ba 8e06 8dbc 9e3e 263b
00000370: 1760 1d3c 574f 51bc 8a65 cebc d596 dd3a
00000380: 20e3 9fbc 04d9 d93b c710 13bc 42f4 34bc
00000390: 26b8 233c 52c1 0a3c a6c3 c03c fbce fd3b
000003a0: a7e8 1bbc b936 1a3c dd81 7c3c 9a06 31bc
000003b0: 0195 c1bc f757 9abb 9855 83bb 0cdd 21bc
000003c0: e078 a73c 5221 9d3b c190 503c a204 313c
000003d0: 3454 88bc 0fd2 563c 9bc2 3abc 37b0 513b
000003e0: c4e4 253c a97f 023b 4665 c33b 7f7f 7fbc
000003f0: c3d8 883c 70c2 083b 4e2d 193b 9604 c83c

network_body.linear_encoder.seq_layers.2.weight f4 [256, 256]
-0.019969761 -0.15805618 -0.001374493 0.02285455 0.04136162 0.0057295063 -0.04715075 -0.03886019
-0.0073017636 -9.9507044e-05 -0.023072137 -0.08877915 -0.048231687 -0.13110076 0.1362795 -0.09171358
-0.07690275 -0.040501658 0.02364872 0.02958621 -0.034832433 0.041206706 0.016791368 -0.025435442
0.056785353 -0.054158155 -0.041177057 -0.0144855445 -0.0075185555 0.026639855 0.036885694 -0.05753322
-0.013533987 0.056929383 -0.09054736 -0.036493156 0.041496586 -0.07261031 0.046614673 -0.040856518
0.015261282 -0.012202118 -0.014929805 0.025275938 -0.011988706 0.08197892 -0.13632898 0.03617731
0.00079975766 0.019020567 0.07269792 -0.009503274 0.069824584 0.045516007 -0.003619871 0.042108595
-0.0067293113 0.011572561 0.07332889 -0.0622908 -0.019425327 -0.02061326 -0.027963955 0.007877328
0.03622607 -0.025205372 0.039390817 0.0017685739 0.05337151 0.010055176 -0.035641883 0.03842252
0.011240283 0.016060963 -0.06760703 0.11857588 0.058000337 0.006415675 0.07309203 0.11836242
0.025481896 -0.10770468 0.040106673 -0.035939004 -0.12055349 -0.03269652 -0.10627931 -0.03467079
-0.055319887 -0.022791835 -0.117827445 -0.06640429 0.012379727 0.106211565 0.071829006 0.040422056
-0.04732964 0.04286011 0.05964281 0.054445937 0.11437529 0.030164396 0.029531665 -0.0159063
0.011665728 0.07263722 0.024160251 -0.04110083 -0.046334226 0.074190944 -0.08828571 -0.009161978
0.077897646 -0.0005948177 -0.049266145 0.04805189 -0.15315883 0.067039594 0.0459748 0.036840636
0.1081007 0.07611646 -0.039197527 -0.032607745 -0.040179744 -0.03735825 0.06633103 0.07370899
0.11487781 -0.034535214 -0.012697901 -0.08893377 0.025474166 -0.07064272 0.09160423 0.07720129
0.029067503 -0.026687134 0.055647884 -0.05654508 -0.09800756 -0.0061845216 -0.039256446 0.04744503
-0.04012078 -0.012596872 0.043981336 0.0050559794 -0.14832912 0.048574965 0.11527462 -0.1022179
-0.07413328 -0.0022727628 -0.06698643 0.08774762 0.049456723 0.060378037 0.00309178 -0.049974587
-0.004481825 0.08763074 0.09733142 0.040531304 0.09331997 -0.049029745 -0.03286241 -0.01633642
0.025472952 0.031217113 0.06650408 -0.058549523 -0.057345036 0.021368774 -0.04223124 -0.11017522
0.049419545 0.14286852 -0.039956022 -0.07820133 0.031611416 0.055960443 -0.08329502 -0.070027895
-0.014866573 -0.10526944 -0.029089432 0.1320984 0.0963365 -0.14435484 -0.008149016 -0.12484141
-0.08686854 -0.031786922 0.07996996 0.073777415 0.038597453 -0.031630874 -0.018353362 0.007251044
-0.04215063 0.0015959142 0.010206872 -0.040199764 -0.036644205 -0.07461641 0.045212686 -0.02922765
0.034691285 0.02649022 0.0062601226 -0.06923572 -0.024011035 0.05214474 -0.08589193 -0.02089986
0.031916052 0.0071293567 0.096780874 -0.0037778218 0.05803334 -0.08015332 0.033302683 0.02581094
-0.16951768 -0.11528959 -0.19191094 -0.005754026 -0.056500383 0.03887717 0.025125477 -0.017283855
0.03350981 -0.0148616005 -0.007683164 -0.0839783 -0.09259171 0.086956844 -0.04173552 0.014648432
-0.051626563 -0.08413316 0.025735224 0.04100826 0.051610094 -0.047062483 0.017128771 -0.009565061
0.014276162 0.077307984 -0.06892062 -0.050491273 -0.026795935 0.085965514 0.0009101512 0.060532603
00000000: a097 a3bc 7bd9 21be 5528 b4ba 7739 bb3c
00000010: cd6a 293d 95be bb3b 2521 41bd dd2b 1fbd
00000020: a243 efbb 70ae d0b8 c701 bdbc d8d1 b5bd
00000030: 978e 45bd 473f 06be da8c 0b3e 54d4 bbbd
00000040: 307f 9dbd 11e5 25bd f6ba c13c c85e f23c
00000050: 74ac 0ebd 5dc8 283d 0d8e 893c fd5d d0bc
00000060: c297 683d f1d4 5dbd 46a9 28bd c754 6dbc
00000070: 375e f6bb d33b da3c 7415 173d f4a7 6bbd
00000080: a8bd 5dbc c92e 693d e570 b9bd d979 15bd
00000090: 53f8 293d b7b4 94bd 07ef 3e3d 2a59 27bd
000000a0: 750a 7a3c 64eb 47bc 249c 74bc 7c0f cf3c
000000b0: 476c 44bc 90e4 a73d d399 0bbe a92e 143d
000000c0: d4a6 513a 05d1 9b3c a6e2 943d 9fb3 1bbc
000000d0: 3100 8f3d fe6e 3a3d 5c3b 6dbb 107a 2c3d
000000e0: 8e81 dcbb d79a 3d3c 752d 963d a324 7fbd
000000f0: dd21 9fbc 24dd a8bc aa14 e5bc e90f 013c
00000100: ca61 143d 7f7b cebc 4458 213d 7ecf e73a
00000110: 169c 5a3d 77be 243c 39fd 11bd ef60 1d3d
00000120: 2a29 383c 4892 833c 8e75 8abd e9d7 f23d
00000130: c391 6d3d 953a d23b 46b1 953d ff67 f23d
00000140: 69bf d03c 4594 dcbd e546 243d c734 13bd
00000150: c0e4 f6bd c9ec 05bd f8a8 d9bd f502 0ebd
00000160: 1b97 62bd f1b5 babc 844f f1bd f9fe 87bd
00000170: 57d4 4a3c 7385 d93d 161b 933d 9991 253d
00000180: b9dc 41bd 158e 2f3d 054c 743d b402 5f3d
00000190: 983d ea3d 531b f73c 64ec f13c ee4d 82bc
000001a0: 9c21 3f3c d3c2 943d b8eb c53c 5859 28bd
000001b0: f5c8 3dbd 6cf1 973d 23cf b4bd 1f1c 16bc
000001c0: cd88 9f3d 8aed 1bba 4ccb 49bd 0fd2 443d
000001d0: abd5 1cbe 0e4c 893d 1250 3c3d 35e6 163d
000001e0: e663 dd3d f2e2 9b3d 968d 20bd b38f 05bd
000001f0: 8493 24bd f704 19bd 90d8 873d bdf4 963d
00000200: 0f45 eb3d cc74 0dbd db0a 50bc e922 b6bd
00000210: 33af d03c 21ad 90bd 009b bb3d b61b 9e3d
00000220: f91e ee3c fa9e dabc 09ef 633d d09b 67bd
00000230: 30b8 c8bd 87a7 cabb 5ecb 20bd b855 423d
00000240: b055 24bd 1c63 4ebc c625 343d a1ac a53b
00000250: 97e3 17be 8bf6 463d 1a15 ec3d 9e57 d1bd
00000260: 30d3 97bd a2f2 14bb 2e30 89bd 06b5 b33d
00000270: 2293 4a3d f64e 773d 769f 4a3b 27b2 4cbd
00000280: 46dc 92bb bf77 b33d b255 c73d 2704 263d
00000290: 8a1e bf3d 6ad3 48bd bc9a 06bd f5d3 85bc
000002a0: a7ac d03c 08bb ff3c 4b33 883d a0d1 6fbd
000002b0: a1e2 6abd 910d af3c aafa 2cbd 8ca3 e1bd
000002c0: 266c 4a3d 204c 123e eda8 23bd 0528 a0bd
000002d0: f97a 013d c736 653d 9496 aabd c96a 8fbd
000002e0: ed92 73bc 8197 d7bd f64c eebc ce44 073e
000002f0: 124c c53d c1d1 13be 7383 05bc daac ffbd
00000300: 22e8 b1bd 0133 02bd 4ac7 a33d 9d18 973d
00000310: 5d18 1e3d 608f 01bd ca59 96bc 2a9a ed3b
00000320: 24a6 2cbd ff2d d13a b93a 273c 82a8 24bd
00000330: 3c18 16bd 7dd0 98bd f030 393d d36e efbc
00000340: 7318 0e3d 0502 d93c b721 cd3b 75cb 8dbd
00000350: cab2 c4bc b995 553d 1ce8 afbd 2f36 abbc
00000360: 68ba 023d 619d e93b 0d35 c63d 5595 77bb
00000370: 5eb4 6d3d 6d27 a4bd 6568 083d 7771 d33c
00000380: 0b96 2dbe f31c ecbd 4d84 44be 458c bcbb
00000390: f26c 67bd ab3d 1f3d f2d3 cd3c df96 8dbc
000003a0: 9541 093d 127e 73bc 0dc3 fbbb d1fc abbd
000003b0: b9a0 bdbd 6e16 b23d ddf2 2abd faff 6f3c
000003c0: 6076 53bd 024e acbd add2 d23c 47f8 273d
000003d0: 1b65 533d 97c4 40bd a351 8c3c c6b6 1cbc
000003e0: 90e6 693c a653 9e3d 4126 8dbd f0cf 4ebd
000003f0: 2683 dbbc b00e b03d 3797 6e3a 09f1 773d

network_body.vector_processors.0.normalizer.running_mean f4 [91]
0.9334048 0.00044016328 0.00012004447 0.06601447 0.23951656 0.93894786 0.009753601 0.0005101887
0.050648753 0.40081087 0.83934075 0.0097035915 0.00046017018 0.15022546 0.46524662 0.9065958
0.00013004814 6.0022197e-05 0.09320449 0.2634853 0.88674825 0.009303438 0.00016005908 0.10377852
0.43524837 0.90620565 0.0069425735 0.00030011125 0.08652194 0.43202406 0.92817354 0.0001800667
0.00010003703 0.07153643 0.2024377 0.91110736 0.0073927394 0.000110040695 0.08138007 0.4613867
0.92355233 0.01041386 0.00021007784 0.06522404 0.44563198 0.88868845 0.00032011865 0.000100036974
0.11088103 0.23462662 0.8216038 0.007162646 0.00022008154 0.1703731 0.5084586 0.8840975
0.009453493 0.00010003704 0.10551907 0.4666226 0.63948613 0.051869128 0.001550574 0.30613354
0.62218857 0.7939036 0.169623 0.55175924 0.004421985 -0.11482598 -0.004408134 0.95024824
-0.20888463 -0.010241103 0.9028403 0.09152395 -0.348573 0.11762601 42.298916 0.519985
1.7199625 79.225426 0.3040333 -49.692116 -0.009513432 -0.0074185873 -0.0079276 0.8395906
0.91466856 0.8948716 0.84728366
00000000: 9ef3 6e3f b7c5 e639 62c0 fb38 9832 873d
00000010: d443 753e e35e 703f 91cd 1f3c 2fbe 053a
00000020: 1175 4f3d 1537 cd3e 09df 563f d0fb 1e3c
00000030: ff42 f139 b4d4 193e ce34 ee3e aa16 683f
00000040: 885d 0839 58c0 7b38 ffe1 be3d 8ce7 863e
00000050: ef01 633f 726d 183c 88d5 2739 d589 d43d
00000060: e0d8 de3e 18fd 673f 877e e33b 4058 9d39
00000070: 6a32 b13d 4232 dd3e c89c 6d3f 49d0 3c39
00000080: f9ca d138 b181 923d d44b 4f3e 553e 693f
00000090: cb3e f23b a6c5 e638 98aa a63d e13a ec3e
000000a0: ed6d 6c3f e59e 2a3c 5748 5c39 2e94 853d
000000b0: e029 e43e 1681 633f 99d5 a739 f1ca d138
000000c0: 9815 e33d f641 703e a054 523f a1b4 ea3b
000000d0: b0c5 6639 4976 2e3e 582a 023f 3754 623f
000000e0: d3e2 1a3c faca d138 621a d83d 28e9 ee3e
000000f0: 5db5 233f b974 543d a13c cb3a 89bd 9c3e
00000100: c047 1f3f 443d 4b3f a7b1 2d3e 1840 0d3f
00000110: 4ce6 903b e229 ebbd 1c72 90bb 7843 733f
00000120: dae5 55be 4dca 27bc 8b20 673f e970 bb3d
00000130: 2978 b2be e8e5 f03d 1732 2942 bd1d 053f
00000140: bb27 dc3f 6b73 9e42 41aa 9b3e bac4 46c2
00000150: 3ade 1bbc 9f17 f3bb c4e2 01bc 69ef 563f
00000160: b827 6a3f 4e16 653f 95e7 583f
