Assets/ML-Agents/mla-1.0.6/results/carchase02/CarAgent/CarAgent-179833.onnx (onnx, 362126 bytes, 9 tensors)

53 f4 [91]
0	0x3ed08024	0.40722764
1	0x3d0f804b	0.03503446
2	0x3c67ca5f	0.01414737
3	0x3ecffaae	0.4062094
4	0x3ea96f6c	0.3309282
5	0x3ed734d0	0.4203248
6	0x3dc5a8b1	0.09651316
7	0x3d1b553b	0.03792308
8	0x3ed382cd	0.4131073
9	0x3e864bee	0.26229805
10	0x3ed80914	0.42194426
11	0x3dd6d3ea	0.10489638
12	0x3cb10210	0.021607429
13	0x3ed42396	0.414334
14	0x3e869899	0.26288298
15	0x3edc112e	0.42981857
16	0x3d13a800	0.03604889
17	0x3c6afcdb	0.014342512
18	0x3edb9bc6	0.42892283
19	0x3eb1e6b8	0.34746337
20	0x3edff853	0.43744144
21	0x3dbd9dca	0.092586115
22	0x3c8b47e4	0.017002054
23	0x3edd5d83	0.43235406
24	0x3e8ac94b	0.271067
25	0x3ee4abc4	0.44662297
26	0x3dcb4e5a	0.09927054
27	0x3d077e6d	0.033079553
28	0x3ee1baec	0.44087923
29	0x3e8d683a	0.2761858
30	0x3ebca128	0.36841702
31	0x3ce61b74	0.028089263
32	0x3ca50443	0.020143634
33	0x3ebc118b	0.36732134
34	0x3ea2490c	0.31696355
35	0x3ee55e85	0.44798675
36	0x3e1c4c10	0.1526339
37	0x3ced47e5	0.028964946
38	0x3edea747	0.43486997
39	0x3e86db8c	0.26339376
40	0x3ed9ca9a	0.42537385
41	0x3e23624d	0.15955468
42	0x3cbd395f	0.023098646
43	0x3ed0bd47	0.40769407
44	0x3e7f5e7f	0.24938391
45	0x3ebf8399	0.3740509
46	0x3cdf891f	0.027287064
47	0x3c5dec70	0.013545141
48	0x3ebf1803	0.37323007
49	0x3ea4db9b	0.32198796
50	0x3eda8d2c	0.4268583
51	0x3e1d8d7b	0.15386002
52	0x3c8300a0	0.015991509
53	0x3ed25d9b	0.4108704
54	0x3e7f6751	0.24941756
55	0x3ee00e72	0.4376102
56	0x3e1ca25f	0.15296315
57	0x3cc6d478	0.024271235
58	0x3ed89d95	0.42307726
59	0x3e82ea29	0.25569275
60	0x3eff6960	0.49885082
61	0x3df00617	0.117199115
62	0x3da58f66	0.08083992
63	0x3efe799c	0.49702156
64	0x3e89a4d0	0.26883554
65	0x3efecdfe	0.49766535
66	0x3efd7d81	0.49509814
67	0x3e884321	0.26613715
68	0x3e0bbd4e	0.13646433
69	0x3e99976e	0.29998344
70	0x3e46d0bd	0.19415565
71	0x3e649c99	0.22325362
72	0x3f0322d7	0.51225036
73	0x3e29727f	0.16547583
74	0x3ea072c7	0.31337568
75	0x3f6d4afa	0.9269253
76	0x40387358	2.88204
77	0x40509869	3.2593024
78	0x3dcc59dd	0.099780776
79	0x3b2e2f86	0.002657862
80	0x3b99bc0a	0.0046916055
81	0x4236859a	45.63047
82	0x401837ad	2.3783982
83	0x43455351	197.32545
84	0x3ea7911c	0.32727897
85	0x3e3a99c3	0.18222718
86	0x3efde8b9	0.49591616
87	0x3eeee04e	0.46655506
88	0x3ee05c63	0.43820485
89	0x3eeb604d	0.4597191
90	0x3ee0e182	0.4392205

54 f4 [1, 2]
0	0xbdd6cde8	-0.10488492
1	0x3d02b699	0.03191242

distribution.mu.bias f4 [2]
0	0x3ba23919	0.004950654
1	0x3cf64c02	0.03006554

distribution.mu.weight f4 [2, 256]
0	0x3c57044f	0.013123586
1	0x3cfa5d42	0.030562047
2	0x3ca81ef6	0.020522576
3	0x3d394a55	0.045236904
4	0x3cee9e86	0.029128324
5	0x3d4e31da	0.05034051
6	0xbcc8fad6	-0.02453367
7	0xbc7080eb	-0.014679174
8	0x3cee6ec2	0.029105548
9	0x39f1a933	0.00046093165
10	0x3ca75894	0.02042798
11	0x3a53964b	0.00080714066
12	0x3d5bce77	0.053663697
13	0xbd0829c6	-0.033242963
14	0x3c70c484	0.0146952905
15	0x3d32adc2	0.04362274
16	0xbcbb4347	-0.022859229
17	0x3d1ef45a	0.03880725
18	0xbc95dfd7	-0.018295212
19	0xbb23994c	-0.0024963198
20	0xbd463f79	-0.048400376
21	0x3ca3a0ac	0.019974075
22	0x3c8eb220	0.017418921
23	0xbcce71e9	-0.025200801
24	0x3b4a9c04	0.0030915746
25	0x3c9b0078	0.018921122
26	0x3d18f449	0.037342343
27	0x3d8dddfc	0.06927106
28	0x3c28d33c	0.010304268
29	0xbc0af896	-0.008482119
30	0x3ce60670	0.028079242
31	0x3d9a9202	0.0754738
32	0x3d125aba	0.035731055
33	0x3bae5233	0.0053198575
34	0xbcc9c27f	-0.024628876
35	0x3cbb799f	0.022885142
36	0x3c60f678	0.013730638
37	0xbba97fe9	-0.005172719
38	0x3c747ea6	0.014922773
39	0xbd28b8a2	-0.041191705
40	0x3ce6e39d	0.028184706
41	0x3d132458	0.035923332
42	0x3b94f55f	0.004545852
43	0x3d5bba61	0.05364454
44	0xbcb1ac58	-0.021688625
45	0xbcfb7aec	-0.030698262
46	0xbd3155b0	-0.04329461
47	0xbcafcbfb	-0.02145957
48	0xbcbe1be5	-0.02320666
49	0xbd282d31	-0.041058723
50	0x3d4d65b5	0.050145824
51	0x3cfe4d71	0.031042786
52	0x3c18145e	0.0092822
53	0x3cedebce	0.029043104
54	0xbd1a39b4	-0.037652686
55	0x3ca4e132	0.020126913
56	0x3cd1806f	0.025573937
57	0x3b0fa169	0.0021916276
58	0xbd43e58c	-0.047826335
59	0xbd8b10ad	-0.0679029
60	0xbd608cac	-0.054821655
61	0xbc802d49	-0.015646594
62	0x3c41933e	0.01181489
63	0xbc8b030b	-0.016969224
64	0x3d098d7f	0.033582207
65	0x3d2b2ef3	0.04179282
66	0xbbac9d43	-0.0052677705
67	0x3cb8bab0	0.022549957
68	0xbce710af	-0.028206198
69	0xbd25f739	-0.040518973
70	0xbb235589	-0.002492281
71	0x3b9e431f	0.004829779
72	0xbc685197	-0.014179609
73	0x39b83b77	0.0003513952
74	0xbd3b8883	-0.045784485
75	0xbd3e7324	-0.046496525
76	0x3c047eb6	0.008086851
77	0xbce05da8	-0.027388409
78	0xbc87c30b	-0.016572496
79	0x3cec702e	0.028862085
80	0x3baf3342	0.0053466866
81	0x3d26a68a	0.040686168
82	0xbc197edc	-0.009368625
83	0x3d936554	0.07197061
84	0xbbbaa72f	-0.0056961994
85	0xbd23a348	-0.03995064
86	0xbc5c53d9	-0.013447725
87	0xbb744ad9	-0.0037276058
88	0xbcead2a5	-0.028664896
89	0xbd08e1a2	-0.033418305
90	0xbccda36b	-0.025102338
91	0x3ce1ed7b	0.02757906
92	0x3ba8cbae	0.0051512336
93	0xbb9471e9	-0.0045301807
94	0x3cb6ce46	0.022315156
95	0x3c2167d5	0.009851416
96	0xbd23badd	-0.03997313
97	0x3ab1d56d	0.0013567634
98	0x3cceaec6	0.025229823
99	0xbc35550d	-0.011067641
100	0x3bf6c657	0.007530968
101	0x3bb23159	0.0054380116
102	0x3d328c40	0.043590784
103	0x3ca857f3	0.02054975
104	0xba77aa6b	-0.00094476965
105	0x3c879376	0.016549807
106	0xbd3d9177	-0.046281304
107	0x3c6c8314	0.014435548
108	0xbd89c73d	-0.06727455
109	0x3b9838f2	0.0046454603
110	0x3cf7b87c	0.030239336
111	0xbcc2e28d	-0.023789668
112	0x3cc96efb	0.024589052
113	0xbd1d03a4	-0.03833355
114	0x3ccbdd32	0.024885748
115	0xbb858be9	-0.0040755165
116	0x3cb7d61f	0.022440968
117	0xb7aaf7bc	-2.038094e-05
118	0xbccb0b54	-0.024785675
119	0x3d0586b1	0.032599155
120	0x3cccf514	0.025019206
121	0x3d2d6b7b	0.04233883
122	0xbccabc08	-0.024747863
123	0xbd2acd43	-0.04169966
124	0xb94946dd	-0.00019195252
125	0x3c057833	0.0081463335
126	0xbd3ced65	-0.046124835
127	0xbc96eb95	-0.018422881
128	0x3bc580ac	0.006027302
129	0xbcbd41c0	-0.023102641
130	0x3d58f0ff	0.052964207
131	0x3d1f4791	0.03888661
132	0x3dc43785	0.09580902
133	0x3cf0423a	0.029328454
134	0xbca23c95	-0.019804278
135	0xbd3ec704	-0.046576515
136	0xbd1ab2ed	-0.037768293
137	0x3d6fe8c3	0.05857159
138	0xbc2dfe1b	-0.0106196655
139	0x3d551edd	0.052031387
140	0x3cc340e4	0.023834653
141	0x3cf9ffaf	0.030517427
142	0x3cf5321c	0.02993112
143	0x3c86ff42	0.016479138
144	0x3c643799	0.013929271
145	0x3d1549b7	0.036447253
146	0xbcb45ba6	-0.022016358
147	0xbb0a1e11	-0.002107505
148	0x3c7c07ce	0.01538272
149	0xbcfdbcea	-0.03097387
150	0x3d0b7fdd	0.034057487
151	0xbce2c731	-0.027682872
152	0xbd093fa2	-0.03350795
153	0xbd350109	-0.04419044
154	0xbd3c7cf0	-0.046017587
155	0xbc458a23	-0.01205686
156	0xbc10f3ab	-0.0088471575
157	0xbc8998d7	-0.016796513
158	0xbc1d9682	-0.009618403
159	0x3d1ffc69	0.039059076
160	0xbd3e643c	-0.04648231
161	0x3c9a8724	0.018863268
162	0xbbae3552	-0.005316415
163	0xbcc3624a	-0.023850579
164	0x3cb185fb	0.021670332
165	0xbc991326	-0.018685888
166	0x3c62939a	0.013829136
167	0x3d84e7d2	0.06489529
168	0xbd3c1f0c	-0.045928046
169	0xbb075c0d	-0.0020654232
170	0xbc278fd3	-0.010227161
171	0xbd3987c4	-0.04529549
172	0x3c413ad1	0.011793808
173	0x3b028b8a	0.0019919598
174	0xbc9d9042	-0.019233827
175	0xbd0d4227	-0.034486916
176	0x3c434426	0.011918103
177	0xbd35f6c0	-0.044424772
178	0x3d10468e	0.035223536
179	0xbc85858a	-0.016299028
180	0xbd5ba3d7	-0.053623047
181	0xbc73af5f	-0.014873355
182	0x3d7eb8e0	0.06218803
183	0x3cadab07	0.021199716
184	0xbdbb4179	-0.09143347
185	0xbd480be8	-0.04883948
186	0x3d33bd32	0.043881603
187	0x3c068a50	0.008211687
188	0x3d3cc725	0.046088357
189	0xbc8a05d3	-0.01684848
190	0xbcda71ad	-0.026665533
191	0x380f0a3f	3.41034e-05
192	0x3b3b1df7	0.0028551796
193	0x3ca00ffd	0.019538874
194	0x3a6c0221	0.0009003003
195	0xbc88856b	-0.016665181
196	0xbccfc60e	-0.025362995
197	0xbd0df2c9	-0.034655366
198	0x3d2d19cf	0.04226094
199	0x3d385fda	0.045013286
200	0x3d1ad85a	0.037803985
201	0x3cce1527	0.02515657
202	0x3b3f8a45	0.0029226702
203	0x3d1abc88	0.037777454
204	0xbc330b60	-0.010928005
205	0x3c5e83a7	0.013581193
206	0x3c8f2944	0.017475732
207	0xba015c71	-0.00049347343
208	0xbd1d4774	-0.03839822
209	0xbcd361c5	-0.025803456
210	0xbcb51f51	-0.02210966
211	0x39eb9ef2	0.00044941116
212	0xbcad4099	-0.021148967
213	0x3d19e848	0.037575036
214	0xbafbc39f	-0.001920808
215	0xbcf4796b	-0.029843053
216	0xbcbedb64	-0.023297973
217	0x3d24654b	0.040135663
218	0xbd1c55f1	-0.038167898
219	0xbb65f24a	-0.0035087042
220	0xbc061c68	-0.0081854835
221	0xbac3793e	-0.0014913452
222	0x3d053d77	0.03252932
223	0xbc9729fc	-0.018452637
224	0xbbf78ed0	-0.0075548664
225	0x3cf8a2f9	0.030351149
226	0x3d0af0e7	0.03392115
227	0x3d266a33	0.040628623
228	0x3ca03781	0.019557716
229	0xbce104ad	-0.02746805
230	0x3d1e2a75	0.03861471
231	0x3c6b31b0	0.014355108
232	0xbc1e88c4	-0.009676162
233	0x3d80855d	0.06275437
234	0x3cb2c4ba	0.021822322
235	0x3d0bf4ff	0.034169193
236	0xbda33ed9	-0.079709716
237	0xbc9a3a9c	-0.018826775
238	0x3bce741a	0.0063004615
239	0xbd696917	-0.056984987
240	0xbd12e5c8	-0.035863668
241	0x3ca8603f	0.020553706
242	0xbcd4ee59	-0.02599256
243	0xbb2dfd68	-0.0026548747
244	0x3baa4be0	0.0051970333
245	0xbc5611ee	-0.013065798
246	0xbc72820e	-0.014801515
247	0xbc94c09b	-0.018158248
248	0xbbf9e215	-0.007625828
249	0x3bd269e2	0.0064213136
250	0x3c92ea59	0.017934011
251	0x3cdb7aa1	0.026791872
252	0xbd601a10	-0.054712355
253	0xbd081fc3	-0.033233415
254	0xbc77751b	-0.015103604
255	0xbcd6f684	-0.026240595

network_body.linear_encoder.seq_layers.0.bias f4 [256]
0	0xbd3c4c22	-0.045971043
1	0xbc9db698	-0.019252107
2	0xbc4aa5f0	-0.012368664
3	0x3c6b499d	0.0143608125
4	0xb8072a1b	-3.2225722e-05
5	0x3c4f4bea	0.012652377
6	0xba1abbe7	-0.00059026334
7	0x3cbba2da	0.022904802
8	0x3c9d0b81	0.019170525
9	0x3c44f439	0.012021118
10	0x39acc620	0.0003295401
11	0x3bc1d7c0	0.005915612
12	0x3ce934ea	0.028467614
13	0xbcca3623	-0.024684018
14	0x39ceb1bd	0.00039423807
15	0x3c347125	0.011013304
16	0xbcf2c0d6	-0.029632967
17	0x3c5a617d	0.013328907
18	0xbcd04378	-0.025422797
19	0xbc7186a3	-0.014741573
20	0xbcd3e520	-0.025866091
21	0x3d31edea	0.043439783
22	0xbc02e047	-0.007988042
23	0x3bff760e	0.0077960556
24	0xbbb5a150	-0.0055429116
25	0xba7965c1	-0.00095137587
26	0xbcb8e5c9	-0.022570508
27	0x3b25884d	0.0025258244
28	0xbc996fac	-0.018730007
29	0x3bf24ead	0.007394633
30	0xbd2b8852	-0.041878052
31	0x3c5ad58d	0.013356579
32	0xbc716f86	-0.014736062
33	0x3c40ebc5	0.011774962
34	0x3cd78859	0.026310133
35	0xbca0f9ba	-0.019650329
36	0x3cc28b8c	0.023748182
37	0xbcb045c5	-0.021517644
38	0xba0396f7	-0.0005019749
39	0x3c2a2bc5	0.010386412
40	0xbd1d0c15	-0.0383416
41	0xbc9dc55d	-0.01925915
42	0xbc8c3b59	-0.017118143
43	0x3d1c2baa	0.03812758
44	0xbbb92c40	-0.005651027
45	0xbbb8a278	-0.005634602
46	0x3d0772a6	0.03306832
47	0x3c8f74ef	0.017511813
48	0xbc3e71c9	-0.011623808
49	0x3cb5300a	0.022117633
50	0xbc0258a9	-0.007955709
51	0xbc4ef4c3	-0.012631598
52	0xbcadea48	-0.021229878
53	0xbb22f086	-0.0024862601
54	0xbb9a6101	-0.004711271
55	0x3c99e501	0.018785955
56	0xbc768578	-0.01504647
57	0x3c7f666d	0.015588385
58	0x3cd7a86f	0.026325433
59	0x3cde682c	0.027149282
60	0xbd1fdf6d	-0.039031435
61	0xbcce4910	-0.025181323
62	0x3d222ef2	0.03959555
63	0xbc2eef39	-0.010677152
64	0xbcb26022	-0.021774355
65	0xbc260e02	-0.010135176
66	0xbc0971ee	-0.008388979
67	0x3c859ce6	0.016310167
68	0xbc99e598	-0.018786237
69	0x3cfb6d28	0.030691698
70	0x3d28890d	0.041146327
71	0x39a676b9	0.00031750443
72	0x3cab3f06	0.020904075
73	0x3cdab01b	0.026695302
74	0xbcebb7f6	-0.028774243
75	0x3d569e57	0.0523971
76	0xbcf51167	-0.029915525
77	0x3d4e73a8	0.050403267
78	0x3c876aca	0.016530413
79	0xbbf42eb2	-0.0074518556
80	0xbb84be1d	-0.0040509836
81	0xbb9f93fb	-0.0048699356
82	0x3d0fe39b	0.03512917
83	0x3c65df5d	0.014030305
84	0x3cdfbad5	0.027310768
85	0x3cf78516	0.030214828
86	0xbc1ed06f	-0.009693249
87	0xbbf8d93b	-0.0075942553
88	0x3cc5a104	0.02412463
89	0xbb9f92dc	-0.004869802
90	0x3c9b9393	0.018991267
91	0xbcbfe1a0	-0.023423016
92	0x3bcd3068	0.006261874
93	0xbc87f730	-0.01659736
94	0x3ccd0d96	0.025030892
95	0x3c0bc27e	0.008530257
96	0x3c861b48	0.01637043
97	0x3c4e8de6	0.012607073
98	0xbd0c2e19	-0.03422365
99	0x3d04a5a3	0.032384526
100	0xba04b93a	-0.00050630013
101	0x3c271bb4	0.010199476
102	0x3d431517	0.047627535
103	0xbd01b99c	-0.03167115
104	0xbb82c70c	-0.0039910134
105	0x3cc793fb	0.024362555
106	0x3cdbed73	0.026846623
107	0x3c641b11	0.013922469
108	0x3d14061b	0.036138635
109	0x3c112737	0.008859447
110	0x3c2f2401	0.010689736
111	0xbbc44829	-0.0059900475
112	0xbc5e61e0	-0.01357314
113	0x3cedb53e	0.029017087
114	0xbbab4e76	-0.005227859
115	0xbbcc4543	-0.0062338426
116	0x394f226b	0.0001975388
117	0x3bc1c870	0.0059137866
118	0x3cfebe2c	0.03109654
119	0xbccbcf81	-0.024879219
120	0xbc6f85e5	-0.014619325
121	0xbc00a8d8	-0.0078527555
122	0x3d2237d8	0.039604038
123	0x3d268c1a	0.040660955
124	0xbce5064b	-0.027957102
125	0x3c8aea8a	0.01695754
126	0x3c581da1	0.013190658
127	0xbd3ba45f	-0.045811053
128	0xbc32ea0a	-0.010920057
129	0xbcc414c8	-0.02393569
130	0x3c0901da	0.008362258
131	0x3bd6fe0d	0.006561047
132	0x3cabd3a3	0.02097494
133	0x3c323bb5	0.010878493
134	0x3b6e8840	0.003639713
135	0xbcc6c609	-0.024264352
136	0xbbe1c956	-0.006890456
137	0xbc979449	-0.018503325
138	0x3c6aa784	0.014322165
139	0xbd0a1910	-0.033715308
140	0x3a9ae03e	0.0011816097
141	0xbcdb1035	-0.026741127
142	0xbc25e5ab	-0.010125558
143	0x3d22c1ae	0.03973549
144	0xbc97c666	-0.018527221
145	0x3a8a4aed	0.0010550894
146	0x3b8f2667	0.0043685916
147	0x3d035544	0.032063738
148	0xbc1b4724	-0.00947741
149	0xbcae9892	-0.021312986
150	0xbaf4463c	-0.0018636654
151	0x3c7c580f	0.015401854
152	0x3c4873e8	0.012234665
153	0xbc9651c2	-0.018349532
154	0xbbb3c02c	-0.005485555
155	0xbd580e10	-0.052747786
156	0x3c24b39d	0.010052589
157	0x3ce115c2	0.027476195
158	0xbca869ab	-0.020558199
159	0x3b0b9955	0.002130111
160	0x3ac4b3c8	0.0015007192
161	0x3cbdc8a6	0.023166966
162	0x3c820fed	0.015876735
163	0xbc5caea1	-0.013469369
164	0xbc8f3dfd	-0.017485613
165	0x3d05cc93	0.0326658
166	0xbab46c9f	-0.0013765282
167	0xbc33ae91	-0.010966913
168	0x3b171aaf	0.0023056676
169	0xbc34e67d	-0.011041281
170	0x39bfd12d	0.00036586207
171	0xbcc3915f	-0.02387303
172	0xbc836006	-0.016036998
173	0x3cf7c079	0.030243145
174	0x3d2574bc	0.04039453
175	0xbc380fed	-0.011234266
176	0x3c3e2e16	0.011607667
177	0x3c607428	0.013699569
178	0x3c06c61d	0.008225945
179	0xbc9cf7f4	-0.019161202
180	0x3c0b1b50	0.0084903985
181	0x3c9162a7	0.017747236
182	0x3d1113ad	0.035419155
183	0xbcea2162	-0.028580371
184	0xbcac4251	-0.021027716
185	0x3c46af11	0.0121267
186	0x3d187d0c	0.03722863
187	0xbbb8aee6	-0.005636084
188	0x398a13d2	0.00026336178
189	0x3c610fd4	0.013736684
190	0x3ca91d48	0.020643845
191	0x3c3d4fb1	0.011554644
192	0xbcf87c6c	-0.030332766
193	0x3c7bbf38	0.015365414
194	0x3d4b489e	0.0496298
195	0xba45071d	-0.00075160136
196	0x3ba050a0	0.0048924237
197	0x3cb1fe7e	0.021727797
198	0xb9d142e5	-0.00039913427
199	0x3d1683b5	0.0367467
200	0xbc0924a6	-0.008370554
201	0x3c24354c	0.010022473
202	0xbbd28292	-0.0064242566
203	0xbc171be8	-0.009222962
204	0xbcca0712	-0.024661575
205	0x3c9a36ec	0.018825017
206	0xbc6ac5a7	-0.014329351
207	0xba1c9653	-0.0005973328
208	0x3d031c6d	0.03200953
209	0xbc1992b2	-0.009373354
210	0x3d2c4d5a	0.042065956
211	0x3c8753ba	0.016519416
212	0xbb9689f7	-0.0045940834
213	0x3cdd31f3	0.027001357
214	0x3caf3c58	0.021391079
215	0x3aa81ad0	0.0012825374
216	0x3a4d0b51	0.00078218157
217	0x3c6303ff	0.013855933
218	0x3ae753d9	0.001764889
219	0xbd0c933d	-0.034320105
220	0x3c5f1c0a	0.013617525
221	0x3c55eb83	0.013056639
222	0x3cc827de	0.024433073
223	0x3c4a3225	0.012341057
224	0xbae02b72	-0.0017102791
225	0xbbeb7e63	-0.0071866973
226	0xbcdc9485	-0.026926288
227	0xbd03482b	-0.032051247
228	0xbb2c4da3	-0.0026291392
229	0x3ca8b8d8	0.020595953
230	0xbbaa4b6d	-0.0051969797
231	0xbcb1707a	-0.021660078
232	0x3c8db732	0.017299268
233	0x3c4c1fe9	0.01245878
234	0xbc8b8136	-0.017029386
235	0x3d6e5bc1	0.058192972
236	0x3bcf8510	0.006333001
237	0xbb8407ab	-0.0040292344
238	0x3cdcafa7	0.026939226
239	0x3bd8aac0	0.006612152
240	0xbb3221e2	-0.002718084
241	0x3ccaf779	0.024776207
242	0xbca3d175	-0.019997338
243	0x3c718b0d	0.014742625
244	0xbb47e730	-0.0030502789
245	0xbc8b2b51	-0.016988428
246	0xbba4f408	-0.0050339736
247	0xbb3ffb1e	-0.0029293965
248	0x3bc63bbf	0.0060496028
249	0x3cf08b3e	0.02936327
250	0x3ce53fc8	0.027984515
251	0x3c458471	0.012055502
252	0x3c8da296	0.017289441
253	0xbb9d5695	-0.004801581
254	0xbc14c5d6	-0.009080371
255	0xba3e6600	-0.0007263124

network_body.linear_encoder.seq_layers.0.weight f4 [256, 91]
0	0xbc28913e	-0.010288535
1	0x3bea74a6	0.007155019
2	0x3da162b4	0.07880154
3	0x3d209d16	0.03921231
4	0x3e0c1295	0.13678963
5	0x3d4a4df9	0.049390767
6	0xbdbc26b6	-0.09187071
7	0xbd9113a3	-0.070838235
8	0xbd0423e2	-0.032260783
9	0xbd985cb5	-0.074395575
10	0xbc1df98d	-0.009642017
11	0xbcc62df7	-0.02419184
12	0x3d937a65	0.07201079
13	0x3cb8f6b7	0.02257858
14	0xbdf8001d	-0.121093966
15	0x3de6fbff	0.11278533
16	0xbe742dad	-0.23845549
17	0xbc523581	-0.012830139
18	0xbaba6eb6	-0.0014223668
19	0xbd7f094f	-0.062264737
20	0x3de487c9	0.111587115
21	0xbdbd3e98	-0.092404544
22	0xbd350c74	-0.04420133
23	0xbd44c24b	-0.048036855
24	0xbd884142	-0.06653072
25	0x3e0a4886	0.13504228
26	0xbe2e4111	-0.17017008
27	0x3cb2575a	0.021770168
28	0xbe57402f	-0.21020578
29	0x3c2a8fc7	0.010410256
30	0xbd969b56	-0.07353847
31	0x3dd42b68	0.103598416
32	0xbe736229	-0.23767914
33	0x3da9fc99	0.08300132
34	0x3e164b08	0.1467706
35	0x3c9ca4ab	0.019121489
36	0xbe8a0da6	-0.26963538
37	0x3e213aea	0.1574513
38	0xbc823de8	-0.01589866
39	0x3c84fc66	0.016233634
40	0x3dd7eb47	0.105429225
41	0x3df3b663	0.11900022
42	0xbe0bdc4b	-0.13658254
43	0xbd211ab9	-0.039332125
44	0x3cfb413c	0.030670755
45	0xbba12a8d	-0.0049184025
46	0x3d26ff52	0.040770836
47	0x3d4ff9f9	0.050775502
48	0x3e60e1e6	0.21961173
49	0x3e0899f1	0.13339974
50	0xbd633733	-0.055472564
51	0xbd5114ac	-0.051045105
52	0x3cf88be7	0.030340148
53	0xbe259361	-0.16169502
54	0x3e115fc8	0.14196694
55	0xbcb560f0	-0.02214095
56	0x3dd9186c	0.10600361
57	0x3d66b04e	0.05632048
58	0xbe38c124	-0.18042427
59	0xbcaa3aeb	-0.020780047
60	0xbd1251e0	-0.035722613
61	0x3c16a408	0.009194382
62	0xbdd0181a	-0.10160847
63	0x3d4ca899	0.049965475
64	0x3e0518bc	0.12997717
65	0xbdd737b0	-0.105086684
66	0x3df12a32	0.11775626
67	0x3df38aa7	0.1189168
68	0xbdaf0c2f	-0.08547246
69	0xbd377ce3	-0.044796836
70	0xbcbe450b	-0.023226282
71	0xbd1a5625	-0.03767981
72	0xbda360fd	-0.079774834
73	0xbd5af71f	-0.05345833
74	0xbcf599d6	-0.029980581
75	0xbd22878e	-0.039680056
76	0x3c92fa84	0.01794172
77	0x3d145c59	0.036220882
78	0xbde6266c	-0.11237797
79	0xbe03d042	-0.12872413
80	0x3d6d3c1d	0.057918657
81	0xbcd11f7a	-0.025527705
82	0xbd3489e3	-0.04407681
83	0x3e3dfb65	0.1855293
84	0xbd38583a	-0.045006014
85	0x3e2c7674	0.16842061
86	0xbe6f938f	-0.23396133
87	0xbcdfb7e1	-0.02730936
88	0x3b3a91b5	0.0028468196
89	0x3e3c68dd	0.18399377
90	0x3d67710a	0.056504287
91	0x3e072e2c	0.13201207
92	0x3d1e4d8c	0.038648173
93	0x3e9ad0db	0.3023747
94	0x3cd2d7f9	0.02573775
95	0x3e13fc66	0.14451751
96	0x3d3bd7dd	0.04586016
97	0xbccc98b4	-0.024975158
98	0x3e51d7c1	0.2049246
99	0xbd463fa3	-0.048400532
100	0x3da40296	0.08008306
101	0xbe65ee59	-0.22454204
102	0x3c836f17	0.016044183
103	0xbd367a2e	-0.044550113
104	0xbe074549	-0.13210024
105	0xbddb0b86	-0.10695557
106	0xbe0f2a5e	-0.13981006
107	0xbd996583	-0.07490065
108	0x3c7304a0	0.014832646
109	0x3e14123a	0.14460078
110	0xbd249391	-0.040179793
111	0xbd883c21	-0.06652094
112	0xbe0d95c3	-0.13826661
113	0x3df9a1a7	0.12189036
114	0xbca07e81	-0.019591572
115	0x3d4fca98	0.050730318
116	0x3cf3c3cd	0.029756451
117	0xbdf08e0a	-0.11745842
118	0xbde0dd3f	-0.10979699
119	0xbe128164	-0.14307171
120	0xbd28e185	-0.041230697
121	0xbd94094b	-0.07228335
122	0xbaa30bbe	-0.0012439413
123	0x3aee4122	0.001817737
124	0xbdc98394	-0.0983955
125	0x3c0440e2	0.00807211
126	0xbd511459	-0.051044796
127	0xbdf4c14e	-0.119509324
128	0xbd6dfb84	-0.058101192
129	0xbe039c8b	-0.12852685
130	0x3cefd9d4	0.029278673
131	0xbe18923d	-0.14899535
132	0x3e2e95fd	0.17049403
133	0x3d99e1e9	0.07513792
134	0xbe192fb3	-0.14959602
135	0xbdbd1ca8	-0.09233981
136	0x3c265075	0.010151018
137	0xbcee9bfb	-0.029127112
138	0x3d98347c	0.074318856
139	0xbc62f9e3	-0.013853523
140	0x3d8f1dc0	0.06988096
141	0x3d91b178	0.071139276
142	0xbde07e77	-0.10961621
143	0x3d088078	0.033325642
144	0x3d89b8f5	0.06724731
145	0x3db59d67	0.08867913
146	0x3dd93e37	0.1060757
147	0x3d7f5fea	0.06234733
148	0x3e72c295	0.2370704
149	0xbd53d1c5	-0.051713724
150	0xbe045094	-0.12921363
151	0x3c680008	0.014160164
152	0xbe166879	-0.1468829
153	0xbd0b300b	-0.033981364
154	0xbe007a6d	-0.12546702
155	0x3db807fa	0.089858964
156	0x3e84c4b8	0.25931334
157	0xbe0dbab3	-0.13840751
158	0x3e2a5204	0.16632849
159	0x3d315539	0.043294165
160	0x3d7c10bb	0.061539393
161	0x3cad4cde	0.021154817
162	0x3e1072c2	0.14106277
163	0xbd201b40	-0.039088488
164	0xbe036a0d	-0.12833424
165	0x3c5397b0	0.012914583
166	0x3db6fa11	0.08934415
167	0x3dc363da	0.095405295
168	0xbe59456f	-0.21217893
169	0xbd6b7c55	-0.05749162
170	0xbcd490f7	-0.02594803
171	0xbd81a91e	-0.06331085
172	0x3e5c27d9	0.21499576
173	0xbd8c99c8	-0.06865269
174	0xbc84eb39	-0.016225444
175	0xbda9794b	-0.08275088
176	0x3d8c719b	0.06857606
177	0xbc3863e9	-0.011254289
178	0x3ce1b478	0.027551875
179	0xbd3f7aa5	-0.046747822
180	0xbdaee35f	-0.08539461
181	0x3d47c1f2	0.048768945
182	0x3e2b6362	0.1673713
183	0xbd8e10b7	-0.06936782
184	0xbe223e5b	-0.15844099
185	0x3e034d78	0.1282252
186	0x3df7fc82	0.12108709
187	0xbc5b170c	-0.013372194
188	0x3c3b0c00	0.011416435
189	0x3db49a4c	0.08818492
190	0x3cd77c32	0.026304338
191	0xbc7fcff9	-0.015613549
192	0x3e9f766e	0.31145042
193	0xbdc72379	-0.09723563
194	0x3cea1c7b	0.028578034
195	0x3da588c5	0.08082727
196	0x3e4e7e0a	0.20165268
197	0xbc5ad18e	-0.013355626
198	0xbd8d6b6d	-0.069052555
199	0xbc29a470	-0.010354146
200	0xbe2cb746	-0.16866788
201	0xbce3796a	-0.027767856
202	0x3e3792b8	0.17927063
203	0x3db19cd6	0.08672492
204	0xbdc51094	-0.09622303
205	0x3d2fd558	0.04292807
206	0xbdc3c0c2	-0.0955825
207	0x3d81ecf3	0.063440226
208	0x3d2fcd84	0.042920604
209	0xbdbdac25	-0.092613496
210	0x3e08226c	0.13294381
211	0xbd5ba634	-0.0536253
212	0x3d983f16	0.07433908
213	0x3c8f6c23	0.017507618
214	0x3c8c38d0	0.017116934
215	0xbd6366f1	-0.055518094
216	0x3cca87de	0.02472299
217	0xbd189da1	-0.0372597
218	0x3cb67b77	0.02227567
219	0xbd92e6ef	-0.07172953
220	0x3df9d62e	0.12199055
221	0x3db49643	0.08817723
222	0x3db2574b	0.08708056
223	0x3d643b4d	0.055720616
224	0xbe33e737	-0.1756867
225	0xbd32f37a	-0.04368923
226	0xbda2368e	-0.07920562
227	0x3d957ad0	0.07298815
228	0x3d58572c	0.05281751
229	0x3df3b903	0.119005226
230	0xbdb14929	-0.08656532
231	0x3cb9f687	0.022700561
232	0x3df798d3	0.12089696
233	0x3e290a13	0.1650775
234	0xbccef275	-0.025262097
235	0xbdc271fd	-0.09494398
236	0x3e119b46	0.14219388
237	0xbd8deeeb	-0.069303356
238	0xbd5d9213	-0.054094385
239	0x3e14f44c	0.14546317
240	0xbdc86d8c	-0.097865194
241	0x3e50e400	0.20399475
242	0xbcd33723	-0.025783127
243	0x3dbfda07	0.09367757
244	0xbd7b5b37	-0.061366286
245	0xbc969309	-0.018380659
246	0x3dd1eda9	0.10250408
247	0xbd354fc1	-0.044265512
248	0x3da944d7	0.08265083
249	0xbe05e200	-0.13074493
250	0xbcbfe457	-0.02342431
251	0xbc185bc0	-0.009299219
252	0x3a71295d	0.0009199584
253	0xbe018a3a	-0.12650385
254	0xbdabcb0d	-0.08388338
255	0xbd4fee21	-0.050764207

network_body.linear_encoder.seq_layers.2.bias f4 [256]
0	0x3d1259ed	0.03573029
1	0x3ca95244	0.02066911
2	0xbbbd0d76	-0.005769427
3	0xbb129cf7	-0.002237139
4	0xbca26da5	-0.019827673
5	0xbb9db26e	-0.0048125302
6	0xbc89178a	-0.016734857
7	0xbb60f7ab	-0.003432731
8	0xbc41fc97	-0.011840007
9	0xbc3341f0	-0.010941014
10	0xbc8c771c	-0.01714664
11	0xbaf29dd6	-0.0018510174
12	0xbc6509eb	-0.013979415
13	0xbc9a60fd	-0.018845076
14	0xbd06fd7c	-0.032956585
15	0xbb4a8763	-0.003090345
16	0x3b19f8cd	0.0023494244
17	0xbba3f430	-0.0050034747
18	0xbcc0f51a	-0.023554374
19	0xbb346d68	-0.0027531032
20	0xbcf81148	-0.030281678
21	0xbc84ffde	-0.016235288
22	0x3c60a8b0	0.013712093
23	0x3baf7713	0.005354771
24	0x3b124032	0.0022316095
25	0xbc8f2b1a	-0.017476607
26	0x3c753868	0.014967062
27	0x3c9347bc	0.017978542
28	0x3caf5dfe	0.021407124
29	0x3bb99bb7	0.0056643146
30	0xbc3848d5	-0.011247833
31	0x3ca83639	0.020533668
32	0xbc4cf527	-0.012509621
33	0x3b4aea3f	0.0030962375
34	0xbd157a70	-0.03649372
35	0x3cb46abb	0.02202355
36	0xbcbca425	-0.023027489
37	0xbb32d029	-0.0027284718
38	0x3be630b8	0.0070248507
39	0xbd01c418	-0.03168115
40	0xbb6b873f	-0.0035938767
41	0x3cae23e3	0.021257346
42	0xbc223fbe	-0.009902893
43	0x3b82d982	0.003993214
44	0x3c6e32d9	0.01453849
45	0x3c9c33bf	0.019067643
46	0xbb8ee48f	-0.0043607424
47	0x3c8269d3	0.015919602
48	0xbc86173d	-0.016368503
49	0x3cad856a	0.02118178
50	0xbc27811a	-0.010223651
51	0x3cf65e15	0.030074159
52	0xbd01e0cd	-0.031708527
53	0x3cc681c6	0.024231803
54	0xba68fa2d	-0.0008887377
55	0x3d066e3e	0.03281998
56	0x3cc99830	0.024608701
57	0x3cd0ef7f	0.025504826
58	0x3b5e1b93	0.0033890947
59	0xbc71bc37	-0.014754347
60	0xbccb2156	-0.02479617
61	0x3c904b27	0.01761396
62	0xbcc992b2	-0.024606083
63	0xbd1cfc11	-0.038326327
64	0x3cba0f8a	0.022712488
65	0xbca40771	-0.02002308
66	0xbd2512bf	-0.04030108
67	0x3cd598a6	0.026073765
68	0xbae4d0b1	-0.0017457214
69	0x3b5727bc	0.003283008
70	0x3b8e04e3	0.0043340786
71	0xbc02b54f	-0.007977798
72	0xbc3f847e	-0.011689303
73	0xbcedcbd0	-0.02902785
74	0xbcf439ba	-0.029812682
75	0xbcc57d88	-0.02410771
76	0x3c437b16	0.011931201
77	0xbbf1020e	-0.0073549813
78	0xbd2a52e8	-0.04158297
79	0x3b562b45	0.00326796
80	0xbcef1417	-0.029184384
81	0x3ca2c1f8	0.019867882
82	0xbd4159a7	-0.04720464
83	0x3c99ebce	0.018789198
84	0xbd22cb31	-0.03974456
85	0xbcc6ee56	-0.02428357
86	0xbcf3a662	-0.029742423
87	0xbbd02e04	-0.0063531417
88	0xbce79a91	-0.028271945
89	0xbcc082bf	-0.023499845
90	0x3aa7e694	0.0012809807
91	0x3cdf2fdd	0.027244503
92	0x3cab02b7	0.020875318
93	0x3c477243	0.012173238
94	0x3d0ad4bd	0.03389429
95	0x3bc08cac	0.0058761444
96	0xbbcc7901	-0.0062400107
97	0xbd137e7a	-0.03600929
98	0x3c9e0521	0.019289555
99	0xbb79dc55	-0.0038125713
100	0x3d011b65	0.031520266
101	0x3c9316fc	0.017955296
102	0xbb8a2a75	-0.004216487
103	0x3cc615c9	0.02418031
104	0xbc3e19ff	-0.011602878
105	0xbc377173	-0.011196482
106	0xbc449216	-0.01199772
107	0x3cd03484	0.025415666
108	0xbc302a45	-0.010752265
109	0xbd0b6d32	-0.034039684
110	0xbcfff950	-0.031246811
111	0x3c491db1	0.012275145
112	0x3c0a29db	0.008432831
113	0xbc983afc	-0.018582813
114	0x3c98ec59	0.018667387
115	0xbbe1a48a	-0.0068860697
116	0xbcaa27bb	-0.020770898
117	0x3c4857f3	0.012228
118	0x3c9b169c	0.01893168
119	0xbc17d1f3	-0.009266364
120	0x3cab0efe	0.020881172
121	0x3cf567c4	0.029956706
122	0xbd0a3827	-0.033744957
123	0xbc9dcbff	-0.019262312
124	0x3c8828af	0.016620962
125	0xbac9c81f	-0.0015394724
126	0xbc8ffe88	-0.017577425
127	0x3c771201	0.015079976
128	0x3cf9c6b1	0.030490251
129	0x3b0bd2eb	0.0021335434
130	0xbbe810ec	-0.0070820954
131	0x3c574365	0.013138627
132	0x3cc125a8	0.023577526
133	0x3c90c5c7	0.017672433
134	0xbcfa85bf	-0.030581353
135	0xbc8b54dc	-0.017008238
136	0xbc967cf6	-0.018370133
137	0xbb9e3ebc	-0.004829256
138	0xbca8a060	-0.020584285
139	0x3d31406d	0.04327433
140	0x3b2e1df8	0.0026568156
141	0xbc30106b	-0.010746102
142	0x3b275e61	0.0025538432
143	0x3aacc2a0	0.0013180561
144	0x3a213af5	0.0006150448
145	0x3c9c7eb5	0.019103387
146	0xbcece301	-0.028916838
147	0x3b6ec803	0.0036435134
148	0xbc372004	-0.011177067
149	0xbd0ef4ac	-0.034901306
150	0xbc746d3f	-0.014918624
151	0xbcef8a5b	-0.029240778
152	0xbc09a10e	-0.008400215
153	0x3c1f9dd4	0.009742219
154	0xbcb388f6	-0.021915894
155	0xbcedbfea	-0.029022176
156	0x3bca7078	0.006177958
157	0x3c4386fe	0.01193404
158	0x3c9148aa	0.017734844
159	0xb9b461c7	-0.00034405125
160	0x3c8382f7	0.01605366
161	0xbcb538d7	-0.02212183
162	0x3c67d891	0.014150755
163	0xbd0282b7	-0.03186294
164	0x3ce97968	0.028500274
165	0xbd006bfa	-0.031352974
166	0xbc169962	-0.009191843
167	0x3c64e378	0.013970248
168	0xbd03e397	-0.03219947
169	0xbd043c53	-0.032284092
170	0xbcdfb0f0	-0.02730605
171	0xbc7c9677	-0.015416733
172	0xbaa24aad	-0.0012381874
173	0x3c5f9829	0.013647118
174	0x3c8e6788	0.017383352
175	0xbc88797d	-0.016659493
176	0x3cb846d8	0.022494718
177	0xba6c56af	-0.00090156024
178	0x3bf871dc	0.0075819325
179	0x3ca932bc	0.020654075
180	0x3bdb4c67	0.0066924575
181	0xbd2f17d1	-0.042747322
182	0x3c2b73f1	0.010464654
183	0xbb74f3b5	-0.0037376706
184	0xbbe2cb88	-0.0069212355
185	0xbc84f25b	-0.016228845
186	0x3c665a01	0.014059545
187	0xbcd6869a	-0.02618723
188	0x3c4e68b6	0.012598207
189	0x3d2d8f87	0.042373206
190	0xbc9de96e	-0.019276347
191	0x3c7dd463	0.0154925315
192	0xbd01234a	-0.031527795
193	0x3cf83298	0.030297562
194	0x3c6ad7fe	0.014333723
195	0xbd0d2cfd	-0.034466732
196	0xbcc18b1b	-0.023625901
197	0xbd0ff79f	-0.03514826
198	0x3d130bcf	0.035899933
199	0xbc31de2a	-0.010856191
200	0x3c1098e1	0.008825512
201	0x3c66e255	0.014092048
202	0x3c474ff0	0.012165055
203	0x3c387f22	0.01126078
204	0x3cc2cf9a	0.023780633
205	0x3cb9842a	0.022646029
206	0xbca75aee	-0.0204291
207	0xbc934fba	-0.017982353
208	0xbb20e78b	-0.0024552073
209	0xbcff9c8b	-0.031202575
210	0xbb8f7424	-0.0043778587
211	0xba33128d	-0.00068310724
212	0x3bbf136b	0.005831172
213	0x3ca99079	0.020698773
214	0xbd0dbcf1	-0.034604017
215	0xbd0d4275	-0.034487206
216	0xbd07c147	-0.033143308
217	0xbb2dba04	-0.002650858
218	0xbd4460bb	-0.047943812
219	0xbcffc4fe	-0.031221863
220	0x3d18009f	0.037109967
221	0xbcf88547	-0.03033699
222	0x3bff7cda	0.007796866
223	0xbd26c4b8	-0.04071495
224	0xbbd1e306	-0.006405237
225	0xbc7566ea	-0.01497815
226	0x3c1f7b87	0.009734041
227	0x3c22372d	0.00990085
228	0xbcdfd462	-0.027322952
229	0x3cace16d	0.021103585
230	0xbb92fd40	-0.004485756
231	0xbbe2142a	-0.0068993764
232	0x3a0f38ed	0.00054634997
233	0xbc14f7f2	-0.009092318
234	0x3c8d0163	0.017212575
235	0x3cda8394	0.02667407
236	0xbc4c4ac7	-0.012469
237	0x3c741f6e	0.014900072
238	0xbd184c8e	-0.037182383
239	0xbcd4d912	-0.025982413
240	0xbd1bc0c3	-0.03802563
241	0xbc5e4064	-0.013565157
242	0xbc50cb14	-0.01274373
243	0x3c18caca	0.009325692
244	0xbb03175c	-0.0020002937
245	0xbcc233e6	-0.023706388
246	0xbcc17d01	-0.023619177
247	0x3be76a05	0.007062199
248	0x3c8d8478	0.01727508
249	0xbbc58068	-0.00602727
250	0xbc3178be	-0.01083201
251	0x3b4a4339	0.0030862822
252	0xbc68ed3c	-0.014216717
253	0xbc245e82	-0.010032298
254	0xbafc193d	-0.0019233596
255	0xbd35adc0	-0.044355154

network_body.linear_encoder.seq_layers.2.weight f4 [256, 256]
0	0xbd4b3dbf	-0.049619433
1	0x3c5e63b3	0.013573575
2	0xbdcc57d0	-0.099776864
3	0xbb48cb1f	-0.0030638648
4	0xbd85fb37	-0.06542056
5	0x3cf713a6	0.030160736
6	0x3da03baa	0.0782388
7	0x3abf03d9	0.001457329
8	0xbb8e2c53	-0.00433878
9	0x3dc3a321	0.09552599
10	0xbbde7666	-0.0067890165
11	0x3d7ccc21	0.06171811
12	0x3d72c1b8	0.059266776
13	0x3c61a3a4	0.013771925
14	0xbd0855a8	-0.033284813
15	0xbd89cf59	-0.067290016
16	0x3c31188f	0.010809078
17	0x3a8f2c74	0.0010923282
18	0x3dfb6d5c	0.12276718
19	0xbd0145d4	-0.031560734
20	0xbd7abbbf	-0.061214205
21	0x3c7134b1	0.014722035
22	0xbd970bea	-0.07375319
23	0x3d843ede	0.064573035
24	0xbc8c6a37	-0.017140491
25	0x3d160b1d	0.036631692
26	0xbd224c48	-0.03962353
27	0x3dc0b957	0.09410351
28	0xbda89ba2	-0.082328096
29	0x3d3ec6a9	0.046576176
30	0xbceed332	-0.02915344
31	0xbd02938a	-0.031878985
32	0xbbe00183	-0.0068361177
33	0x3d94112f	0.0722984
34	0x3c0713f4	0.008244503
35	0x3bc45aaa	0.0059922533
36	0xbbaf1bf7	-0.00534391
37	0x3da2c8b1	0.07948435
38	0xbce185f1	-0.027529689
39	0x3d94ace1	0.072595365
40	0xbca0734a	-0.019586224
41	0x3d927441	0.0715108
42	0xbdcc336f	-0.09970748
43	0xbdaf80f0	-0.08569515
44	0x3c25d923	0.01012257
45	0xbc6c0a4b	-0.014406751
46	0x3dab26bd	0.08356998
47	0x3e58b867	0.21164094
48	0xbd6360c4	-0.055512205
49	0xbd71ba05	-0.059015293
50	0x3c993f0b	0.018706819
51	0x3d1aeda4	0.037824288
52	0xbdb41db6	-0.087947294
53	0x3b4a4d76	0.0030868924
54	0x3c90ece0	0.017691076
55	0x3d0f34f6	0.034962617
56	0xbdd8ad0f	-0.10579883
57	0xbd92f14f	-0.07174932
58	0xbd0ce4db	-0.03439794
59	0x3bd52f3b	0.0065058745
60	0x3b9ed09d	0.004846646
61	0xbd6c3be4	-0.057674304
62	0x3d719b0a	0.058985747
63	0x3dd00f1c	0.10159132
64	0xbcfde27f	-0.03099179
65	0x3ca16d37	0.019705398
66	0x3e0a3192	0.13495472
67	0x3cfb5a2b	0.030682644
68	0x3d7ae364	0.061252013
69	0x3c6dea81	0.014521242
70	0x3d6315ba	0.055440642
71	0xbd54f6b2	-0.05199308
72	0x3dd5e2e9	0.1044367
73	0x3dc3fe05	0.09569935
74	0xbdb40544	-0.08790067
75	0xbd3f3588	-0.04668191
76	0x3da059fc	0.07829663
77	0x3df19897	0.11796682
78	0x3d736b7b	0.059428673
79	0xbe229274	-0.1587618
80	0xbd71c586	-0.059026264
81	0xbdb24471	-0.087044604
82	0x3c6b13ef	0.014348014
83	0x3c944c21	0.018102707
84	0xbce7a2e0	-0.028275907
85	0xbd10badc	-0.035334453
86	0x3d90d72f	0.07072293
87	0x3dc82b17	0.09773844
88	0x3d0cc463	0.034366976
89	0xbb1aaddb	-0.002360216
90	0xbd7e1db6	-0.062040053
91	0xbd2224fe	-0.03958606
92	0xbd6e8326	-0.05823054
93	0x3dd6084d	0.10450802
94	0x3dc97829	0.09837372
95	0x3bff6584	0.007794084
96	0x3e6273b4	0.2211445
97	0xbd04c17b	-0.03241108
98	0x3ccf03a5	0.025270293
99	0x3d6501e5	0.05591001
100	0xbbf2cbb2	-0.0074095363
101	0xbd3a8e2c	-0.045545742
102	0x3cda92a8	0.02668126
103	0xbbaaaf97	-0.00520892
104	0x3d515977	0.05111071
105	0xbe1ba906	-0.15201196
106	0xbcfa9cdc	-0.030592375
107	0xbb07eb5d	-0.0020739653
108	0xbdb6686e	-0.08906637
109	0x3da6997d	0.08134744
110	0x3dbba59f	0.09162449
111	0xbd12dc56	-0.03585466
112	0x3c1b0108	0.009460695
113	0xbc39a2a5	-0.011330281
114	0xbc308d7c	-0.01077592
115	0xbd80011a	-0.0625021
116	0x3df6c93f	0.120501034
117	0x3cfbe5d0	0.030749232
118	0x3d50c386	0.050967716
119	0xbd71af4a	-0.05900506
120	0xbc8488d3	-0.016178524
121	0xbdb4aa18	-0.08821505
122	0xbd02be82	-0.031919964
123	0x3e12be68	0.14330447
124	0xbda4cb89	-0.08046634
125	0xbc638a99	-0.013888025
126	0x3df0f4e7	0.117654614
127	0x3d9d4d83	0.076808
128	0xbd9c340e	-0.07627116
129	0x3da97181	0.08273602
130	0xbd0adf39	-0.033904288
131	0xbdcea4f5	-0.10090057
132	0xbc272d7c	-0.010203715
133	0x3cca9f01	0.024734022
134	0xbcc40ec1	-0.023932816
135	0x3d614136	0.05499383
136	0xbe0dc6e6	-0.13845405
137	0x3dd20c37	0.10256236
138	0x3d196f83	0.03745986
139	0xbd45e629	-0.0483152
140	0xbe15b755	-0.14620717
141	0x3ba3ac4d	0.004994905
142	0xbc07463b	-0.00825649
143	0xbdf2ee51	-0.118618615
144	0x3c19170a	0.009343872
145	0x3d62bee5	0.055357832
146	0x3e3ea7c3	0.18618684
147	0xbd5d2dcb	-0.05399875
148	0xbdf77913	-0.1208364
149	0xbd7717c6	-0.060325406
150	0xbdd818d6	-0.10551612
151	0x3bb5c767	0.0055474523
152	0xbdf76230	-0.12079275
153	0x3d4fe3ed	0.050754476
154	0x3c7f11d9	0.01556822
155	0xbc4ee6cb	-0.0126282675
156	0x3b29efb7	0.0025930235
157	0xbda26e9c	-0.07931253
158	0x3d1436ab	0.036184948
159	0x3d57aa02	0.052652366
160	0x3d6c60e2	0.057709582
161	0x3cac83eb	0.021058997
162	0xbd95f901	-0.07322884
163	0xbdb077b5	-0.08616582
164	0x3c0660db	0.008201803
165	0x3e2064ea	0.15663496
166	0xbdab4627	-0.0836299
167	0x3d4cd587	0.050008323
168	0xbd184041	-0.037170652
169	0xbc4cd923	-0.012502941
170	0x3da418c4	0.08012536
171	0xbcf62b1b	-0.030049851
172	0xbd04be5f	-0.032408115
173	0xbde35577	-0.111002855
174	0x3d6509f0	0.05591768
175	0xbe3ac011	-0.1823733
176	0xbd0c0a2b	-0.034189384
177	0xbbae9972	-0.0053283507
178	0xbd66ca18	-0.056345075
179	0xbd6d8616	-0.057989202
180	0xbcf1a562	-0.029497806
181	0x3d42b8ca	0.04753951
182	0x3dc2e94f	0.09517156
183	0x3d46f2a0	0.04857123
184	0x3da0848c	0.07837781
185	0xbd95b06f	-0.07309043
186	0x3d8c275c	0.06843445
187	0xbd558caf	-0.05213612
188	0x3cdc939d	0.026925856
189	0xbd3a3602	-0.045461662
190	0x3e0bfc15	0.1367038
191	0xbe066b59	-0.13126887
192	0xbdcdf830	-0.10057104
193	0x3b2fb924	0.0026813233
194	0xbb64350e	-0.0034821662
195	0xbd7a2514	-0.061070517
196	0xbce6398c	-0.028103612
197	0x3b034cc7	0.0020034777
198	0xbd85f6b2	-0.06541194
199	0x3d37671c	0.044776067
200	0xbc33418d	-0.0109409215
201	0xbd31144c	-0.043232247
202	0xbd986e8e	-0.07442962
203	0xbe03f56f	-0.12886594
204	0x3c8daffc	0.01729583
205	0x3dde9f1b	0.10870191
206	0xbdcc3b98	-0.09972304
207	0xbc933d2f	-0.01797351
208	0x3c183d97	0.009292028
209	0x3dff2d2d	0.124597885
210	0x3e1ad1e9	0.15119137
211	0xbd7fc09e	-0.062439553
212	0x3df33b03	0.1187649
213	0x3e0ce353	0.13758592
214	0xbdd812d4	-0.10550466
215	0x3d9f9d20	0.07793641
216	0xbdc862f5	-0.097844996
217	0xbdb02a74	-0.08601847
218	0x3d52c482	0.051456936
219	0xbde3b11a	-0.11117764
220	0xbe03ae3e	-0.12859437
221	0x3d290647	0.041265752
222	0xbdf6157c	-0.120158166
223	0x3db6c074	0.08923426
224	0xbd0f48fb	-0.03498171
225	0xbdd1ffc1	-0.10253859
226	0xbce31f00	-0.027724743
227	0x3d36a3a1	0.044589642
228	0xbe134e79	-0.14385404
229	0x3d16282d	0.03665941
230	0xbdb44186	-0.0880156
231	0xbde18d71	-0.11013306
232	0xba3c2c55	-0.0007178237
233	0xbab9892c	-0.001415526
234	0xbcec37ce	-0.028835203
235	0x3a9075ac	0.0011021397
236	0xbe44df5d	-0.19225831
237	0x3c8218e2	0.015881006
238	0x3da2e255	0.07953326
239	0xbd7cd6e2	-0.061728366
240	0xbd4c85cf	-0.049932297
241	0xbbc6c3bd	-0.0060658143
242	0xbd9613ff	-0.07328033
243	0xbd4b3289	-0.04960874
244	0x3cfa93cb	0.030588051
245	0x3c7f7948	0.015592881
246	0xbd531f20	-0.051543355
247	0x3d80f93a	0.06297536
248	0x3ce1ec14	0.027578391
249	0xbd1fc981	-0.03901053
250	0xbc7d5b76	-0.0154637005
251	0xbd9fddd2	-0.07805981
252	0xbc88932f	-0.016671745
253	0xbdabf1c1	-0.0839572
254	0xbd359341	-0.044329885
255	0x3cd8afdf	0.02645105

network_body.vector_processors.0.normalizer.running_mean f4 [91]
0	0x3f4a4580	0.790123
1	0x3aa058c8	0.001223349
2	0x394c13fb	0.000194624
3	0x3e5574d5	0.20845349
4	0x3eb71191	0.3575559
5	0x3f455325	0.77079993
6	0x3c19f820	0.0093975365
7	0x3abc0b09	0.001434655
8	0x3e5f8d63	0.21831279
9	0x3f02c890	0.51087284
10	0x3f44ad46	0.76826894
11	0x3c363654	0.011121351
12	0x39f1fa60	0.00046153646
13	0x3e61670e	0.22011968
14	0x3f02f7d1	0.5115939
15	0x3f41660c	0.75546336
16	0x3aa9d26e	0.001295639
17	0x3951e8a3	0.00020018457
18	0x3e78de46	0.2430354
19	0x3ec7479a	0.38921815
20	0x3f3dff67	0.7421784
21	0x3c0d9439	0.008641296
22	0x3994af77	0.0002835949
23	0x3e7ed2fd	0.24885173
24	0x3f08e6d2	0.53477204
25	0x3f398c3f	0.72479624
26	0x3c22fd35	0.009948065
27	0x3a8edac4	0.0010898937
28	0x3e873d0b	0.2641376
29	0x3f0bc171	0.54592043
30	0x3f568a2b	0.8380458
31	0x3a4d890e	0.0007840552
32	0x39d1e8a5	0.0004003692
33	0x3e249f8e	0.1607649
34	0x3e8e4e85	0.2779428
35	0x3f38d964	0.7220671
36	0x3cc377f8	0.023860916
37	0x3a5aa7a3	0.000834102
38	0x3e81a7da	0.25323373
39	0x3f0f0954	0.5587361
40	0x3f4346b2	0.7627975
41	0x3cd61986	0.026135217
42	0x3a0a7b44	0.000528265
43	0x3e579606	0.21053323
44	0x3f0762b6	0.52884996
45	0x3f54f0f2	0.83180153
46	0x3a41dfd4	0.0007395719
47	0x393a95e2	0.00017794178
48	0x3e2b4a87	0.16727649
49	0x3e910820	0.2832651
50	0x3f42a841	0.76037985
51	0x3cc6b3d9	0.02425568
52	0x39833168	0.00025023078
53	0x3e5c3893	0.21505956
54	0x3f083bc9	0.53216225
55	0x3f3deb74	0.741874
56	0x3cc4556c	0.023966514
57	0x3a190ef9	0.0005838718
58	0x3e6f2020	0.23352098
59	0x3f0bc1d5	0.5459264
60	0x3f08b1e3	0.53396434
61	0x3c64213e	0.013923941
62	0x3bd7600d	0.0065727294
63	0x3ee412b7	0.44545528
64	0x3f33e5a8	0.702723
65	0x3f0c5ed0	0.5483217
66	0x3edc3895	0.4301192
67	0x3f329314	0.69755673
68	0x3c9a6761	0.018848123
69	0xbae68c16	-0.0017589356
70	0xbcbbfd00	-0.022947788
71	0x3f656644	0.8960917
72	0xbbdd673f	-0.0067566927
73	0xbc969489	-0.018381374
74	0x3f48360f	0.78207487
75	0x3e27b6dc	0.16378349
76	0xbf5d4bdb	-0.8644387
77	0x40349a35	2.821912
78	0x42293215	42.29891
79	0x3f051db8	0.5199847
80	0x3fdc27b8	1.7199621
81	0x428be41f	69.94555
82	0xbd8a725d	-0.06760094
83	0x40a3244b	5.0981803
84	0x3d5afebe	0.053465597
85	0x3c7b1393	0.015324491
86	0xbd8b1458	-0.0679099
87	0x3f2e0807	0.67981
88	0x3f3da4a9	0.74079376
89	0x3f32567b	0.6966321
90	0x3f3d2ae2	0.7389356
