Assets/ML-Agents/mla-1.0.6/results/carchase02/CarAgent/CarAgent-12840.onnx (onnx, 362126 bytes, 9 tensors)

53 f4 [91]
000000 54 8b cc 3e 7d 12 82 3d 49 92 90 3c e4 df ca 3e
       0.3995005 0.063511826 0.01764788 0.3962394
000010 ba 99 a5 3e d3 c3 cd 3e df 1b 8f 3d c7 0c b1 3c
       0.32343847 0.40188465 0.06987738 0.021612538
000020 b0 ba cb 3e 37 d9 80 3e 41 8f a3 3e 80 12 82 3d
       0.3979087 0.25165722 0.31945232 0.06351185
000030 fb 69 7a 3c 60 ee a0 3e 1a 31 4e 3e 1e 25 c1 3e
       0.015284057 0.31431866 0.20135918 0.3772363
000040 21 54 fa 3c 3a a1 a1 3c 84 96 c0 3e bd f3 9c 3e
       0.030557694 0.0197302 0.37614834 0.30654708
000050 bf 95 88 3e 30 6f c3 3d 49 92 90 3c f5 7a 80 3e
       0.26676747 0.09542692 0.01764788 0.2509381
000060 63 43 27 3e d5 b9 c2 3e 1b b0 c6 3d 7e 3a bf 3c
       0.163343 0.38032404 0.09701558 0.023343321
000070 18 40 be 3e 55 49 71 3e 79 91 c8 3e c5 0c b1 3c
       0.37158275 0.2356313 0.39173487 0.021612534
000080 c6 0c b1 3c 2f 38 c8 3e 3c 63 ac 3e e1 43 ce 3e
       0.021612536 0.39105365 0.3366946 0.40286162
000090 bf a9 d1 3d 3a a1 a1 3c 85 0a ca 3e 21 6d 72 3e
       0.102374546 0.0197302 0.3946115 0.23674442
0000a0 ba 7d d4 3e 4c 4b c8 3d fb 69 7a 3c b5 06 d1 3e
       0.41502172 0.09779987 0.015284057 0.4082543
0000b0 22 f5 7a 3e 6a 33 d2 3e 60 06 49 3d c6 0c b1 3c
       0.24507573 0.4105485 0.049078345 0.021612536
0000c0 f9 31 d1 3e 24 58 b4 3e 1d a2 de 3e 18 e3 c9 3d
       0.4085844 0.35223496 0.43483058 0.09857768
0000d0 04 78 4c 3c 14 7d db 3e a1 bb 83 3e 74 66 d7 3e
       0.012479786 0.42868865 0.25729087 0.42070353
0000e0 bb 2e d3 3d fb 69 7a 3c eb 7d d3 3e 06 89 7e 3e
       0.103116475 0.015284057 0.41307005 0.24856958
0000f0 19 06 f0 3e f4 ac 41 3e 7e 3a bf 3c d8 f6 e7 3e
       0.46879652 0.18913633 0.023343321 0.45305514
000100 16 7f 7d 3e 6d 0c f3 3e a2 07 eb 3e ba 89 80 3e
       0.2475551 0.47470418 0.4590426 0.25105077
000110 e1 26 b8 3c 12 e2 c3 3d e0 52 82 3e 3d 49 12 3e
       0.022479476 0.09564604 0.25453854 0.1428575
000120 51 55 36 3e c7 c7 30 3d 63 fd 81 3d 7c e6 ac 3e
       0.17805983 0.043159273 0.06347158 0.33769596
000130 c1 ed 7b 3f cf 71 8a 3f 34 2b bf 3e 61 f6 22 3c
       0.9840966 1.0815982 0.3733765 0.009946437
000140 9a d3 8f 3c b3 aa 19 42 c8 ad 4e 3f 2e 27 be 42
       0.017556954 38.4167 0.8073392 95.07652
000150 49 18 a1 3d e1 63 e1 3d c3 56 ea 3e d8 3f d4 3e
       0.0786596 0.110053785 0.4576932 0.4145496
000160 e4 0f d2 3e eb f2 d5 3e 4e 0e db 3e
       0.4102775 0.41786894 0.4278435

54 f4 [1, 2]
000000 c4 99 1c 3b 40 40 ce bc
       0.0023895362 -0.025177121

distribution.mu.bias f4 [2]
000000 98 8c 00 3c ec 60 d8 bb
       0.00784602 -0.006603351

distribution.mu.weight f4 [2, 256]
000000 40 9f 76 bc ac 60 6a bc 08 6a 1a bc 97 03 38 bc
       -0.015052617 -0.014305275 -0.009424694 -0.011231325
000010 9c ad 5e 3c 90 a3 19 bc db c7 01 bb 6c e3 83 3c
       0.013591196 -0.009377375 -0.001980296 0.016099654
000020 cd e0 a1 bb dd b2 17 b9 61 45 82 bc 1c 1c 59 3c
       -0.0049401284 -0.00014467114 -0.015902223 0.013251331
000030 46 5a a2 3b 22 d9 4a 39 c5 90 87 3b c8 ca 55 3c
       0.004954609 0.0001934511 0.004137131 0.013048835
000040 06 95 e9 3b fe 46 8f 3c 16 7a 87 bb 04 71 90 bb
       0.0071283607 0.017489906 -0.004134427 -0.0044080038
000050 25 5a b0 bc 19 30 fd 3b fb 55 ba 3b b5 7c 75 3c
       -0.02152736 0.007726681 0.005686519 0.014983346
000060 d7 68 ba bc 84 56 b5 bb c6 30 c2 bc c0 83 95 3c
       -0.02275507 -0.005533995 -0.023704898 0.0182513
000070 95 20 03 bc e6 3d 82 3c 80 fc 7c bb 80 4c cc 3a
       -0.008003374 0.015898656 -0.003860265 0.0015586764
000080 19 eb 78 bc b3 4d 0c bd e3 53 95 bb e8 44 f6 ba
       -0.01519277 -0.034253787 -0.004557119 -0.0018788846
000090 a9 a4 82 ba 44 db 9d bc e3 83 98 bb 51 79 28 3c
       -0.0009967285 -0.019269593 -0.004654394 0.01028283
0000a0 de a5 ae 3c f1 b5 bb 3b d8 a6 87 3c da 3f 05 3d
       0.021319326 0.005728476 0.01655905 0.032531597
0000b0 4e 90 24 3a 8c d2 c5 3a fa d5 81 bb bb 00 a8 bc
       0.00062776066 0.0015092655 -0.0039622756 -0.02050816
0000c0 53 40 59 bb d4 91 9a 3c 0b 2c 0c bd 07 88 2c bc
       -0.0033149912 0.018868364 -0.03422169 -0.010530478
0000d0 99 64 41 3b 6d 45 56 3c a0 5c e3 3c 97 7f 45 3c
       0.0029509424 0.013078076 0.027754128 0.012054346
0000e0 72 69 23 3d 42 5a af 3b 22 77 14 ba b3 90 e0 3c
       0.039895482 0.0053513357 -0.0005663504 0.027412748
0000f0 7b 80 88 3c b8 e0 89 bc d2 05 9d 3b 37 d0 54 3c
       0.016662827 -0.016830787 0.0047919536 0.012989095
000100 d8 e1 a4 bb 32 3b 52 bc 83 60 69 bb 4f f7 bc bc
       -0.0050318055 -0.012831496 -0.0035610504 -0.023067145
000110 b2 4f 31 3c 02 cf 43 bb 0f 64 73 b9 55 aa c9 3b
       0.0108222235 -0.0029878025 -0.0002321156 0.0061543384
000120 48 ad ab bb fa ee 68 bc 3c 52 7e bc 14 3b db bb
       -0.0052391626 -0.014217133 -0.015522536 -0.0066903923
000130 7c 17 76 bc c1 ab 76 3c 95 41 07 3b b1 de 34 3b
       -0.015020248 0.015055598 0.0020638455 0.0027598555
000140 71 2c cb bc da 25 e6 b7 89 1c 22 bc 18 11 99 bc
       -0.024801465 -2.7435763e-05 -0.009894499 -0.018684909
000150 90 64 ea ba da 45 8d bb e1 6a 08 3b 32 62 c6 3b
       -0.0017882753 -0.0043113055 0.0020815658 0.0060541863
000160 ac e2 0a bc 87 a1 9d 3c f5 c5 be bc 88 bb 27 bc
       -0.008476894 0.019242061 -0.023287753 -0.010237582
000170 fb 23 9c bc ed 74 61 bc f9 b5 8a ba c9 7b 02 3c
       -0.019060126 -0.013760787 -0.0010582797 0.007964083
000180 3b 67 b7 b9 04 34 49 bc c4 99 e7 ba 50 04 91 3c
       -0.00034981393 -0.012280468 -0.0017669727 0.017702252
000190 f1 6a 1f 3c 57 20 3c 3c 6d 24 8a 3b f3 86 94 bc
       0.009730087 0.01148232 0.004215768 -0.018130755
0001a0 43 5c c7 bb d2 01 b7 b8 5b b9 79 bc 30 de 8a 3c
       -0.0060839965 -8.726459e-05 -0.015241946 0.01695165
0001b0 b8 1e c3 bc ad b0 10 bc 69 0a 5b 3c 1f 3e 98 3c
       -0.023818359 -0.008831185 0.013369181 0.01858431
0001c0 4d d9 68 ba 21 38 2e bc 1f 8f c1 3c 29 8d ea 3a
       -0.0008882478 -0.010633499 0.023627816 0.0017894852
0001d0 b3 d2 a1 bb 6e d8 43 ba ee 47 e2 ba bd 03 c2 3b
       -0.0049384474 -0.000747091 -0.0017263868 0.005920856
0001e0 5e d3 5c 3b bd 63 39 3c f2 8e 88 bc 4e 2b df 3a
       0.003369532 0.011315283 -0.016669724 0.0017026456
0001f0 de a6 92 bb bd 7f e2 3c ed ac b9 3b ee 60 59 3c
       -0.0044754585 0.027648801 0.0056663663 0.013267739
000200 e3 f0 18 3c 9f b7 04 bd fe cb 36 3b 7c 23 ef b9
       0.009334776 -0.032401677 0.0027892585 -0.0004561207
000210 35 0f b7 3c b9 d8 e9 3c 29 d6 a1 b9 e7 a1 2b 3b
       0.022346118 0.028545724 -0.00030867875 0.002618903
000220 b6 79 a3 b9 5d 95 61 bc b1 62 50 37 74 a4 95 3b
       -0.00031180464 -0.013768521 1.24207445e-05 0.0045667235
000230 8b 66 8c 3a da 5a 93 3c de f6 72 bc 88 1b bf bc
       0.0010711713 0.017987657 -0.014829366 -0.023328558
000240 47 97 09 3d c5 60 5f bb 8e f0 2f 3b 68 fe e1 bc
       0.033591535 -0.0034084779 0.0026846263 -0.02758713
000250 51 0e 32 bc 28 5b 9b 3b 26 9e 95 3c 17 31 af bc
       -0.010867671 0.0047410913 0.018263888 -0.021385713
000260 b5 e5 df bb 93 ba d1 3c 38 1b 51 3b d2 56 ea bb
       -0.006832803 0.02560166 0.0031907093 -0.007151463
000270 43 b2 66 39 ba 42 45 3c 10 6b 3e bc c8 9e bc 3c
       0.00022000917 0.012039835 -0.011622205 0.023024932
000280 ba 04 bd bb 5f 66 f4 bb cd bc 5c bb e8 5d 57 3c
       -0.0057683857 -0.0074584926 -0.003368187 0.013144948
000290 13 28 b2 ba de 72 13 bc af 49 1e 3c 11 c3 ab bb
       -0.0013592265 -0.008999554 0.009661122 -0.0052417596
0002a0 46 06 08 3c fe f7 16 bc 32 87 58 3b 4a dd a0 3b
       0.008302277 -0.009214399 0.0033039567 0.004909192
0002b0 c1 46 8a 3b d2 99 75 bc 41 32 f4 bb 8a 55 b8 3c
       0.0042198603 -0.014990287 -0.00745228 0.022501726
0002c0 68 fc 29 bc 2b 0b d7 3b b3 9a 69 ba 89 d3 12 3b
       -0.01037512 0.0065626106 -0.00089112966 0.0022403917
0002d0 cd b1 85 3c 81 05 30 3c be 59 3a 3c e8 26 ba bb
       0.016320134 0.0107435 0.011373935 -0.0056809075
0002e0 57 d2 7e ba e4 e5 25 3b 8f dc 7b 3b b1 da af 3c
       -0.0009720674 0.0025314027 0.0038431024 0.021466585
0002f0 20 90 35 bc a8 f2 b7 bc 43 4b 32 bc ab a7 37 3c
       -0.011081725 -0.022454575 -0.010882202 0.011209409
000300 56 37 16 bc 28 62 78 bb 73 15 a9 3c b8 5b 1b ba
       -0.009168467 -0.0037900303 0.02064011 -0.0005926448
000310 e0 13 bf 3c 40 fe 67 3c 1c 44 1d 3b ea 70 50 3c
       0.023324907 0.014159739 0.0023996895 0.012722233
000320 cd ea 9b 3a 11 cc 30 3c c9 23 ac bc e8 90 bf 3c
       0.0011895538 0.010790841 -0.021013157 0.023384526
000330 3b 45 de bc 29 34 9a 3b 3c fc fd bb 34 d0 aa 3c
       -0.027132621 0.004705925 -0.007751016 0.020851232
000340 a7 34 28 3c 26 aa 14 bc 31 c7 89 bc 69 10 d0 bc
       0.01026646 -0.00907377 -0.016818615 -0.02539845
000350 ab 98 f7 3b 5c 79 5c 3c f4 14 8c bc 74 8d 7c 3c
       0.0075560412 0.013456669 -0.017099835 0.015414584
000360 44 21 c2 bc b1 66 61 3c 4f f6 2d 3c 5b e1 a1 3c
       -0.023697503 0.013757394 0.010617807 0.019760778
000370 e2 af 0c 3d 8e dc db 3a e8 16 b1 bc 58 ac 09 3b
       0.034347422 0.0016774104 -0.021617368 0.0021007266
000380 08 b1 9a 3b d5 88 05 3c 50 ee a6 bc 2e 7c 17 bc
       0.004720811 0.008150299 -0.020377308 -0.009245915
000390 2f 65 87 bb ba f0 64 3d 2b 95 69 bc 67 58 06 bc
       -0.004131935 0.055893637 -0.014256756 -0.008199788
0003a0 8c 83 e3 bb 77 fe 59 3c 86 a0 73 b9 97 eb 7c bb
       -0.006943172 0.013305298 -0.00023234086 -0.003859257
0003b0 0b c2 bd 3c 40 b6 3b 3c e4 70 d5 3b e3 4d 69 bb
       0.023163816 0.011457026 0.0065137018 -0.0035599403
0003c0 67 b7 14 bb e7 d8 2b 3b 4c a4 9b ba 9c 64 05 bc
       -0.0022692324 0.0026221813 -0.0011874526 -0.008141663
0003d0 f9 d0 b0 bc 8d b3 7a 3c 3c fc a3 bc ca ae 0d ba
       -0.02158402 0.015301597 -0.020017736 -0.0005404769
0003e0 9b bd 82 3c a6 11 cb 3b 86 b2 4b bc 55 6e 2f bb
       0.015959552 0.006197172 -0.0124327 -0.0026768644
0003f0 33 26 3d 3c bc 2c be bc 4a 76 82 bb d1 0b a7 bb
       0.011544752 -0.02321469 -0.0039813863 -0.005097844

network_body.linear_encoder.seq_layers.0.bias f4 [256]
000000 2c ec d3 3b 5e 88 4b bc 15 87 04 bc d8 b7 0a 3c
       0.006467363 -0.012422649 -0.008088847 0.008466683
000010 f0 38 f2 3a a9 d3 21 bc ce 1c 18 3c 5b dc 35 bc
       0.0018480103 -0.009877124 0.009284211 -0.0110999
000020 2a a2 30 3c 3c 2d 4b 3c 84 93 f9 bb 04 d1 c2 3b
       0.01078085 0.012400921 -0.007616462 0.0059453268
000030 ec 04 b5 bb 4d c1 7c bb 34 b0 6a 3c bc 9a 2b 3a
       -0.0055242684 -0.0038567365 0.014324237 0.00065461895
000040 0e d4 96 3b ac 20 35 3b 6d d9 06 3c 2a b8 1e 3c
       0.0046029156 0.0027637882 0.008230549 0.009687463
000050 0a 89 b7 3b ef dc b3 b8 9e c2 95 3c 36 da aa 3b
       0.005601053 -8.576537e-05 0.018281277 0.005214001
000060 c4 b3 b4 bb f3 20 17 3c 22 e6 f9 bb 96 d7 cf bb
       -0.005514594 0.009224164 -0.007626311 -0.0063428385
000070 18 a2 16 bc ab 55 06 bc 9f 72 18 bb e0 83 59 3c
       -0.00919392 -0.008199136 -0.002326168 0.01327607
000080 44 47 f5 bb 12 54 15 3b f7 15 47 bc 83 23 b1 bb
       -0.007485302 0.0022785706 -0.012151233 -0.0054058447
000090 10 61 6d 3b cf 04 3c bc e7 25 4f bc a8 3a 87 bc
       0.0036221184 -0.011475756 -0.012643314 -0.016507462
0000a0 d6 d4 2b bc 08 a6 00 bc ec 4c b8 3a 33 1c 82 3c
       -0.010487756 -0.007852085 0.001406101 0.015882587
0000b0 27 e0 b3 bb 19 cc 2d bb ae 60 a6 3b 5c ba cd bb
       -0.0054893675 -0.0026519357 0.005077443 -0.0062783193
0000c0 ca 19 81 ba 5d d0 28 bb 2a 2b 02 bc e9 2e 88 3c
       -0.0009849605 -0.002575896 -0.007944861 0.016623931
0000d0 6b 9f 6b ba 18 64 27 bc db d7 10 3b c3 27 fa bb
       -0.00089882937 -0.010216735 0.0022101316 -0.0076341345
0000e0 ba 7c 90 3c 80 14 68 3b 69 15 1f 3a f2 e9 0a bc
       0.0176376 0.003541261 0.0006068559 -0.0084786285
0000f0 36 d2 50 ba b4 ad 06 bc fc 6b 02 3c 27 29 b7 bb
       -0.0007965894 -0.008220125 0.007960316 -0.0055896225
000100 99 34 a4 3b 77 49 79 3c 32 20 ee bb 08 8f 1a ba
       0.005011153 0.015215269 -0.0072670216 -0.0005895947
000110 cf 23 cd 3b 4e 8f 15 bb dc 0f d6 b9 a7 bf 48 3b
       0.006260372 -0.0022821012 -0.00040829077 0.0030631812
000120 bb 43 1d bc 94 02 1a 3b 4f f1 ba ba 8f 0b 20 3c
       -0.009598668 0.0023500072 -0.0014262589 0.009768381
000130 b0 f6 8c bb 3b f0 82 3a 74 71 62 3b af 23 6c 3c
       -0.0043018684 0.0009989807 0.0034552487 0.0144128045
000140 cb fc 5b 3b b6 40 64 bb 4e 27 41 bc 52 3f ed 3b
       0.0033567424 -0.003482861 -0.011789156 0.0072402144
000150 ad 5b 76 bb 97 8c a8 bb 84 79 6f 3c 70 cd db 3a
       -0.0037591264 -0.0051437127 0.014616374 0.0016769599
000160 28 b4 75 3b 08 14 c1 bb 86 9a 1d bb 8e af b4 3b
       0.0037491415 -0.0058922805 -0.0024048402 0.005514092
000170 62 4c 0f 3c ac 4a fc bb 08 b5 32 3b 03 ee 0c bc
       0.008746238 -0.0076993313 0.0027268548 -0.008601668
000180 25 19 40 3c 77 74 61 3c 2e 88 29 bb ef 53 8c 39
       0.011724745 0.013760678 -0.0025868523 0.00026765416
000190 bd b3 e3 3b 17 a6 dd 3a a5 ed 29 3a 4a 3e 8b 39
       0.0069489167 0.001691046 0.000648225 0.00026558555
0001a0 89 37 5c 3a be 9b 2a ba f4 8f 17 bb 39 b5 9c 3c
       0.00084006094 -0.0006508193 -0.0023126574 0.019129382
0001b0 0c 8f ad 3b 75 45 13 3a a4 b4 ec bb 8e 5c a9 3b
       0.0052965935 0.0005617955 -0.0072236825 0.005168504
0001c0 ee 7e 28 bb 61 1f 8b ba d9 d5 af 3b 1b 79 31 3c
       -0.0025710422 -0.001061421 0.005366069 0.010832096
0001d0 87 08 da 3b aa 12 04 bc b0 78 38 3b 7d e7 dc bb
       0.0066538486 -0.0080610905 0.0028148107 -0.0067414627
0001e0 fc 7d d6 3b 96 3f d7 3b 9d 7d 00 bc e5 ee 49 bc
       0.00654578 0.0065688593 -0.007842449 -0.012325023
0001f0 5a c6 99 ba 73 e9 09 3b a9 95 58 3c 7b 67 b6 ba
       -0.0011732087 0.0021043688 0.0132192755 -0.0013916338
000200 d7 37 5c bb ba 1a 62 bb 69 48 1a 3c ce 36 08 3c
       -0.003360262 -0.0034500794 0.009416678 0.008313848
000210 dd 46 84 bb 3f 5d fc bb 43 d1 39 3c 39 87 0f 3c
       -0.004036768 -0.0077015455 0.011341396 0.008760267
000220 bb 48 bf bb cd a1 3e 3b c5 12 44 bc 2c 1e 83 ba
       -0.0058375276 0.002908814 -0.011967366 -0.0010003499
000230 55 4f 75 bb 91 97 f7 3a 13 c6 b2 39 83 68 42 3c
       -0.0037431319 0.0018889775 0.00034098382 0.011865738
000240 e2 3b 27 bc 93 d8 da 39 fc e2 77 3b c2 08 1b 3c
       -0.010207148 0.0004174156 0.0037824502 0.009462537
000250 33 ba 09 bc d6 80 b9 3b 9f 6f 30 3a 76 f3 14 b7
       -0.00840621 0.0056611104 0.00067305 -8.878173e-06
000260 d0 46 e1 bb 00 9a a4 3b 12 89 d9 ba af d7 95 3b
       -0.0068748966 0.005023241 -0.0016596636 0.0045728306
000270 8c 2f 58 bb f3 53 15 3c d3 8d 7b 3c 07 53 de 3b
       -0.0032987325 0.009114253 0.015353638 0.0067848
000280 eb fa 94 39 59 33 96 3b 3d 01 2b bb 61 5c 42 bc
       0.00028415708 0.004583758 -0.0026093267 -0.011862845
000290 57 98 97 3b a2 35 6d 3b 4b a0 33 3b 28 3e ad bb
       0.0046263146 0.0036195298 0.0027408774 -0.0052869506
0002a0 ce 13 35 3c 7f bd ac 3b 9b b6 35 3c 3c c3 32 bb
       0.011052085 0.005271613 0.0110909 -0.0027277013
0002b0 48 23 02 bb 1b b1 59 3b bd 4d d9 bb 19 8c 12 3c
       -0.0019857455 0.0033217135 -0.0066315816 0.008944535
0002c0 29 ba 72 bb 82 1a 36 bb bc 3b 25 3b d5 b0 8b 3b
       -0.003703723 -0.0027786796 0.0025212606 0.0042630234
0002d0 1b c7 de 3b 38 73 16 3c e2 67 c8 3a 90 22 22 3c
       0.0067986376 0.009182744 0.0015289749 0.009895936
0002e0 61 de cc 3b 3e fa a6 3b 3a a6 a0 3b da 78 a3 bb
       0.0062520956 0.005095749 0.0049026283 -0.004988772
0002f0 67 48 11 bc f7 f0 22 bb 74 65 dd ba 7e 53 da 3b
       -0.00886736 -0.0024862865 -0.0016891197 0.006662785
000300 bf c3 43 3c 83 66 e5 3b ab 47 49 3c d8 e6 50 bb
       0.011948525 0.0070007457 0.012285153 -0.0031875875
000310 15 94 23 3c 02 d5 9c 3b 69 ae 56 bb fc 45 06 bb
       0.009984036 0.0047861347 -0.0032757765 -0.0020488491
000320 74 b4 b2 bb d2 c1 ca 3a 6c 60 49 3c 89 0e 0b 3a
       -0.0054536406 0.001546914 0.012291055 0.0005304595
000330 29 d6 00 bb b6 4e 80 bc 9e 9c 2e 3c d0 18 45 bb
       -0.00196589 -0.015662532 0.010657458 -0.0030074604
000340 d9 8c 8a 3c 49 36 4c 3c 79 83 16 bb fc d1 e3 bb
       0.016912865 0.012464114 -0.0022966547 -0.0069525223
000350 36 b9 24 bc 19 1b 0b 3a 2d 0e ac 3b 47 37 b0 3b
       -0.010053923 0.0005306467 0.0052507133 0.0053776833
000360 02 de 43 bb bd fc 89 bb 83 dd a5 3a 4d 4e d3 bb
       -0.0029886966 -0.004211037 0.0012654517 -0.006448543
000370 fc 9a 38 ba 31 63 ca ba 27 3d 81 3b 00 c5 12 3c
       -0.00070421374 -0.0015440938 0.0039440575 0.008958101
000380 53 a9 59 3c 50 7f 11 bc dc 74 e3 bb 41 04 59 bb
       0.013284999 -0.008880451 -0.006941421 -0.0033114108
000390 02 e1 29 bb ba 8f 0a 3c 54 c1 13 3c c4 89 ea 3b
       -0.0025921469 0.008457119 0.009018261 0.007157536
0003a0 d9 61 d7 3b 30 09 b5 bb ac 0e 56 bb b9 34 e1 3b
       0.0065729436 -0.005524777 -0.0032662554 0.00687274
0003b0 02 6c 15 bc 9f d6 ef 3b a9 5a 0d 3c ab fe 83 ba
       -0.009119989 0.007319286 0.008627572 -0.0010070404
0003c0 86 55 1f bc 33 28 22 ba 91 65 21 b9 2a 70 54 3c
       -0.00972498 -0.00061858 -0.00015391993 0.012966195
0003d0 ff a1 23 bc f0 25 02 bb 5c 03 0f 3c 5a 4d 25 3c
       -0.009987353 -0.0019859038 0.008728828 0.010089243
0003e0 be c0 1f 3c 65 66 3a 3b bf d8 6e bb 87 46 80 3a
       0.009750543 0.002844238 -0.0036445109 0.0009786644
0003f0 03 5d b8 bb b4 29 87 3c 85 4c 0c 3c 3a 90 76 3b
       -0.0056263222 0.016499378 0.008563166 0.0037622587

network_body.linear_encoder.seq_layers.0.weight f4 [256, 91]
000000 90 c7 fb bb d9 ff 2d 3d 89 8b e6 bc 7c 2d 4a bd
       -0.007683702 0.042480323 -0.028142707 -0.049359784
000010 2a 30 4f bd d7 1f ce 3d ff 12 71 3a 5b c6 e0 bd
       -0.050583042 0.10064667 0.0009196251 -0.10975333
000020 29 5b 89 3d f9 cc c8 3c 9f ed 90 bd 1b 75 b2 3d
       0.067068405 0.024511801 -0.070765726 0.08713742
000030 0b 14 99 bd ed ef 9a 3d ec f6 a8 bd 66 c9 fa 3d
       -0.07474526 0.075652935 -0.082502216 0.12245445
000040 af 00 01 be f8 41 4f bc 39 17 19 3e e8 71 03 3c
       -0.12597917 -0.0126500055 0.14950265 0.008022763
000050 ce 05 40 3d 19 3b 8f bd 4c af e8 3d a6 cc f5 3d
       0.046880536 -0.06993694 0.1136156 0.12001924
000060 38 44 11 be 98 19 8c 3d e7 5c 9e 3d ad 09 1e bd
       -0.1418618 0.06840819 0.077325635 -0.038583446
000070 c9 bd 18 bc 0f 31 18 3e 94 d0 08 3c c8 65 89 bd
       -0.009322592 0.14862464 0.00835051 -0.06708866
000080 39 33 3b 3e 05 6c 8d 3d 70 8b c5 bd cc 92 29 be
       0.18281259 0.06905369 -0.09645736 -0.16559905
000090 90 b5 82 3d 42 90 f5 bd ce b3 23 be c5 10 24 3e
       0.063822865 -0.119904056 -0.15986559 0.16022022
0000a0 52 a4 11 be a5 03 df bd b4 c5 ad 3c 95 16 9a 3d
       -0.1422284 -0.10889367 0.021212436 0.075238384
0000b0 22 b8 8b 3b 1b 60 73 bd 68 f6 81 bd 18 b3 22 be
       0.0042638937 -0.059417825 -0.063458264 -0.15888631
0000c0 bc 05 0d 3d 2d 2b 31 bd 5c 3c ae bc 38 21 ec 3b
       0.034429297 -0.043254066 -0.021269016 0.0072061084
0000d0 c7 e4 d9 bc 92 8b 74 3d c3 9d be 3d 26 32 a5 bb
       -0.026598347 0.059703417 0.093074344 -0.0050413786
0000e0 d7 d7 7e bd 42 04 dd 3c e0 04 29 3e 51 24 9a bd
       -0.06221756 0.02697957 0.16505766 -0.07526458
0000f0 a7 f8 bb 3c 12 a0 f8 3d 19 c2 03 3e 88 0b b0 3d
       0.022945715 0.12139906 0.12867011 0.085959494
000100 9a 87 32 b9 a8 03 ed bc 1c ab e0 3d ba d3 6e bd
       -0.00017025918 -0.028932407 0.109701365 -0.058307387
000110 7a 93 30 3d 07 c6 fc bd 05 26 a7 bd 3a ba 0d be
       0.043109395 -0.12342458 -0.081615485 -0.13840571
000120 e1 10 a2 3d 8a cd b9 3d 20 05 5d bd 4a 5a 2a 3d
       0.07913376 0.090724066 -0.053959966 0.041590013
000130 5d b6 d9 bc e5 6b 4e bb 06 1d d3 3d 82 cc 20 bd
       -0.026576215 -0.0031497416 0.1030827 -0.039257534
000140 8a a6 b0 3d 0d 00 76 3d d1 22 bc bd 5c 14 74 bd
       0.08625515 0.060058642 -0.09186328 -0.05958973
000150 ad c6 04 be 58 c3 aa 3d 2a 2e b4 bd 7a b0 0a 3d
       -0.12966414 0.0833804 -0.087978676 0.033859707
000160 28 69 ae be 1e e0 03 3e a9 3e 80 bd 9c 82 14 bd
       -0.34064603 0.12878463 -0.062619515 -0.03625737
000170 79 64 9d bd 56 9e 18 3e 35 9e a3 3d 54 99 09 3e
       -0.07685179 0.1490415 0.0798916 0.13437396
000180 9b 2f 0c 3c 3b 56 8c 3d 85 c5 e0 3c 54 c4 96 bc
       0.008556272 0.06852385 0.027437935 -0.018404163
000190 f1 81 72 3e af 86 18 3e 90 7d 0c 3d 52 6f 29 3e
       0.23682381 0.14895128 0.034299433 0.16546372
0001a0 3a 01 8b bd f5 01 af 3b 40 2f 7a bc 10 3f 2d bc
       -0.06787343 0.0053408095 -0.015270054 -0.010574117
0001b0 28 e1 88 3d 86 23 9a 3c 2c 16 9d bd ad 73 08 3d
       0.0668357 0.018815767 -0.076702446 0.033313442
0001c0 36 23 ec 3d 3d a4 d7 bd 9d 16 34 3e b8 94 b8 bd
       0.115301535 -0.10529373 0.17586751 -0.09012741
0001d0 ec c1 9e 3d ca a1 2c 3e ac db a6 bd 49 6d b7 3d
       0.077518314 0.16858593 -0.08147368 0.08956391
0001e0 e3 63 37 bd 6e 4e 66 3d dd 3f fa bb 8e e1 03 bd
       -0.044772994 0.05622714 -0.0076370076 -0.032197528
0001f0 6a 4a 4e bd b8 5c 05 3e ce c7 37 be 49 6b 45 3d
       -0.050363936 0.1302365 -0.17947313 0.04819802
000200 53 ca 93 bc f9 49 18 be 0f 7d bb 3d 0f 64 10 3e
       -0.018040812 -0.14871968 0.091547124 0.1410067
000210 ab d5 dc bd b0 0d 68 bc 81 1d f4 bb 82 94 ee bd
       -0.107829414 -0.01416342 -0.007449806 -0.11649419
000220 59 a9 56 be 30 a1 55 3e 00 2b 3a bc 94 71 9c 3d
       -0.20963039 0.2086227 -0.011362791 0.07638851
000230 69 71 d2 3d a0 94 26 3d b3 ca 02 3e 68 76 1a 3e
       0.102755375 0.040669084 0.12772636 0.15084231
000240 8b 8c 09 3d dd 27 25 be 35 46 b8 bc 4f f2 18 be
       0.033581298 -0.16128488 -0.022494415 -0.14936183
000250 0f a1 79 bd d7 f7 3d 3d 03 be fe 3d 52 55 3f bd
       -0.060944613 0.046378937 0.124385856 -0.046712227
000260 5d 20 6a 3d b2 ba a5 3d 90 d4 4b bd 27 57 af 3d
       0.05715977 0.0809225 -0.049763262 0.08561545
000270 0a 82 01 3e 6f 11 83 bd ec a4 30 bd 0e cd 5b be
       0.12647262 -0.063998096 -0.04312603 -0.21464941
000280 eb a6 2e 3e a9 47 c2 bd 65 dd 11 3e e7 29 23 3d
       0.17055862 -0.09486324 0.14244612 0.039834883
000290 cb 59 f7 3d b8 a1 29 be 16 b5 f8 bd d6 0e b6 bd
       0.120776735 -0.16565597 -0.121439144 -0.088895485
0002a0 95 e5 5b bc b9 df 93 3d 41 9a 2a be 2a 21 a7 bc
       -0.013421436 0.07220406 -0.16660406 -0.020401556
0002b0 aa 46 c5 3c 36 02 cb 3d ec d9 01 3e b4 57 e1 3d
       0.024081547 0.09912531 0.12680787 0.11003056
0002c0 6e ce 8a 3d 9c 15 27 be 39 ef 53 3d 9d a1 d9 3d
       0.067776546 -0.16316837 0.051741812 0.106265284
0002d0 b3 0b 89 3d 1d 1c 40 3e 0e 87 7f bd 2a f7 1d 3d
       0.066916846 0.18760724 -0.062384658 0.038565792
0002e0 55 44 2e 3e 9f 84 11 3e 93 96 75 be 0b 6d 21 be
       0.17018254 0.14210747 -0.23983221 -0.15764253
0002f0 9b 48 3a 3d 69 31 50 3e 3e db 70 3e 93 62 1d be
       0.0454794 0.20331348 0.23521134 -0.15369634
000300 c6 87 b9 bc 5d c4 78 bd d4 6e c3 3d 01 88 37 bd
       -0.02264775 -0.06073414 0.09542623 -0.044807438
000310 4c 3c 68 bc 8f 04 53 bd b9 08 e8 3d 03 d3 9e bd
       -0.014174532 -0.05151802 0.11329789 -0.07755091
000320 50 1a 0f 3c c8 0e 1d bd f7 6b b6 3d fd 08 7f bc
       0.008734301 -0.038344175 0.089073114 -0.015566108
000330 f3 5f 37 3e 25 af 84 bc ab 00 eb bd 58 24 8b bd
       0.17907695 -0.016196797 -0.11474737 -0.067940414
000340 fe f2 91 bd 4f c1 4d bd 72 82 9f 3c 46 7c 1b bc
       -0.07126425 -0.05023318 0.01947138 -0.009490078
000350 fa b8 fb bd 23 07 dd bd 91 aa c9 bc bb 0e 65 3e
       -0.12291141 -0.10792377 -0.024617465 0.223689
000360 c3 68 50 be 34 91 30 3e a8 e7 2c be 3d 5d 4c bd
       -0.20352463 0.1724289 -0.16885245 -0.049893606
000370 5c 08 50 3c e9 fc 67 bd 0d e2 85 bc 71 71 83 3c
       0.0126973055 -0.05663768 -0.016343141 0.016045304
000380 01 65 d3 bd 1d 97 9a 3b fa 6c ac 3d 6e 4d 38 bd
       -0.10321999 0.004717721 0.08419223 -0.044995718
000390 99 eb 24 3e 15 c1 98 3c 5d 18 1f 3e b5 a4 03 3d
       0.16105498 0.018646756 0.15536638 0.0321395
0003a0 63 59 53 be d9 ce 2c bd 28 ca f6 3a cd 0c cb 3d
       -0.20639567 -0.042189453 0.0018828558 0.09914551
0003b0 f6 5a 0f bd 5b 61 c6 bd 90 eb 8b 3d 13 03 f3 3d
       -0.034998856 -0.09686538 0.06832039 0.11865821
0003c0 02 d1 0e 3e 05 3f d1 3c 32 eb 37 3d 79 4f d2 bd
       0.13946918 0.025542745 0.044902034 -0.102690645
0003d0 56 92 ba bc df 9a da 3c 44 d8 79 bc fc 98 ee 3d
       -0.022774857 0.026685176 -0.015249316 0.11650273
0003e0 d6 ad d9 bd 5a 53 5d bb 73 e2 20 be 71 20 54 bd
       -0.1062886 -0.0033771605 -0.15711384 -0.05178875
0003f0 1e 55 0c 3e f5 bf c6 bd 88 c9 03 3b bc 2e 55 3d
       0.13704345 -0.09704582 0.0020109136 0.052046522

network_body.linear_encoder.seq_layers.2.bias f4 [256]
000000 4e 32 c9 bb 6d 4a 07 bb 26 9f a1 bb da be df bb
       -0.00614003 -0.0020643726 -0.004932302 -0.006828171
000010 ba 89 15 3c 44 c0 1b bc fb f3 ab 3b 9a 2e 07 3c
       0.009127075 -0.009506289 0.0052475906 0.008250857
000020 50 29 0a bc e0 60 16 bc 39 0b ab ba 56 cf 17 38
       -0.008432701 -0.00917837 -0.0013049609 3.6194302e-05
000030 0e fe 95 3b e7 cb 6e bb e4 d7 85 bb 14 cc 96 ba
       0.004577405 -0.0036437453 -0.004084574 -0.0011504912
000040 f1 47 2e 3c 97 db b5 3b fa 83 c3 bb 3e 59 bf bb
       0.010637269 0.005549859 -0.0059666606 -0.005839496
000050 ff 63 ee bb f9 f6 18 39 75 cc 57 ba c1 9f e5 39
       -0.007275104 0.00014587854 -0.00082320656 0.0004379731
000060 74 c6 d0 bb e5 ee 24 3c 23 c8 2a bc af 44 c7 3b
       -0.0063713137 0.0100667225 -0.010423693 0.006081186
000070 49 1a e5 bb 21 6a 0d 3c 20 8e 02 bc bc c4 ab 3a
       -0.006991659 0.00863126 -0.007968456 0.0013104896
000080 30 28 74 3b 5a af 0e bc 09 5b e5 bb 79 64 ee 3b
       0.00372554 -0.008708799 -0.0069993776 0.007275161
000090 ab 8f 02 3b 18 8c f6 ba ad 03 f1 bb 0f f7 06 b9
       0.0019922059 -0.0018810062 -0.0073551745 -0.00012871272
0000a0 f2 25 87 3b b9 c5 b0 3a 4d 49 2f b9 32 e8 d9 3b
       0.0041243965 0.001348666 -0.00016716607 0.0066499943
0000b0 aa 0c c9 bb a6 3d c8 ba 27 c4 29 bc 65 9b 8e bb
       -0.006135543 -0.0015277162 -0.010361708 -0.0043520206
0000c0 a7 9a de 3b 3a fa 04 3c f8 70 c6 bb ac 3b 45 bc
       0.0067933383 0.008116299 -0.0060559474 -0.012038153
0000d0 7d fe 3a 3c 6c e0 f5 3b 2c 35 33 3c 4a ad 82 3a
       0.011413214 0.00750356 0.01093797 0.0009969857
0000e0 66 a2 21 3c 8e 6d 3c 3c 7c df 6f bb e4 fc 06 3c
       0.009865379 0.011500729 -0.0036601713 0.008239005
0000f0 bf 08 10 3c d1 9e 12 bc 83 a2 81 3b a5 ae e3 3b
       0.008791148 -0.008948998 0.0039561405 0.0069483095
000100 04 81 24 b8 ec 10 35 bc 72 27 bf 3b b7 9c f9 bb
       -3.9220802e-05 -0.011051398 0.0058335597 -0.007617559
000110 a1 23 2f 3c 1e 1a 02 bc ca da c4 3b df 92 5a 3c
       0.010689647 -0.007940797 0.006007527 0.013340681
000120 1e 67 00 bc 65 cf ee 38 f7 0b 19 bc 35 1f 65 bb
       -0.007837085 0.000113873546 -0.009341232 -0.0034961228
000130 78 d3 dd bb 38 10 56 3c 21 f0 c5 bb 5b b2 e7 bb
       -0.006769594 0.01306539 -0.0060405885 -0.007070822
000140 86 8c 1a bc f1 6f 16 bc 07 cd 77 ba d8 b8 1e bc
       -0.009432917 -0.009181962 -0.00094528537 -0.009687625
000150 3f 47 dc bb 27 9b a9 bb 6a 21 9e bb 10 cb de 39
       -0.0067223604 -0.0051759663 -0.0048257606 0.00042494433
000160 22 52 1e bc 23 1f 4e 3b a7 6c da bb 92 af 39 3b
       -0.009663137 0.0031451664 -0.0066657844 0.0028333408
000170 19 85 07 3a cb e1 09 bc 7b 62 28 bc eb 5c 65 bb
       0.00051696744 -0.00841565 -0.010277386 -0.003499801
000180 1e 99 e5 3b f6 8e e4 bb a8 1a 2d bc bc ef 3c 3c
       0.0070067784 -0.00697505 -0.010565437 0.0115317665
000190 b7 78 f8 b9 c0 80 4b 3c 44 08 15 3c ad 24 1e ba
       -0.00047392186 0.012420833 0.009096209 -0.0006032687
0001a0 23 12 6b ba 2b 1e 66 bb 8e 41 10 bc 42 49 12 3c
       -0.0008967241 -0.0035113196 -0.008804692 0.008928599
0001b0 76 b7 ca 3a 2a 3b f7 3b 4d 85 8f 3b 73 2e 06 38
       0.0015466053 0.0075448947 0.0043799044 3.199135e-05
0001c0 22 30 ab bb 00 99 6b bb e3 c6 60 3b 7c c5 f1 3a
       -0.0052242437 -0.003594935 0.0034298233 0.0018445696
0001d0 05 1e be 3a 6f 27 e7 bb 1b db ea bb c9 f9 d3 39
       0.0014504796 -0.0070542614 -0.0071672327 0.0004043116
0001e0 4e 7c 29 3c cc 43 0e 3c 2b 7c 61 3b 74 c6 d7 b9
       0.010344578 0.008683156 0.0034406285 -0.00041155855
0001f0 db 0c 29 bc aa 4f 5b 3b f1 4f f8 3b 0e 03 2d 3c
       -0.010318006 0.0033464232 0.007577889 0.01055981
000200 77 79 10 3a cc 71 16 bc 12 06 72 3b 68 b9 89 bb
       0.0005511264 -0.009182405 0.0036929888 -0.0042030104
000210 d1 45 49 3c 51 72 7f 3b 1b f8 fb 3b 52 c7 75 ba
       0.012284712 0.003897805 0.0076894886 -0.00093757093
000220 88 5f ca bb 11 c8 c4 bb 8c f2 83 3b 10 10 c5 bb
       -0.006175939 -0.006005295 0.0040267166 -0.0060138777
000230 00 2d 82 bb 85 e8 97 3b 51 1c 29 ba 74 2c 0b bc
       -0.0039726496 0.004635873 -0.0006451058 -0.008494485
000240 8e 7f a9 3b 35 55 4e bb 0a c8 10 bc d0 38 ce bb
       0.0051726764 -0.0031483893 -0.0088367555 -0.0062933937
000250 2a 01 19 bc d8 ed d1 ba 2d c7 6b 3c a1 43 eb bb
       -0.009338656 -0.0016016318 0.014390749 -0.007179693
000260 84 12 e2 3b 17 8a 50 3c df 2e fa 3b 3e 95 a4 bb
       0.00689918 0.012728236 0.007634982 -0.005022674
000270 32 77 96 3a 9b 5f a5 39 a6 15 6c 3b 05 ba f7 3b
       0.0011479615 0.00031542484 0.0036023646 0.007560017
000280 c3 02 e5 b9 99 18 23 bc ee cc 12 3c 1c cd ba 3a
       -0.0004368034 -0.009954595 0.008959992 0.0014251801
000290 d5 4c 0f bc 5d b8 df bb 34 d5 88 ba ce 2b c8 bb
       -0.0087463455 -0.0068273977 -0.0010439516 -0.0061087376
0002a0 8e 92 0c 3c 75 2f e8 bb c1 15 d0 bb 53 73 2a 3b
       0.008579863 -0.0070857354 -0.0063502495 0.002600868
0002b0 e0 0d 39 bb fa 02 5d bc c2 35 2c bc d4 43 15 3b
       -0.002823703 -0.013489479 -0.010510864 0.0022776024
0002c0 ae 42 c1 bb 6d 65 29 3c d8 1c d3 bb 91 97 58 ba
       -0.0058978414 0.010339123 -0.0064426474 -0.0008262331
0002d0 cd f9 2b 3c 80 37 3b 3a a1 d4 1c 3c 06 54 6a bb
       0.010496569 0.0007141754 0.009572179 -0.0035755648
0002e0 59 51 e1 bb 6a 0c 02 bb 81 6a ea bb 7b a9 08 3c
       -0.0068761525 -0.0019843825 -0.0071538095 0.008341189
0002f0 bf 92 ba 3b 60 c6 e2 bb d2 36 0b bc 81 d7 3c 3c
       0.005693763 -0.006920621 -0.008496957 0.0115259895
000300 2e 46 41 bb 58 a5 12 bc a3 89 40 3c ff 56 49 3c
       -0.0029491293 -0.008950554 0.011751565 0.012288808
000310 61 84 41 3c 2e 90 89 3b f8 e5 ec 3b c7 53 b7 3a
       0.011811347 0.0041980958 0.007229563 0.001398676
000320 36 38 f6 bb 0f db dc 3b be f3 2a bc 88 92 2c 3c
       -0.007514025 0.006739981 -0.010434089 0.010532983
000330 44 05 af bb 40 ed d7 3b 13 ec db bb 39 bf 73 3b
       -0.005341204 0.0065895617 -0.006711492 0.0037192835
000340 e7 f4 38 3c 9b b2 d2 bb a1 7e d8 bb c3 e4 01 bc
       0.011288858 -0.006429983 -0.006606892 -0.007928076
000350 47 f7 ec ba 9a f7 0e 3c 6b 84 b5 bb 4b 82 e0 3b
       -0.0018079065 0.008726025 -0.005539467 0.0068514696
000360 2f 23 e6 bb 1c 36 eb 3b ce dc 3a 3c 5e 99 16 3c
       -0.007023237 0.007178081 0.011405183 0.009191839
000370 a4 e9 30 3c 17 86 62 bb 26 81 d2 bb b8 e7 2b 3c
       0.010797892 -0.0034564787 -0.006424087 0.010492258
000380 26 a0 c5 3b 4c 1c 81 bb 84 e8 9a bb 41 68 d9 bb
       0.006031054 -0.003940141 -0.004727425 -0.0066347425
000390 64 90 13 bc 1e 97 1a 3c f5 e0 1d bc 84 95 9c bb
       -0.009006593 0.009435443 -0.0096361535 -0.004778566
0003a0 a6 0b 19 bc 89 b2 39 3c d1 a7 34 bb 10 91 ab 3b
       -0.009341156 0.01133407 -0.0027565847 0.0052357987
0003b0 1b f2 47 3b bf 66 25 3c 68 c5 90 39 36 5b 2c bb
       0.0030509296 0.010095297 0.000276129 -0.0026299483
0003c0 35 37 fc 3a 6a 4a 62 b8 f8 01 c2 3b 0e c6 19 bc
       0.0019242527 -5.3951902e-05 0.005920645 -0.009385599
0003d0 6a 2b eb bb 29 5f e5 3b 84 ec 91 bb a9 ac 1c bc
       -0.007176806 0.0069998694 -0.0044532437 -0.00956265
0003e0 8e 1a dd 3b b0 9f 43 3c c1 55 2e 3b f1 34 42 ba
       0.0067475503 0.011939928 0.0026601406 -0.00074084016
0003f0 21 c8 ac b8 6f c0 06 bc 96 53 83 bb 17 4b 07 3b
       -8.238876e-05 -0.008224591 -0.004007767 0.0020644122

network_body.linear_encoder.seq_layers.2.weight f4 [256, 256]
000000 4f d8 91 3d 9e ad ab bd e1 49 a5 3b 02 d6 1b bd
       0.07121336 -0.08382724 0.0050442074 -0.03804589
000010 60 66 3b bd 3c 63 2b 3d fc fd ae 3c 79 8e 0a bd
       -0.04575193 0.041842684 0.021361344 -0.03382728
000020 ba 43 20 3d 55 36 d0 3b 90 9e a5 bd 80 f3 9f 3b
       0.03912709 0.006354133 -0.08086884 0.0048813224
000030 c4 2b 3c 3d 27 fe af 3d f2 5d 8f bd a8 53 82 3d
       0.045940176 0.085933976 -0.070003405 0.063636124
000040 0a e8 b9 3b 08 57 d5 bc 55 8c 40 3c 6f 47 32 3d
       0.005673413 -0.026042476 0.011752208 0.043525156
000050 d8 92 fd b9 f7 ca 4d bd 13 3b 81 3c 1b 29 a0 3c
       -0.00048365328 -0.05024239 0.01577524 0.01955085
000060 10 2b a8 bd ae e2 9c bc 22 08 ba 3a 8f b6 0d 3c
       -0.082113385 -0.019151058 0.0014193098 0.008649482
000070 8b 23 8a 3d 9c 55 07 3e ce 5b db bc f5 66 a6 3c
       0.067450605 0.13216251 -0.026777174 0.020312766
000080 57 97 d4 bd 4e 8d cd bd 21 08 50 bd 20 4b 9f 3c
       -0.10380428 -0.10036717 -0.050789002 0.019445002
000090 46 5b c5 bc b1 49 7e bd 42 b5 40 bc 6f 48 92 3d
       -0.024091374 -0.062081996 -0.011761965 0.07142722
0000a0 d4 8b fa bc 01 98 bd 3d ad a0 b9 bc 2e 6a 81 3d
       -0.030584253 0.09257508 -0.022659624 0.0631908
0000b0 28 65 9a 39 40 08 4a 3c de 4e 0a 3d be 62 13 3c
       0.00029448536 0.0123310685 0.03376662 0.00899571
0000c0 df 91 cf 3d 63 53 34 3b c1 4b 8a 3d 42 42 3b bc
       0.101352446 0.0027515523 0.0675273 -0.011429371
0000d0 5a fe f3 3d f4 63 28 3d 50 88 86 bd ef 7e 75 3d
       0.11913748 0.041110948 -0.06568968 0.059935506
0000e0 05 82 d5 bd 76 4f c6 bd 1e fa c8 3c 8d 90 8f bc
       -0.1042519 -0.09683125 0.024533328 -0.017524982
0000f0 6b 7a 80 3d c5 73 21 3e ce 50 01 3e 3f 33 8d 3d
       0.062733494 0.15766819 0.12628481 0.0689454
000100 9f e8 9a bd 1f be 79 ba 47 21 a4 3d 1e 68 7b 3d
       -0.075639 -0.00095269264 0.0801416 0.06137859
000110 fd 73 81 3a 7c e2 83 3d f8 84 e0 ba 1f 59 29 3d
       0.0009876486 0.06439683 -0.0017129472 0.041344758
000120 96 84 cf 3d 70 e9 01 be b7 98 c2 3d d7 54 be bd
       0.10132711 -0.12686706 0.09501784 -0.09293526
000130 11 9a 81 3d 35 9f ff 3c ee d6 f6 3d 8f bc fa 3c
       0.06328214 0.031203846 0.12052713 0.03060749
000140 55 67 cb bd 4a a4 aa 3b 9d eb e4 3d ee b6 24 bd
       -0.099318184 0.005207573 0.11177752 -0.040213518
000150 6d b5 35 bb 6d b3 31 3d 38 db b3 bd 1e ea 87 3d
       -0.0027726546 0.043384004 -0.08782047 0.06636451
000160 f3 58 a8 bd f3 2b 14 bd e1 74 f6 bc 41 a5 14 3d
       -0.08220091 -0.036174726 -0.03008503 0.03629041
000170 7e 35 54 3d 5a 26 43 3d d2 23 76 bd 75 0a 07 3d
       0.051808827 0.047643997 -0.060092755 0.032968957
000180 67 01 1f bd 25 d5 8b bd 97 54 90 bc ee 06 a6 3d
       -0.038819697 -0.068277635 -0.01761846 0.081067905
000190 ca b7 8e bc 94 ec 8d 3d 53 18 c4 3d 1c 19 9a bd
       -0.017421622 0.06929889 0.09574952 -0.075243205
0001a0 ff 5a d4 3d b1 5a bd 3d 55 64 2a 3d e2 06 07 bd
       0.10368919 0.09245814 0.04159959 -0.03296555
0001b0 ac 36 3b bd 89 d4 14 bd e8 00 4d bb 8a fb 29 3d
       -0.045706436 -0.0363355 -0.0031281058 0.041499652
0001c0 a8 cd fb 3c 4d c4 94 bd 5d da 03 bc ba 7c 12 3c
       0.030737713 -0.07264004 -0.008047667 0.00894087
0001d0 22 79 de bb 89 cf 06 be 15 db fb 3d 69 24 b0 bc
       -0.0067893425 -0.13165106 0.12297646 -0.021501737
0001e0 92 ce af bd 99 86 8d 3c a6 1c 6a 3d e1 35 a4 bd
       -0.08584322 0.017276095 0.057156228 -0.08018089
0001f0 3b 2f d2 3c 31 96 3b 3d dd 12 9a 3d f2 e2 a1 bc
       0.025657287 0.04579753 0.07523129 -0.019761536
000200 d8 c6 c0 3c c7 e3 6f bd 0a 5e 09 bd 99 1e 18 3d
       0.023532316 -0.058566835 -0.03353695 0.037138555
000210 fd 1d 0b 3b 73 d8 7b bd e8 bc bd 3d 29 8a b4 bc
       0.0021227591 -0.06148572 0.09264547 -0.022038536
000220 a2 5c 92 bd 2f 09 5b 3d 4a 53 41 3d 4e 52 c4 3c
       -0.071465746 0.053475555 0.04719857 0.023965027
000230 b4 d9 a5 bc e9 f5 82 bc 83 5a 34 bc cc 60 8b 3d
       -0.02024541 -0.0159864 -0.011007908 0.06805572
000240 e4 0b 3c 3d 83 69 30 3c 15 89 16 be fa 6a df 3d
       0.045909777 0.010767343 -0.1470073 0.10909076
000250 f0 db 6b 3d 1c 1f c9 3d 87 69 89 3d c4 86 21 bd
       0.057582796 0.09820387 0.06709581 -0.039435163
000260 08 2a c8 bc 73 68 de 3b 2e 08 8e bd 9c f4 12 3c
       -0.024434105 0.0067873537 -0.06935154 0.008969452
000270 90 70 18 bd ef 47 6a bc 3a ad 90 bd 79 b4 bb 3d
       -0.037216723 -0.014299377 -0.0706429 0.09165282
000280 1f 74 dd 3c 52 d2 45 3d d2 92 b7 bd c2 7d 37 3e
       0.02703291 0.04829628 -0.089635506 0.17919067
000290 af 91 c2 bc 97 da cb 3c f5 6f 6b 3d 32 4b 34 3d
       -0.023751108 0.024884505 0.057479817 0.044017024
0002a0 4e 2d 43 bc e9 c2 57 bd 25 57 83 3d 1b 2e ad bd
       -0.011912657 -0.052676115 0.06413106 -0.084560595
0002b0 2e 87 75 bc 41 36 c2 bd 63 01 15 3d f9 23 5f bd
       -0.014985843 -0.09483004 0.036378276 -0.054477666
0002c0 43 8b ae 3c 1e 31 a9 3d 33 42 1b 3c f5 40 b3 bd
       0.02130664 0.082613215 0.009476232 -0.08752624
0002d0 05 73 24 bc 3c ce 86 3d 70 09 6e 3a 0d d2 e6 3c
       -0.010037188 0.06582305 0.0009080386 0.028176332
0002e0 36 dc 26 bd f0 e0 3b bd c3 49 f4 bd 7d 13 42 ba
       -0.040737353 -0.045868814 -0.119281314 -0.00074034167
0002f0 87 12 1b 3d a3 21 7b 3b 74 6a 7b bd 4f a1 89 bd
       0.037859466 0.003831961 -0.06138082 -0.0672022
000300 ce 95 93 3c 61 e3 99 3d 24 4a b8 ba c9 37 b1 3d
       0.018015768 0.07514072 -0.0014060182 0.08653218
000310 07 c0 c5 bd 4b 76 16 bd ed 56 a5 3d 85 03 24 3d
       -0.09655767 -0.036733907 0.080732204 0.04004242
000320 1a af a3 bc 1a 4d 68 3d 9c af 39 3d 66 e8 02 3e
       -0.019980956 0.056714155 0.04533349 0.12783965
000330 4c 32 42 bc 60 93 11 3d 2e 97 8f bd 54 51 02 bd
       -0.011852812 0.03554094 -0.07011257 -0.03181584
000340 4e e3 7d bd 2e cf b0 bc d5 a8 f8 3c eb 57 80 3d
       -0.061984353 -0.021583166 0.030353943 0.06266769
000350 20 0e 97 bd 61 fd 76 3d cf dc 62 3d 35 ee 19 3c
       -0.07375741 0.060300235 0.05538636 0.009395172
000360 06 76 a0 bc 18 a5 de bc 4b 10 0c 3e 94 c4 ae 3d
       -0.019587528 -0.027178332 0.1367809 0.08533588
000370 bf df 57 3c 65 7b a8 bc 1b ed 19 3d 95 f0 29 bd
       0.013175904 -0.020566652 0.037579637 -0.041489203
000380 64 f7 91 3c 2f 06 32 bd 60 ba e4 bd b3 45 03 3d
       0.01781816 -0.04346293 -0.11168361 0.032048892
000390 b5 ff 0d bd 6b 65 26 bc e7 16 e9 bc e0 74 6e bd
       -0.03466769 -0.010156016 -0.028453304 -0.05821693
0003a0 8a 55 15 bd 95 ae c3 bb 39 30 7d bb 0d cf 54 bb
       -0.03645853 -0.0059717395 -0.003863348 -0.0032472045
0003b0 7e 61 8e bd 28 23 03 be dd 07 a1 bd c3 79 ac bd
       -0.06952189 -0.1280638 -0.07862828 -0.08421662
0003c0 3b a4 89 3d 88 04 31 3d 43 61 24 3d 88 70 40 bc
       0.067207776 0.043217212 0.04013182 -0.01174558
0003d0 5b 25 16 3c 9f 6d f8 3c 6d 69 90 3c b8 58 8f bd
       0.00916418 0.030325709 0.017628396 -0.06999344
0003e0 38 fa 5c 3c 98 24 9e 3d fe b1 5b 3d c9 d4 11 3d
       0.013487391 0.077218235 0.053636543 0.03560332
0003f0 0d 73 2b 3d cb 18 10 bd a0 f8 57 3c 07 ba 0a bd
       0.041857768 -0.035179894 0.013181835 -0.033868816

network_body.vector_processors.0.normalizer.running_mean f4 [91]
000000 db 00 4d 3f ae 24 82 3b b0 f9 74 39 c6 99 47 3e
       0.8007943 0.0039716577 0.00023362669 0.19492254
000010 d8 bb b1 3e 99 2f 4c 3f 93 36 9e 3b 65 25 cc 39
       0.34713626 0.7976013 0.004828283 0.00038937773
000020 60 d5 49 3e ee a5 fd 3e 94 7e 62 3f a2 24 82 3b
       0.19710302 0.49540657 0.8847439 0.003971652
000030 21 51 23 39 74 6e e3 3d 20 7f df 3e 6e 0a 54 3f
       0.00015575114 0.11105052 0.43651676 0.82828414
000040 8a 8f 60 3a 1f 51 a3 39 94 8f 2e 3e 79 b0 a8 3e
       0.0008566311 0.00031150223 0.17046958 0.32947138
000050 7c 48 6c 3f 2a 48 15 3c b0 f9 74 39 19 1e 8a 3d
       0.922981 0.009111444 0.00023362669 0.06744022
000060 b2 ed d1 3e ac 1f 53 3f b1 62 1a 3c ab f9 f4 39
       0.4100166 0.824702 0.009422944 0.00046725324
000070 37 4c 29 3e f8 76 f5 3e 3b 93 4f 3f 64 25 cc 39
       0.1653298 0.47942328 0.8108403 0.0003893777
000080 65 25 cc 39 84 d2 40 3e 66 6e 9b 3e d9 d8 4b 3f
       0.00038937773 0.18830305 0.30357665 0.7962776
000090 89 3f 2c 3c 1e 51 a3 39 91 72 45 3e 27 5c 06 3f
       0.010513195 0.0003115022 0.19281985 0.52484363
0000a0 d7 6b 47 3f f1 ef 1c 3c 1f 51 23 39 6b 44 58 3e
       0.77898926 0.009578691 0.00015575111 0.2111985
0000b0 ea 24 08 3f 8d 18 49 3f 11 1c 19 3b 65 25 cc 39
       0.53181326 0.78553087 0.0023362676 0.00038937773
0000c0 eb be 58 3e f1 28 a5 3e 3a 3a 3f 3f 36 7d 1f 3c
       0.2116658 0.32257798 0.7469822 0.009734442
0000d0 20 51 a3 38 18 53 78 3e 0b af 0c 3f 58 35 45 3f
       7.7875564e-05 0.24250448 0.54954594 0.7703452
0000e0 cf cc 2e 3c 21 51 23 39 53 5d 5f 3e 2e 1a 09 3f
       0.010668947 0.00015575114 0.21812944 0.5355557
0000f0 32 91 2c 3f 6a d5 17 3d b0 f9 f4 39 75 9b 93 3e
       0.6740905 0.037068762 0.00046725338 0.28829542
000100 d9 37 1d 3f d2 42 28 3f e3 6c 9a 3e 59 01 1f 3f
       0.6141334 0.6572696 0.301612 0.6211143
000110 5d 27 be ba b4 b0 ab 3c 63 b5 b1 bd 70 83 72 3f
       -0.0014507581 0.020958282 -0.08677175 0.9473181
000120 10 d3 39 3d 86 e7 7b 3b 2e e4 7a 3f 82 62 46 3d
       0.0453673 0.003843756 0.98004425 0.048433788
000130 0e c4 c9 bd e1 2d 87 be d4 2f 29 42 11 1c 05 3f
       -0.098518476 -0.2640219 42.296707 0.5199595
000140 9a 24 dc 3f a7 37 76 42 36 1d 09 3f a8 99 71 c2
       1.719867 61.554348 0.535602 -60.400055
000150 d1 3f 32 3b 74 0a 21 bb a6 35 2c bc c6 99 47 3f
       0.0027198682 -0.002457288 -0.010510838 0.77969015
000160 14 32 49 3f 24 53 46 3f 18 47 42 3f
       0.7859204 0.7747061 0.7588973
