Assets/ML-Agents/mla-1.0.6/results/carchase02/CarAgent/CarAgent-1991.pt (torch, 733951 bytes, 13 tensors)

network_body.linear_encoder.seq_layers.0.weight f4 [256, 93]
0	0xbd4e8f1d	-0.050429452
1	0x3d3c70e3	0.046006095
2	0xbe01e8af	-0.12686418
3	0xbdc743c1	-0.0972972
4	0xbdab82cd	-0.08374558
5	0x3e17cea9	0.14824928
6	0x3d2e8f1e	0.042616956
7	0x3dae66c9	0.085156985
8	0xbcd641be	-0.026154395
9	0xbd1a1285	-0.037615318
10	0x3d09fc27	0.033687737
11	0xbe01fee8	-0.12694895
12	0x3c9adf80	0.018905401
13	0x3db2e58f	0.08735191
14	0xbde4ba58	-0.11168355
15	0xbe72f4eb	-0.23726241
16	0x3de56b0b	0.112020575
17	0xbc133a94	-0.008986134
18	0xbe80a612	-0.25126702
19	0x3da8f49f	0.08249783
20	0x3c0b0e2e	0.008487267
21	0xbe635889	-0.22201742
22	0xbd4db4c1	-0.05022121
23	0x3b8537f8	0.00406551
24	0x3d307d4b	0.04308824
25	0x3e07c12c	0.13257283
26	0x3d974df7	0.073879175
27	0x3d177a65	0.03698196
28	0x3d208fcd	0.03919964
29	0xbd4d5823	-0.05013288
30	0x3e0405f4	0.12892896
31	0xbcbd754d	-0.023127222
32	0xbe2b2e76	-0.16716942
33	0xbd8df151	-0.06930793
34	0xbd5b724c	-0.0535758
35	0x3c98b3b5	0.018640378
36	0x3d64ce93	0.055861067
37	0x3cb01293	0.021493232
38	0xbe0fa73c	-0.14028639
39	0xbe3409d1	-0.1758187
40	0xbcf31f5a	-0.029678036
41	0xbc768465	-0.015046214
42	0x3dbb76c7	0.09153514
43	0xbe94b65f	-0.29045388
44	0xbda444a1	-0.080209024
45	0xbe38a742	-0.18032554
46	0x3db9e023	0.09075954
47	0x3df9fe71	0.12206734
48	0x3e214cb0	0.1575191
49	0x3d946095	0.07244984
50	0x3c99929b	0.018746665
51	0xbddaf99a	-0.10692139
52	0x39b9e992	0.00035459973
53	0xbdef51b9	-0.11685509
54	0x3dc24eb5	0.094876684
55	0xbd089df8	-0.033353776
56	0xbdaf9f03	-0.08575251
57	0xbd6bf22d	-0.057604004
58	0xbdd509f6	-0.104022905
59	0xbdb88786	-0.09010224
60	0xbd2ad5b7	-0.04170772
61	0x3ca8ced8	0.020606443
62	0x3d917d3f	0.07103967
63	0xbdd13932	-0.10215987
64	0xbd82b4a4	-0.06382111
65	0xbdf95e15	-0.12176148
66	0xbd5350a5	-0.05159058
67	0xbd33160f	-0.04372221
68	0x3c5ce739	0.013482862
69	0xbdf50b4e	-0.11965047
70	0x3d4c796a	0.049920477
71	0xbd9fb621	-0.0779841
72	0x3dd44ae2	0.10365845
73	0x3e27aed2	0.16375282
74	0x3d828220	0.063724756
75	0x3e2ef439	0.17085351
76	0xbd86f222	-0.06589152
77	0x3d5652c9	0.052325044
78	0xbe16ff87	-0.14745913
79	0x3c25007a	0.010070914
80	0xbe844c18	-0.25839305
81	0x3d2e56a8	0.04256311
82	0xbd8cdde3	-0.06878259
83	0x3d2bc5ff	0.04193687
84	0xbd2a8157	-0.041627254
85	0x3dd6e869	0.104935475
86	0xbd856fe0	-0.06515479
87	0xbd6a6346	-0.05722358
88	0x3e384a9e	0.17997214
89	0xbc59df20	-0.013297826
90	0xbc00d7a6	-0.007863915
91	0x3dd1cb24	0.10243824
92	0xbded9498	-0.11600608
93	0xbd820520	-0.06348634
94	0xbd1e7a63	-0.038690936
95	0x3d834308	0.064092696
96	0x3e12de32	0.14342573
97	0xbe8dbff9	-0.27685526
98	0x3d3e84de	0.04651343
99	0x3d0748d8	0.033028454
100	0xbd857336	-0.06516115
101	0xbda09bc5	-0.07842211
102	0xbe724216	-0.23658022
103	0xbd6b22cd	-0.057406235
104	0x3d6f7473	0.058460664
105	0xbdfa749e	-0.12229274
106	0xbe083087	-0.13299762
107	0xbd17e314	-0.037081793
108	0xbd78bd02	-0.060727127
109	0xbd96e486	-0.07367806
110	0x3c48d62a	0.012258092
111	0x3db939ce	0.090442285
112	0xbd677cf2	-0.05651564
113	0x3c2e44e7	0.010636545
114	0x3d706537	0.058690276
115	0x3dc8765e	0.09788202
116	0xbdc57520	-0.096414804
117	0xbd1a458d	-0.037663985
118	0xbccba7bc	-0.024860255
119	0xbdb3285e	-0.08747934
120	0x3ba38b1d	0.004990949
121	0x3dca4868	0.09877092
122	0xbe33d688	-0.17562306
123	0x3e14b4a9	0.14522041
124	0x3de84439	0.113411374
125	0xbdec5499	-0.11539573
126	0x3dc2d75d	0.095137335
127	0xbd8c5eea	-0.06854041
128	0x3ca952f1	0.020669432
129	0xbdc6b394	-0.097022206
130	0x3e88be12	0.26707512
131	0xbdecf494	-0.11570087
132	0xbdf683ea	-0.12036879
133	0xbd83f072	-0.06442346
134	0x3c23a5b7	0.00998824
135	0xbe156772	-0.14590243
136	0x3bac1e92	0.0052526677
137	0x3d5b54f8	0.05354783
138	0xbd58aebf	-0.052901026
139	0x3cd1cded	0.025610888
140	0x3dc26929	0.09492714
141	0xbd6ccf2d	-0.057814766
142	0x3d66ea2b	0.056375664
143	0xbd415f71	-0.04721016
144	0xbe1c3208	-0.1525346
145	0xbd27a28f	-0.040926512
146	0x3d332eb1	0.0437457
147	0x3d41f3a5	0.0473515
148	0xbdd33b10	-0.10314
149	0x3df81f1b	0.12115308
150	0xbe292697	-0.16518627
151	0x3e36bc61	0.17845298
152	0x3df85759	0.12126035
153	0x3e8859eb	0.26631102
154	0x3c97dd0a	0.018538017
155	0xbde98f2e	-0.114042625
156	0x3cba2490	0.022722512
157	0xbc894292	-0.016755376
158	0xbd1470fd	-0.036240567
159	0x3d517b25	0.05114283
160	0xbbe4f6bf	-0.0069874222
161	0x3df6944e	0.120400056
162	0x3cf4320f	0.029809026
163	0x3e55d2e4	0.2088123
164	0xbe2c268f	-0.16811584
165	0x3d30b916	0.04314526
166	0xbc960af9	-0.018315779
167	0x3b422819	0.002962595
168	0x3dd1cc8e	0.10244094
169	0x3d31cf98	0.043410867
170	0xbe139db3	-0.14415626
171	0xbbd8ba84	-0.0066140313
172	0xbb951723	-0.0045498773
173	0x3bf776ac	0.0075519886
174	0x3d96c009	0.073608465
175	0x3df18cab	0.117944084
176	0xbe0e5a04	-0.13901526
177	0x3e28f760	0.16500616
178	0xbd29f2a4	-0.041491166
179	0xbda97e5b	-0.082760535
180	0x3dea9cc4	0.11455682
181	0xbddd648f	-0.10810196
182	0x3afd449c	0.0019322815
183	0x3cfff1a4	0.031243153
184	0x3d70c0b7	0.058777537
185	0x3e27c0d5	0.16382153
186	0xbd5d2cf0	-0.053997934
187	0xbdafea53	-0.08589616
188	0xbe2926c8	-0.165187
189	0xbeb2fd5a	-0.34958917
190	0x3e28330f	0.16425727
191	0xbdee6375	-0.11640064
192	0xbd65f071	-0.056137506
193	0x3d9effd0	0.07763636
194	0xbcaea0ce	-0.021316912
195	0xbd41bb99	-0.047298048
196	0xbd01e01e	-0.031707875
197	0xbcf36558	-0.02971141
198	0xbdad4f07	-0.08462339
199	0x3dafbbbe	0.08580731
200	0x3d31457f	0.043279167
201	0x3d876105	0.06610302
202	0x3c115094	0.008869309
203	0x3da2e319	0.07953472
204	0xbd2c9304	-0.042132393
205	0xbd071050	-0.03297454
206	0x3bc9a324	0.006153481
207	0xbdcddfc5	-0.10052446
208	0x3d8d6f0d	0.06905947
209	0x3e2b77bb	0.16744892
210	0x3e34a243	0.17640023
211	0x3d113ca3	0.03545822
212	0xbe4d11e9	-0.20026363
213	0xbd9d67ca	-0.07685812
214	0xbd905720	-0.07047868
215	0xbe534620	-0.2063222
216	0x3c91a56a	0.01777907
217	0x3d352e38	0.04423353
218	0x3e081971	0.13290955
219	0x3db2b6b1	0.08726252
220	0x3df81c74	0.12114802
221	0xbda4339b	-0.080176555
222	0xbd9cf249	-0.076634
223	0xbe11cedd	-0.14239068
224	0xbe33d052	-0.17559937
225	0xbe371abe	-0.17881295
226	0x3e08f936	0.13376316
227	0xbcd597f1	-0.026073428
228	0x3de7f784	0.11326507
229	0x3d5b89f0	0.053598344
230	0x3dfee472	0.12445916
231	0xbe306238	-0.17224967
232	0xbe422e2d	-0.18962927
233	0xbc9bc712	-0.019015823
234	0x3cdb1086	0.026741277
235	0xbd2b4eb2	-0.041823097
236	0xbdf8f59b	-0.121562205
237	0xbd8a4d6b	-0.067530476
238	0x3b205931	0.0024467225
239	0x3b8d1088	0.004304949
240	0xbda296bb	-0.07938906
241	0x3e0c6a14	0.1371234
242	0xbd150b7c	-0.036387905
243	0x3e0f22a9	0.13978066
244	0xbcf05354	-0.029336609
245	0x3c8927cc	0.01674261
246	0x3e104c14	0.14091522
247	0xbca1e259	-0.019761251
248	0xbe192167	-0.14954148
249	0xbd4316a3	-0.04762901
250	0xbd33eb54	-0.0439256
251	0xbdf428c9	-0.11921842
252	0xbd4bae0b	-0.049726527
253	0xbe41fe16	-0.18944582
254	0x3d88cb18	0.06679362
255	0xbb627b75	-0.003455845

network_body.linear_encoder.seq_layers.0.bias f4 [256]
0	0x00000000	0.0
1	0x00000000	0.0
2	0x00000000	0.0
3	0x00000000	0.0
4	0x00000000	0.0
5	0x00000000	0.0
6	0x00000000	0.0
7	0x00000000	0.0
8	0x00000000	0.0
9	0x00000000	0.0
10	0x00000000	0.0
11	0x00000000	0.0
12	0x00000000	0.0
13	0x00000000	0.0
14	0x00000000	0.0
15	0x00000000	0.0
16	0x00000000	0.0
17	0x00000000	0.0
18	0x00000000	0.0
19	0x00000000	0.0
20	0x00000000	0.0
21	0x00000000	0.0
22	0x00000000	0.0
23	0x00000000	0.0
24	0x00000000	0.0
25	0x00000000	0.0
26	0x00000000	0.0
27	0x00000000	0.0
28	0x00000000	0.0
29	0x00000000	0.0
30	0x00000000	0.0
31	0x00000000	0.0
32	0x00000000	0.0
33	0x00000000	0.0
34	0x00000000	0.0
35	0x00000000	0.0
36	0x00000000	0.0
37	0x00000000	0.0
38	0x00000000	0.0
39	0x00000000	0.0
40	0x00000000	0.0
41	0x00000000	0.0
42	0x00000000	0.0
43	0x00000000	0.0
44	0x00000000	0.0
45	0x00000000	0.0
46	0x00000000	0.0
47	0x00000000	0.0
48	0x00000000	0.0
49	0x00000000	0.0
50	0x00000000	0.0
51	0x00000000	0.0
52	0x00000000	0.0
53	0x00000000	0.0
54	0x00000000	0.0
55	0x00000000	0.0
56	0x00000000	0.0
57	0x00000000	0.0
58	0x00000000	0.0
59	0x00000000	0.0
60	0x00000000	0.0
61	0x00000000	0.0
62	0x00000000	0.0
63	0x00000000	0.0
64	0x00000000	0.0
65	0x00000000	0.0
66	0x00000000	0.0
67	0x00000000	0.0
68	0x00000000	0.0
69	0x00000000	0.0
70	0x00000000	0.0
71	0x00000000	0.0
72	0x00000000	0.0
73	0x00000000	0.0
74	0x00000000	0.0
75	0x00000000	0.0
76	0x00000000	0.0
77	0x00000000	0.0
78	0x00000000	0.0
79	0x00000000	0.0
80	0x00000000	0.0
81	0x00000000	0.0
82	0x00000000	0.0
83	0x00000000	0.0
84	0x00000000	0.0
85	0x00000000	0.0
86	0x00000000	0.0
87	0x00000000	0.0
88	0x00000000	0.0
89	0x00000000	0.0
90	0x00000000	0.0
91	0x00000000	0.0
92	0x00000000	0.0
93	0x00000000	0.0
94	0x00000000	0.0
95	0x00000000	0.0
96	0x00000000	0.0
97	0x00000000	0.0
98	0x00000000	0.0
99	0x00000000	0.0
100	0x00000000	0.0
101	0x00000000	0.0
102	0x00000000	0.0
103	0x00000000	0.0
104	0x00000000	0.0
105	0x00000000	0.0
106	0x00000000	0.0
107	0x00000000	0.0
108	0x00000000	0.0
109	0x00000000	0.0
110	0x00000000	0.0
111	0x00000000	0.0
112	0x00000000	0.0
113	0x00000000	0.0
114	0x00000000	0.0
115	0x00000000	0.0
116	0x00000000	0.0
117	0x00000000	0.0
118	0x00000000	0.0
119	0x00000000	0.0
120	0x00000000	0.0
121	0x00000000	0.0
122	0x00000000	0.0
123	0x00000000	0.0
124	0x00000000	0.0
125	0x00000000	0.0
126	0x00000000	0.0
127	0x00000000	0.0
128	0x00000000	0.0
129	0x00000000	0.0
130	0x00000000	0.0
131	0x00000000	0.0
132	0x00000000	0.0
133	0x00000000	0.0
134	0x00000000	0.0
135	0x00000000	0.0
136	0x00000000	0.0
137	0x00000000	0.0
138	0x00000000	0.0
139	0x00000000	0.0
140	0x00000000	0.0
141	0x00000000	0.0
142	0x00000000	0.0
143	0x00000000	0.0
144	0x00000000	0.0
145	0x00000000	0.0
146	0x00000000	0.0
147	0x00000000	0.0
148	0x00000000	0.0
149	0x00000000	0.0
150	0x00000000	0.0
151	0x00000000	0.0
152	0x00000000	0.0
153	0x00000000	0.0
154	0x00000000	0.0
155	0x00000000	0.0
156	0x00000000	0.0
157	0x00000000	0.0
158	0x00000000	0.0
159	0x00000000	0.0
160	0x00000000	0.0
161	0x00000000	0.0
162	0x00000000	0.0
163	0x00000000	0.0
164	0x00000000	0.0
165	0x00000000	0.0
166	0x00000000	0.0
167	0x00000000	0.0
168	0x00000000	0.0
169	0x00000000	0.0
170	0x00000000	0.0
171	0x00000000	0.0
172	0x00000000	0.0
173	0x00000000	0.0
174	0x00000000	0.0
175	0x00000000	0.0
176	0x00000000	0.0
177	0x00000000	0.0
178	0x00000000	0.0
179	0x00000000	0.0
180	0x00000000	0.0
181	0x00000000	0.0
182	0x00000000	0.0
183	0x00000000	0.0
184	0x00000000	0.0
185	0x00000000	0.0
186	0x00000000	0.0
187	0x00000000	0.0
188	0x00000000	0.0
189	0x00000000	0.0
190	0x00000000	0.0
191	0x00000000	0.0
192	0x00000000	0.0
193	0x00000000	0.0
194	0x00000000	0.0
195	0x00000000	0.0
196	0x00000000	0.0
197	0x00000000	0.0
198	0x00000000	0.0
199	0x00000000	0.0
200	0x00000000	0.0
201	0x00000000	0.0
202	0x00000000	0.0
203	0x00000000	0.0
204	0x00000000	0.0
205	0x00000000	0.0
206	0x00000000	0.0
207	0x00000000	0.0
208	0x00000000	0.0
209	0x00000000	0.0
210	0x00000000	0.0
211	0x00000000	0.0
212	0x00000000	0.0
213	0x00000000	0.0
214	0x00000000	0.0
215	0x00000000	0.0
216	0x00000000	0.0
217	0x00000000	0.0
218	0x00000000	0.0
219	0x00000000	0.0
220	0x00000000	0.0
221	0x00000000	0.0
222	0x00000000	0.0
223	0x00000000	0.0
224	0x00000000	0.0
225	0x00000000	0.0
226	0x00000000	0.0
227	0x00000000	0.0
228	0x00000000	0.0
229	0x00000000	0.0
230	0x00000000	0.0
231	0x00000000	0.0
232	0x00000000	0.0
233	0x00000000	0.0
234	0x00000000	0.0
235	0x00000000	0.0
236	0x00000000	0.0
237	0x00000000	0.0
238	0x00000000	0.0
239	0x00000000	0.0
240	0x00000000	0.0
241	0x00000000	0.0
242	0x00000000	0.0
243	0x00000000	0.0
244	0x00000000	0.0
245	0x00000000	0.0
246	0x00000000	0.0
247	0x00000000	0.0
248	0x00000000	0.0
249	0x00000000	0.0
250	0x00000000	0.0
251	0x00000000	0.0
252	0x00000000	0.0
253	0x00000000	0.0
254	0x00000000	0.0
255	0x00000000	0.0

network_body.linear_encoder.seq_layers.2.weight f4 [256, 256]
0	0x3d51355f	0.05107629
1	0xbb51ff4d	-0.003204304
2	0xbd985065	-0.07437209
3	0xbc7905ca	-0.015199134
4	0x3db9b267	0.09067231
5	0xbd5f2bb6	-0.054485045
6	0x3cfad452	0.03061882
7	0x3c610dfc	0.013736244
8	0xbd2b1f35	-0.04177781
9	0x3ce49506	0.027903091
10	0xbd82e9d8	-0.063922584
11	0x3ce9f7ed	0.028560603
12	0xbd626bc6	-0.055278562
13	0xbc580e41	-0.013186992
14	0xbdad78b4	-0.08470288
15	0xbcd050b3	-0.025429105
16	0x3d7d37f5	0.061820943
17	0xbd1be085	-0.038055915
18	0xbde62d72	-0.11239137
19	0xbd618340	-0.05505681
20	0x3d08cc11	0.033397738
21	0xbb507457	-0.0031807625
22	0xbd02398e	-0.03179317
23	0xbd4e2adb	-0.05033384
24	0xbccd4d2c	-0.025061212
25	0x3e0552d1	0.13019873
26	0x3ca9aab7	0.020711286
27	0xbd900eec	-0.07034096
28	0xbd103697	-0.03520831
29	0x3db04477	0.08606809
30	0x3d36ef66	0.044661902
31	0xbd8c8d01	-0.06862832
32	0xbe00fe6d	-0.12597056
33	0x3d834e2c	0.064113945
34	0xbc99e468	-0.01878567
35	0x3ca40dad	0.020026052
36	0x3d753c51	0.059871975
37	0x3d1c6ae3	0.038187873
38	0x3db1d32e	0.086828575
39	0xbcdd5d3e	-0.027022
40	0xbd188e47	-0.03724506
41	0x3cf880cd	0.030334854
42	0xbdbb2f44	-0.091398746
43	0x3bc3adea	0.00597166
44	0x3d73484a	0.059395112
45	0x3c9572b3	0.01824317
46	0xbd4f59e4	-0.050622836
47	0x3ca18444	0.01971639
48	0xbdbe0400	-0.09278107
49	0x3ca357b3	0.01993928
50	0xbdaf7125	-0.085665025
51	0xbda064de	-0.07831739
52	0xbd8ebc21	-0.069694765
53	0xbd285a9c	-0.041102037
54	0x3d0cccf2	0.03437514
55	0xbc71cdc8	-0.014758535
56	0xbd441ae6	-0.047877215
57	0xbdb09839	-0.08622784
58	0x3d725cff	0.05917072
59	0x3c77edb3	0.0151323555
60	0x3d32db38	0.043666095
61	0x3d9bc778	0.07606405
62	0xbc971cef	-0.018446414
63	0x3caa0e77	0.02075885
64	0xbe0f828a	-0.1401464
65	0x39175af4	0.00014434365
66	0x3d5aacba	0.05338738
67	0x3d578580	0.05261755
68	0xbc8e60ef	-0.017380206
69	0x3d158936	0.036507808
70	0x3bdc8c4a	0.006730591
71	0x3da7f37c	0.08200738
72	0xbd002695	-0.031286795
73	0xbd14eb40	-0.036357164
74	0x3db5b60d	0.08872614
75	0xbdb4cd4f	-0.08828222
76	0x3c638b79	0.013888233
77	0xbdebf93f	-0.11522149
78	0xbbd2ded1	-0.006435253
79	0x3d77d2d1	0.060503785
80	0xbda1412d	-0.078737594
81	0xbd483c20	-0.048885465
82	0x3c048003	0.008087161
83	0x3d061e85	0.03274395
84	0xbc2156d7	-0.009847364
85	0x3d63de11	0.0556317
86	0x3e082b30	0.13297725
87	0xbd2c3514	-0.042042807
88	0x3d578aad	0.052622486
89	0x3dcdf893	0.100571774
90	0xbd530395	-0.051517088
91	0x3c8993a3	0.016794031
92	0xbd93c54b	-0.07215365
93	0x3dca63b4	0.09882298
94	0xbcb117f4	-0.021617867
95	0xbd207a1f	-0.039178964
96	0xbc9f73d1	-0.019464405
97	0xbcf1585e	-0.029461082
98	0x3e1a754e	0.1508381
99	0xbde254d9	-0.1105134
100	0xbcbcd6bf	-0.023051618
101	0xbe146ea1	-0.14495327
102	0x3c7642f5	0.015030612
103	0xbde089cc	-0.10963783
104	0x3d23c699	0.03998432
105	0xbd5fdf83	-0.054656517
106	0xbccb6e86	-0.024832975
107	0x3c97c88a	0.018528242
108	0x3caa5241	0.020791175
109	0x3c31c176	0.010849347
110	0x3db39cf9	0.087701745
111	0xbcde81e1	-0.02716154
112	0xbd82acf9	-0.06380648
113	0xbbc2d4a9	-0.005945761
114	0x3dce2140	0.10064936
115	0x3ce611ef	0.028084723
116	0x3bbeb847	0.0058203074
117	0x3ddd9f91	0.108214505
118	0xbd9cbd72	-0.07653321
119	0xbc8a51e5	-0.016884753
120	0x3c61948d	0.013768327
121	0x3de29500	0.11063576
122	0xbdfa7735	-0.12229768
123	0x3c9ae88b	0.018909713
124	0xbdb977d0	-0.090560555
125	0xbd4820b8	-0.048859328
126	0xbdc5ce40	-0.0965848
127	0xbc85524d	-0.016274596
128	0xbd0536f2	-0.032523103
129	0x3dc19337	0.09451907
130	0xbda79350	-0.081823945
131	0x3d592f69	0.05302373
132	0xbd7f1701	-0.062277798
133	0xbd88e825	-0.06684903
134	0x3dbdd258	0.092686355
135	0xba307c27	-0.00067323673
136	0x3dacc4a4	0.08435944
137	0x3db0faf6	0.08641617
138	0x3c1db702	0.009626152
139	0x3cb3434f	0.021882681
140	0x3d866ec9	0.06564099
141	0xbcee2f20	-0.029075205
142	0xbd8dd70f	-0.06925785
143	0x3e026d22	0.12736943
144	0x3dce7916	0.10081689
145	0x3e13cb62	0.14433053
146	0xbbe07194	-0.006849477
147	0xbd6d3786	-0.05791428
148	0x3d2f92e3	0.04286469
149	0x3aa3311a	0.0012450546
150	0xbc879863	-0.016552156
151	0xbca78b3e	-0.020452138
152	0xbd63b9e4	-0.0555972
153	0x3c13b419	0.009015107
154	0x3d310724	0.0432197
155	0x3d87a9ef	0.06624209
156	0xbcb6b7c4	-0.022304423
157	0xbd1f76eb	-0.03893177
158	0xbcdba0e3	-0.026810115
159	0x3d1c9a7b	0.03823326
160	0xba32b4e3	-0.00068171154
161	0xbe1e2a3d	-0.154458
162	0x3bc7301b	0.0060787327
163	0xbd8a7cdb	-0.067620955
164	0x3c469368	0.012120105
165	0x3d1b3ffc	0.037902817
166	0xbca047d0	-0.019565493
167	0x3d394ec4	0.045241132
168	0xbd28d1dc	-0.041215762
169	0xbda91b67	-0.0825718
170	0xbdac5816	-0.084152386
171	0xbd3a4949	-0.045480046
172	0x3d997ca5	0.07494477
173	0x3c134123	0.008987698
174	0xbdc74927	-0.097307496
175	0xbc718ed7	-0.014743528
176	0x3c94dc49	0.018171446
177	0xbd900d3a	-0.07033773
178	0xbd7615ad	-0.060079265
179	0x3b512993	0.003191565
180	0xbd54ad96	-0.051923357
181	0x3d93ccdf	0.072168104
182	0x3d9b7e7a	0.07592483
183	0xbd52bdc7	-0.051450517
184	0xbcb5895f	-0.02216023
185	0x3cbc8793	0.023013866
186	0x3cb3623e	0.021897431
187	0xbdc24f35	-0.09487764
188	0xbdaa6c2f	-0.08321416
189	0xbcddc26e	-0.02707025
190	0x3de4b165	0.11166648
191	0x3d6e461b	0.058172327
192	0xbd8c22cb	-0.06842574
193	0x3c1f5108	0.009723909
194	0xbd3db4a1	-0.04631484
195	0xbe0bfc17	-0.13670383
196	0x3c8b6876	0.017017584
197	0xbcc48c07	-0.023992551
198	0x3b9f3a18	0.0048592202
199	0x3d88ed0f	0.0668584
200	0xbcc23c73	-0.023710465
201	0xbd5202cf	-0.05127221
202	0x3d14f093	0.036362242
203	0x3d111668	0.03542176
204	0x3c41bc8e	0.01182474
205	0x3d73726e	0.0594353
206	0xbc66c9aa	-0.014086166
207	0x3ca726b6	0.020404201
208	0x3e07614c	0.1322071
209	0x3ccb546c	0.024820529
210	0xbd64a7bc	-0.055824026
211	0xbdeed2bb	-0.116612874
212	0x3ce21b54	0.027600922
213	0xbc365241	-0.011128009
214	0xbda3187c	-0.079636544
215	0xbd9332d3	-0.07187428
216	0xbc8589aa	-0.016300995
217	0xbbe37e95	-0.00694258
218	0x3bbf6686	0.005841079
219	0xbbf0586b	-0.007334759
220	0xbbe15122	-0.006876127
221	0x3ab601c3	0.0013886023
222	0x3d94f8b2	0.07273997
223	0xbcf770d6	-0.030205172
224	0xbd7321d5	-0.059358437
225	0x3da55c06	0.08074193
226	0xbcf51731	-0.029918285
227	0xbb9b6a4c	-0.004742896
228	0xbd82f393	-0.06394114
229	0xbd367d4e	-0.044553094
230	0x3b929c23	0.0044741794
231	0x3ca2b641	0.019862296
232	0xbd8eb3ed	-0.06967912
233	0xbd738edf	-0.059462424
234	0x3d211df0	0.03933519
235	0x3d452f5b	0.048140865
236	0xbdec5224	-0.115391046
237	0xbde19e11	-0.11016477
238	0x3dcf614e	0.10125981
239	0x3cc3d1af	0.023903696
240	0x3d9f01a1	0.077639826
241	0xbc8b8ed7	-0.017035885
242	0x3c895721	0.01676518
243	0xbd8213d8	-0.06351441
244	0xba9ed5b4	-0.0012118132
245	0x3d71b3ef	0.05900949
246	0xbda85d7e	-0.08220957
247	0x3d4ad182	0.04951621
248	0xbd709ed6	-0.058745228
249	0xbe34b520	-0.17647219
250	0x3c854de3	0.01627249
251	0x3d0d9b7d	0.034572113
252	0xbcbfe603	-0.023425108
253	0x3c0a458c	0.008439433
254	0xbd4c0e62	-0.049818404
255	0xbca627a0	-0.020282567

network_body.linear_encoder.seq_layers.2.bias f4 [256]
0	0x00000000	0.0
1	0x00000000	0.0
2	0x00000000	0.0
3	0x00000000	0.0
4	0x00000000	0.0
5	0x00000000	0.0
6	0x00000000	0.0
7	0x00000000	0.0
8	0x00000000	0.0
9	0x00000000	0.0
10	0x00000000	0.0
11	0x00000000	0.0
12	0x00000000	0.0
13	0x00000000	0.0
14	0x00000000	0.0
15	0x00000000	0.0
16	0x00000000	0.0
17	0x00000000	0.0
18	0x00000000	0.0
19	0x00000000	0.0
20	0x00000000	0.0
21	0x00000000	0.0
22	0x00000000	0.0
23	0x00000000	0.0
24	0x00000000	0.0
25	0x00000000	0.0
26	0x00000000	0.0
27	0x00000000	0.0
28	0x00000000	0.0
29	0x00000000	0.0
30	0x00000000	0.0
31	0x00000000	0.0
32	0x00000000	0.0
33	0x00000000	0.0
34	0x00000000	0.0
35	0x00000000	0.0
36	0x00000000	0.0
37	0x00000000	0.0
38	0x00000000	0.0
39	0x00000000	0.0
40	0x00000000	0.0
41	0x00000000	0.0
42	0x00000000	0.0
43	0x00000000	0.0
44	0x00000000	0.0
45	0x00000000	0.0
46	0x00000000	0.0
47	0x00000000	0.0
48	0x00000000	0.0
49	0x00000000	0.0
50	0x00000000	0.0
51	0x00000000	0.0
52	0x00000000	0.0
53	0x00000000	0.0
54	0x00000000	0.0
55	0x00000000	0.0
56	0x00000000	0.0
57	0x00000000	0.0
58	0x00000000	0.0
59	0x00000000	0.0
60	0x00000000	0.0
61	0x00000000	0.0
62	0x00000000	0.0
63	0x00000000	0.0
64	0x00000000	0.0
65	0x00000000	0.0
66	0x00000000	0.0
67	0x00000000	0.0
68	0x00000000	0.0
69	0x00000000	0.0
70	0x00000000	0.0
71	0x00000000	0.0
72	0x00000000	0.0
73	0x00000000	0.0
74	0x00000000	0.0
75	0x00000000	0.0
76	0x00000000	0.0
77	0x00000000	0.0
78	0x00000000	0.0
79	0x00000000	0.0
80	0x00000000	0.0
81	0x00000000	0.0
82	0x00000000	0.0
83	0x00000000	0.0
84	0x00000000	0.0
85	0x00000000	0.0
86	0x00000000	0.0
87	0x00000000	0.0
88	0x00000000	0.0
89	0x00000000	0.0
90	0x00000000	0.0
91	0x00000000	0.0
92	0x00000000	0.0
93	0x00000000	0.0
94	0x00000000	0.0
95	0x00000000	0.0
96	0x00000000	0.0
97	0x00000000	0.0
98	0x00000000	0.0
99	0x00000000	0.0
100	0x00000000	0.0
101	0x00000000	0.0
102	0x00000000	0.0
103	0x00000000	0.0
104	0x00000000	0.0
105	0x00000000	0.0
106	0x00000000	0.0
107	0x00000000	0.0
108	0x00000000	0.0
109	0x00000000	0.0
110	0x00000000	0.0
111	0x00000000	0.0
112	0x00000000	0.0
113	0x00000000	0.0
114	0x00000000	0.0
115	0x00000000	0.0
116	0x00000000	0.0
117	0x00000000	0.0
118	0x00000000	0.0
119	0x00000000	0.0
120	0x00000000	0.0
121	0x00000000	0.0
122	0x00000000	0.0
123	0x00000000	0.0
124	0x00000000	0.0
125	0x00000000	0.0
126	0x00000000	0.0
127	0x00000000	0.0
128	0x00000000	0.0
129	0x00000000	0.0
130	0x00000000	0.0
131	0x00000000	0.0
132	0x00000000	0.0
133	0x00000000	0.0
134	0x00000000	0.0
135	0x00000000	0.0
136	0x00000000	0.0
137	0x00000000	0.0
138	0x00000000	0.0
139	0x00000000	0.0
140	0x00000000	0.0
141	0x00000000	0.0
142	0x00000000	0.0
143	0x00000000	0.0
144	0x00000000	0.0
145	0x00000000	0.0
146	0x00000000	0.0
147	0x00000000	0.0
148	0x00000000	0.0
149	0x00000000	0.0
150	0x00000000	0.0
151	0x00000000	0.0
152	0x00000000	0.0
153	0x00000000	0.0
154	0x00000000	0.0
155	0x00000000	0.0
156	0x00000000	0.0
157	0x00000000	0.0
158	0x00000000	0.0
159	0x00000000	0.0
160	0x00000000	0.0
161	0x00000000	0.0
162	0x00000000	0.0
163	0x00000000	0.0
164	0x00000000	0.0
165	0x00000000	0.0
166	0x00000000	0.0
167	0x00000000	0.0
168	0x00000000	0.0
169	0x00000000	0.0
170	0x00000000	0.0
171	0x00000000	0.0
172	0x00000000	0.0
173	0x00000000	0.0
174	0x00000000	0.0
175	0x00000000	0.0
176	0x00000000	0.0
177	0x00000000	0.0
178	0x00000000	0.0
179	0x00000000	0.0
180	0x00000000	0.0
181	0x00000000	0.0
182	0x00000000	0.0
183	0x00000000	0.0
184	0x00000000	0.0
185	0x00000000	0.0
186	0x00000000	0.0
187	0x00000000	0.0
188	0x00000000	0.0
189	0x00000000	0.0
190	0x00000000	0.0
191	0x00000000	0.0
192	0x00000000	0.0
193	0x00000000	0.0
194	0x00000000	0.0
195	0x00000000	0.0
196	0x00000000	0.0
197	0x00000000	0.0
198	0x00000000	0.0
199	0x00000000	0.0
200	0x00000000	0.0
201	0x00000000	0.0
202	0x00000000	0.0
203	0x00000000	0.0
204	0x00000000	0.0
205	0x00000000	0.0
206	0x00000000	0.0
207	0x00000000	0.0
208	0x00000000	0.0
209	0x00000000	0.0
210	0x00000000	0.0
211	0x00000000	0.0
212	0x00000000	0.0
213	0x00000000	0.0
214	0x00000000	0.0
215	0x00000000	0.0
216	0x00000000	0.0
217	0x00000000	0.0
218	0x00000000	0.0
219	0x00000000	0.0
220	0x00000000	0.0
221	0x00000000	0.0
222	0x00000000	0.0
223	0x00000000	0.0
224	0x00000000	0.0
225	0x00000000	0.0
226	0x00000000	0.0
227	0x00000000	0.0
228	0x00000000	0.0
229	0x00000000	0.0
230	0x00000000	0.0
231	0x00000000	0.0
232	0x00000000	0.0
233	0x00000000	0.0
234	0x00000000	0.0
235	0x00000000	0.0
236	0x00000000	0.0
237	0x00000000	0.0
238	0x00000000	0.0
239	0x00000000	0.0
240	0x00000000	0.0
241	0x00000000	0.0
242	0x00000000	0.0
243	0x00000000	0.0
244	0x00000000	0.0
245	0x00000000	0.0
246	0x00000000	0.0
247	0x00000000	0.0
248	0x00000000	0.0
249	0x00000000	0.0
250	0x00000000	0.0
251	0x00000000	0.0
252	0x00000000	0.0
253	0x00000000	0.0
254	0x00000000	0.0
255	0x00000000	0.0

distribution.branches.0.weight f4 [3, 256]
0	0x3c812c3b	0.015768161
1	0xbc07787e	-0.008268474
2	0xbc6097c5	-0.01370806
3	0x3c2f3add	0.010695186
4	0x3bb7c0f2	0.0056077177
5	0xba7081a7	-0.0009174593
6	0x3b0fed16	0.0021961383
7	0xba10659a	-0.0005508304
8	0x3b8f59a5	0.0043747
9	0x39777690	0.00023599924
10	0xbb1212c3	-0.0022289015
11	0x3bd20a60	0.006409928
12	0xbb59cc3f	-0.0033233312
13	0xbb971fe3	-0.0046119555
14	0xbc745ca7	-0.014914668
15	0x3c6d487f	0.014482616
16	0x3b13eb78	0.002257077
17	0xbb03c2c4	-0.0020105103
18	0xbbfc01ea	-0.007690658
19	0xbab88b0b	-0.0014079524
20	0x3c0964a6	0.008385813
21	0xbb65fe93	-0.0035094365
22	0xbaf8f7fa	-0.0018994801
23	0x3c68f442	0.014218392
24	0xbbb63a8e	-0.0055611795
25	0xbc0b7c03	-0.008513453
26	0x3b674b1d	0.0035292574
27	0xbabc7e96	-0.0014380987
28	0x3948640b	0.00019110755
29	0xba093858	-0.0005234531
30	0x3c08705e	0.008327572
31	0xbc5de58f	-0.013543501
32	0x3bbf7353	0.005842605
33	0x3ab06523	0.0013457875
34	0x3bac0f31	0.0052508344
35	0xbba2b473	-0.004965359
36	0x3c2a8819	0.010408425
37	0x3b909ea0	0.004413441
38	0xbb8f4583	-0.0043723
39	0xba0f8283	-0.0005474465
40	0x3b38221e	0.0028096507
41	0xbc38dd3f	-0.011283218
42	0x3c44029e	0.011963515
43	0xbaecb132	-0.0018058179
44	0x3c1ece0b	0.009692679
45	0x3b14aae1	0.002268486
46	0xbafc9b2d	-0.001927232
47	0x3bb4da84	0.005519213
48	0x3aede32a	0.0018149365
49	0xbb3b9263	-0.0028621189
50	0xba8118a2	-0.000984926
51	0xbbf797d2	-0.00755594
52	0x3ba3a826	0.00499441
53	0xbb85e974	-0.0040866677
54	0xbb60d012	-0.0034303707
55	0x3b3ff6b7	0.002929134
56	0x3c70b127	0.014690674
57	0x3c422f6f	0.011852129
58	0xbbe847a0	-0.0070886165
59	0xb8cd9b87	-9.804131e-05
60	0xba1482c9	-0.00056652405
61	0xbc1be547	-0.009515113
62	0xbb4ea600	-0.003153205
63	0x3af8a5f5	0.0018970357
64	0x3b7714a3	0.003770151
65	0xba85b207	-0.0010200151
66	0x3b8598af	0.004077039
67	0xbbb32d34	-0.005468035
68	0xbbb0e347	-0.0053981873
69	0x3b22290b	0.0024743702
70	0x39b7e89a	0.00035077782
71	0x3bf6aff8	0.0075283013
72	0xbbc2006d	-0.005920461
73	0x3a6546aa	0.00087461865
74	0x3bacf5bb	0.005278317
75	0x399d0ce3	0.00029954975
76	0xb9c5de1b	-0.0003774025
77	0x3aabe9bf	0.0013115926
78	0xbae44a50	-0.0017417166
79	0x3a798f75	0.0009519973
80	0x3b96b6eb	0.0045994422
81	0x3b81cb43	0.0039609983
82	0x3bf64d8f	0.00751657
83	0xba96991a	-0.001148972
84	0xbbb94046	-0.005653414
85	0xbab8e3fd	-0.0014106032
86	0xbc07f115	-0.0082972245
87	0xbc1c43a5	-0.009537612
88	0x3c3dc20b	0.011581908
89	0x3aed47c8	0.0018103058
90	0xbbbd787f	-0.0057821865
91	0xbbd4d5a5	-0.006495195
92	0x3be26a72	0.006909662
93	0xbc040e04	-0.008059982
94	0xbba7c6e7	-0.0051201466
95	0x3c861b95	0.016370574
96	0xbc4c2ae9	-0.012461402
97	0x3ab13b97	0.0013521787
98	0xb9413d12	-0.00018428665
99	0xbb081317	-0.0020763332
100	0x3b9f02d2	0.004852631
101	0xbb41fe0e	-0.0029600891
102	0x3a99ac32	0.0011724292
103	0x3ba68a0b	0.005082374
104	0x3bd7ea93	0.0065892427
105	0x3b2ccbb8	0.0026366543
106	0xbb8b259e	-0.0042464277
107	0xbc002b88	-0.007822879
108	0xbb1a5650	-0.0023549981
109	0xbba45098	-0.0050144903
110	0xba46cdf8	-0.00075837923
111	0x3b0317a2	0.00200031
112	0xbbf5a57b	-0.0074965334
113	0x3b918010	0.004440315
114	0xbb2bfc83	-0.0026243038
115	0x3b491a26	0.0030685752
116	0xbbaf1089	-0.0053425473
117	0xbb21980c	-0.0024657277
118	0x3943c4df	0.0001866999
119	0xbaacf360	-0.001319509
120	0xb9bb2d80	-0.0003570132
121	0x3a351699	0.00069079694
122	0xbab505ec	-0.0013810969
123	0x3b05507b	0.002034216
124	0x3bc4ad67	0.0060021165
125	0x3ba621be	0.0050699404
126	0xbc359896	-0.011083743
127	0x3b181eb5	0.0023211662
128	0xbaf2b473	-0.0018516913
129	0x3c059a9d	0.008154538
130	0x3ab2ef2e	0.0013651603
131	0xbb455580	-0.0030110776
132	0x3c20b198	0.009807967
133	0x3ad1141a	0.0015951425
134	0x3954442d	0.00020243293
135	0xbc5fcc48	-0.013659544
136	0x3c2c6e97	0.010524414
137	0x3ae45aeb	0.0017422115
138	0x3b4e6eaa	0.0031499066
139	0xbbe4c3ca	-0.0069813477
140	0xbc04a17a	-0.00809514
141	0x3bab9a19	0.0052368757
142	0x3b40374b	0.0029329832
143	0x3b275337	0.0025531778
144	0xbae44dfa	-0.0017418258
145	0xb9c65e80	-0.0003783591
146	0xbb8025ab	-0.0039107404
147	0x3a59b33f	0.0008304603
148	0x3b94e5fa	0.004544017
149	0x3b0196cb	0.0019773718
150	0xb9f8dd02	-0.0004746691
151	0x3bedbef7	0.007255431
152	0xbbe91c42	-0.0071139643
153	0x39f71337	0.00047125827
154	0xbbb89442	-0.005632908
155	0x3ad3671f	0.0016128755
156	0x3a35fb2f	0.00069420313
157	0xbb90a337	-0.004413988
158	0x3bee2dcd	0.0072686435
159	0xb8ee84a0	-0.00011373428
160	0xbc311c0b	-0.010809909
161	0x3ad2dcf5	0.0016087579
162	0x3b72756d	0.003699626
163	0x3aa88a39	0.0012858576
164	0xbbb3b83d	-0.0054846094
165	0x3ac30dd7	0.0014881444
166	0xbaf10477	-0.0018388171
167	0x3bbf57ca	0.0058393227
168	0xbb516bfa	-0.0031955228
169	0x3b82ec19	0.00399543
170	0xbab94537	-0.0014135008
171	0x3c81608e	0.015793111
172	0xbc2bc3ba	-0.010483677
173	0x3bd96748	0.0066346265
174	0x3ba53310	0.0050414875
175	0xbb8e5fcf	-0.0043449174
176	0xbbcc7972	-0.0062400633
177	0x3c5678ef	0.013090356
178	0x3ae7318a	0.0017638665
179	0x3b10348b	0.0022003974
180	0x3ae797f7	0.001766919
181	0x3c3598d9	0.011083805
182	0xba19b1e0	-0.0005862992
183	0xbb9c23eb	-0.004765024
184	0xbba3f976	-0.0050041033
185	0x38e0ece0	0.00010725274
186	0x3bc6eff5	0.0060710856
187	0x3bc46081	0.0059929495
188	0xbb408934	-0.0029378654
189	0x3a9d35ce	0.0011994184
190	0xbb27704f	-0.002554912
191	0xbb91480a	-0.0044336366
192	0x3c4d1848	0.012517996
193	0x3b6be310	0.0035993494
194	0xbacbafa5	-0.0015540017
195	0xbab128b0	-0.0013516154
196	0x3b6b83a8	0.0035936628
197	0xbb7e4028	-0.0038795564
198	0xbbac2a72	-0.0052540833
199	0xbbba554d	-0.005686438
200	0xbb8db7ef	-0.004324905
201	0x3bab3fbe	0.0052261045
202	0xbc05b117	-0.008159897
203	0x3bc51bb3	0.006015265
204	0xbb80d7e9	-0.0039319885
205	0xbba8e503	-0.0051542534
206	0x3c0f7806	0.008756643
207	0x3b1093c6	0.0022060736
208	0xbb87b50e	-0.0041414564
209	0xbc2d9793	-0.01059522
210	0x3b8e8f2d	0.004350564
211	0x3a0c0027	0.0005340599
212	0xbc33d52f	-0.01097612
213	0x3a14ca12	0.0005675863
214	0x3aa1af3b	0.0012335548
215	0xb9ba2015	-0.00035500588
216	0x3a3099cb	0.0006736784
217	0xbbfcf8ea	-0.0077201026
218	0xbbf5e6f8	-0.0075043403
219	0x3c28918e	0.010288609
220	0xbc24302b	-0.01002125
221	0xb8149498	-3.542434e-05
222	0x3bff3743	0.00778857
223	0xbb353344	-0.0027648965
224	0x3b84ace3	0.00404893
225	0xbc52c795	-0.012864967
226	0xba506caf	-0.00079507654
227	0xbbbec7ad	-0.005822143
228	0x3aefd2bf	0.001829706
229	0xba2b6beb	-0.00065392134
230	0xba90c66f	-0.0011045466
231	0xbbe6817a	-0.007034478
232	0xbb6e4aaa	-0.0036360421
233	0x3c2f8479	0.010712736
234	0x3aea67b0	0.0017883684
235	0xba00dd28	-0.00049157673
236	0x3c401a3f	0.011725008
237	0xba31d1b3	-0.0006783262
238	0xbbfc3d83	-0.0076977625
239	0xbbec3df2	-0.007209533
240	0x3bdcea30	0.0067417845
241	0x3ae622f0	0.001755802
242	0xbb4dd07a	-0.003140478
243	0xbbbbf2d4	-0.0057357345
244	0x3b758af3	0.0037466853
245	0xbb97d275	-0.0046332427
246	0x3af42a12	0.0018628261
247	0xbb1a1a95	-0.002351438
248	0x3bf19cf8	0.0073734485
249	0xba54ccc7	-0.00081176724
250	0xbc28019c	-0.01025429
251	0x3c2417bc	0.010015424
252	0x3ba2ef6f	0.0049723904
253	0x3bf40cb3	0.007447803
254	0x3b3cdd9e	0.0028818618
255	0xba85711b	-0.0010180803

distribution.branches.0.bias f4 [3]
0	0x00000000	0.0
1	0x00000000	0.0
2	0x00000000	0.0

distribution.branches.1.weight f4 [3, 256]
0	0x3bad2ff7	0.005285259
1	0xbb89b7a9	-0.004202802
2	0x3b524a48	0.0032087732
3	0xbbac9140	-0.0052663386
4	0x398571a3	0.00025452403
5	0x3bf2fcad	0.007415375
6	0x381106ec	3.457714e-05
7	0x3b8e2eb7	0.004339065
8	0xbaec919f	-0.001804877
9	0xba0111a4	-0.0004923588
10	0x3c091607	0.008367068
11	0xbc79c58f	-0.015244856
12	0xbb71abaf	-0.0036876013
13	0x3b4bc9a0	0.003109552
14	0xb89c2d0b	-7.4470496e-05
15	0x3b1b6f30	0.0023717396
16	0xbb62b94a	-0.0034595304
17	0xbb7e1b22	-0.0038773497
18	0x39b69ccb	0.00034830565
19	0x3c078182	0.008270623
20	0x3a675980	0.0008825287
21	0xbc157188	-0.009121306
22	0x3bd92520	0.00662674
23	0xbc220a3d	-0.009890136
24	0x3aced9ea	0.0015781496
25	0x3a34d020	0.0006897468
26	0xbb7e69b3	-0.0038820326
27	0x3c041293	0.008061069
28	0xbc2887bc	-0.010286268
29	0xba085a54	-0.0005201448
30	0x3c46f26e	0.012142761
31	0x3a250a03	0.00062957424
32	0x3aafeb0d	0.0013421491
33	0xbb4d505d	-0.0031328418
34	0xba457823	-0.00075328554
35	0xbba3fdd2	-0.005004623
36	0x3b415641	0.0029500874
37	0x3c1a760d	0.00942756
38	0x3ab876d4	0.00140735
39	0xbb242653	-0.0025047257
40	0xbae0bcdd	-0.0017146129
41	0xbbe96138	-0.007122185
42	0x3b92b04d	0.004476583
43	0x3a92920c	0.0011182441
44	0x3a37da40	0.0007013418
45	0x3c07d169	0.008289673
46	0x3ba0a6ef	0.0049027125
47	0xbaad408b	-0.0013218088
48	0xbbfa9a93	-0.007647821
49	0xba0e6d2b	-0.00054331374
50	0x3c4e6d9d	0.012599376
51	0x3b2c5f76	0.0026302016
52	0xbb23c584	-0.0024989555
53	0x3c614e37	0.013751558
54	0x3b90fe4f	0.004424847
55	0x3bd6c3f3	0.0065541207
56	0x3b93addb	0.004506809
57	0x3822bc31	3.8799077e-05
58	0x3baec8aa	0.0053339796
59	0x3bb3152b	0.00546517
60	0xb8bd674a	-9.0314614e-05
61	0x3be1e33a	0.0068935426
62	0x3ab50f5b	0.001381378
63	0xbb4c7108	-0.0031195302
64	0xbb235f05	-0.0024928462
65	0xbb612793	-0.0034355863
66	0xbab3ab33	-0.0013707638
67	0x3ba28575	0.004959757
68	0xbba74560	-0.0051047057
69	0x3c18652d	0.009301466
70	0x3b1674fd	0.0022957914
71	0x3bc0e501	0.0058866744
72	0x3bc117b7	0.0058927196
73	0x3bc4343a	0.005987671
74	0xbbcb268a	-0.0061996626
75	0xbc0c6178	-0.00856816
76	0xbb1f2af3	-0.0024287074
77	0xbaa2e7d1	-0.0012428706
78	0x3b3afb4a	0.0028531128
79	0x3c2bdc98	0.010489605
80	0x3c384f8f	0.011249437
81	0x3ab3fba2	0.0013731609
82	0xbc228b37	-0.009920887
83	0xbabc392b	-0.0014360299
84	0x3b588a25	0.0033041325
85	0x3c3159a0	0.010824591
86	0x3bbb78bf	0.005721181
87	0x39a7564f	0.00031917027
88	0x3b8cc594	0.004296014
89	0x3af1a5fa	0.0018436306
90	0x3b80af8f	0.003927178
91	0xb9c3548b	-0.00037256288
92	0xbba0a285	-0.0049021863
93	0xbae8dbaa	-0.001776566
94	0xbb91b5bb	-0.004446713
95	0xbbad0bda	-0.005280954
96	0xbbbbff7e	-0.005737244
97	0x3bc7032d	0.0060733766
98	0xbac2a401	-0.0014849902
99	0xbc171064	-0.009220216
100	0x3a132873	0.00056136324
101	0x3a148e6c	0.00056669745
102	0xba59d245	-0.00083092257
103	0x3b2d6293	0.002645646
104	0xbbfd9cc5	-0.0077396357
105	0xbbb2f912	-0.0054618204
106	0x3b6c9910	0.0036101975
107	0xbb1dcc82	-0.0024078195
108	0xbb107e2f	-0.0022047868
109	0xba4fe2e2	-0.00079302315
110	0x3b980a26	0.0046398817
111	0x3a3318eb	0.0006832021
112	0xba493d90	-0.0007676715
113	0x3b1f9a0e	0.0024353298
114	0x3c001a97	0.0078188395
115	0x3c118613	0.008882063
116	0xbc45ee03	-0.012080672
117	0xbb390177	-0.0028229633
118	0xbb3c5f9c	-0.002874351
119	0x3bdea86f	0.006794981
120	0xbc4a0526	-0.012330329
121	0x38bc7210	8.9857844e-05
122	0xbbcbe657	-0.006222527
123	0xb9ee2e22	-0.0004542927
124	0x3b56be8d	0.0032767386
125	0x3b90e107	0.0044213566
126	0x3c4dcf93	0.012561697
127	0xbc3ffb58	-0.01171764
128	0x3b25534b	0.0025226648
129	0xb77dd27b	-1.5128981e-05
130	0x3be1f3b2	0.006895506
131	0xbbaf545f	-0.005350634
132	0xbbd214db	-0.0064111776
133	0xbaf90b98	-0.0019000648
134	0xbbb0194c	-0.0053741094
135	0x38f1bf22	0.00011527377
136	0xbae5a39d	-0.0017520074
137	0xbb17b34e	-0.0023147645
138	0xb8815d0b	-6.16853e-05
139	0x3c3cdfcf	0.0115279695
140	0xbb10103e	-0.0021982337
141	0xbc0a8116	-0.008453628
142	0x3b35a995	0.0027719487
143	0x3c660a4d	0.014040542
144	0xba855908	-0.0010173628
145	0xbbea0e2f	-0.007142804
146	0xbb5aa937	-0.003336502
147	0xbbea5475	-0.0071511813
148	0x3b28a92f	0.0025735607
149	0xbbba508f	-0.005685873
150	0x3b057986	0.0020366623
151	0xbc6e3bdd	-0.01454064
152	0xbb3d0f9d	-0.0028848418
153	0xbc9e42d3	-0.019318974
154	0xbafdde5a	-0.0019368634
155	0xbc19bc79	-0.009383314
156	0x3b22a7d7	0.0024819279
157	0x3c7031e2	0.0146603305
158	0xba88f0e4	-0.0010447768
159	0xbb75222d	-0.0037404404
160	0x3b6403aa	0.0034792223
161	0x3a82d0b7	0.0009980415
162	0xbaba2137	-0.0014200573
163	0x3bb2618d	0.005443758
164	0x3be254bf	0.006907075
165	0xbb97e244	-0.0046351273
166	0xbb63133d	-0.0034648918
167	0x3c215719	0.009847426
168	0xbaaa0ac3	-0.0012973178
169	0x3c4fabb0	0.012675211
170	0xba71064a	-0.00091943576
171	0x3b39b65f	0.0028337461
172	0x3c0cc0f0	0.008590922
173	0xbc2b67c5	-0.010461752
174	0xbba75d87	-0.005107585
175	0x3c6f35df	0.014600246
176	0x3b850781	0.0040597324
177	0xbbda5b95	-0.0066637495
178	0x3b8b9b4b	0.0042604557
179	0x3bb2bc3c	0.005454568
180	0xbaa24014	-0.0012378716
181	0xbbb09aa9	-0.0053895307
182	0x3b62a62f	0.0034583916
183	0xbbb8d6a3	-0.005640821
184	0x3c1307f2	0.008974062
185	0xbb8326db	-0.0040024347
186	0x3ad1abbb	0.0015996614
187	0x3b204c36	0.0024459488
188	0xbbac336f	-0.005255155
189	0xba653bd0	-0.00087445695
190	0x3c2ca9d0	0.010538533
191	0xbc03e80c	-0.00805093
192	0xbbc0986b	-0.0058775446
193	0x3bb9efd6	0.0056743426
194	0xbb86b898	-0.0041113608
195	0x3c28b84b	0.010297845
196	0x3bc27f3f	0.005935579
197	0xbaaff707	-0.001342506
198	0xbbc0926b	-0.0058768294
199	0x3b0d4fa5	0.0021562364
200	0x3c1896b5	0.009313275
201	0xbb98e7b2	-0.004666292
202	0xba825428	-0.0009943293
203	0x3c18b981	0.009321571
204	0x3bf15fea	0.00736617
205	0xbacb28f6	-0.0015499878
206	0x3acd3c08	0.001565815
207	0x3b8d5aac	0.0043137874
208	0x3bfeb35d	0.0077728466
209	0xbb879197	-0.0041372287
210	0xba2ce58c	-0.00065954844
211	0xba2a3b16	-0.000649379
212	0x3be4a36d	0.0069774897
213	0xbc277c83	-0.010222557
214	0xbb8cc939	-0.0042964485
215	0xbb7e6c0f	-0.0038821732
216	0xba07edba	-0.00051852653
217	0x3c18e6dd	0.009332386
218	0xbb792353	-0.003801544
219	0x3c33b773	0.010969031
220	0x3bf6d695	0.0075329044
221	0xbbc5f001	-0.0060405736
222	0xbb45e117	-0.0030193978
223	0x3c2d1141	0.010563196
224	0x3bb20670	0.0054328963
225	0x3c09b048	0.008403845
226	0xb9c40bd4	-0.00037392846
227	0x3b6e39e5	0.0036350426
228	0xba63a125	-0.0008683375
229	0xbaac99d4	-0.0013168403
230	0x3a0cc52d	0.00053699577
231	0x3a073cb7	0.00051588885
232	0x3b008175	0.0019608412
233	0x3a884b47	0.0010398411
234	0x3baab7b2	0.0052098865
235	0x3b5e44db	0.0033915553
236	0xbbc17334	-0.005903626
237	0x3ad7ff05	0.00164792
238	0xbb2d97c7	-0.0026488171
239	0xbbc4057e	-0.0059821
240	0x3c18a5eb	0.009316902
241	0x3c2f6371	0.010704861
242	0x3b97b117	0.004629265
243	0x3aa91bcf	0.0012901964
244	0xbb8f409b	-0.0043717152
245	0x3a8aec4f	0.001059899
246	0x39ba4920	0.00035531167
247	0xba9b8a48	-0.0011866773
248	0x3c15843b	0.0091257645
249	0x3ba52da7	0.0050408426
250	0x3aa3d4b4	0.0012499304
251	0x3b574517	0.0032847577
252	0x3b6107e0	0.003433697
253	0xbba2cb10	-0.0049680546
254	0x3b6a02b5	0.003570718
255	0x3aa0e953	0.0012276567

distribution.branches.1.bias f4 [3]
0	0x00000000	0.0
1	0x00000000	0.0
2	0x00000000	0.0

critic.network_body.linear_encoder.seq_layers.0.weight f4 [256, 93]
0	0xbe1d07b2	-0.15334967
1	0xbdb9c426	-0.090706155
2	0xbdbb140b	-0.09134682
3	0x3da91f6b	0.082579456
4	0xbe3162d3	-0.17322855
5	0xbe3f1ac4	-0.18662554
6	0x3ddd8cec	0.10817894
7	0xbe0f82f0	-0.14014792
8	0x3b1f634e	0.0024320665
9	0x3c7fe801	0.015619279
10	0xbe077bd3	-0.13230829
11	0x3e1dde3a	0.15416804
12	0xbdf0264b	-0.11726054
13	0xbcedf5ee	-0.029047932
14	0x3e8633b0	0.2621131
15	0x3e6bdb5d	0.23032899
16	0xbe105602	-0.1409531
17	0xbe072ae0	-0.1319995
18	0xbad7f946	-0.0016477488
19	0x3db4c205	0.08826069
20	0xbe25bf21	-0.16186191
21	0x3df2e2b5	0.11859647
22	0xbc0011c8	-0.007816739
23	0x3cd970bf	0.02654302
24	0xbd2c75a8	-0.042104393
25	0xbd63fe88	-0.05566266
26	0xbe003b46	-0.12522611
27	0x3ccafa74	0.024777628
28	0x3cf759a5	0.030194113
29	0xbd2b3ecc	-0.041807935
30	0x3d81ba44	0.063343555
31	0xbdec6cfc	-0.115442246
32	0xbe4ad8c0	-0.19809246
33	0xbd3adb59	-0.045619342
34	0xbd873540	-0.066019535
35	0x3bb30283	0.005462946
36	0xbd5b8805	-0.053596515
37	0x3e071713	0.13192396
38	0x3d812c2b	0.063072525
39	0x3d1944e7	0.037419226
40	0xbe05d256	-0.13068518
41	0xbd5c7b75	-0.053828675
42	0x3e2cc0e7	0.16870461
43	0xbda30ebe	-0.07961796
44	0xbc466c42	-0.012110772
45	0xbd4c49b8	-0.04987499
46	0xbd79d632	-0.06099529
47	0x3dcfff63	0.10156133
48	0xbdfd964c	-0.123821825
49	0x3d86f85f	0.06590342
50	0xbd546b54	-0.05186017
51	0x3ddc35e4	0.10752466
52	0xbdff431c	-0.12463972
53	0xbcf9a234	-0.030472852
54	0x3dc9ace3	0.09847429
55	0xbb150efa	-0.0022744522
56	0xbdfa13c0	-0.12210798
57	0xbcf0268a	-0.029315252
58	0x3e2ea6cd	0.17055817
59	0xbcae206c	-0.021255694
60	0x3c65e232	0.01403098
61	0x3db176b0	0.08665216
62	0x3c4d8c3f	0.012545644
63	0xbe2b797d	-0.16745563
64	0x3cb6e4d7	0.022325916
65	0xbdf1df4d	-0.11810169
66	0xbe148b3f	-0.14506243
67	0xbe87a72d	-0.26494732
68	0xbd825458	-0.063637435
69	0x3da733de	0.0816419
70	0x3e1d3230	0.15351176
71	0x3da19a96	0.07890813
72	0xbd1768a2	-0.03696502
73	0xbd822950	-0.06355536
74	0xbd8dada8	-0.06917888
75	0x3d7ccf46	0.06172111
76	0x3e3e2cc2	0.18571761
77	0xbd18401d	-0.03717052
78	0x3b1cc038	0.0023918282
79	0x3e15b8ba	0.14621249
80	0xbdbef6e9	-0.09324438
81	0x3e28264e	0.16420862
82	0x3e44c781	0.1921673
83	0xbc67e8bb	-0.014154608
84	0x3ca01502	0.019541267
85	0x3d1e648e	0.038670115
86	0x3d43022d	0.047609497
87	0x3bb983b5	0.0056614527
88	0xbe1afe1c	-0.15135998
89	0xbccf2c04	-0.025289543
90	0xbe1d5bb5	-0.15367015
91	0xbd21b2a6	-0.039477013
92	0x3e4f61e3	0.20252185
93	0xbdb87f11	-0.09008611
94	0x3e47b0e9	0.1950108
95	0x3e0872ac	0.13324994
96	0xbc15169b	-0.009099628
97	0x3e0832c1	0.13300611
98	0x3d0a4f9f	0.03376734
99	0x3dbd8e40	0.09255648
100	0xbda6d035	-0.08145181
101	0xbe0f5e82	-0.14000896
102	0xbcf05004	-0.02933503
103	0xbc6549d6	-0.013994655
104	0x3cca4154	0.024689354
105	0xbe0ee862	-0.13955835
106	0xbcce6bc0	-0.025197864
107	0xbd5e1af9	-0.054224942
108	0x3e4010a9	0.18756355
109	0xbcc5b5cc	-0.024134539
110	0x3ddaf9f0	0.10692203
111	0x3d9dc884	0.07704261
112	0xbd06ba21	-0.03289235
113	0xbe656791	-0.22402789
114	0x3b2b9c46	0.0026185676
115	0x3e3ff3cd	0.18745346
116	0xbe1de011	-0.15417506
117	0x3dc89d58	0.09795636
118	0xbdbef468	-0.093239605
119	0x3e06ded3	0.13170938
120	0xbdf36fa0	-0.11886525
121	0x3ddd73f7	0.10813134
122	0xbd566062	-0.05233801
123	0xbd8f80a3	-0.070069574
124	0xbc7e22bb	-0.01551121
125	0xbce56ae4	-0.028005071
126	0x3db213e6	0.086952016
127	0x3dee02b3	0.116216086
128	0xbded4ed2	-0.115872994
129	0xbbe9fd05	-0.007140758
130	0xbd85f24b	-0.06540354
131	0xbde00e7f	-0.10940265
132	0x3d279cee	0.040921144
133	0x3d544104	0.051819816
134	0x3d3fccb7	0.04682609
135	0x3b8565a9	0.0040709567
136	0x3d557065	0.05210914
137	0x3e3a3e2c	0.18187779
138	0x3d911fbd	0.07086132
139	0x3ba93c16	0.0051646335
140	0xbe7c83c2	-0.24659637
141	0xbe39cd55	-0.18144734
142	0xbdd1cd01	-0.102441795
143	0x3dffa23e	0.12482117
144	0xbc127e07	-0.00894118
145	0xbd26e6ac	-0.04074733
146	0xbe147ce6	-0.1450077
147	0x3d9737a4	0.073836595
148	0x3dd7c6e7	0.105359845
149	0x3d950434	0.07276192
150	0x3c4a0ea4	0.012332592
151	0x3daee41c	0.08539602
152	0x3d21247b	0.03934143
153	0xbd25c58d	-0.040471602
154	0x3da5261f	0.08063912
155	0x3c35ba1a	0.011091733
156	0x3d9a22e3	0.07526185
157	0xbdf0f69c	-0.11765787
158	0xbdf3602c	-0.11883578
159	0x3dfb028e	0.12256347
160	0xbdf57b95	-0.11986462
161	0x3c30c182	0.010788323
162	0x3e1120f1	0.14172722
163	0x3d97c256	0.074101135
164	0xbd8f3577	-0.069926195
165	0x3d6df100	0.058091164
166	0xbd4f1d9a	-0.05056534
167	0xbd2582aa	-0.040407814
168	0xbb0fdfd1	-0.0021953473
169	0x3d920c07	0.071312
170	0xbe064b4f	-0.13114665
171	0xbd969c37	-0.07354014
172	0x3df0570b	0.11735352
173	0x3e0765ac	0.13222378
174	0x3c39b295	0.011334081
175	0xbcf14131	-0.029450031
176	0xbd84b21a	-0.06479283
177	0x3e41edbe	0.18938348
178	0xb9da0815	-0.00041586222
179	0x3e3131fc	0.17304224
180	0xbb336eb1	-0.002737921
181	0x3db5fb13	0.08885779
182	0x3c4fabb6	0.012675216
183	0xbc9fe561	-0.019518556
184	0xbd321d27	-0.043484833
185	0xbaab9d4a	-0.001309314
186	0xbde41425	-0.11136655
187	0x3dd182d9	0.10230035
188	0xbdd2c503	-0.10291483
189	0xbdd501ea	-0.10400756
190	0x3c6826e7	0.014169431
191	0xbd997570	-0.074931026
192	0xbd7bb25a	-0.061449386
193	0x3cb9d4b9	0.022684442
194	0x3b001f01	0.001954973
195	0x3e21ed7e	0.15813252
196	0xbdb3808f	-0.08764755
197	0xbdb54865	-0.08851699
198	0xbd7bb7ca	-0.06145457
199	0xbc5e25be	-0.013558803
200	0x3d46968d	0.04848342
201	0x3e7e1be0	0.24815321
202	0x3b152f18	0.0022763666
203	0xbd84e968	-0.06489831
204	0xbd4aa1d2	-0.04947073
205	0xbdef8a00	-0.11696243
206	0x3da4384e	0.08018552
207	0x3d0512b0	0.032488525
208	0xbda3e2eb	-0.080022655
209	0x3d89c24c	0.06726512
210	0xbc93eb97	-0.018056674
211	0x3d1a6b07	0.037699725
212	0xbe0309b2	-0.12796667
213	0x3d8a8a2b	0.06764635
214	0xbcb60f9a	-0.022224236
215	0x3e039ad8	0.12852037
216	0xbde26192	-0.11053766
217	0x3d236cda	0.03989873
218	0xbd8e9dfb	-0.06963726
219	0x3d0fa7b0	0.03507203
220	0x3c3e433e	0.0116127115
221	0xbe4ea5ab	-0.20180385
222	0xbe936342	-0.28786665
223	0xbc9e7e7f	-0.019347427
224	0x3de282f6	0.11060135
225	0xbd7a09c2	-0.061044462
226	0x3d8e0496	0.069344684
227	0x3d203862	0.03911627
228	0xbd20fbc0	-0.039302588
229	0xbd1c3f43	-0.03814627
230	0x3db31e1c	0.08745977
231	0xbe101af1	-0.14072777
232	0xbd88a787	-0.06672578
233	0x3e1153bd	0.141921
234	0xbe0282a7	-0.12745152
235	0x3d99d5ec	0.075115055
236	0x3e197890	0.14987397
237	0xbdbbb9ee	-0.09166323
238	0x3d01139d	0.031512845
239	0xbd707578	-0.058705777
240	0x3b3f7430	0.002921354
241	0xbcc1b661	-0.023646535
242	0xbbf17294	-0.007368395
243	0x3c3dc124	0.011581693
244	0x3dde51e4	0.10855463
245	0x3cb4acf2	0.022055123
246	0xbd43d611	-0.04781157
247	0xbe028b1c	-0.12748379
248	0xbcda381f	-0.026638089
249	0xbdc0fec1	-0.094235905
250	0xbd35aadd	-0.0443524
251	0x3cbf6718	0.023364589
252	0x3e858dc2	0.26084715
253	0xbde6b6d1	-0.11265338
254	0xbe6beccf	-0.23039554
255	0x3ca86184	0.020554312

critic.network_body.linear_encoder.seq_layers.0.bias f4 [256]
0	0x00000000	0.0
1	0x00000000	0.0
2	0x00000000	0.0
3	0x00000000	0.0
4	0x00000000	0.0
5	0x00000000	0.0
6	0x00000000	0.0
7	0x00000000	0.0
8	0x00000000	0.0
9	0x00000000	0.0
10	0x00000000	0.0
11	0x00000000	0.0
12	0x00000000	0.0
13	0x00000000	0.0
14	0x00000000	0.0
15	0x00000000	0.0
16	0x00000000	0.0
17	0x00000000	0.0
18	0x00000000	0.0
19	0x00000000	0.0
20	0x00000000	0.0
21	0x00000000	0.0
22	0x00000000	0.0
23	0x00000000	0.0
24	0x00000000	0.0
25	0x00000000	0.0
26	0x00000000	0.0
27	0x00000000	0.0
28	0x00000000	0.0
29	0x00000000	0.0
30	0x00000000	0.0
31	0x00000000	0.0
32	0x00000000	0.0
33	0x00000000	0.0
34	0x00000000	0.0
35	0x00000000	0.0
36	0x00000000	0.0
37	0x00000000	0.0
38	0x00000000	0.0
39	0x00000000	0.0
40	0x00000000	0.0
41	0x00000000	0.0
42	0x00000000	0.0
43	0x00000000	0.0
44	0x00000000	0.0
45	0x00000000	0.0
46	0x00000000	0.0
47	0x00000000	0.0
48	0x00000000	0.0
49	0x00000000	0.0
50	0x00000000	0.0
51	0x00000000	0.0
52	0x00000000	0.0
53	0x00000000	0.0
54	0x00000000	0.0
55	0x00000000	0.0
56	0x00000000	0.0
57	0x00000000	0.0
58	0x00000000	0.0
59	0x00000000	0.0
60	0x00000000	0.0
61	0x00000000	0.0
62	0x00000000	0.0
63	0x00000000	0.0
64	0x00000000	0.0
65	0x00000000	0.0
66	0x00000000	0.0
67	0x00000000	0.0
68	0x00000000	0.0
69	0x00000000	0.0
70	0x00000000	0.0
71	0x00000000	0.0
72	0x00000000	0.0
73	0x00000000	0.0
74	0x00000000	0.0
75	0x00000000	0.0
76	0x00000000	0.0
77	0x00000000	0.0
78	0x00000000	0.0
79	0x00000000	0.0
80	0x00000000	0.0
81	0x00000000	0.0
82	0x00000000	0.0
83	0x00000000	0.0
84	0x00000000	0.0
85	0x00000000	0.0
86	0x00000000	0.0
87	0x00000000	0.0
88	0x00000000	0.0
89	0x00000000	0.0
90	0x00000000	0.0
91	0x00000000	0.0
92	0x00000000	0.0
93	0x00000000	0.0
94	0x00000000	0.0
95	0x00000000	0.0
96	0x00000000	0.0
97	0x00000000	0.0
98	0x00000000	0.0
99	0x00000000	0.0
100	0x00000000	0.0
101	0x00000000	0.0
102	0x00000000	0.0
103	0x00000000	0.0
104	0x00000000	0.0
105	0x00000000	0.0
106	0x00000000	0.0
107	0x00000000	0.0
108	0x00000000	0.0
109	0x00000000	0.0
110	0x00000000	0.0
111	0x00000000	0.0
112	0x00000000	0.0
113	0x00000000	0.0
114	0x00000000	0.0
115	0x00000000	0.0
116	0x00000000	0.0
117	0x00000000	0.0
118	0x00000000	0.0
119	0x00000000	0.0
120	0x00000000	0.0
121	0x00000000	0.0
122	0x00000000	0.0
123	0x00000000	0.0
124	0x00000000	0.0
125	0x00000000	0.0
126	0x00000000	0.0
127	0x00000000	0.0
128	0x00000000	0.0
129	0x00000000	0.0
130	0x00000000	0.0
131	0x00000000	0.0
132	0x00000000	0.0
133	0x00000000	0.0
134	0x00000000	0.0
135	0x00000000	0.0
136	0x00000000	0.0
137	0x00000000	0.0
138	0x00000000	0.0
139	0x00000000	0.0
140	0x00000000	0.0
141	0x00000000	0.0
142	0x00000000	0.0
143	0x00000000	0.0
144	0x00000000	0.0
145	0x00000000	0.0
146	0x00000000	0.0
147	0x00000000	0.0
148	0x00000000	0.0
149	0x00000000	0.0
150	0x00000000	0.0
151	0x00000000	0.0
152	0x00000000	0.0
153	0x00000000	0.0
154	0x00000000	0.0
155	0x00000000	0.0
156	0x00000000	0.0
157	0x00000000	0.0
158	0x00000000	0.0
159	0x00000000	0.0
160	0x00000000	0.0
161	0x00000000	0.0
162	0x00000000	0.0
163	0x00000000	0.0
164	0x00000000	0.0
165	0x00000000	0.0
166	0x00000000	0.0
167	0x00000000	0.0
168	0x00000000	0.0
169	0x00000000	0.0
170	0x00000000	0.0
171	0x00000000	0.0
172	0x00000000	0.0
173	0x00000000	0.0
174	0x00000000	0.0
175	0x00000000	0.0
176	0x00000000	0.0
177	0x00000000	0.0
178	0x00000000	0.0
179	0x00000000	0.0
180	0x00000000	0.0
181	0x00000000	0.0
182	0x00000000	0.0
183	0x00000000	0.0
184	0x00000000	0.0
185	0x00000000	0.0
186	0x00000000	0.0
187	0x00000000	0.0
188	0x00000000	0.0
189	0x00000000	0.0
190	0x00000000	0.0
191	0x00000000	0.0
192	0x00000000	0.0
193	0x00000000	0.0
194	0x00000000	0.0
195	0x00000000	0.0
196	0x00000000	0.0
197	0x00000000	0.0
198	0x00000000	0.0
199	0x00000000	0.0
200	0x00000000	0.0
201	0x00000000	0.0
202	0x00000000	0.0
203	0x00000000	0.0
204	0x00000000	0.0
205	0x00000000	0.0
206	0x00000000	0.0
207	0x00000000	0.0
208	0x00000000	0.0
209	0x00000000	0.0
210	0x00000000	0.0
211	0x00000000	0.0
212	0x00000000	0.0
213	0x00000000	0.0
214	0x00000000	0.0
215	0x00000000	0.0
216	0x00000000	0.0
217	0x00000000	0.0
218	0x00000000	0.0
219	0x00000000	0.0
220	0x00000000	0.0
221	0x00000000	0.0
222	0x00000000	0.0
223	0x00000000	0.0
224	0x00000000	0.0
225	0x00000000	0.0
226	0x00000000	0.0
227	0x00000000	0.0
228	0x00000000	0.0
229	0x00000000	0.0
230	0x00000000	0.0
231	0x00000000	0.0
232	0x00000000	0.0
233	0x00000000	0.0
234	0x00000000	0.0
235	0x00000000	0.0
236	0x00000000	0.0
237	0x00000000	0.0
238	0x00000000	0.0
239	0x00000000	0.0
240	0x00000000	0.0
241	0x00000000	0.0
242	0x00000000	0.0
243	0x00000000	0.0
244	0x00000000	0.0
245	0x00000000	0.0
246	0x00000000	0.0
247	0x00000000	0.0
248	0x00000000	0.0
249	0x00000000	0.0
250	0x00000000	0.0
251	0x00000000	0.0
252	0x00000000	0.0
253	0x00000000	0.0
254	0x00000000	0.0
255	0x00000000	0.0
