Assets/ML-Agents/mla-1.0.6/results/carchase02/CarAgent/CarAgent-250302.onnx (onnx, 368434 bytes, 8 tensors)

distribution.branches.0.bias f4 [3]
0	0xbcc86998	-0.024464414
1	0x3b04f934	0.0020290138
2	0x3c178b58	0.009249531

distribution.branches.0.weight f4 [3, 256]
0	0x3ae5627b	0.0017500663
1	0x3a79f8c5	0.0009535666
2	0xbbaa99af	-0.005206309
3	0xba159059	-0.00057054084
4	0xbb394c50	-0.0028274246
5	0xbbf5aaae	-0.0074971532
6	0x3c4879f0	0.012236103
7	0x3bc7f3c7	0.0061020586
8	0xbc1612fe	-0.0091598015
9	0x3c9f86d1	0.019473465
10	0xbb15aabb	-0.002283736
11	0x3cb108aa	0.021610577
12	0xbbb0061a	-0.005371821
13	0xbb989ead	-0.0046575875
14	0xbc0bcb98	-0.008532427
15	0xbc31a10e	-0.010841621
16	0x3b0ae8ae	0.0021195817
17	0x3c0928ec	0.008371573
18	0x3c5180d7	0.0127870655
19	0x3ae0ccc3	0.0017150867
20	0x3b7b3b0f	0.0038334762
21	0xbb58be11	-0.0033072273
22	0x3c976b25	0.018483708
23	0x3bd57c8f	0.0065150927
24	0xbbbcd02a	-0.00576212
25	0x3c3d01ea	0.011536101
26	0x3b0e6a26	0.002173075
27	0xb9da66f6	-0.00041656912
28	0x3cd4a2fe	0.025956627
29	0x392779c2	0.0001597172
30	0xbae634a0	-0.0017563291
31	0xbc754439	-0.014969879
32	0x3a8af55c	0.0010601687
33	0x3be95218	0.007120382
34	0xbc24e019	-0.010063195
35	0x3b812c3c	0.0039420407
36	0x3b97b0f7	0.00462925
37	0xbb93ebd5	-0.0045141974
38	0xbcceca42	-0.025242928
39	0x3bfbd706	0.007685545
40	0xbcccecb4	-0.025015213
41	0xbbaaa003	-0.005207063
42	0x3c512ec9	0.012767502
43	0xbbc84267	-0.0061114314
44	0xbc0cdb90	-0.00859727
45	0x3b4f4f63	0.0031633012
46	0xbbc50021	-0.0060119783
47	0x3b964548	0.0045858957
48	0xbad411d2	-0.0016179627
49	0xba62bcc6	-0.0008649345
50	0x39d76c3a	0.0004108863
51	0x3c4f8009	0.012664803
52	0xbbe90002	-0.0071105966
53	0xbc11d64e	-0.008901192
54	0x3b93ced3	0.0045107394
55	0x3bdaad3f	0.0066734846
56	0xbd3eb92b	-0.04656331
57	0x3beaa705	0.0071610236
58	0xbb64938c	-0.0034877984
59	0xbbf388de	-0.0074320873
60	0xbcfaf347	-0.030633582
61	0xbbc06d4b	-0.0058724037
62	0xbafb2f77	-0.0019163926
63	0x3bdcf1b2	0.0067426795
64	0xbaf9e900	-0.0019066632
65	0xb9cb81f4	-0.00038816
66	0xbb581ad3	-0.0032974973
67	0x3b26e4d4	0.0025465982
68	0xbbafd6aa	-0.005366166
69	0xbb4fdced	-0.0031717375
70	0xbc183e43	-0.009292188
71	0xba13e7e2	-0.0005642158
72	0x3a1451b2	0.00056579255
73	0x3baca0e1	0.0052682017
74	0xbc1ff27a	-0.009762401
75	0xb98669a5	-0.00025637183
76	0x3a96a714	0.0011493885
77	0xbbc1efff	-0.0059185023
78	0xba8d5bc4	-0.0010784795
79	0x3b50b256	0.0031844578
80	0x3ad7d31b	0.0016466113
81	0xbb6783c4	-0.0035326341
82	0xbc100ed2	-0.008792596
83	0xbbed8a89	-0.0072491807
84	0xbbd42d55	-0.0064751306
85	0xbc7a5da5	-0.015281116
86	0xbb71d4d2	-0.0036900532
87	0x3c43f62d	0.011960548
88	0xbc88119f	-0.016609965
89	0x3c39fc17	0.011351607
90	0x3c0c39fa	0.008558745
91	0x3bbbe96c	0.005734613
92	0xbb91e49d	-0.0044523017
93	0x3ab499cd	0.0013778746
94	0x3bcbfc0b	0.006225114
95	0xbc59126a	-0.013249019
96	0x3c57aad6	0.013163289
97	0xb99fc6e2	-0.00030475023
98	0x3c1f6c00	0.009730339
99	0xbc436b2a	-0.011927405
100	0xbbaadb57	-0.0052141356
101	0xbc598c0c	-0.013278019
102	0x3b90b3a0	0.004415944
103	0xbc7e3e6e	-0.015517814
104	0xbb22202d	-0.0024738417
105	0x3c2ff7c0	0.010740221
106	0xbc9179ab	-0.017758211
107	0xbc46fb3e	-0.012144862
108	0xbb84285f	-0.004033133
109	0x3c1b0ec2	0.009463968
110	0x3c1bd7c6	0.009511894
111	0x3b2366fa	0.0024933205
112	0x3bf0c948	0.0073482133
113	0x3c569dbe	0.013099132
114	0xbcbbf3a4	-0.022943325
115	0xbc38eb63	-0.011286589
116	0x3bf20229	0.0073855114
117	0x3bcde384	0.0062832255
118	0x3c063b2d	0.00819282
119	0xbc2a72c7	-0.010403342
120	0xbc1002bd	-0.008789715
121	0x3a5a6073	0.0008330412
122	0xbc190c21	-0.009341271
123	0x3a86426a	0.0010243182
124	0x3ae8a05a	0.0017747984
125	0xbc156486	-0.009118205
126	0x3ae0d415	0.0017153049
127	0xbc97d89d	-0.018535906
128	0x3c290b23	0.010317597
129	0xbd20f77f	-0.03929853
130	0xbc7f9784	-0.015600089
131	0xbc2218f4	-0.009893645
132	0x3c48d152	0.012256937
133	0x3bc35505	0.005961063
134	0x3a92cbeb	0.0011199688
135	0x3bc6a562	0.0060621956
136	0x3c5185d1	0.012788252
137	0xb99a2170	-0.00029398082
138	0xbce0f354	-0.027459778
139	0xbbe13e5a	-0.006873888
140	0xbaab99af	-0.0013092066
141	0x3ac1e81d	0.0014793907
142	0x3b1d8f50	0.002404172
143	0x3c54c39b	0.012986089
144	0xbc18d155	-0.009327252
145	0x3be3b202	0.0069487104
146	0x3ae5fdce	0.0017546953
147	0x3c2ba2d2	0.010475831
148	0x3abd275e	0.0014431288
149	0x3c6bf1e3	0.014400932
150	0xbc802860	-0.015644252
151	0xbc7af688	-0.015317567
152	0xbca05272	-0.019570563
153	0xbc5ad4b9	-0.013356381
154	0xbc18fdfd	-0.009337899
155	0x3baa27c2	0.005192728
156	0xbbc85e03	-0.0061147227
157	0xbc2c489c	-0.010515358
158	0x3ba65749	0.005076323
159	0x3ac5a83f	0.0015080048
160	0x3bbb57e8	0.0057172664
161	0x3bd6b165	0.006551909
162	0x3bd04fa9	0.0063571525
163	0xbbe8916a	-0.007097413
164	0x3bf7740f	0.007551677
165	0x3b6206dc	0.0034488952
166	0x3c623e65	0.013808821
167	0xbc1fab10	-0.009745374
168	0xbc1c95c5	-0.009557192
169	0xbbaf0606	-0.005341294
170	0x3c550151	0.013000802
171	0x3ab71f4f	0.0013971123
172	0xbb18a8ac	-0.0023293896
173	0xbd0087fb	-0.03137968
174	0xbc6136b7	-0.013745955
175	0x3b2b8dae	0.0026176977
176	0xbb7aff80	-0.0038299263
177	0x3b97c5f6	0.004631753
178	0xbc2a18bb	-0.010381873
179	0xba6f73d7	-0.0009134388
180	0xbd1676c5	-0.03673436
181	0x3c555ecd	0.013023091
182	0xbba5ca1d	-0.005059494
183	0x3b148f7a	0.0022668527
184	0x39a5e706	0.00031643378
185	0x3bf28876	0.0074015213
186	0x390dd2f6	0.00013525397
187	0x3be2462c	0.006905338
188	0xbb6ab084	-0.0035810778
189	0xbc160e9f	-0.009158759
190	0x39a01f9b	0.00030541126
191	0xbc96c7dc	-0.018405847
192	0x3cb512a0	0.022103608
193	0xbbf8c5e3	-0.0075919493
194	0xba3a4926	-0.0007106237
195	0xbc4137a5	-0.011793052
196	0x3c2c34ba	0.010510618
197	0x3be425b1	0.006962501
198	0x3b325284	0.0027209828
199	0xbc95bd0f	-0.018278627
200	0xbac7dae4	-0.001524773
201	0x3c9d7ecb	0.019225499
202	0x3bff76ba	0.0077961357
203	0x3b1b1264	0.0023662085
204	0xbcce5a67	-0.025189592
205	0xbc10167e	-0.008794425
206	0xbc295c11	-0.010336892
207	0xb84f37ae	-4.94045e-05
208	0xba9608a7	-0.001144667
209	0x3c031a2b	0.008001844
210	0x3c8d0624	0.017214842
211	0xbcb34ed6	-0.021888178
212	0x3b62ec9c	0.0034625893
213	0x3ba9378e	0.0051640933
214	0x3bde75e2	0.006788955
215	0xbc05f6c9	-0.008176514
216	0xbb7774d7	-0.003775885
217	0x3ab77a40	0.0013998225
218	0x3bb818c7	0.005618188
219	0x3c0e99f0	0.008703694
220	0xbb006e55	-0.0019597013
221	0xbb1fb60a	-0.0024369978
222	0xbbbb7ea2	-0.005721883
223	0xbc008543	-0.007844272
224	0x3b78c9c9	0.003796207
225	0xbb81f4a2	-0.00396593
226	0x3b3061e2	0.0026913811
227	0x3a59c4ba	0.00083072076
228	0x3b1cd0ff	0.0023928282
229	0xb99b9cbe	-0.00029680686
230	0xbb32a44c	-0.0027258573
231	0x3c43e5e3	0.011956665
232	0x3bfba032	0.007679009
233	0xbaf16ee6	-0.0018419891
234	0xbbabf506	-0.005247715
235	0xbbc40eea	-0.005983223
236	0x3b9255cf	0.0044657956
237	0x3cae7c4f	0.02129951
238	0x3abc1645	0.0014349899
239	0xba8245ea	-0.0009939049
240	0x3c0e1ad5	0.008673389
241	0xbb282c0a	-0.0025661015
242	0x3c81efdd	0.015861446
243	0xbc8745cf	-0.01651278
244	0x3971d56e	0.0002306306
245	0xbb9fbc03	-0.0048747077
246	0xba39cc7a	-0.00070876593
247	0xb9e4c879	-0.00043636913
248	0x3bbb6494	0.005718777
249	0x3b195133	0.0023394346
250	0xbbbb7c0f	-0.005721576
251	0x3b83725e	0.0040114364
252	0x3ae0342d	0.0017105393
253	0xbc5322dd	-0.01288673
254	0xbb732d40	-0.0037105829
255	0xbc7a1508	-0.015263803

distribution.branches.1.bias f4 [3]
0	0xbbab229c	-0.0052226316
1	0xbc9e0c4d	-0.019292975
2	0x3c91fc75	0.017820576

distribution.branches.1.weight f4 [3, 256]
0	0xbb4b711e	-0.0031042765
1	0xbb4c3e5c	-0.0031165099
2	0xbce8d816	-0.02842335
3	0x3aec3929	0.0018022406
4	0xbbbddc94	-0.005794117
5	0xbc87ea76	-0.016591292
6	0xbba071b5	-0.0048963674
7	0x3c01e3cd	0.007927847
8	0xbc14ccdd	-0.009082046
9	0xbb34f74b	-0.0027613218
10	0x3cd2eaa8	0.025746658
11	0x3c1d1f07	0.009589917
12	0xbb5480bf	-0.0032425371
13	0xbc81c032	-0.015838716
14	0x3ba58075	0.0050507137
15	0x39a39b3e	0.00031205447
16	0xba89a37e	-0.0010500995
17	0x3a252336	0.00062994973
18	0xbb830664	-0.0039985646
19	0xbc511134	-0.012760449
20	0x3b94a187	0.004535857
21	0xbac98898	-0.0015375791
22	0x3ac39d9e	0.0014924293
23	0x3b47a290	0.0030461885
24	0xbc33b2c5	-0.010967915
25	0xb8f90280	-0.00011873711
26	0x3bfb6cab	0.0076728663
27	0x3912d0d2	0.00014001437
28	0x3c20e355	0.009819825
29	0xbb658c8e	-0.0035026404
30	0x3a37e77a	0.00070153887
31	0xbca76298	-0.020432755
32	0xbc9641e7	-0.018341972
33	0x3983a2f0	0.00025107665
34	0x38c761ff	9.507313e-05
35	0x3bce7405	0.0063004517
36	0x3b21510b	0.0024614956
37	0xbc6e16fc	-0.014531847
38	0x3ad40dab	0.001617839
39	0x3c3a323a	0.011364514
40	0xbbed556e	-0.00724285
41	0x3bfa337d	0.0076355324
42	0x3c1a51b4	0.009418894
43	0xbc05cd40	-0.008166611
44	0x3c099541	0.008397401
45	0xb738bdce	-1.1011447e-05
46	0x3b5ed9dc	0.0034004366
47	0xbbd7ac6c	-0.0065818336
48	0x3aaf9730	0.0013396498
49	0x3b0769d3	0.0020662441
50	0xbbd1c0c0	-0.0064011514
51	0x3bfbef59	0.0076884446
52	0x3b87fd68	0.0041500814
53	0x3ccacded	0.024756396
54	0xbc51bb33	-0.012800979
55	0xbb47e857	-0.0030503476
56	0xbb9d4d5d	-0.004800482
57	0x3c9dcd66	0.01926298
58	0xbcf5399a	-0.029934693
59	0x3b6eb06d	0.0036421076
60	0xbcd9e549	-0.02659859
61	0x3ab7d79e	0.0014026051
62	0xbb310650	-0.002701182
63	0xbbf10bea	-0.0073561566
64	0xbc736df7	-0.014857761
65	0xbb8b70e8	-0.004255403
66	0xbb908d20	-0.0044113547
67	0x3a9aa6b3	0.0011798948
68	0x3c0ef0b2	0.008724378
69	0x3b781e02	0.0037859683
70	0xbc8e5839	-0.017376052
71	0xbc18f81b	-0.009336497
72	0x38f1004d	0.000114918315
73	0xbc003db9	-0.007827216
74	0x3bb269d4	0.0054447446
75	0x3beac779	0.0071648923
76	0xbb31ffad	-0.0027160451
77	0xbb4305dd	-0.0029758133
78	0xbbd1829a	-0.0063937427
79	0x3bac4194	0.005256841
80	0xb83c6317	-4.4914977e-05
81	0xbc6c86b7	-0.014436415
82	0xbceb4148	-0.028717652
83	0xbba2c9a4	-0.004967885
84	0xbb3cf134	-0.0028830292
85	0xbbc36966	-0.005963492
86	0xba9ffe6c	-0.0012206561
87	0x3bbde6ed	0.0057953508
88	0xbd438b9f	-0.047740575
89	0x3c7049c8	0.014666028
90	0xbb341183	-0.0027476258
91	0xbd0e5b32	-0.03475494
92	0xbd2ca8f5	-0.042153317
93	0xbb33c74d	-0.0027432025
94	0xbb86849f	-0.004105165
95	0xbc552ba8	-0.013010897
96	0xbb594443	-0.003315226
97	0xba91d80f	-0.0011127013
98	0x3bd40b44	0.0064710695
99	0xbdbd3df2	-0.09240331
100	0xbb808400	-0.0039219856
101	0x3b958bc7	0.004563782
102	0x3c65a6ec	0.014016848
103	0xbceb1f21	-0.028701367
104	0x39eb7bb9	0.00044914873
105	0x3c65a064	0.014015291
106	0xbc2813cd	-0.010258627
107	0xbd5686f9	-0.052374814
108	0x3c3a7df1	0.011382566
109	0xbb8783d9	-0.0041355905
110	0xbd25dbf3	-0.040492963
111	0xbb8bc681	-0.004265607
112	0xbbea3deb	-0.0071484945
113	0xbc0fada7	-0.008769429
114	0xbc9a7949	-0.018856661
115	0x3ca8c9bb	0.020604005
116	0xbc07da8a	-0.00829185
117	0xbb2b51a4	-0.002614119
118	0xbba78858	-0.005112689
119	0xbd2c139c	-0.04201089
120	0xbc5bf073	-0.013424027
121	0x3b67765b	0.0035318348
122	0x3c83f44a	0.016107697
123	0x3bb17efd	0.0054167495
124	0x3bc7d005	0.006097796
125	0x3ae1b4ce	0.0017220022
126	0x3a77c4f3	0.000945165
127	0xbc039a9a	-0.008032465
128	0x3be67853	0.0070333867
129	0xbd8764b1	-0.06611002
130	0xbc308113	-0.010772961
131	0xbb79d4d2	-0.0038121236
132	0xbbc8ba0a	-0.006125693
133	0x3bca07b0	0.006165467
134	0xbad41955	-0.0016181866
135	0x3b77f31f	0.003783412
136	0x3c8b4d33	0.017004585
137	0xbc18d688	-0.009328492
138	0xbd6a2572	-0.057164617
139	0xbb82d8a4	-0.0039931107
140	0xb88bd3b8	-6.667472e-05
141	0xbbfd0273	-0.0077212392
142	0x3c27b844	0.010236803
143	0xbc25d5f6	-0.010121813
144	0x3bcde150	0.006282963
145	0x3be80755	0.007080952
146	0xba3faf75	-0.0007312217
147	0x3c369d01	0.011145831
148	0x3c0cbc30	0.008589789
149	0xbc7c8da6	-0.015414631
150	0x3ad4bd3f	0.0016230716
151	0x382fcf34	4.1916224e-05
152	0xbc0e19e4	-0.008673165
153	0x3bbf623c	0.005840568
154	0xbb623071	-0.0034513737
155	0x3aa8c188	0.001287506
156	0x3b269a30	0.0025421493
157	0x3bb2ed1c	0.0054603945
158	0xbbafe445	-0.005367788
159	0x3a4d5ad8	0.0007833666
160	0x3bb0ac0d	0.005391604
161	0xbc0284b8	-0.007966213
162	0xbc591ef3	-0.013252008
163	0xbc200277	-0.009766213
164	0xbb364b4e	-0.0027815881
165	0xbba9bf0e	-0.005180246
166	0x3b985891	0.00464923
167	0xbc285be1	-0.010275812
168	0x3bb2d4f1	0.0054575135
169	0x3c07e649	0.00829465
170	0xbb8f4ac2	-0.0043729255
171	0xbc171030	-0.009220168
172	0x3bca36fa	0.0061711045
173	0xbc84a7fa	-0.016193379
174	0xbd55f2b1	-0.0522334
175	0x3b708b09	0.0036703965
176	0xbc1b8f8d	-0.009494674
177	0xbbfbb93e	-0.0076819947
178	0xbc5d9a6c	-0.013525587
179	0x39d882be	0.0004129614
180	0x3c7edc33	0.015555429
181	0x3b86af6f	0.004110269
182	0x3b5a778a	0.003333541
183	0xbbd85aff	-0.0066026445
184	0xbbcbf9aa	-0.0062248306
185	0x3bee647f	0.0072751637
186	0x3b5ac68f	0.003338251
187	0x3c190ae5	0.009340976
188	0x3b79b135	0.0038100008
189	0x3b488351	0.0030595849
190	0x3b8dda73	0.0043290197
191	0x3c5e531b	0.013569619
192	0xbbaeed59	-0.0053383526
193	0x3b9263d0	0.004467465
194	0xbbcaa7ed	-0.006184569
195	0x3bd59a14	0.0065186117
196	0x3b9876a3	0.0046528145
197	0xba6bea70	-0.00089994725
198	0x3c391af7	0.011297933
199	0xbc5afb8e	-0.013365639
200	0xbc867585	-0.01641346
201	0x3c221564	0.009892795
202	0x392afd44	0.00016306812
203	0x3b54dffb	0.0032482136
204	0xbd3d5783	-0.046226036
205	0xbafc8abf	-0.0019267424
206	0xbca98b8a	-0.02069642
207	0xba495aa5	-0.00076810486
208	0x3bc2e6fc	0.0059479456
209	0x3c0cf365	0.008602952
210	0x3c815943	0.015789634
211	0xbd6ee203	-0.05832101
212	0x3c442d13	0.011973637
213	0x3c437a83	0.011931065
214	0x3b2dbbe5	0.00265097
215	0xbb47b23a	-0.0030471222
216	0x3bd08da0	0.0063645393
217	0xbc8ec11d	-0.017426068
218	0xbcc9d3bd	-0.024637097
219	0x3c742c25	0.014903103
220	0xbb7a1f6c	-0.0038165702
221	0x3b78ce52	0.0037964773
222	0x3b62bc9a	0.0034597279
223	0xbc152685	-0.009103422
224	0xbcb2116b	-0.021736821
225	0x3a4fc8bb	0.00079263345
226	0x3bbe8718	0.0058144443
227	0x39c475d2	0.00037471816
228	0x3c596d27	0.013270653
229	0xbb8b59c3	-0.004252644
230	0x3c42a979	0.011881226
231	0x3a608510	0.000856475
232	0xbc2033c9	-0.009777972
233	0xbac69f5b	-0.0015153693
234	0x3c5780eb	0.013153295
235	0xbb8816d2	-0.004153111
236	0xb9c65428	-0.00037828204
237	0x3b87af1e	0.0041407486
238	0x3b5af3b4	0.0033409419
239	0xbbc19267	-0.005907345
240	0xba48c920	-0.00076593645
241	0x3b31b739	0.0027117266
242	0x3b8de1c1	0.0043298905
243	0xbd38fe43	-0.045164358
244	0xbc4281a9	-0.011871734
245	0xbd3e5725	-0.046469826
246	0xbbc45818	-0.005991947
247	0x3a271b99	0.0006374657
248	0xb8b1ba4a	-8.474717e-05
249	0x3c3e02e6	0.011597371
250	0xbb8227ec	-0.003972044
251	0x3bf06b08	0.007336978
252	0x3c349113	0.0110209165
253	0xbbed36e5	-0.00723921
254	0xbbcdeb5b	-0.00628416
255	0xbda8ad5f	-0.08236193

network_body.linear_encoder.seq_layers.0.bias f4 [256]
0	0x36ebed23	7.031152e-06
1	0x3d4db238	0.05021879
2	0xa52947dd	-1.4682762e-16
3	0x3c986a1e	0.018605288
4	0xaa2529d0	-1.466945e-13
5	0x3c19d780	0.009389758
6	0xbcd04a25	-0.02542598
7	0xbc7dacc1	-0.015483082
8	0x3c920bd2	0.017827902
9	0xbc969c94	-0.01838521
10	0x3cc7a226	0.02436931
11	0xb563427b	-8.466083e-07
12	0xbb486452	-0.0030577374
13	0xbc1e6e99	-0.009669923
14	0xb816f0fc	-3.598722e-05
15	0xbbc6e1d5	-0.0060694017
16	0x36dedce1	6.6418293e-06
17	0x3ca6f260	0.020379245
18	0x3d06a5eb	0.032873075
19	0x1f6953cc	4.9408984e-20
20	0xbcccba02	-0.02499104
21	0xbb391931	-0.0028243775
22	0x36dc2865	6.5612135e-06
23	0xaaf4f20c	-4.351106e-13
24	0xbc8d17a1	-0.017223181
25	0x3cdeb1b0	0.027184337
26	0xbc94ce0d	-0.018164659
27	0xbc849408	-0.016183868
28	0x3266661d	1.341098e-08
29	0x3d05e6e9	0.032690916
30	0xbd27de3f	-0.040983435
31	0xbd372cf6	-0.044720612
32	0xbcdae863	-0.026722139
33	0x3cf33bef	0.029691665
34	0xbd00a464	-0.031406775
35	0x3c57af2b	0.013164322
36	0xbc9dfa87	-0.0192845
37	0xbb68e5ac	-0.0035537286
38	0xbd07df7e	-0.033172123
39	0xbc1f555e	-0.009724943
40	0x3c904d2c	0.017614923
41	0x3d01b6ea	0.03166858
42	0x27061835	1.8609358e-15
43	0x3c394ec0	0.011310279
44	0xbb6f302c	-0.0036497219
45	0xbd1aff16	-0.037840925
46	0xbc2ad9aa	-0.010427872
47	0xb7866f56	-1.602589e-05
48	0x3d2845eb	0.041082304
49	0x39570c6e	0.00020508628
50	0xbc84e648	-0.016223088
51	0xbc984dd0	-0.018591791
52	0xbcecc6fe	-0.02890348
53	0xbc95f1c9	-0.018303769
54	0x347c440d	2.3494086e-07
55	0x3c5d7d6b	0.0135186715
56	0xbcbe6d6a	-0.023245532
57	0xb19ec878	-4.621196e-09
58	0x3b17f63a	0.0023187534
59	0x3ce9b536	0.02852879
60	0xb1350660	-2.634259e-09
61	0x3c069cb5	0.008216073
62	0xbc2f5bbf	-0.010703026
63	0xbc7d3923	-0.015455517
64	0xbcc0ef46	-0.023551594
65	0xbcafe48c	-0.021471284
66	0xbc9e79ee	-0.01934525
67	0xb42609e8	-1.5463559e-07
68	0xbc6205fb	-0.013795371
69	0x3c85cdf6	0.016333561
70	0x31f59b6f	7.148109e-09
71	0xb56e8257	-8.885158e-07
72	0x3d1720aa	0.036896385
73	0xbc866a4f	-0.016408114
74	0xb810c1d9	-3.451281e-05
75	0x3cc22c8a	0.023702879
76	0xbce8d7a3	-0.028423136
77	0x3d110cf5	0.035412747
78	0x3d1756d2	0.036948033
79	0x3608942f	2.0351833e-06
80	0x3d249c79	0.040188286
81	0xb5698191	-8.698781e-07
82	0x3b5967b1	0.0033173377
83	0xbc533769	-0.012891629
84	0xbcc8c768	-0.024509147
85	0x3cca2b6d	0.02467891
86	0xb1b4cf86	-5.262282e-09
87	0x328914aa	1.5958296e-08
88	0xbc981234	-0.018563367
89	0xbc84398c	-0.016140722
90	0xbcfba04a	-0.03071608
91	0x3c5d35d1	0.0135016
92	0x3b68d376	0.0035526431
93	0xbbfdecaa	-0.00774916
94	0x3b199b53	0.0023438528
95	0xbbc0784b	-0.005873715
96	0x340cdc5d	1.3118684e-07
97	0xbce57c97	-0.02801351
98	0xbc6ce15d	-0.014458028
99	0xbc4f922b	-0.0126691265
100	0xbcb0083c	-0.021488301
101	0x3ca26c6a	0.019827086
102	0x3aec90df	0.0018048546
103	0xbacb0a7a	-0.0015490793
104	0xbc43789d	-0.011930612
105	0xbd256f4b	-0.04038934
106	0x3b5bfff4	0.0033569308
107	0xbc1a57c0	-0.009420335
108	0xbc9631a8	-0.018334225
109	0x3ca6f43f	0.020380137
110	0xbc964720	-0.018344462
111	0x3155ac0a	3.1093372e-09
112	0xbc9bfc81	-0.019041302
113	0x3c8d1e07	0.017226232
114	0x3c7211bb	0.014774735
115	0xa39d8a95	-1.7080666e-17
116	0x246bfee3	5.11734e-17
117	0x3ce0d955	0.027447382
118	0xbccab64c	-0.024745129
119	0xbcbf834b	-0.023378035
120	0xbc9a34af	-0.01882395
121	0x3c02a1e1	0.007973165
122	0xbc17b687	-0.0092598265
123	0xac559a58	-3.0354799e-12
124	0xbc1c6d8d	-0.009547603
125	0xad897d55	-1.5630755e-11
126	0xb20fc615	-8.368734e-09
127	0xbc8797b2	-0.016551826
128	0x3c4c4d85	0.012469654
129	0x3d1ba93d	0.038003195
130	0x3cf18abe	0.029485103
131	0x3bc64387	0.0060505304
132	0xbca20c14	-0.01978115
133	0x3c524bf9	0.012835496
134	0xbbe1a4e8	-0.0068861134
135	0x2859aca9	1.20833595e-14
136	0xbd1398d6	-0.036034428
137	0xb108703b	-1.98544e-09
138	0xbbb84b60	-0.00562422
139	0xbcc4592a	-0.023968298
140	0xbd050726	-0.03247752
141	0xbaeefd64	-0.0018233475
142	0x3c04ca70	0.0081049055
143	0xbceb9a9c	-0.028760247
144	0x3cea0516	0.028566878
145	0x35808648	9.575824e-07
146	0xbcd4e19a	-0.025986481
147	0xbbe5fa6c	-0.007018378
148	0xbc68de06	-0.014213091
149	0x378eeba4	1.7037448e-05
150	0x3c4269b4	0.011866022
151	0x9d11801f	-1.9256827e-21
152	0xbccc0d09	-0.02490856
153	0xbd0fdc51	-0.03512222
154	0x3c4b458c	0.012406718
155	0xbd09a2bb	-0.033602457
156	0x3cd0bc89	0.025480526
157	0xba9c32b1	-0.0011916963
158	0x3d198718	0.03748235
159	0xbcaf2f1d	-0.02138477
160	0xbc5221d4	-0.012825448
161	0x3d15cefc	0.03657435
162	0xb697ff23	-4.5298525e-06
163	0xbc81ac1d	-0.01582914
164	0x3ca37d3e	0.019957181
165	0xbd01b57d	-0.03166722
166	0xbca79f44	-0.020461686
167	0xbc6c2700	-0.014413595
168	0x3a8259d9	0.000994499
169	0x2c90e2e6	4.117917e-12
170	0x3c54ecea	0.012995938
171	0x3b80ae80	0.003927052
172	0xb8bea5ef	-9.0908135e-05
173	0xbb8bc9e2	-0.0042660097
174	0xb53cf11f	-7.0386335e-07
175	0x3d0badd9	0.03410134
176	0x3ce0bcae	0.02743372
177	0x3cf73277	0.03017543
178	0xacbe21d8	-5.403882e-12
179	0xbc494931	-0.012285517
180	0x3c99cd2d	0.018774593
181	0xbcfbe950	-0.0307509
182	0xbc799fd6	-0.015235862
183	0xbbea703a	-0.0071544917
184	0xbc208252	-0.009796696
185	0xbd4440a3	-0.047913205
186	0xbc3ad905	-0.011404281
187	0x322730cb	9.731774e-09
188	0x2348b7e4	1.0880962e-17
189	0x3c9a57bf	0.018840669
190	0xbcd6d3d1	-0.026224049
191	0xbd3cd2b6	-0.046099387
192	0xbc464cdb	-0.012103285
193	0x1b9d40d9	2.6015378e-22
194	0xb25e8296	-1.29517925e-08
195	0x36596567	3.2394544e-06
196	0x2be1c76d	1.6042563e-12
197	0xbc7b0bba	-0.01532262
198	0x3c33b73b	0.0109689785
199	0xbc7fb1e3	-0.015606376
200	0x3c8a3879	0.016872631
201	0x3b814c97	0.003945898
202	0x309c0dda	1.1354431e-09
203	0x250d6618	1.2264391e-16
204	0x3286bff1	1.5686938e-08
205	0xbd266ddb	-0.04063211
206	0xbc321fa9	-0.010871806
207	0x3b5d6916	0.003378456
208	0xb96b9a71	-0.0002246888
209	0x3caa70fc	0.020805828
210	0xb72a4de0	-1.0150921e-05
211	0xb19510dd	-4.338388e-09
212	0xb0ea5685	-1.7050331e-09
213	0xbc95d971	-0.01829216
214	0x3ae70a9c	0.0017627063
215	0xbbf25b7f	-0.007396161
216	0xbaf0582a	-0.0018336822
217	0x342fcfd2	1.637375e-07
218	0xbca53c84	-0.020170458
219	0xae5926bf	-4.93745e-11
220	0xbc6d0b43	-0.014468017
221	0xbd3a6c9d	-0.045513738
222	0xbd13e8cb	-0.03611068
223	0xbd5def8e	-0.054183535
224	0x3c469b9f	0.012122064
225	0xba125b2f	-0.00055830454
226	0xbc650d14	-0.013980169
227	0x3bd6793b	0.0065452135
228	0xbc6d5745	-0.014486139
229	0x34ae8156	3.250413e-07
230	0x3c3f8aaa	0.011690775
231	0xbd2a2daf	-0.041547474
232	0x3b91648d	0.0044370354
233	0xb2998521	-1.7872084e-08
234	0x35325a39	6.644146e-07
235	0xbc25e60a	-0.010125646
236	0x3d00980b	0.031395
237	0xb5a32c3c	-1.215732e-06
238	0xbd41e208	-0.0473347
239	0x3caf8665	0.021426389
240	0xbce6980d	-0.028148675
241	0xbcfd92e6	-0.030953836
242	0x3b3e4802	0.002903462
243	0xb692b8d2	-4.372655e-06
244	0xa8c50ef5	-2.187788e-14
245	0xb723953d	-9.750304e-06
246	0x3c9a3836	0.018825632
247	0xbc48ec27	-0.012263334
248	0xbc8022d5	-0.01564161
249	0xbbb74d75	-0.0055939504
250	0xbd4b2b99	-0.049602125
251	0x3b26ce48	0.0025452543
252	0x3c305896	0.010763308
253	0xb95acdc5	-0.00020866755
254	0x3beb55c5	0.0071818554
255	0xba2e37a1	-0.00066458626

network_body.linear_encoder.seq_layers.0.weight f4 [256, 93]
0	0x3ca6bcb8	0.02035366
1	0xbd81e47a	-0.063424066
2	0xbe185c44	-0.14878947
3	0x3e102df9	0.14080037
4	0xbc7d02ab	-0.015442531
5	0xbcb884ee	-0.022524323
6	0xbc308719	-0.010774397
7	0xbd66e6f5	-0.0563726
8	0x3cc377c0	0.023860812
9	0x3d3e503b	0.046463232
10	0xbdb5d9e2	-0.088794485
11	0xbe160106	-0.14648828
12	0xbe0c2350	-0.13685346
13	0x3cad4281	0.021149876
14	0xbd96add6	-0.07357375
15	0x3e6e6506	0.23280725
16	0x3e86c5c3	0.26322755
17	0x3c28ac40	0.010294974
18	0xbdb58661	-0.08863521
19	0xbba453fe	-0.0050148955
20	0xbc0b858e	-0.008515729
21	0xbe06a4d6	-0.13148817
22	0xbd28b118	-0.041184515
23	0xbd479f0a	-0.048735656
24	0xbe890508	-0.2676165
25	0xbe218406	-0.15773019
26	0x3db5d8ce	0.08879243
27	0xbdadfe08	-0.08495718
28	0x3da9f38b	0.08298405
29	0x3c8d7688	0.017268434
30	0x3daf7f35	0.08569185
31	0xbd97d7fd	-0.07414243
32	0xbe08eb60	-0.13371038
33	0x3e3690c5	0.17828663
34	0xbd6953af	-0.056964573
35	0x3e1aec9e	0.15129325
36	0xbe5494b4	-0.2075985
37	0x3ab9034c	0.0014115362
38	0x3da10fb1	0.07864321
39	0x3e34e648	0.1766597
40	0x3d7501f0	0.0598163
41	0x3bbdb4e5	0.0057893866
42	0xbe07391e	-0.13205382
43	0xbd49c335	-0.04925843
44	0x3d6a8a5b	0.057260852
45	0xbd95b393	-0.07309642
46	0x3d0b1c51	0.03396255
47	0x3d10ad6a	0.03532163
48	0xbe1cfd27	-0.15330945
49	0x3d048181	0.032350067
50	0x3d2f7115	0.042832453
51	0x3d054e42	0.032545336
52	0xb9cd3281	-0.00039138275
53	0xbdf10a70	-0.11769569
54	0xbde598b0	-0.112107635
55	0xbdd5b78d	-0.104354
56	0x3e6de881	0.23233224
57	0xbd8b9d72	-0.0681714
58	0x3cb22820	0.021747649
59	0x3dde4353	0.10852685
60	0xbe03cd95	-0.12871392
61	0x3dd4483c	0.1036534
62	0x3dfb4b95	0.122702755
63	0xbd354b74	-0.04426141
64	0xbd0c082b	-0.034187477
65	0x3b5ce0d0	0.0033703335
66	0xbd2c098c	-0.042001292
67	0xbc0d73af	-0.008633538
68	0xbe5ef94d	-0.21774788
69	0xbe0cb5df	-0.13741253
70	0x3dc291f3	0.09500494
71	0xbc5cbc40	-0.013472617
72	0xbd1407d6	-0.036140285
73	0x3c99fee8	0.018798307
74	0xbd98e69e	-0.07465862
75	0xbdb755e7	-0.089519314
76	0xbe735a05	-0.23764808
77	0x3d7603c4	0.060062185
78	0x3e5ab21f	0.2135701
79	0xbd38ad7b	-0.04508732
80	0xbde7c65f	-0.11317133
81	0xbdbea534	-0.09308854
82	0xbcff9728	-0.031200007
83	0x3e84e025	0.2595226
84	0x3dd65907	0.10466199
85	0x3d6f5214	0.058427885
86	0xbd9f3f59	-0.077757545
87	0xbde460a2	-0.11151244
88	0xba429c5c	-0.0007423812
89	0xbd48cbc1	-0.04902244
90	0x3d9155e5	0.07096461
91	0xbc9f5147	-0.019447936
92	0xbe57f51d	-0.21089597
93	0x3d05f5b3	0.03270502
94	0x3cb7ce40	0.022437215
95	0xbbbe1785	-0.0058011436
96	0x3e0d700a	0.13812271
97	0x3e029574	0.12752324
98	0xbdc2ee14	-0.09518066
99	0x3e801ba1	0.2502108
100	0xbe198779	-0.14993085
101	0x3cf73e46	0.030181061
102	0x3d73eb75	0.05955072
103	0x3d9a2476	0.075264856
104	0x3df09d4c	0.11748752
105	0x3d2d0b7a	0.042247273
106	0xbe0bc9df	-0.13651226
107	0xbd4b1bee	-0.049587183
108	0xbe90355e	-0.28165716
109	0x3df7e80f	0.121048085
110	0x3bb4c77c	0.0055169445
111	0x3e95c7a0	0.29253864
112	0x3e00f27b	0.12592499
113	0xbdff9c6c	-0.12481007
114	0xbe51e161	-0.20496131
115	0x3d08abf2	0.033367105
116	0x3d03d30f	0.032183703
117	0xbcd3a1f8	-0.025834069
118	0xbe5724b0	-0.21010089
119	0xbd36b993	-0.04461057
120	0x3cba3712	0.022731338
121	0x3dceb7e0	0.10093665
122	0x3e0e900b	0.13922136
123	0xbea75a8f	-0.32686278
124	0xbe39e77f	-0.18154715
125	0xbdc02523	-0.09382083
126	0x3df83f7f	0.12121486
127	0xbe1a9c32	-0.15098646
128	0x3e88901b	0.26672444
129	0xbcffcbd6	-0.031225126
130	0x3debd567	0.11515313
131	0x3e42796e	0.18991634
132	0xbd5be0f7	-0.05368134
133	0xbd3be3b2	-0.045871444
134	0x3e264bd2	0.1623986
135	0x3c0f4a42	0.008745732
136	0x3e46b99a	0.19406739
137	0x3e81b61f	0.2533426
138	0xbcdc5062	-0.026893798
139	0x3c8dcf96	0.017310899
140	0xbe102ee7	-0.14080392
141	0x3db63c30	0.088981986
142	0x3e157154	0.14594012
143	0x3d91ff50	0.07128775
144	0x3e222359	0.15833797
145	0xbd9449a5	-0.07240609
146	0x3e234b7a	0.15946761
147	0x3e81a73f	0.2532291
148	0xbe00b703	-0.12569813
149	0x3dc47b15	0.095937885
150	0x3d770fda	0.06031785
151	0x3da03ddb	0.07824298
152	0x3e11023a	0.14161006
153	0xbe88ebe6	-0.26742476
154	0xbdce8306	-0.100835845
155	0x3df96257	0.1217696
156	0x3e340a11	0.17581965
157	0x3e07be0f	0.13256095
158	0xbe9ab583	-0.30216607
159	0x3d148c8c	0.03626685
160	0x3c52ee4e	0.012874199
161	0x3e28e089	0.16491903
162	0x3dd39036	0.103302404
163	0xbdd7cccc	-0.10537109
164	0x3e8aa4df	0.27078912
165	0xbe0a7dd7	-0.13524567
166	0x3d7f08a1	0.06226409
167	0x3e1213f2	0.14265421
168	0x3d8a4539	0.067514844
169	0x3bd5bb6e	0.0065225875
170	0x3e37cf27	0.17950116
171	0x3d523b79	0.05132625
172	0xbd4ab492	-0.04948861
173	0x3ee85209	0.45375088
174	0xbb3725f4	-0.0027946206
175	0xbe82e309	-0.2556384
176	0xbc4bd0e5	-0.012439941
177	0x3b23b6e5	0.002498084
178	0x3cbcd85b	0.023052385
179	0x3dda69cb	0.1066471
180	0xbe3d58c0	-0.18490887
181	0x3ea8b972	0.32953984
182	0xbc6c5f96	-0.014427086
183	0x3a9e001d	0.0012054477
184	0xbe7fdda0	-0.24986887
185	0x3e0f2239	0.13977899
186	0x3da6cfe1	0.081451185
187	0xbd853c66	-0.06505661
188	0x3ce947d8	0.02847664
189	0xbe386216	-0.18006167
190	0xbda629d1	-0.081134446
191	0x3d169830	0.03676623
192	0xbe0bbc0e	-0.13645956
193	0xbe281c61	-0.16417076
194	0xbe4d557b	-0.2005214
195	0x3e128f75	0.14312537
196	0xbc842400	-0.016130447
197	0xbdf4b65b	-0.11948844
198	0xbdb30675	-0.08741466
199	0x3d0fdd18	0.03512296
200	0xbd7442f9	-0.059634183
201	0x3d9ea78c	0.07746801
202	0xbd40505b	-0.046951633
203	0x3d1a9c32	0.037746616
204	0x3da43691	0.0801822
205	0xbe23d4f4	-0.15999204
206	0x3d3c2247	0.045931127
207	0x3e19d710	0.15023446
208	0xbd7f0979	-0.062264893
209	0x3d5d5780	0.054038525
210	0xbe36e0a0	-0.17859125
211	0xbda165d3	-0.078807496
212	0x3d8ef6aa	0.06980641
213	0xbd07349d	-0.03300916
214	0xbe141ac6	-0.14463338
215	0xbd3202cd	-0.043459702
216	0x3dcfa506	0.101388976
217	0xbe0986eb	-0.13430373
218	0x3da9a0b3	0.08282604
219	0x3e2fcdf6	0.17168412
220	0xbd2314f5	-0.039814908
221	0xbd815272	-0.06314553
222	0xbdb82d30	-0.08992994
223	0x3d411bb6	0.047145568
224	0x3e26a5a7	0.16274129
225	0x3df40e38	0.119167745
226	0x3d6d01f1	0.05786318
227	0xbe0432e9	-0.12910046
228	0xbe1dc3a0	-0.15406656
229	0x3d9c36ec	0.07627663
230	0xbe25b928	-0.16183913
231	0x3d9842ea	0.07434638
232	0x3d197c60	0.03747213
233	0x3c944ae9	0.018102126
234	0xbd7eb4b0	-0.062184036
235	0xbda6f280	-0.08151722
236	0x3e01c91f	0.12674378
237	0xbcac651c	-0.021044306
238	0xbce2e6d2	-0.027697954
239	0xbdc575e8	-0.096416295
240	0xbcfc7f44	-0.030822404
241	0x3deb2edc	0.11483547
242	0x3df68a3a	0.120380834
243	0xbc3e5e18	-0.011619113
244	0x3e053925	0.1301008
245	0xbe408e9d	-0.18804403
246	0xbc297504	-0.01034284
247	0xbc66215c	-0.014046039
248	0xbdc5cb35	-0.09657899
249	0x3d23d2b5	0.039995868
250	0xbc088670	-0.008332834
251	0x3ce3c8b8	0.027805671
252	0x3d1f0316	0.038821302
253	0x3dd9cc54	0.106346756
254	0x3cce65ef	0.02519509
255	0x3d980fdf	0.07424902

network_body.linear_encoder.seq_layers.2.bias f4 [256]
0	0xbc49c0c2	-0.012314023
1	0xbb336775	-0.0027374898
2	0xbbe7363b	-0.0070560253
3	0xbbed73c9	-0.0072464687
4	0xb0c7a8aa	-1.4527093e-09
5	0xbc1e0f3d	-0.009647188
6	0xbb9eaf39	-0.0048426655
7	0xba888286	-0.0010414876
8	0xbb99c0c8	-0.004692171
9	0xbbf5263c	-0.0074813645
10	0xbadb3cab	-0.0016726454
11	0xbb8d35ef	-0.004309408
12	0xbc29fc3b	-0.010375078
13	0xbc1fbd19	-0.009749674
14	0xbba6a306	-0.005085352
15	0xbbbfb2bb	-0.0058501638
16	0xbb7a0e90	-0.0038155653
17	0xbb3f02f5	-0.002914605
18	0xbbbd9cd6	-0.0057865186
19	0xbc45fc38	-0.012084059
20	0xbc3418e3	-0.010992262
21	0xbb6c1382	-0.003602237
22	0xbb4f7cd3	-0.0031660094
23	0xbb98c2ec	-0.0046619084
24	0xbc5de408	-0.013543136
25	0xbabe6fe3	-0.0014529194
26	0xbc80fbb1	-0.015745016
27	0xbbde5338	-0.006784823
28	0xbb90ff84	-0.004424991
29	0xbc0c5b09	-0.008566626
30	0xb915c829	-0.00014284313
31	0xbb46e2a6	-0.0030347495
32	0xbc23743a	-0.009976441
33	0xbc37f205	-0.011227136
34	0xbbb4cef0	-0.005517833
35	0xbbcc4de6	-0.006234872
36	0xbc65e4ab	-0.0140315695
37	0xbb9eb5ed	-0.0048434646
38	0xbabbdd64	-0.0014332947
39	0xbb90cc3f	-0.0044188793
40	0xbb169a72	-0.002298024
41	0xbc178c60	-0.009249777
42	0xbc08e7ad	-0.008356017
43	0xbaeea5e4	-0.0018207398
44	0xbb96accc	-0.0045982357
45	0x3606436c	2.00068e-06
46	0xbbefea40	-0.007321626
47	0xbbd6444e	-0.0065389043
48	0xbc007944	-0.007841412
49	0xbb3410c0	-0.0027475804
50	0xbc268596	-0.010163685
51	0xbc119991	-0.008886711
52	0xbb8d4689	-0.004311387
53	0x3ad8d449	0.0016542758
54	0xbb8d63f1	-0.0043148925
55	0xb8edc916	-0.00011338496
56	0xbb58dc63	-0.0033090345
57	0xbb8bae7b	-0.004262743
58	0xbab6cbf4	-0.0013946281
59	0xb1e5bc7e	-6.6862063e-09
60	0xbae64746	-0.0017568849
61	0xbc437b69	-0.011931279
62	0x36425560	2.8957948e-06
63	0xbb846a35	-0.004040981
64	0xbc17643c	-0.009240206
65	0xbb26de4f	-0.0025462096
66	0xbbe5ab80	-0.00700897
67	0xbc3924af	-0.01130025
68	0xbc264bb8	-0.010149889
69	0xbc05bcb8	-0.00816267
70	0xbc01ccde	-0.007922379
71	0xbbc4ef02	-0.0060099373
72	0xbb6d2db1	-0.0036190564
73	0xbb83fda6	-0.00402804
74	0xbba822a1	-0.005131081
75	0xbb9606a6	-0.0045784293
76	0xbb9245d2	-0.0044638896
77	0xbc5243d6	-0.012833556
78	0xb12777de	-2.4369835e-09
79	0xb86a79ff	-5.5903565e-05
80	0xbbc963bc	-0.0061459225
81	0xbbef08c6	-0.007294747
82	0xbc14de34	-0.0090861805
83	0xbc56f359	-0.013119542
84	0xbc38cf66	-0.011279916
85	0xbc057f8d	-0.008148086
86	0xbbc08dc0	-0.005876273
87	0xbb993fb0	-0.0046767816
88	0xbb2de310	-0.0026533045
89	0xbc31ed41	-0.010859788
90	0xbc12ff07	-0.008971936
91	0xbbdad91f	-0.006678715
92	0xbb9f25ed	-0.004856816
93	0xbb948c80	-0.0045333505
94	0xaf14fe8f	-1.3550959e-10
95	0xbc4bd585	-0.012441044
96	0xbb6ac891	-0.0035825113
97	0xbc0c6d94	-0.008571047
98	0xbb646b9f	-0.0034854186
99	0xba94d92e	-0.0011356228
100	0xb50d6312	-5.267076e-07
101	0xbb9e81af	-0.004837237
102	0xbc2755f8	-0.010213368
103	0xba6776a4	-0.00088296295
104	0xbc9bb277	-0.019005997
105	0xba69d453	-0.00089198834
106	0xaeeb115b	-1.0689646e-10
107	0xbbb3fc11	-0.005492695
108	0xbba6ccf3	-0.00509035
109	0xbbe13b9a	-0.00687356
110	0xbb78ac86	-0.003794463
111	0xbb9fc8ee	-0.0048762476
112	0xbc154447	-0.009110517
113	0xbbb4ccb3	-0.005517566
114	0xbae58742	-0.0017511623
115	0xbadad18f	-0.0016694533
116	0xbb16317b	-0.0022917676
117	0xba5ddf9f	-0.0008463803
118	0xbb5fac0b	-0.0034129645
119	0xbb60ee75	-0.003432182
120	0xbbfe7b23	-0.007766144
121	0xbc050de0	-0.008120984
122	0xbc02503a	-0.007953698
123	0xbc33dffd	-0.010978696
124	0xbb6388d5	-0.003471901
125	0xbc04b6e6	-0.008100247
126	0xbc8dc46b	-0.017305573
127	0xbc474c02	-0.012164118
128	0xbbb7a296	-0.0056040986
129	0xbb29b039	-0.002589239
130	0xbbcbb8a7	-0.0062170806
131	0xbb9d25bd	-0.0047957585
132	0xb99e50cc	-0.00030196307
133	0xbbcef783	-0.006316127
134	0xbc378057	-0.011200032
135	0xbc1dc5c4	-0.0096296705
136	0xbb9bc41f	-0.004753604
137	0xb9051ae3	-0.00012693884
138	0xbbf3723b	-0.007429389
139	0xb2518383	-1.2195303e-08
140	0xbc3baa62	-0.011454197
141	0xbbd66cf9	-0.0065437523
142	0xbbd866cb	-0.0066040508
143	0xbb56cca6	-0.0032775789
144	0xb1dfebf1	-6.5169776e-09
145	0xbb388107	-0.0028153078
146	0xb7ad857a	-2.0685362e-05
147	0xba668684	-0.0008793848
148	0xbc0ad377	-0.008473269
149	0xbb86e6b4	-0.0041168574
150	0xbc8ae573	-0.016955113
151	0xbbb83033	-0.00562098
152	0xbb00a8bf	-0.001963183
153	0xb601f541	-1.9365255e-06
154	0xb93b496b	-0.0001786106
155	0xbb985182	-0.0046483884
156	0xb81fb0a9	-3.807308e-05
157	0xbbe854e4	-0.007090198
158	0xbb42a53b	-0.0029700536
159	0xbb89b94c	-0.0042029973
160	0xbc14039c	-0.009034064
161	0xbb2637b6	-0.0025362796
162	0xbc8dc734	-0.017306902
163	0xbb67409b	-0.003528631
164	0xbbf5fbeb	-0.0075068376
165	0xbc757195	-0.014980693
166	0xbbe002b9	-0.006836262
167	0xbc09af27	-0.008403576
168	0x3238a537	1.0747775e-08
169	0xbba61559	-0.005068463
170	0xbbba08e0	-0.0056773275
171	0xbc024cc0	-0.007952869
172	0xbb9668bf	-0.0045901234
173	0xbb967921	-0.0045920764
174	0xbabacd2b	-0.0014251819
175	0xbc127a45	-0.008940284
176	0xbc8c3c79	-0.01711868
177	0xbb893eda	-0.0041884007
178	0xba929c70	-0.0011185538
179	0xbbff6eac	-0.0077951755
180	0x3be268b8	0.006909456
181	0xbb203440	-0.0024445206
182	0xb8d84a56	-0.00010313529
183	0xbbbed0be	-0.005823224
184	0xbbcb63a6	-0.0062069474
185	0xb994b2f0	-0.0002836208
186	0xbbb4bb7c	-0.005515514
187	0xb9ea71fc	-0.00044716883
188	0x3101f6fe	1.891237e-09
189	0xbb41970d	-0.0029539496
190	0xb7912f7c	-1.7307459e-05
191	0xbbb1321a	-0.005407584
192	0xbb851357	-0.0040611434
193	0x31ffbc14	7.4428588e-09
194	0xbbfe741d	-0.0077653066
195	0xbc192418	-0.009346984
196	0xbb8e2040	-0.0043373406
197	0xb7bfdf81	-2.2873051e-05
198	0xbc1f06f6	-0.009706249
199	0xbc222dab	-0.009898583
200	0xbaf57a71	-0.0018728507
201	0xbb88baa6	-0.004172641
202	0xbc11896f	-0.008882864
203	0xbc617581	-0.013760925
204	0xbaa6fcb3	-0.0012740105
205	0xbba6e5bb	-0.005093304
206	0xbb9da78f	-0.0048112343
207	0xbb56bac4	-0.003276513
208	0x3011dbba	5.3062943e-10
209	0xbc36f19d	-0.0111660035
210	0xbb968c53	-0.0045943647
211	0xbabd7415	-0.0014454151
212	0xbb662dcd	-0.0035122514
213	0xbb86078c	-0.004090255
214	0xbbfeec0b	-0.0077796034
215	0xbacce67f	-0.0015632658
216	0xbb94aa34	-0.0045368914
217	0xbc2ffad7	-0.010740957
218	0xbbc2fc01	-0.0059504514
219	0xbb8bcc71	-0.0042663147
220	0xbc0199b9	-0.0079101855
221	0xbb8a69e3	-0.0042240485
222	0xbc3ba0f2	-0.011451947
223	0xbbe7742a	-0.0070634084
224	0xbc152010	-0.009101883
225	0xbc750a74	-0.0149561055
226	0x3247f4c9	1.1638982e-08
227	0x3046a988	7.22729e-10
228	0xbb9e0686	-0.004822555
229	0xbc291029	-0.010318794
230	0xbb905358	-0.0044044666
231	0x27cdabe6	5.7085303e-15
232	0xbc56c850	-0.013109282
233	0xbbee1ce7	-0.007266629
234	0x3add4e50	0.0016884301
235	0xbbd9033c	-0.0066227
236	0xb711c4a3	-8.688457e-06
237	0xbbcb5705	-0.006205442
238	0xbb95839b	-0.0045628077
239	0xae98c1c6	-6.946581e-11
240	0xbb6c9cab	-0.0036104124
241	0xbc3c9b66	-0.011511659
242	0xbbbbec93	-0.005734989
243	0xbbae718c	-0.0053235944
244	0xb49ad41d	-2.8839068e-07
245	0xbbaed290	-0.0053351596
246	0x32b08b8b	2.0552553e-08
247	0x2ccd7038	5.8389092e-12
248	0xbb164d69	-0.0022934324
249	0xb92c3f0a	-0.00016426682
250	0x2f12a7a3	1.3338179e-10
251	0xbb1840ed	-0.0023232058
252	0xbbb44973	-0.00550192
253	0xbbd367cb	-0.006451582
254	0xbc2abb7f	-0.010420679
255	0xbb267ae7	-0.0025402845

network_body.linear_encoder.seq_layers.2.weight f4 [256, 256]
0	0xbca03034	-0.019554235
1	0x3ddf49ca	0.10902746
2	0x3d1cf7a0	0.03832209
3	0xbe5aa65d	-0.21352525
4	0xbd40b7ea	-0.047050394
5	0xbde4e97c	-0.11177346
6	0xbd0e1c9b	-0.03469525
7	0xbd1a3dc1	-0.03765655
8	0x3e324ad0	0.17411351
9	0xbdd616a9	-0.10453541
10	0xbdb929c5	-0.0904117
11	0xbbe3add5	-0.0069482126
12	0x3dcd5de0	0.10027671
13	0x3d0496ae	0.03237026
14	0x3d9214b4	0.07132855
15	0x3da3fbae	0.080069885
16	0x3d644436	0.055729114
17	0x3e6cd01a	0.2312626
18	0x3e44fb7d	0.1923656
19	0xbd894f21	-0.06704546
20	0xbd818296	-0.063237354
21	0x3d97075d	0.07374451
22	0xbddebc15	-0.108757176
23	0x3da81596	0.08207242
24	0x3dbb67c5	0.09150652
25	0x3b5d9f0c	0.0033816723
26	0xbc9f2384	-0.019426115
27	0x3d873434	0.06601754
28	0x3d48820e	0.048952155
29	0x3cdec688	0.027194276
30	0xbb6a083e	-0.003571048
31	0x3d4cf80f	0.050041255
32	0xbd57818a	-0.052613772
33	0x3cf3d33d	0.029763812
34	0xbd7b86de	-0.061407916
35	0xbe16eabc	-0.14737982
36	0x3d962560	0.073313475
37	0xbcdc3149	-0.02687897
38	0xbd44761d	-0.047964204
39	0x3d335caa	0.043789543
40	0xbd4bf239	-0.04979155
41	0xbd641914	-0.05568798
42	0x3d99e320	0.07514024
43	0xbc060149	-0.008179017
44	0xbde0e36b	-0.109808765
45	0xbb445cb9	-0.0029962494
46	0xbd050d9d	-0.032483686
47	0xbc0c4b51	-0.008562879
48	0xbe1cbccf	-0.153064
49	0xbd9ec68c	-0.077527136
50	0xbd831081	-0.06399632
51	0xbe11989a	-0.14218369
52	0x3d0013ef	0.03126901
53	0xbd209b1c	-0.039210424
54	0x3dd24efa	0.1026897
55	0x3d9b21da	0.07574816
56	0x3d8a92e6	0.067663
57	0x3dae79ec	0.085193485
58	0xbd477ba3	-0.048701894
59	0x3db9d628	0.0907405
60	0x3d0002ed	0.03125279
61	0xbdb7d618	-0.08976382
62	0xbdd03311	-0.1016599
63	0x3cd02785	0.02540947
64	0xbdd8e984	-0.105914146
65	0x3d3af1a0	0.045640588
66	0x3df13f47	0.11779647
67	0xbcb5f63d	-0.022212142
68	0xbd9fd9c2	-0.07805206
69	0xbc461fba	-0.012092525
70	0x3d28172f	0.041037735
71	0xbcecd78f	-0.02891138
72	0x3caf6a68	0.021413043
73	0x3d318d23	0.04334749
74	0xbcf33c52	-0.029691849
75	0x3dc6d0be	0.09707783
76	0x3d79ab61	0.060954455
77	0xbd006634	-0.03134747
78	0xbd7f0499	-0.062260244
79	0xbdb0d767	-0.08634835
80	0x3e170de6	0.14751396
81	0x3d006347	0.03134468
82	0xbd0c8564	-0.0343069
83	0xbce12b37	-0.027486427
84	0xbd3a50ea	-0.045487322
85	0xbcdaeca3	-0.026724165
86	0x3c39c2c6	0.0113379415
87	0x3e02f808	0.12789929
88	0xbb6c6031	-0.0036068077
89	0xbd99a1e7	-0.075015835
90	0x3cdf8df0	0.02728936
91	0x3d8a0db8	0.06740898
92	0x3ca7b512	0.020472083
93	0xbd4c0ebe	-0.049818747
94	0xbdf09752	-0.11747612
95	0xbd33c55a	-0.04388938
96	0x3a8c808c	0.0010719462
97	0x3cd735dd	0.026270801
98	0x3d6fdff9	0.058563206
99	0xbd3017c9	-0.042991433
100	0xbc4d3342	-0.012524428
101	0xbe492711	-0.19643809
102	0x3d798ea8	0.060927063
103	0xbd3ca78d	-0.046058226
104	0x3bd6dc7b	0.006557045
105	0xbdb95528	-0.090494454
106	0xbd82620e	-0.06366359
107	0x3da00206	0.07812886
108	0xbc1ae9fb	-0.009455199
109	0x3dd452fc	0.103673905
110	0x3d8310c3	0.063996814
111	0x3a1199cd	0.0005554229
112	0x3dcfced3	0.101468705
113	0xbbeb542b	-0.0071816645
114	0x3d07a358	0.03311476
115	0x3d4147d2	0.047187634
116	0x3b04b77b	0.0020250964
117	0x3dcf1f5a	0.10113402
118	0x3bf36091	0.007427283
119	0x3d4cadc7	0.049970414
120	0xbd731b89	-0.05935243
121	0x3d780bfe	0.06055831
122	0xbd64d5c5	-0.05586793
123	0xbe05178f	-0.12997268
124	0xbd04fc5f	-0.032467242
125	0xbc19d121	-0.009388239
126	0xbd136aea	-0.035990633
127	0x3d50a178	0.05093524
128	0x3e039e82	0.12853435
129	0x3da2fd8b	0.07958516
130	0xbdc566c5	-0.09638742
131	0xbd92ccf0	-0.07167995
132	0x3c0a51b7	0.008442334
133	0x3d891473	0.066933535
134	0xbd55c72b	-0.052191895
135	0xbd290ca9	-0.04127184
136	0x3d1dc642	0.03851915
137	0xbce5e95e	-0.02806538
138	0xbcdfcd6d	-0.027319634
139	0xbd3c2ab1	-0.04593915
140	0xbbcebdec	-0.0063092615
141	0x3dea5bbb	0.114432774
142	0xbd755a76	-0.059900723
143	0x3d743fef	0.059631284
144	0x3e74d972	0.23911074
145	0x3cd171ee	0.025567021
146	0x3df6628b	0.12030514
147	0xbd31cc30	-0.04340762
148	0xbd31dd31	-0.043423835
149	0x3cb125e4	0.021624513
150	0xbd9fedfe	-0.07809065
151	0x3d61da61	0.055139903
152	0xbce445c4	-0.027865298
153	0xbd98e2aa	-0.07465108
154	0x3e271dd1	0.16319968
155	0x3d19272b	0.03739087
156	0x3dac7b02	0.084218994
157	0x3d36e993	0.044656347
158	0x3dbc5c50	0.09197295
159	0x3d133b0e	0.03594499
160	0x3c82fcfa	0.01598977
161	0x3b826f4d	0.0039805532
162	0xbb9f317f	-0.0048581953
163	0xbc60e546	-0.013726538
164	0x3df4f648	0.11961037
165	0x3ccc18f9	0.024914252
166	0xbdba0421	-0.09082819
167	0x3cfae16e	0.030625071
168	0x3d20a33a	0.039218165
169	0x3daad07c	0.083405465
170	0x3d0a48a5	0.033760685
171	0x3d80996b	0.06279262
172	0x3acbe827	0.0015556858
173	0x3d02a79f	0.031898137
174	0x3dbee564	0.093210965
175	0x3e869d9f	0.2629213
176	0xbe2abcbc	-0.16673559
177	0x3cf8e750	0.030383736
178	0x3d3b6520	0.045750737
179	0x3c410935	0.01178198
180	0x3de9465c	0.11390373
181	0x3d371385	0.04469635
182	0xbd5b3a85	-0.053522605
183	0x3e0e8f2a	0.139218
184	0x3e330ecb	0.17486112
185	0x3acbb377	0.0015541156
186	0xbc5872bf	-0.013210951
187	0x3c91b119	0.017784642
188	0xbd92d223	-0.07168987
189	0xbcdfc180	-0.027313948
190	0xbd75939a	-0.059955217
191	0x3d7f36d6	0.062308155
192	0xbd1765be	-0.036962263
193	0xbcdc09b6	-0.0268601
194	0xbd07fbe2	-0.0331992
195	0x3d46073b	0.04834674
196	0x3c8c2b1b	0.017110398
197	0xbd2a2513	-0.041539263
198	0x3d4c5573	0.04988618
199	0xbddc41ee	-0.107547626
200	0xba89a2cd	-0.0010500789
201	0x3c0c3cb3	0.008559394
202	0x3c95858b	0.018252155
203	0x3d9885e9	0.07447416
204	0x3dbbb62f	0.09165608
205	0xbd0c216b	-0.034211557
206	0xbc914524	-0.017733164
207	0xbda35cd4	-0.0797669
208	0x3cb479ce	0.022030737
209	0xbcc4d6a6	-0.024028134
210	0x3e023057	0.12713753
211	0xbcb3c545	-0.021944651
212	0xbd9e629d	-0.07733653
213	0x3d2f09bc	0.042733893
214	0xbcfeb366	-0.031091403
215	0xbc2eba85	-0.010664587
216	0xbd5caea3	-0.053877484
217	0xbdab5a79	-0.08366866
218	0x3db4bbff	0.0882492
219	0x3c3d6c6f	0.011561497
220	0x3ba3c133	0.0049973964
221	0xbdba00f3	-0.09082212
222	0xbceb526f	-0.02872583
223	0xbb4ef6c2	-0.0031580185
224	0x3dce73e7	0.100807
225	0xbd336f75	-0.043807466
226	0xbd1b2db2	-0.037885375
227	0x3cd68583	0.02618671
228	0xbd639789	-0.055564437
229	0xbdf53616	-0.11973207
230	0xbbcf4151	-0.006324925
231	0xbda2b03c	-0.0794377
232	0x3dd563f3	0.104194544
233	0x3ba13d9f	0.004920676
234	0x3ba910bd	0.005159466
235	0xbd8a5d2d	-0.06756053
236	0xbda74ac2	-0.08168556
237	0x3cf971a3	0.030449694
238	0x3dd32b34	0.10310975
239	0x3c4ea3e3	0.012612316
240	0x3dd40b43	0.103537105
241	0x3dfb14f5	0.122598566
242	0x3e0c61ca	0.13709179
243	0xbc5eb7b1	-0.0135936
244	0xbd9dd63c	-0.077068776
245	0xbd19d194	-0.037553385
246	0x3db1ebf6	0.08687584
247	0x3df94067	0.12170487
248	0xbdca0814	-0.09864822
249	0x3e2b6c78	0.16740596
250	0x3b21f7c2	0.0024714326
251	0xbcd9191a	-0.026501227
252	0xbd84d246	-0.06485419
253	0xbd67a285	-0.056551475
254	0x3dad7e7b	0.0847139
255	0xba9a8cbc	-0.001179121
